Network2/paramsPre/cnn_wParams11.pth (torch_old, 61109 bytes, 26 tensors)

weight f4 [16, 3, 2]
000000 8d 08 3c be 1b e8 8f 3e 50 c7 33 3c eb 7a 44 3d
       -0.18362637 0.2810677 0.010972813 0.047968786
000010 3e bc 8c 3e 48 ec 8d be df 5a d1 3b 1f 37 0a bd
       0.27487367 -0.2771933 0.0063890065 -0.033743974
000020 1e 97 0b bc bd 41 66 3f d4 b0 35 3d c0 78 ac bb
       -0.008519916 0.8994406 0.04435809 -0.005263418
000030 d5 bb 82 be f7 48 91 be 1d c1 6c bd 46 b9 58 be
       -0.2553393 -0.2837598 -0.057801355 -0.21164426
000040 7b c5 06 3e 3f 33 ae 3e 4e 58 a7 be 99 fc e3 be
       0.1316127 0.34023473 -0.3268456 -0.44528654
000050 f7 c1 f0 3e 5a 40 1a 3f 14 00 c2 be 7d d2 45 be
       0.47022983 0.6025444 -0.37890685 -0.19318576
000060 db ed a7 3e d3 2f 86 3d 8b 60 35 bf 6a d7 95 be
       0.32798657 0.065520905 -0.7085044 -0.2926591
000070 d8 90 a0 3d bd 84 78 3c ab 87 9d be 95 c0 57 be
       0.07840127 0.015168366 -0.3076757 -0.21069558
000080 10 c2 ea 3e 62 78 00 be 8c 4a 76 be ef 2d c6 be
       0.45851183 -0.12545922 -0.24051875 -0.3870692
000090 19 26 76 3d a1 c5 0a 3e de 90 6f 3c 5e 21 37 3f
       0.060094927 0.13551952 0.014621941 0.7153529
0000a0 b4 55 8a 3e 26 f8 b6 3e a9 d5 3e 3e ce 0e 24 bd
       0.2701851 0.35736197 0.18636192 -0.04005318
0000b0 e2 03 69 3e f5 29 10 3f 55 d4 33 be d0 b5 cf 3d
       0.22755387 0.5631402 -0.17561467 0.101421
0000c0 80 32 85 be e5 e1 81 3e c4 41 d7 be a1 8f 04 3f
       -0.2601509 0.25367656 -0.42042363 0.5178166
0000d0 76 c7 06 3e d9 0e 87 bd 56 44 5b 3e 7a d2 27 be
       0.13162026 -0.06594629 0.21412787 -0.16388884
0000e0 99 7c fe be e8 83 4e be 3b 10 c8 be e3 66 24 be
       -0.49704435 -0.20167506 -0.39074883 -0.16054873
0000f0 89 04 cf 3c 2c 6c 74 3e 5c 47 9e be 10 70 c9 3e
       0.025270717 0.2386939 -0.30913818 0.3934331
000100 a7 1b 0e be 86 f2 d0 be d6 c1 0d 3d 91 8e 62 3e
       -0.13877736 -0.4081003 0.034608684 0.22124697
000110 85 ab 23 bf d8 d9 43 3d b3 2a 32 be e4 5a 3b 3e
       -0.63933593 0.047815174 -0.17399101 0.18296391
000120 28 07 88 3e 94 90 5c 3e 28 ba 2f be fd 63 20 3e
       0.2656796 0.21539527 -0.17160857 0.15663143
000130 7d 08 56 3e 0f b3 9a be 3a d9 c2 bc 01 ea d7 bb
       0.20901676 -0.30214736 -0.023785222 -0.0065891747
000140 8e c4 cc be 22 4e b8 be f0 f5 88 bc 15 4a f7 bb
       -0.3999371 -0.3599711 -0.016718835 -0.007546673
000150 38 f4 89 3e b6 16 9c 3e 37 62 0c 3f 2c dd 94 be
       0.26944137 0.30486077 0.54837364 -0.2907499
000160 42 20 17 be 6f ca d5 bd 93 bd 8a 3d 5b 50 33 bd
       -0.14758399 -0.10439002 0.0677444 -0.043777805
000170 6f b2 d6 3e 9a 3d 80 bd bb 3d a8 bd 12 8e c4 3d
       0.4193301 -0.062617496 -0.08214899 0.0959741

bias f4 [16]
000000 03 be 5d be 39 1b b0 be 03 03 cf bd 14 3b c7 bc
       -0.21654515 -0.3439577 -0.10107996 -0.024320163
000010 bd 2e 05 bf 47 fb df bd 82 96 3b 3e 35 3c 5d 3e
       -0.5202444 -0.10936599 0.18319133 0.21604998
000020 a2 a2 d5 3e a2 1f fc be 05 92 ce be b8 d3 96 3e
       0.4172564 -0.49242884 -0.4034578 0.29458404
000030 e1 69 85 3e 2a 87 39 be 92 d1 8f 3e 40 a3 30 3d
       0.26057342 -0.18117967 0.28089577 0.043124437

weight f4 [16]
000000 99 cd 3d 3f b9 05 5c 3f 5d a3 99 3e b2 fd 57 3f
       0.7414184 0.8594623 0.3000745 0.84371483
000010 96 58 1c 3f a5 88 22 3e 4f fb 4d 3f 18 06 23 3f
       0.6107267 0.15872438 0.8046159 0.63681173
000020 48 3e 2c 3f 4e 96 27 3f 2e 30 55 3f fd 8e 40 3f
       0.67282534 0.6546372 0.8327664 0.7521818
000030 3d fe a6 3e 00 dd 20 3f 71 57 83 3f 6e ab 03 3f
       0.32615843 0.6283722 1.026106 0.51433456

bias f4 [16]
000000 58 80 b8 bd 4e 4b 36 bb 16 55 0e be 30 ad fd bd
       -0.09008855 -0.0027815881 -0.13899645 -0.123865485
000010 0e af af 3c 80 84 d8 bd 71 49 27 3d 49 6e f0 bd
       0.021445777 -0.10572147 0.040841524 -0.11739785
000020 f0 d6 fb bb 4b 29 2a be d2 70 1a bc 08 17 0f 3d
       -0.0076855347 -0.16617315 -0.0094263125 0.034934074
000030 41 a8 14 be 06 c4 92 bc 38 c3 49 be 28 f6 03 3d
       -0.14517309 -0.017915737 -0.19703376 0.032217175

running_mean f4 [16]
000000 ac 9e 42 be 75 6a b1 3d 50 32 ae 3f 73 9b 00 c0
       -0.19005841 0.08662883 1.3609104 -2.0094879
000010 72 c5 c3 be 40 23 1e c0 d8 90 32 40 28 69 88 3e
       -0.38236576 -2.4709015 2.7900906 0.26642728
000020 2c cb 2e 3f d6 e1 2d c0 d7 d7 12 c0 fd d3 68 3e
       0.68278766 -2.716909 -2.2944238 0.22737117
000030 61 ee 74 3d 3b 7e 08 bf 11 c6 b9 be 5f 03 67 3e
       0.05979765 -0.5331761 -0.36283925 0.2255988

running_var f4 [16]
000000 91 1e 68 3e fa 5f 5c 3d b6 ac ed 3d 68 4f 3a 3e
       0.2266791 0.053802468 0.116052076 0.18194354
000010 2f df 4c 3d 63 2f 16 3e b1 f1 07 3e c3 80 ab 3d
       0.050017532 0.14666514 0.13275792 0.08374169
000020 2d e3 dc 3d 0b d5 03 3e 5a 54 2a 3e 25 d0 04 3e
       0.10785518 0.12874238 0.1663374 0.12970026
000030 69 6b 52 3e b6 3b 37 3c 69 27 9d 3d 51 cc 1c 3d
       0.20548786 0.01118367 0.076735325 0.03828079

weight f4 [32, 16, 1]
000000 5d 54 3e 3e ef eb 93 bc 4f 21 d1 3d dc af 75 3e
       0.1858687 -0.018056838 0.10211431 0.23992866
000010 ca 53 74 be f7 35 c4 bd 15 9f f8 3d a8 d6 0a be
       -0.23860088 -0.095806055 0.121397175 -0.13558447
000020 8e df 02 3f ce 10 5f bd 08 b0 47 3d 3a 7e d7 bc
       0.5112237 -0.054459386 0.04875186 -0.026305307
000030 81 a9 b6 bd ff fa c8 bd eb d5 c8 bd b5 9e 93 3d
       -0.08919049 -0.09813499 -0.098064266 0.07208005
000040 87 fd 6c 3d ae d6 99 3c 11 d8 63 3e 3f 36 f0 be
       0.05785897 0.018779125 0.22250392 -0.46916386
000050 00 74 32 bd ac b7 3b 3e d8 14 82 3e 84 14 0a be
       -0.043567657 0.18331784 0.25406528 -0.13484389
000060 7b 46 27 be af f0 dd bc de 60 f1 bd 61 80 16 3e
       -0.1633548 -0.027092306 -0.11786054 0.1469741
000070 05 1e 8a 3e c3 d3 2a be 1c 95 d3 3d 93 65 78 3c
       0.26976028 -0.16682343 0.10331175 0.015160936
000080 d1 02 6c 3d 7f b2 a5 be d9 fa 30 3e 55 82 88 3d
       0.057619873 -0.32362744 0.17283191 0.06665484
000090 22 9c 93 bd 0b 8a 19 3e d7 c2 df 3d 37 78 27 be
       -0.07207514 0.14994065 0.109258346 -0.16354452
0000a0 68 b6 a5 be 45 2e 82 bd 04 07 fe 3d c2 60 6b be
       -0.32365727 -0.063564815 0.12403682 -0.22986129
0000b0 a4 cc 4a 3e bd d9 77 be 4f d1 ec be dc 5e 34 3e
       0.19804627 -0.24204154 -0.4625344 0.17614311
0000c0 af d3 b9 3d 9c 63 2f 3d 1c d2 ae 3b 60 ea 6d 3d
       0.090735786 0.042819604 0.0053351056 0.058084846
0000d0 1f 20 8b 3e 3b dd 41 bd 5c 62 aa bd b6 0e 81 bd
       0.27172944 -0.047330122 -0.08319542 -0.06301634
0000e0 00 3a 25 3e 67 e0 67 3e 61 20 d9 bc 22 2e 7a 3d
       0.16135406 0.22644196 -0.026504697 0.061079152
0000f0 e9 37 47 3b e3 7f ef be 24 26 c8 be 62 ef 21 3e
       0.0030398315 -0.46777257 -0.390916 0.15813974
000100 16 b9 38 be 63 6f 38 be 0c dc 13 be 01 f6 23 be
       -0.18039355 -0.1801124 -0.1443941 -0.16011812
000110 ba fe cc bd a9 c0 c8 3e 85 25 3a 3d 40 4f 75 bb
       -0.10009523 0.39209488 0.045445938 -0.003743127
000120 f5 45 94 be 35 46 a8 be 48 40 45 3e 19 ba ed bc
       -0.28959623 -0.32866064 0.19262803 -0.029019402
000130 cd 45 91 3e ab b6 16 3e b7 6c 10 3e 5c c5 53 3e
       0.28373566 0.1471812 0.14103971 0.20680755
000140 4c 7e da 3c e7 ec d6 bd a2 44 ad 3d a4 da 07 3d
       0.026671551 -0.10494404 0.08460356 0.033167496
000150 1e 8d 8c 3e c4 2a e6 bd ff fa 56 be 82 f5 f2 bd
       0.27451414 -0.11238626 -0.20994185 -0.11863233
000160 14 c6 e8 bd 16 57 48 bd 94 01 3b be 29 ba c9 bd
       -0.113659054 -0.048911177 -0.18262321 -0.0984996
000170 78 42 98 3e ea 9f 9a be 5f cf 92 3d db 90 97 3c
       0.29738212 -0.3020013 0.07168459 0.01850169
000180 6d b9 56 be 01 43 41 be 3d ee 8e 3e 4e 23 19 be
       -0.20969172 -0.18873216 0.27916136 -0.14954874
000190 a4 59 3a 3e d5 33 59 bb 55 6f d7 3c dd 6f ee bd
       0.18198258 -0.0033142467 0.026298204 -0.1164243
0001a0 e3 74 71 be 57 40 15 3e 0a 3b 59 3e de d6 01 3e
       -0.23579745 0.14575325 0.21213928 0.12679622
0001b0 b2 3c 89 3e ac ed f1 bd 8f a4 a3 be ac 0f 33 be
       0.2680412 -0.118129104 -0.31961486 -0.17486447
0001c0 13 cf 31 be e1 1c a3 3e a9 03 a5 3e 63 90 82 3e
       -0.17364149 0.3185797 0.32229355 0.25500783
0001d0 ad a9 7b be 55 4d 32 3e 7c 2d 49 3e a1 f7 46 3d
       -0.24576445 0.17412312 0.19646257 0.048576
0001e0 a0 fa 3a 3e 15 9b 68 bd 83 b8 4c 3e 9d 99 e3 3d
       0.18259668 -0.056788523 0.1999226 0.11113284
0001f0 24 35 b0 3d 62 55 31 be f0 fc 0a bd c8 fb 37 3e
       0.08603886 -0.17317727 -0.033932626 0.1796714
000200 7d 93 0b be 24 7d b2 3d b6 16 14 3e 07 5a f2 bb
       -0.13630481 0.08715275 0.14461789 -0.007395986
000210 15 66 47 3d 5a c0 17 3e c2 e0 38 3e fb e6 7a bd
       0.048681337 0.1481947 0.18054488 -0.061255436
000220 34 14 f9 3d 36 a6 97 3e dd 55 71 3c a9 47 ac bd
       0.121620566 0.29618996 0.014729944 -0.084121056
000230 3d 54 26 be ee d6 9e 3e 92 08 2b be d3 7e d7 be
       -0.16243072 0.31023353 -0.16702488 -0.42088947
000240 93 77 4c 3c 5c 14 f0 3c de ca 09 3e e6 d1 c7 3e
       0.012479681 0.029306583 0.13456294 0.39027327
000250 30 4b 25 be bd 7c 52 be 11 a8 7e 3d 84 77 19 bd
       -0.16141963 -0.20555396 0.062172 -0.037467495
000260 1e 00 7f 3e d4 e0 72 3e f0 f7 e4 3c d9 3c 0c 3d
       0.24902388 0.23718578 0.027950257 0.034237716
000270 26 1b a1 3d e8 86 d3 bd 9d 9c 60 3e 5e fc 83 be
       0.07866506 -0.10328466 0.21934743 -0.25778478
000280 c8 bc 8c bd e9 1a 3a 3d c8 7e 27 3e db d9 03 3e
       -0.06871945 0.04543582 0.16356957 0.12876074
000290 d5 d1 27 3e 09 ab b3 bc b6 35 22 bd e6 ed a4 3e
       0.16388638 -0.021932142 -0.039602004 0.32212752
0002a0 23 14 8d be f3 95 9b 3e 0e 9c 8e 3e d5 b6 69 3c
       -0.27554426 0.3038784 0.27853435 0.014264782
0002b0 7e 5c dd be fe b3 00 3e cb 2e 6c 3d ef 32 54 3c
       -0.43234628 0.12568662 0.057661813 0.012951597
0002c0 1c af 98 3d 29 f5 de 3d 5c d2 05 be e5 92 24 3e
       0.074552745 0.10886604 -0.13068527 0.16071661
0002d0 f2 3f 6c bb de 11 70 3e c8 c8 7c be 47 a0 04 bf
       -0.0036048857 0.23444316 -0.24685967 -0.51807064
0002e0 eb c5 2b be 74 97 66 bd 85 b1 8e 3e e0 0b 6a be
       -0.16774718 -0.05629678 0.27869812 -0.22856092
0002f0 3c 97 51 3e 6f 30 00 bd 54 a5 93 3d a0 e9 1e be
       0.20467848 -0.03129619 0.07209268 -0.15518808
000300 0e ce 0c 3e 03 6e 40 3e b6 d0 99 bd ab 24 0f 3e
       0.13750479 0.18791966 -0.075105116 0.13978831
000310 02 b7 3b 3e b7 b3 45 3d 3e 8d 3b 3d 46 7e bc be
       0.1833153 0.048267093 0.045788996 -0.3681509
000320 e8 31 d7 3c 69 46 28 3e 15 96 99 3d 7d 15 a5 3d
       0.026268914 0.1643311 0.07499329 0.08060739
000330 f9 21 4f 3e e1 61 17 bd 8d 2d 54 3e af 3a a9 3e
       0.20227803 -0.03695858 0.20720501 0.33052585
000340 5a 3c 2d be de 4c f1 3d 11 82 f7 3d d8 ea 8f 3e
       -0.16917554 0.117822394 0.12085355 0.2810886
000350 0e 96 18 bd fc 2e 40 3c df dd 0c bc c5 d2 d6 3e
       -0.03725248 0.011729952 -0.00859782 0.4195768
000360 7b d3 ee 3d 54 08 97 3e f7 c3 07 3e fe 2f d0 bd
       0.116614304 0.2949854 0.13258348 -0.10165404
000370 2d 27 05 bb e7 fb 00 be 65 05 a3 bc 6b 75 18 be
       -0.002031754 -0.12596093 -0.019900033 -0.14888541
000380 9c 89 fd bc 62 4b 8c 3e e5 4e 17 be 3a 80 8f bd
       -0.030949406 0.27401263 -0.1477619 -0.07006879
000390 00 11 10 3e a3 05 81 3d 87 db 49 3e 0a 6a 1c be
       0.14068985 0.06299903 0.1971265 -0.15274826
0003a0 6a 40 87 be 72 1d 91 3e 8d 02 f7 bc 80 36 70 be
       -0.26416332 0.28342777 -0.030152583 -0.2345829
0003b0 5b a8 38 3e bb c3 d0 3c 12 32 9c be af 5e a0 be
       0.18032973 0.025483957 -0.3050695 -0.31322238
0003c0 75 fb 90 3d 0c 83 3c bd d7 84 ca bd be 0f 47 be
       0.070792116 -0.046023414 -0.098886184 -0.19439599
0003d0 99 e3 ce 3d 14 d8 54 be b1 85 6a 3e 84 82 77 3d
       0.101020046 -0.20785552 0.22902562 0.060427204
0003e0 28 e9 00 be 4e 16 b7 bd f8 51 61 be 98 bd dc 3c
       -0.12588942 -0.08939801 -0.22003925 0.026945874
0003f0 4a 89 51 be af d8 4b 3e dd 3a a3 be 11 5f 05 be
       -0.20462528 0.19906877 -0.31880847 -0.13024546

bias f4 [32]
000000 b8 30 96 3d 96 8e 54 3e f7 c1 0b bd 83 66 2c 3e
       0.07333511 0.20757517 -0.034120526 0.1683598
000010 b4 88 37 be 38 17 a9 bd 29 4d 2d 3e 30 7a 83 be
       -0.17923242 -0.08256382 0.16923966 -0.2567916
000020 6a 5e cc 3c 54 80 09 be 15 23 20 3c 40 49 16 3d
       0.024947364 -0.1342786 0.009773989 0.03669095
000030 9f 2e 03 be 23 fc 5d be 65 d5 65 bd 76 ad bf bd
       -0.12810753 -0.21678214 -0.056111712 -0.09359257
000040 7c f0 36 bd 2c 07 18 be eb b1 73 bd d9 4c 06 3e
       -0.044662938 -0.14846486 -0.059495848 0.13115253
000050 f2 4f af 3d a8 06 c7 bd 1d cc 16 bd 2e d2 0a 3d
       0.0856017 -0.097180665 -0.03681575 0.03389185
000060 2f 59 3b be 29 93 88 3e 52 03 e4 bd 8a 26 8d be
       -0.1829574 0.26674774 -0.11133446 -0.27568465
000070 8b de 0b 3e ba 3d 58 3d 90 e7 30 be 96 2b 20 be
       0.13659112 0.052793242 -0.17275834 -0.15641627

weight f4 [32]
000000 ac e0 5f 3f f4 22 9c 3e 55 96 66 3e 5e 13 5a 3e
       0.874522 0.30495417 0.22518285 0.2129645
000010 da ef 20 3f 13 cd 42 3f 13 ed ab 3e ca af 38 3f
       0.62865984 0.7609417 0.3357931 0.7214323
000020 0e 6e 18 3f de ce b5 3d 91 6f e1 3d c7 64 1a 3f
       0.5954293 0.088773474 0.11007608 0.60310024
000030 58 15 d3 3e 0c f0 58 3e d7 38 55 3f 93 89 0f 3f
       0.4122722 0.2118532 0.83289856 0.56069297
000040 32 61 91 3d 59 dd f5 3e 68 7b 37 3f 8c ac 7f 3d
       0.07098617 0.48020437 0.7167268 0.062420413
000050 50 18 cc 3e ba 20 fb 3e a1 a2 39 3f 39 6a 4f 3e
       0.398623 0.49048406 0.72513777 0.20255364
000060 5b f6 60 3f bb f3 7c 3f 09 38 19 3f 2a da 23 3f
       0.8787591 0.98809403 0.5985113 0.64004767
000070 a9 99 f9 3d 62 f5 1e 3f b1 24 03 3f 05 10 ad 3e
       0.121875115 0.62093174 0.5122786 0.33801284

bias f4 [32]
000000 f8 5e c4 bd 14 3a 44 bd 34 88 46 bd 95 74 a5 3b
       -0.09588426 -0.04790695 -0.048469737 0.005049298
000010 02 a9 11 be fb 75 cf bd 82 ee f0 bd df 89 9f bd
       -0.14224628 -0.10129925 -0.11764242 -0.07789969
000020 41 54 da bc 0d 82 6d bc ed a0 11 3d a7 ca b8 3c
       -0.026651504 -0.014496339 0.03555386 0.02255757
000030 99 ad 8a bc e2 ea 19 3c c4 7a d4 bd 2b 1b 8f 3c
       -0.016928481 0.009394379 -0.10374978 0.01746901
000040 9d 84 a9 3c d0 f2 e7 bd 52 1b c9 3c fa 96 0e bd
       0.020693118 -0.1132561 0.02454916 -0.03481195
000050 69 ce 94 bd 4d 1b 5a bd 31 41 50 be e9 20 7a 3d
       -0.07265932 -0.053248692 -0.20337369 0.06106654
000060 b4 84 73 be a2 29 2a be b5 09 08 bc c8 be 1c bc
       -0.23781091 -0.16617444 -0.008303096 -0.00956697
000070 52 36 20 bd d3 39 a8 be c0 38 70 be 8b 77 c1 bd
       -0.039114304 -0.32856616 -0.23459148 -0.09446629

running_mean f4 [32]
000000 8d f9 6e 3e 16 eb 0b 3e bf 17 d3 be a9 46 0e 3e
       0.23337384 0.13663897 -0.41229054 0.13894142
000010 fb 1f 93 be 24 9b 96 be bb ef d1 bc f9 30 54 3d
       -0.28735337 -0.29415238 -0.025627008 0.051804516
000020 c9 86 ac 3d ba 5f cc 3d 34 f6 86 3e 43 2e 96 bd
       0.08424146 0.09979196 0.26359713 -0.073330425
000030 53 3d 81 3e 3d 80 00 bd 4b 76 2c be f1 1e 88 be
       0.252421 -0.031372298 -0.16842 -0.26586106
000040 df 08 01 3e 38 51 20 be 0b bd 62 be d3 65 57 3e
       0.1260104 -0.15655982 -0.22142427 0.21034937
000050 36 35 94 3c 31 78 3d bf dc ed 57 3e 68 00 cf 3e
       0.01809178 -0.7401152 0.2108683 0.40429997
000060 9f dc 80 be 54 13 2f 3e 1b 51 48 be 38 22 9d be
       -0.2516832 0.17097217 -0.1956219 -0.3069017
000070 d0 bd 5f 3e 74 c5 93 3d f1 51 d5 be 6e c5 63 be
       0.21849751 0.072153956 -0.4166408 -0.22243282

running_var f4 [32]
000000 56 32 9b 3d 6c 55 c5 3d 70 b2 83 3d d2 1d 74 3d
       0.0757796 0.096354336 0.064305186 0.05959875
000010 7e eb 80 3d f6 07 7c 3d bc 56 4d 3d 8a 17 32 3e
       0.062949166 0.06153103 0.050131544 0.17391792
000020 e2 cc ad 3d 19 20 84 3d 4b 6a ae 3d 32 b0 25 3e
       0.08486344 0.06451435 0.085163675 0.16180494
000030 9d 3f 24 3d a9 41 cf 3d fb 4b b5 3d a1 f8 db 3d
       0.04009973 0.101199456 0.08852383 0.107407816
000040 6f f9 05 3d f3 c5 73 3d cf ab 8e 3d f5 07 5e 3d
       0.03270858 0.05951495 0.06966364 0.054206807
000050 1b 1b c0 3d 1b 6e 20 3e 92 cd f0 3c 3d 4f 7f 3d
       0.0938017 0.15667002 0.029394899 0.062331427
000060 13 52 df 3d 7d cb 13 3e 80 94 4e 3d c0 ab cc 3c
       0.10904326 0.14433093 0.05043459 0.02498424
000070 58 71 1c 3e fa 52 7a 3d 8c 5f f8 3d 80 3f f4 3d
       0.15277612 0.06111429 0.12127599 0.11926174

weight f4 [64, 32, 1]
000000 c5 49 24 be a5 e1 fc bb 65 f8 1a 3e 40 f6 b9 3d
       -0.16043766 -0.0077173286 0.15133817 0.090801716
000010 7e 76 e9 bc e1 57 67 3d d4 6b 00 3e af e1 21 be
       -0.028498884 0.056480292 0.12541133 -0.15808748
000020 6f 01 4f 3e ce e2 52 be 52 01 59 be 24 05 61 3d
       0.2021539 -0.20594332 -0.2119191 0.054936543
000030 79 ba 8a be 65 ac ae 39 b8 77 83 3e 92 ca 25 be
       -0.27095392 0.0003331631 0.25677276 -0.16190556
000040 63 05 6d bb 70 b3 92 3d 64 9a 8c bd 39 a0 79 bd
       -0.003616654 0.07163131 -0.06865385 -0.060943816
000050 64 f7 a4 3d d2 51 91 3d e6 3b 31 3e ca a8 19 3e
       0.080549985 0.07095684 0.17308006 0.15005794
000060 5e 31 4b 3e bd e1 b2 3e a6 05 32 be be 6a 66 bc
       0.19843051 0.3493785 -0.17384967 -0.014063535
000070 62 46 2e 3d 5a f3 57 bd b7 86 aa bb b4 4f f9 3d
       0.04254759 -0.052722313 -0.0052040475 0.12173405
000080 3d 7e 39 3c fb ac 33 3d fd 42 76 3d 9c 53 c4 be
       0.011321601 0.04386614 0.06012248 -0.3834504
000090 da 80 80 3e c9 7e 64 be 88 56 ac bc e3 14 ad bc
       0.25098306 -0.2231399 -0.021037355 -0.021128124
0000a0 de 3e 81 be 9a bd 45 3e 71 c8 38 3d 2f 5b 91 3d
       -0.25243276 0.19310609 0.04511303 0.0709747
0000b0 59 00 a3 3e 5e 25 f2 3d 57 f4 fd bc 36 a7 af 3d
       0.31836203 0.118235335 -0.0310003 0.08576815
0000c0 8d a1 7b be a9 f4 4a bc d3 2c 5b bd 74 e1 19 be
       -0.24573345 -0.012387433 -0.053509545 -0.1502741
0000d0 33 3b 38 be 41 9e f9 bc 89 a1 42 3d 71 0d 4f 3e
       -0.17991333 -0.03047097 0.047517333 0.20219971
0000e0 6d b1 41 3e 62 8b d0 bd d6 4b a4 bd 29 54 20 be
       0.18915339 -0.10182835 -0.08022277 -0.15657105
0000f0 76 e7 f0 3d 12 37 67 bd 93 15 72 3e ff 4c 37 3e
       0.11762898 -0.056449004 0.23641042 0.17900465
000100 86 96 2c 3a 59 23 06 3c ba 48 32 3e 49 f7 fa 3d
       0.0006583709 0.0081871385 0.17410555 0.12254197
000110 ce c5 5d 3e b7 9d 82 3e 6f f0 58 be 8e 93 f8 3c
       0.21657488 0.25510952 -0.21185468 0.030343797
000120 b0 dd df bc 71 d9 69 be 55 08 88 be fd e2 f4 bd
       -0.027327389 -0.22836854 -0.26568857 -0.11957357
000130 3a 28 ea 3c 87 dd 6b be c3 a0 4d 3b 77 d4 94 3d
       0.028583635 -0.23033725 0.003137634 0.07267087
000140 c1 c4 55 bd 9a 62 ad 3d 67 5f 44 3e cb 5b 15 3e
       -0.052189592 0.084660724 0.19177018 0.14585797
000150 ec 10 03 bf 9d d6 62 3e bf 37 17 3e 68 f9 6c bd
       -0.51197696 0.22152181 0.14767359 -0.05785504
000160 c4 10 17 bd 27 81 16 be e7 cf 1c 3d bb f4 3b bd
       -0.036881223 -0.14697705 0.03828421 -0.04588769
000170 88 9d 0f 3e ca be 1b be 1f a2 78 be d5 fe 44 be
       0.14024937 -0.15209499 -0.24280594 -0.19237836
000180 2f b3 16 be 40 53 06 be 3d b5 72 3e bc 0f bf be
       -0.1471679 -0.13117695 0.2370195 -0.37316692
000190 79 54 85 3e 98 fc 28 be 71 0f 60 3e cc 39 65 bd
       0.2604101 -0.16502607 0.2188089 -0.055963323
0001a0 fb 66 67 3e 2a 45 13 3c 3e c9 c0 bb de 82 a7 3c
       0.22597878 0.008988658 -0.005883365 0.020448145
0001b0 40 df 82 3c f9 71 17 3d e9 8d 0b be 08 20 9b bd
       0.015975595 0.036973927 -0.13628353 -0.07574469
0001c0 9a e9 54 be 6b 28 b7 be 00 88 9e 3c 80 b6 65 be
       -0.20792237 -0.35773024 0.01935196 -0.224329
0001d0 c2 3e 5e 3e ed b1 29 3e 28 b4 74 3e 9b 83 b0 3e
       0.21703628 0.1657178 0.23896849 0.34475407
0001e0 34 fb cd 3d 3f 9b a7 3b c5 70 01 3c 6e 95 24 3d
       0.10057679 0.0051149423 0.0079004215 0.04018157
0001f0 67 a8 75 3e 31 60 8b 3c 7b 3b ad 3c 27 c0 9b 3e
       0.23990022 0.017013641 0.021146527 0.30420038
000200 08 cd 85 be 13 07 c7 3d 91 00 19 bd 55 dd c1 bd
       -0.2613299 0.09718146 -0.037354056 -0.09466044
000210 35 64 77 3d f6 c4 6a be 09 f6 37 3e 71 00 a9 bd
       0.0603983 -0.22926697 0.17964949 -0.08252037
000220 b8 12 cb 3e de 06 0a 3d 44 4f be 3d e7 b5 1f be
       0.3966272 0.033697955 0.092924625 -0.15596734
000230 57 68 b2 bd 07 4e 6f be d0 f0 3b be f6 1d cc bd
       -0.087113075 -0.23369609 -0.18353581 -0.09966652
000240 52 07 8b bd 43 3f 81 be 6f a7 17 be 11 7b 8b bd
       -0.067885056 -0.25243577 -0.14809965 -0.068105824
000250 a8 ba 22 3d ea 3f 0e be 38 f5 35 3e cb 5a 34 3e
       0.03972879 -0.13891569 0.17769325 0.1761276
000260 88 b9 ad bc 0b a0 2a 3e d0 c2 a6 bd dd 2d 03 be
       -0.021206632 0.16662614 -0.08142626 -0.12810464
000270 b8 98 b6 3e 4a b5 32 3e 4b b7 13 3d 82 7a af 3e
       0.3566339 0.17451969 0.036063474 0.34273154
000280 6e 55 3b bd 5a 7a ba ba c3 9d 18 3d 43 5b 4a 3e
       -0.04573577 -0.0014227137 0.03725983 0.19761376
000290 ae 35 74 3e 8f 5f 94 3e 5d 6b 93 bd d3 a2 77 3d
       0.23848602 0.28979155 -0.07198212 0.060458016
0002a0 cb ed 88 3d d9 f0 01 3d 24 c9 2a be 1c 60 1c bc
       0.066859804 0.03172383 -0.16678292 -0.009544399
0002b0 cb 06 6b bd 69 8f eb 3c e5 4f d0 bd 42 c4 ef bd
       -0.057379525 0.028754907 -0.10171489 -0.11707355
0002c0 63 c9 89 3e ec a4 ff bd 38 6d 2a 3e 86 9a 03 3e
       0.26911458 -0.12482628 0.16643226 0.12851915
0002d0 9a 73 07 be f8 88 84 3d 33 c4 9a 3e 52 b2 89 bd
       -0.13227692 0.06471437 0.30227813 -0.06723465
0002e0 e7 47 aa 3d 82 7d 21 be 9b bd f1 3d 2c f2 14 bd
       0.083144955 -0.15770534 0.118037425 -0.036363766
0002f0 70 3a 43 3e 49 3b 76 3e d2 48 e4 3d 25 a4 33 3e
       0.19065261 0.24046053 0.11146702 0.17543085
000300 dd 8e ea 3d ce f7 d9 3d 59 e7 7b 3e 30 80 30 be
       0.1145303 0.10642968 0.24599971 -0.172364
000310 9a 89 b8 be 5b a7 32 3c 47 3a 7c be 4e 5a 72 3d
       -0.36042482 0.010904158 -0.24631606 0.059168153
000320 a0 a2 9f bd da 27 14 3e 95 c6 2e 3e 09 7d 07 bc
       -0.0779469 0.14468327 0.1706794 -0.008269557
000330 79 c6 3c 3d 50 d8 2b 3e 01 4e 5f bd 6d 40 72 3d
       0.046087716 0.16781735 -0.05451775 0.059143472
000340 d8 f8 8f bb d9 b1 8c be e3 78 3c be 11 32 65 3d
       -0.004393678 -0.27479437 -0.1840549 0.05595595
000350 c8 3d c7 bc 77 ab 89 be e4 ba 0d 3d 08 a0 11 be
       -0.024321452 -0.2688863 0.03460206 -0.14221203
000360 ef 35 07 3d 1b c0 2f be 65 8c 03 3e 5b 83 f7 3c
       0.03301042 -0.17163126 0.12846525 0.030214002
000370 85 c5 2a 3e 0f 0f 19 3e 42 48 e1 3c df 2a cf 3d
       0.1667691 0.1494715 0.027500276 0.10115599
000380 c5 4d ee 3d 28 7d 39 bc c6 5a 82 bd 05 2c 80 be
       0.11635927 -0.0113213435 -0.0636497 -0.25033584
000390 14 d2 ec 3d f2 7d 67 3d 2c d9 59 be 9b d6 90 3d
       0.11563507 0.056516595 -0.21274251 0.07072183
0003a0 a8 b3 c2 3d 9f 66 06 3e 2a 29 24 bc 25 15 07 3e
       0.09506923 0.13125084 -0.01001958 0.1319166
0003b0 31 b0 d4 3d 45 fd 78 bc c1 0f ed 3c 7a e9 c2 be
       0.10385168 -0.015197103 0.028938176 -0.38068753
0003c0 69 17 60 3e 99 03 60 be 31 a1 33 3d 9c be ee bd
       0.2188393 -0.21876372 0.043854896 -0.116574496
0003d0 83 1b 52 be f1 01 d1 bc 62 e4 40 bd 14 c9 c8 be
       -0.20518307 -0.025513621 -0.047092803 -0.3921591
0003e0 76 d5 60 3e 79 2c 83 be e6 35 03 3e e0 ff 64 3e
       0.21956429 -0.25619867 0.1281353 0.22363234
0003f0 e0 a4 99 3e 98 43 c2 bd 52 54 ea ba 57 5c 44 be
       0.30008602 -0.09485549 -0.0017877913 -0.1917585

bias f4 [64]
000000 f8 14 05 be 5d 7a 4f 3d 0e 64 c5 bc b6 4d 9c bd
       -0.1299628 0.050653804 -0.024095561 -0.0763201
000010 f6 f4 88 39 59 93 21 3e 9c 63 fc 3d 1a 94 ff bd
       0.00026122452 0.15778865 0.123236865 -0.1247942
000020 56 ae dd 3d aa 64 1c 3e c9 f2 f9 3d 76 59 04 be
       0.108242676 0.15272775 0.12204511 -0.12924752
000030 b5 12 d4 bd 05 d9 09 be 93 7d cf 3d dc 30 06 3e
       -0.103551306 -0.13461693 0.10131373 0.13104576
000040 b3 2a 10 3e 43 be 84 bd c6 d3 d4 bc 86 ca 27 3e
       0.14078788 -0.06481602 -0.025979888 0.1638585
000050 50 76 f7 bd bc b6 9e 3d 5f 2f 3c 3d 58 82 40 be
       -0.12083113 0.077496976 0.045943614 -0.18799722
000060 f6 11 d4 3d 40 0c a5 3d 97 10 0e 3e f5 f3 28 3e
       0.10354988 0.08058977 0.13873516 0.16499312
000070 42 7f f3 3d 51 dd 2f 3d d9 34 da bc fa d8 26 3e
       0.11889507 0.042935673 -0.026636528 0.16293707
000080 12 08 9b 3d a1 8f 0f bd 92 19 39 be c3 b6 22 be
       0.07569899 -0.035049085 -0.1807616 -0.1589003
000090 d5 6a b9 bb 40 31 af 3d bb ca 36 be 1a d7 f7 3b
       -0.0056584873 0.085543156 -0.17850773 0.007563484
0000a0 8b e9 56 3e 22 02 91 3d ca 77 30 be 17 fc 22 3e
       0.20987527 0.07080485 -0.17233196 0.15916477
0000b0 6c 29 ae 3d ea eb ee 3d 6c de 23 be 66 cc 3e be
       0.08503994 0.11666091 -0.16002816 -0.1863266
0000c0 3c 86 0b be bf 89 e5 bd 04 09 4e 3c 2f 9e b8 bd
       -0.13625425 -0.112079136 0.012575392 -0.09014546
0000d0 99 4b 2f 3d 18 69 95 bd 97 34 a3 bd 6f c1 53 3d
       0.042796705 -0.07295436 -0.07969015 0.051698145
0000e0 e8 90 a5 3d 33 e6 6d 3d 13 6f 08 be 42 a6 a7 bd
       0.08084279 0.058080863 -0.13323621 -0.08186008
0000f0 c9 9f 15 be 69 79 37 bd b0 8a 22 3c 05 7b 6b bc
       -0.14611734 -0.04479352 0.009920761 -0.014372592

weight f4 [64]
000000 9d 8a 80 3f 15 c3 73 3f 4b 23 8b 3f e8 23 2c 3f
       1.0042301 0.95219547 1.0870146 0.6724229
000010 c9 4d fc 3e db 9b 34 3f 0a 15 97 3f 01 17 ad 3f
       0.49278095 0.70550317 1.1803296 1.3522645
000020 2b 5e be 3f dd 12 81 3f e0 bf ad 3f fc 64 5f 3f
       1.4872488 1.0083882 1.3574181 0.87263465
000030 79 e7 a1 3f 2b 2c 96 3f 8e 06 e3 3f e3 f5 68 3f
       1.2648765 1.1732229 1.7736375 0.91000193
000040 d9 15 d0 3f 99 21 8d 3f 1e 75 bd 3e 4b c0 b5 3d
       1.6256667 1.1025878 0.37003416 0.088745676
000050 f4 0a de 3e 94 27 68 3f 66 06 79 3f 2d 90 c2 3f
       0.43367732 0.9068539 0.9727539 1.5200249
000060 08 17 d5 3f c1 8d c1 3f 9d 28 ae 3f 66 34 91 3f
       1.6647654 1.5121385 1.3606144 1.1344116
000070 2f 86 7d 3f 21 05 4b 3f ca ae 26 40 ce b3 d2 3f
       0.9903287 0.793047 2.6044183 1.6461122
000080 6d 43 1a 3f 31 c4 dd 3f 52 11 26 3f 70 8c 96 3f
       0.60259134 1.7325498 0.6487018 1.1761608
000090 0e 0c 74 3f be 0a e9 3f 73 46 a7 3f c4 0f f7 3f
       0.95330894 1.8206403 1.3068374 1.9301686
0000a0 a6 36 41 3f 75 02 a7 3f fc ee e8 3e a9 a9 81 3f
       0.7547401 1.3047625 0.4549483 1.0129901
0000b0 59 38 29 3f cf e5 03 3f f5 7f 23 3f d3 03 9c 3f
       0.66101605 0.51522535 0.6386712 1.2188667
0000c0 a6 8c 81 3f fb 5b 91 3f 69 fa ad 3f f7 b2 40 3f
       1.0121047 1.1356195 1.3592044 0.7527308
0000d0 87 ab c0 3f 73 6c af 3f bb 0b 5d 3f 36 53 e2 3f
       1.5052346 1.3704971 0.86346024 1.7681644
0000e0 9b 6d 94 3f 05 36 c5 3f 9b ef 0f 3f 76 a7 b1 3f
       1.1595949 1.540711 0.56224984 1.387923
0000f0 2f 67 cf 3f a6 c4 8d 3f 29 ec b1 3e f4 01 0d 40
       1.6203364 1.1075637 0.34750488 2.2032442

bias f4 [64]
000000 dc d2 39 3e dc a2 90 3d 2c 5f 0b bd 87 aa 8a bd
       0.18146843 0.07062313 -0.03402631 -0.06770807
000010 c7 7a d6 bc b7 cb 82 be fb 3c c8 bd f2 78 ff 3d
       -0.026181592 -0.25546047 -0.09777256 0.1247424
000020 40 86 39 3e 62 5a 50 be ba 03 3f 3d cd 6a 42 3e
       0.18117619 -0.20346978 0.046634413 0.18986054
000030 d6 a3 0d 3e c3 9b ae 3e 6c be 60 3d bb 6b 08 bd
       0.1383203 0.34103212 0.0548691 -0.033305865
000040 13 e1 27 bd 99 b7 11 3e c8 11 f5 3d 42 99 d6 bd
       -0.040986132 0.14230193 0.11966282 -0.1047845
000050 38 d5 30 3e e9 24 87 be 25 f6 2c be 12 40 bb 3e
       0.17268836 -0.26395348 -0.16890772 0.3657232
000060 d0 ea cb 3d 2b d9 23 3e 95 da 3e 3e 0d 95 b8 3d
       0.09956896 0.16000812 0.1863807 0.09012804
000070 0f 37 09 be a2 1a 62 3e 13 7d c7 3e 04 72 50 3d
       -0.1339991 0.22080472 0.38962612 0.050889984
000080 0e b1 20 be af 54 77 3d b0 de cf bd 2a 9a 8f bc
       -0.15692541 0.060383495 -0.10149896 -0.017529566
000090 ac e1 19 be 4d 60 fa 3c 7b 8b ec bd 80 1f 84 3e
       -0.15027493 0.030563498 -0.11550041 0.25805283
0000a0 4b ad 49 be d8 99 6b bd f5 18 98 be d7 eb be bd
       -0.19695012 -0.057519764 -0.2970654 -0.09322327
0000b0 31 37 a4 be bb 0d ea 3d 19 7c a9 be c2 f3 a6 3e
       -0.32073358 0.114284 -0.33102491 0.32607847
0000c0 a6 b6 2a bc bb c8 3f 3d fb 7e 63 3c b1 88 19 3e
       -0.010419523 0.04682229 0.013885255 0.1499355
0000d0 6a b1 80 3d 1e 9b 2e 3e c6 2f 43 3b 38 34 d2 3e
       0.06283839 0.1705136 0.0029783114 0.41055465
0000e0 aa b7 4a 3d fa 49 f5 3e ac 0c f0 3d 6f 3d 4a 3e
       0.049491562 0.47908002 0.11721167 0.19749998
0000f0 45 86 91 bc 56 44 13 3e db 39 0c be 96 d5 9e 3e
       -0.01776422 0.14381537 -0.13693945 0.31022328

running_mean f4 [64]
000000 af 05 dd 3c 9b 9e b4 3c bf cf bd bc 7c 12 3d 3d
       0.02698025 0.022048285 -0.02317035 0.046160206
000010 e4 41 1e be d8 44 bf 3e 4e 5f 57 bc 9e 0c 27 be
       -0.15454823 0.3735721 -0.013145281 -0.16313407
000020 d0 2c 0d 3d 2d 4d d5 3e 52 30 ee 3d c7 d9 a1 be
       0.034466565 0.41660443 0.1163031 -0.31611463
000030 9b f7 50 be 06 8e 88 be b0 e1 dd 3d 3a f8 8d 3e
       -0.20406954 -0.26670855 0.10834062 0.27728444
000040 ab 3f 39 3e f4 9b 2d be bf 46 1e be 2c 59 91 3e
       0.18090694 -0.16954023 -0.15456675 0.28388345
000050 53 5f 5b be cb 55 83 3e ef c5 43 3b 3a 3a 3e be
       -0.21423082 0.25651392 0.0029872616 -0.18576899
000060 52 f7 da 3c f6 07 5a bd cd 33 27 bd ee 27 da bd
       0.02672926 -0.05323025 -0.040820885 -0.10652147
000070 b4 56 25 3e 90 48 a6 be 05 5e 22 be 7f b9 56 3e
       0.16146356 -0.32477236 -0.15856178 0.20969199
000080 ac ad b3 3d 15 1f 31 be 9c fd 24 3d c6 9d 95 be
       0.0877336 -0.17297013 0.040280923 -0.29221934
000090 29 3d 9b 3e 25 9f d2 bd 0e 33 7f 3b 99 9f 45 3d
       0.303201 -0.10284261 0.0038940343 0.048247907
0000a0 14 f5 8a 3d 14 f5 9b bd a3 3d 9d be 8b 8a 90 3e
       0.06785026 -0.07615104 -0.30711088 0.282307
0000b0 70 9b 2d 3e 12 8d 29 be 0a ce 55 be e9 f3 6b be
       0.16953826 -0.1655772 -0.20879379 -0.23042263
0000c0 2e 89 d1 3a 44 03 31 be 77 83 53 be a8 99 b6 be
       0.0015986317 -0.17286402 -0.20655619 -0.35664105
0000d0 60 68 ad 3d 54 ac 06 be 92 26 bd bd 94 97 96 be
       0.084671736 -0.13151675 -0.09235872 -0.2941252
0000e0 6a e6 95 bc c8 dc 01 be ae fc 34 be 3f 68 8f bd
       -0.018298347 -0.12681878 -0.17674515 -0.07002305
0000f0 72 d2 87 be b0 a8 9b be 69 d5 61 be 79 35 d9 bd
       -0.26527745 -0.30402136 -0.22054066 -0.10605902

running_var f4 [64]
000000 ad 71 91 3d f1 5f 07 3d 91 59 23 3d c7 6f 55 3d
       0.0710176 0.03305048 0.03988034 0.052108552
000010 fd 6f ce 3d 08 ff e4 3c 4f bf 10 3d 04 2b 60 3d
       0.10079954 0.02795364 0.035338696 0.054728523
000020 5b e4 d1 3d 71 a2 4b 3d db c4 01 3d 9f 71 ef 3c
       0.102486335 0.049715463 0.031681877 0.029228983
000030 7a dc 24 3d 7c 2b 50 3d a8 5a 9b 3d 91 a9 92 3d
       0.040249325 0.05082272 0.07585651 0.071612485
000040 2c 84 6a 3d cf 92 58 3d 13 63 25 3d d2 14 8a 3d
       0.057254955 0.052874383 0.040377688 0.067422524
000050 89 89 21 3d 56 f9 90 3d 52 ff 08 3d bf 01 b8 3d
       0.039437804 0.07078807 0.033446617 0.08984708
000060 1e 60 b3 3d 47 47 2f 3e 88 cb a9 3d 92 09 67 3d
       0.08758567 0.17117034 0.08290774 0.05640561
000070 ac 41 63 3c e3 8d aa 3d 21 2f 0d 3e 81 51 c1 3d
       0.013870638 0.08327844 0.1378751 0.09439374
000080 f6 95 89 3d cd 53 9f 3d ce 19 8c 3d 5e 72 ae 3d
       0.06718056 0.077796556 0.06840859 0.085179076
000090 7b 16 08 3d 6b e1 20 3e c2 49 31 3d 48 e9 76 3d
       0.033224564 0.1571099 0.04328323 0.060281068
0000a0 47 34 e0 3d f7 80 aa 3d 1b 15 1c 3d 59 ff 19 3d
       0.10947471 0.08325379 0.038106065 0.037597034
0000b0 cb a7 3d 3d 0e b1 8a 3d 4a ec 57 3e ab 4b 82 3d
       0.046302598 0.06772052 0.21086231 0.06362089
0000c0 97 54 ae 3c 8a c4 f8 3d 8e 1e 59 3d 1c 66 f2 3c
       0.02128057 0.12146862 0.053007655 0.029589705
0000d0 32 83 e9 3c 41 73 49 3d 95 3c 7d 3d 17 57 90 3d
       0.028504942 0.04918218 0.061825354 0.07047861
0000e0 bd 4e 15 3d e4 46 63 3d 13 80 a6 3d 1b fb d1 3d
       0.036452044 0.05548753 0.08129897 0.10252973
0000f0 9c bc 0e 3e 46 db e5 3c a0 33 10 3d 4a 11 1a 3e
       0.13939136 0.02805866 0.035205483 0.15045658

weight f4 [9, 512]
000000 5d 96 eb 3d 64 e5 1d bf 9d ab b9 3e fb 04 6b bf
       0.11503289 -0.6167815 0.36263743 -0.91804475
000010 06 6e db 3d ee 6e b9 3e 21 df a7 bc 1f 4e f3 3d
       0.10714345 0.36217445 -0.020492138 0.11880135
000020 78 06 10 3e 5b 98 fc be 8c bd f7 bd cb c3 23 bc
       0.14064968 -0.49334988 -0.120967 -0.009995411
000030 bb 08 81 3e f1 73 8a bd b1 80 cd 3d 6f 0a 5d 3d
       0.25201973 -0.06760395 0.100343116 0.05396503
000040 41 dc 48 3e cd 47 91 3f 61 73 16 3d 45 b0 63 3d
       0.1961527 1.1350037 0.036731128 0.055588026
000050 e9 5b b1 3e e9 9e d0 be ac c5 b7 3d 24 14 bf 3e
       0.34640434 -0.4074624 0.0897325 0.37320054
000060 09 3c 31 3e e6 54 92 3e 30 11 33 3d 2f c3 3c be
       0.17308058 0.28580397 0.043717563 -0.18433832
000070 21 52 43 3e fa 04 ba be 83 c7 87 3d 4e bc 54 3e
       0.19074298 -0.36331922 0.06629851 0.20774958
000080 15 c6 45 3d ae 73 89 3e ab fc 0b be 7e ad 02 bf
       0.04828461 0.2684607 -0.13670604 -0.5104598
000090 1b af 27 3e fb d0 8f bd 1c de c2 3d a4 3e 53 3e
       0.16375391 -0.07022282 0.0951502 0.20629364
0000a0 43 51 32 3e 3a 7b 84 3f f7 4e 10 3e a1 f7 c4 3e
       0.17413811 1.0350106 0.14092623 0.38470176
0000b0 ab c6 8c 3e 18 7b bd be 1f 6a 1e bd 25 56 5b 3e
       0.27495322 -0.37007976 -0.038675424 0.2141958
0000c0 ba 9c 02 3e 59 71 8e be ec ad 53 3e 4f 4f 0d bf
       0.12755099 -0.27820852 0.20671815 -0.5519914
0000d0 53 75 1f 3e 0c 11 cd 3e 73 fa e0 bd 4d 0b 14 3e
       0.155721 0.40052068 -0.109852694 0.14457436
0000e0 96 8d 2b bc fd cc 04 3f 26 d2 71 bb 52 1e 04 bf
       -0.010470768 0.5187529 -0.003689894 -0.51608765
0000f0 2d 72 01 3f 19 2f 8e be da 81 c0 bc 0f 41 b2 3e
       0.50564843 -0.27770308 -0.023499418 0.3481526
000100 18 65 a0 3d 05 22 5d bf ef 70 1a 3e 49 ee 16 bf
       0.07831782 -0.86380035 0.15082143 -0.58957344
000110 3d 09 ba 3c de e0 c6 3e 0b 76 49 3d b7 b7 86 3c
       0.022709483 0.38843435 0.04918484 0.016445024
000120 dc 55 29 3e 89 b5 6e bd 72 66 96 3e 0d b8 93 be
       0.16536659 -0.058278594 0.29375035 -0.28851357
000130 89 7a 51 3e 2c 7c 1f 3f 63 f8 68 3c 61 25 e2 3e
       0.204569 0.62298846 0.014219376 0.44169143
000140 34 af 23 3e 53 0f 33 bf 50 76 37 3e 2c d8 be be
       0.15984803 -0.6994526 0.17916226 -0.372743
000150 cc 2f 63 3e 82 de 4e 3e f5 55 4e 3d ad 3d 06 3e
       0.22186202 0.20202067 0.050374944 0.13109465
000160 ef 3d d7 3d 5e 01 14 bf b9 f2 b9 3d 5b 25 ed 3b
       0.1050986 -0.57814586 0.09079499 0.007237119
000170 69 18 a1 3e bd 74 52 be 64 63 e2 3d cb af 3f bd
       0.31463936 -0.20552345 0.110541135 -0.04679851
000180 20 f0 37 3e 0e cf 75 3e ba d3 9a 3e 45 a9 01 bf
       0.17962694 0.24004766 0.3023966 -0.5064891
000190 e9 61 40 3e c4 a4 d1 be e1 dc 19 bc 42 c3 64 3e
       0.1878735 -0.4094602 -0.009391041 0.2234011
0001a0 78 68 2e be 38 5a b6 3e f7 e4 6e 3d 47 30 66 bd
       -0.17032039 0.35615706 0.058323827 -0.056198385
0001b0 81 5c 40 bd 82 3b 0d bf 52 0f 76 bd 53 75 88 3d
       -0.04696322 -0.55168927 -0.060073204 0.06663003
0001c0 33 af 9c 3c b6 d3 17 bf c3 65 8e 3d 4a 42 4d bf
       0.01912651 -0.5930742 0.06953003 -0.80179274
0001d0 06 5c 1c 3e a5 86 29 3e e5 83 80 3d d5 e0 3a 3d
       0.15269479 0.16555269 0.06275157 0.045624573
0001e0 c6 ef e7 3d 8c e3 86 3e d9 95 7f 3d 18 45 35 bf
       0.1132503 0.2634548 0.062398765 -0.70808554
0001f0 b5 31 a8 3e 9f b2 7d bd 9a b3 66 3e 1e 7f c6 3e
       0.32850423 -0.061937924 0.2252945 0.38768858
000200 6f 6c 13 3e 8c 5d 00 3e b6 79 9f 3e 8a bf 56 bf
       0.14396833 0.12535685 0.31147546 -0.83886015
000210 7e 60 41 3e b3 c3 ec 3e 14 07 b1 3d 73 4d 3d 3e
       0.18884465 0.46243057 0.08643928 0.18486576
000220 e3 25 ea 3d e5 b8 22 bf 26 f8 38 3e 30 d9 9a be
       0.114330076 -0.63563377 0.18063411 -0.30243826
000230 5f 79 07 3b 13 b8 7f 3e 8e ad 24 3d 9c 32 af bd
       0.0020671708 0.24972562 0.040204577 -0.08554575
000240 a9 a6 fb 3c d9 18 0a bf 54 c5 3e 3e bc 0a de 3d
       0.030719118 -0.53944165 0.18629962 0.10841891
000250 70 50 a3 3d 22 10 e3 3d 37 c9 8a 3d c6 dc 68 bd
       0.079743266 0.110870615 0.0677666 -0.05685117
000260 25 f8 4b 3e eb 98 66 3e cd 3f 2c 3d b8 c2 0a bf
       0.19918878 0.22519271 0.042053033 -0.5420337
000270 ff 14 c0 3e a8 b8 c9 3d f5 36 2b 3e 93 e4 f2 3e
       0.3751602 0.098496735 0.16720183 0.47440013
000280 07 45 90 bd 9d 31 83 be c3 23 66 3c 8d 9e 2b be
       -0.07044416 -0.2562379 0.014046612 -0.16759701
000290 eb cb c1 bd 68 5f dc be 06 c7 b6 bd 28 fd b0 3d
       -0.094627224 -0.4304154 -0.089246795 0.08642036
0002a0 55 3e 6a 3e 87 c6 a4 be 56 80 00 3e 0c 1d be 3e
       0.2287534 -0.32182714 0.12548956 0.37131536
0002b0 4b 1f 16 3d 4a 29 d2 be 40 9e 8a 3e 83 bc a5 3d
       0.036650937 -0.41047126 0.2707386 0.080925964
0002c0 e6 39 e8 3d 78 5c 05 bf f0 bf 82 3d ea 20 b3 3d
       0.11339168 -0.5209422 0.063842654 0.08746512
0002d0 0d 2b 1d 3e df ee 30 3e 4e b9 8e 3d 17 34 54 3e
       0.15348454 0.17278622 0.06968938 0.20722996
0002e0 0b 6e 88 3d 15 cb 5e bf c7 df 0b 3d 40 1c 07 bf
       0.06661614 -0.8702863 0.034148958 -0.5277748
0002f0 24 12 77 bb af ba 3b 3e 88 8c 1d 3d e9 85 a5 3c
       -0.0037700022 0.18332933 0.0384641 0.020205455
000300 cd 07 21 bd ff fb eb 3d ab 7f d1 3d 89 7f 01 bf
       -0.03931408 0.11522674 0.10229429 -0.5058523
000310 4d 89 3e 3e 10 32 99 be 7d d5 5f 3d dc e9 78 3e
       0.18607064 -0.29921007 0.054646958 0.2430796
000320 f5 3b 2a bd 4f 0f 69 bf 4c 16 3a 3e f0 6d 0f bf
       -0.041561086 -0.91038984 0.18172568 -0.56027126
000330 b5 7a bb bd 25 4d 80 3e a5 20 fa 3b 72 f1 5c bc
       -0.09154264 0.25058857 0.007633286 -0.013485299
000340 5c fe aa 3d 8e e1 59 bf 0c 07 43 bd 83 ef 9d 3d
       0.083492965 -0.85109794 -0.047614142 0.07711699
000350 fc 9f d9 bd e0 91 53 3e 4e d4 40 3e 92 1c 50 bd
       -0.10626218 0.20661116 0.18830988 -0.050808497
000360 66 c9 46 3e 12 aa 3f bf 81 12 e2 3d 23 1e 83 3d
       0.19412765 -0.7486888 0.110386856 0.064022325
000370 a0 8f 6d 3d 84 96 28 be d5 d1 0a 3e 8e 0e 0c 3d
       0.0579983 -0.16463667 0.13556607 0.034193568
000380 9a 62 92 3e 48 f9 d5 be 8e 9c a2 3e ee 30 f4 3e
       0.28590852 -0.4179175 0.31760067 0.4769358
000390 24 69 98 3c b7 5f 1b 3e 28 c8 7c 3e 3f 88 1a 3e
       0.018604822 0.15173231 0.24685729 0.15091036
0003a0 4a c9 ca 3d bb 7f e0 be bc 3b 8b be 3d 0e ed bd
       0.09901674 -0.4384745 -0.2719401 -0.11574981
0003b0 db dd d5 bc e2 0b e7 bd 77 f9 99 3c 75 74 96 bd
       -0.026106765 -0.11281563 0.018795712 -0.07346431
0003c0 32 e8 d6 ba 63 63 53 bf f0 41 a9 3d 2b 30 46 bf
       -0.0016396104 -0.8257353 0.0826453 -0.7741725
0003d0 d3 ae 8e 3c cf 08 d0 3e ab 50 a1 3b 25 11 50 3a
       0.017417347 0.4063172 0.0049229464 0.0007937125
0003e0 3a e8 c1 3d 69 92 82 3e 5a 2f cd 3d 7e dc 21 bf
       0.09468122 0.25502327 0.10018797 -0.6322707
0003f0 0f 2d 48 3e be 11 06 bf f3 86 03 3d 18 b5 81 3e
       0.19548438 -0.5237082 0.03211112 0.25333476

bias f4 [9]
000000 55 c7 73 be 11 d3 f9 3d ea ea 25 be 46 f7 e1 bd
       -0.23806508 0.12198461 -0.16202894 -0.11033492
000010 38 e6 21 bc 51 8f 40 3d 2c c2 13 be f9 f3 c5 3b
       -0.009881549 0.047011677 -0.1442954 0.0060410467
000020 f4 31 0b 3e
       0.13593274

weight f4 [4, 9]
000000 2e d4 5d c0 3c 87 12 40 70 28 92 c0 e5 3e 93 c0
       -3.4660754 2.289504 -4.567436 -4.6014276
000010 9c fc be 3f 92 b0 b0 3f 98 43 91 c0 a7 f0 dd 3f
       1.492084 1.3803885 -4.539501 1.7339066
000020 c4 c5 e5 3f e9 51 4f 3f d8 d4 04 c0 b0 50 a9 3f
       1.7950978 0.8098436 -2.075491 1.3227749
000030 8d 34 9f 3f dd 4a 0c c0 48 f7 fb bf a1 03 a7 3f
       1.2437912 -2.1920693 -1.9684839 1.3047982
000040 77 3b 14 c0 0d 2d 0c c0 a8 07 76 c0 46 0e 18 40
       -2.3161294 -2.1902497 -3.8442173 2.3758712
000050 db 6a 88 c0 43 cc 88 c0 7e 92 b6 3f 32 06 9b 3f
       -4.263044 -4.2749343 1.4263456 1.2111266
000060 db bd 82 c0 39 27 03 40 f5 a8 f8 3f 0e 02 7a c0
       -4.0856757 2.049269 1.9426562 -3.9063754
000070 87 ff 5b 40 24 c9 94 c0 4a 28 9f c0 5e 78 b9 3f
       3.4374712 -4.6495533 -4.973668 1.4489858
000080 b6 a8 9e 3f a0 fc 94 c0 98 97 0e 40 96 c7 f8 3f
       1.2395236 -4.655838 2.2280025 1.9435909

bias f4 [4]
000000 a5 f9 82 be 54 61 03 3e d6 96 fd be 8b 33 e4 bf
       -0.2558109 0.12830096 -0.4952914 -1.782823

weight f4 [3, 4]
000000 c1 fd fd 40 15 20 9f c0 b3 46 06 41 be 45 f1 40
       7.937226 -4.9726663 8.392261 7.5397635
000010 0c 5c 06 41 05 38 99 c0 f8 2a 09 41 59 d8 01 41
       8.397472 -4.7880883 8.57299 8.115319
000020 6c e1 09 41 ce 20 a1 c0 ea e3 07 41 04 99 03 41
       8.617535 -5.0352545 8.493143 8.224857

bias f4 [3]
000000 17 6d 31 bf 60 fb ac 3c 7e 70 63 bf
       -0.6930708 0.021115959 -0.88843524

weight f4 [2, 3]
000000 3c d0 22 c1 12 59 22 c1 5a dd 1f c1 1b 0c 30 41
       -10.175838 -10.146746 -9.991541 11.002955
000010 69 d8 1e 41 8e 54 1f 41
       9.9278345 9.958143

bias f4 [2]
000000 4a b9 48 bf 51 42 f7 3e
       -0.7840773 0.48292783
