Network2/paramsPre/mlp_nwParams4.pth (torch_old, 22033 bytes, 8 tensors)

weight f4 [36, 24]
0	0x3e06a577	0.13149057
1	0x3dee13df	0.11624884
2	0x3e0dd484	0.138506
3	0x3e0874a9	0.13325752
4	0x3e2de5f1	0.16982247
5	0xbdcc9def	-0.09991061
6	0x3eb40bda	0.35165292
7	0xbd0fbf8e	-0.03509479
8	0x3da6fa62	0.081532255
9	0x3df2bd3a	0.11852498
10	0x3dc734c8	0.09726864
11	0x3d460e52	0.0483535
12	0x3d88656e	0.06659971
13	0x3eb34890	0.35016298
14	0x3e1c3e9f	0.15258263
15	0x3eb25be2	0.34835726
16	0x3da38051	0.07983459
17	0xbdd0573a	-0.10172887
18	0x3e01544b	0.12629811
19	0x3e0b3949	0.13596071
20	0x3e7fa753	0.24966173
21	0x3ea8b203	0.32948312
22	0x3e9d7e99	0.3076065
23	0x3e7bbcfc	0.2458381
24	0x3ca40a64	0.020024486
25	0x3e5b20f3	0.21399288
26	0x3e89f5f7	0.2694547
27	0x3e9ede7c	0.31029117
28	0x3edff7ca	0.43743736
29	0x3e5237f2	0.20529154
30	0x3d7ea85a	0.06217227
31	0x3d0e35ea	0.034719385
32	0x3e4c9717	0.19979511
33	0x3f023d23	0.5087454
34	0x3ee28b95	0.44247118
35	0x3e034372	0.12818697
36	0x3c17ce0c	0.009265434
37	0x3ec2a059	0.3801296
38	0x3ec15285	0.3775827
39	0x3f06ee75	0.52707607
40	0x3e7e46df	0.24831723
41	0x3e217ec3	0.15771012
42	0x3b7ddbce	0.003873575
43	0x3e2ec1bf	0.17066096
44	0x3e8993e3	0.2687064
45	0x3ece210c	0.40259588
46	0x3ed78456	0.42093152
47	0x3e247a7c	0.16062349
48	0x3e1a8b4d	0.15092202
49	0xbe26388f	-0.16232513
50	0xbdbffa59	-0.09373922
51	0xbde14f1e	-0.110014185
52	0xbd9dacf7	-0.07699006
53	0xbd21ad0d	-0.039471675
54	0x3d87aa57	0.066242866
55	0x3d9cdec0	0.07659674
56	0x3dffeca7	0.1249631
57	0x3dbc8571	0.092051394
58	0xbe4796ba	-0.19491091
59	0xbd7c649b	-0.061619382
60	0x3dab049b	0.08350488
61	0xbe3f3db8	-0.18675888
62	0xbe0fe4f8	-0.14052188
63	0xbe11fa1e	-0.14255568
64	0xbe60c9a1	-0.21951915
65	0x3ddc9e7a	0.107724145
66	0xbd47a52b	-0.0487415
67	0xbe476001	-0.19470216
68	0x3dd63163	0.104586385
69	0xbd127e6c	-0.035765097
70	0x3da23251	0.07919753
71	0xbdae10ec	-0.08499321
72	0x3ee51f77	0.44750568
73	0x3f0411b3	0.51589507
74	0x3eaba402	0.33523566
75	0x3f483575	0.7820657
76	0x3ed49a09	0.4152377
77	0x3e888f39	0.2667177
78	0x3eeb5088	0.45959878
79	0x3ef79570	0.483562
80	0x3ebfc39f	0.37453935
81	0x3f4c8801	0.79895025
82	0x3f17c61e	0.5928668
83	0x3f08b058	0.5339408
84	0x3f47d22a	0.7805506
85	0x3db33fae	0.0875238
86	0x3f02a37b	0.510307
87	0x3f1d2d2d	0.6139706
88	0x3ee1bd25	0.44089618
89	0x3f25921e	0.6467608
90	0x3f1bcf3c	0.6086309
91	0x3ec0b23f	0.3763599
92	0x3ed191e0	0.40931606
93	0x3f496980	0.78676605
94	0x3ed74523	0.42044935
95	0x3e8018ae	0.2501883
96	0x3e81007c	0.25195682
97	0x3eb22ef2	0.3480144
98	0xbea7e5b6	-0.32792443
99	0x3f085dc8	0.532681
100	0x3ea3a9ab	0.31965384
101	0xbebb3d20	-0.36570072
102	0xbe8448ac	-0.25836694
103	0x3e3ce9c2	0.18448547
104	0x3ed2d3ec	0.4117731
105	0x3e250178	0.16113842
106	0x3e0c7adc	0.13718742
107	0x3e82eec3	0.25572786
108	0x3ea4d0c8	0.32190537
109	0xbecd8813	-0.4014288
110	0x3ec84ccd	0.39121094
111	0x3f105e6a	0.56394064
112	0xbc929969	-0.017895417
113	0x3e9870af	0.2977347
114	0x3eba08a1	0.36334708
115	0x3e152959	0.14566554
116	0xbe10c0d6	-0.14136061
117	0x3f18d3ab	0.5969798
118	0x3f05f759	0.5233055
119	0xbe85ba4d	-0.261187
120	0x3c004276	0.0078283455
121	0x3ece07c4	0.402403
122	0x3e0a10a2	0.13482907
123	0x3f0b3c67	0.5438904
124	0x3efca03d	0.49341002
125	0x3e974188	0.29542184
126	0x3e59c132	0.21265104
127	0x3c5b35bb	0.01337951
128	0x3e451b42	0.1924868
129	0x3f12b088	0.57300615
130	0x3eb0fec8	0.34569383
131	0x3e8a0316	0.2695548
132	0x3da7c760	0.08192325
133	0x3e86d9a1	0.26337913
134	0x3dff9fd1	0.124816544
135	0x3f2a7b3b	0.66594285
136	0x3f144025	0.57910377
137	0x3e6abf18	0.22924459
138	0x3e907ff9	0.28222635
139	0x3e105620	0.14095354
140	0x3e5b97f3	0.21444683
141	0x3f3778c3	0.7166864
142	0x3e9ceec9	0.3065093
143	0x3e4bfff6	0.1992186
144	0xbe690e8d	-0.22759457
145	0xbef99a2e	-0.48750442
146	0xbeabb14e	-0.3353371
147	0xbf4fca12	-0.8116771
148	0xbf0d5dfe	-0.55221546
149	0xbe949aaf	-0.29024264
150	0xbec7a657	-0.38994095
151	0xbece6410	-0.40310717
152	0xbf167b63	-0.58782023
153	0xbf2be13b	-0.6714055
154	0xbf14108b	-0.5783774
155	0xbef382d2	-0.47560745
156	0xbeca5836	-0.39520425
157	0xbe802eaa	-0.25035602
158	0xbef6148a	-0.48062545
159	0xbf17d458	-0.59308386
160	0xbf10ec24	-0.5661032
161	0xbeafec97	-0.3436019
162	0xbe8d1cb0	-0.2756095
163	0xbeab4b10	-0.33455706
164	0xbe9273ba	-0.28603917
165	0xbf1b55d5	-0.60677844
166	0xbee9a8fe	-0.45636743
167	0xbeb5acd1	-0.3548341
168	0xbd822216	-0.063541576
169	0x3d889788	0.06669527
170	0x3d948259	0.07251424
171	0x3d6e285f	0.05814397
172	0xbd92781a	-0.07151814
173	0xbe0e9049	-0.13922228
174	0xbd813171	-0.06308258
175	0xbda21ec2	-0.07916023
176	0xbe8261aa	-0.25465137
177	0xbdc0a7e8	-0.094070256
178	0xbdc5a407	-0.09650426
179	0xbdc7425c	-0.09729454
180	0xbe96491e	-0.2935266
181	0xbe2399f9	-0.15976705
182	0x3e21be67	0.15795289
183	0xbd6a4b95	-0.057200987
184	0xbe3c91d1	-0.18415
185	0x3dcac1c9	0.09900243
186	0xbdec4bac	-0.11537871
187	0xbe29dd2a	-0.16588274
188	0x3d844441	0.06458331
189	0x3d9226af	0.071362846
190	0xbe8aace7	-0.2708504
191	0x3e224baf	0.15849183
192	0x3e744baa	0.23856989
193	0x3f075574	0.52864766
194	0x3eaeaea7	0.34117624
195	0x3f250c05	0.64471465
196	0x3f021dfa	0.5082699
197	0x3e430efe	0.19048688
198	0x3ebffa9e	0.37495893
199	0x3eccd752	0.40008026
200	0x3ea6ae09	0.32554653
201	0x3f0c8f32	0.54906
202	0x3ef73238	0.482805
203	0x3eeabac3	0.45845613
204	0x3ecb0572	0.39652592
205	0x3e52ff20	0.20605135
206	0x3ec939ef	0.39302012
207	0x3ef70b6d	0.48250905
208	0x3eb1464d	0.34623948
209	0x3f026904	0.5094149
210	0x3e4186a2	0.18899015
211	0x3edab75e	0.42718023
212	0x3e9c566b	0.30534682
213	0x3f50eeeb	0.8161456
214	0x3eff1a3f	0.49824712
215	0x3e85327f	0.26015088
216	0x3ef77e6b	0.48338637
217	0x3f210283	0.6289446
218	0x3ed48a53	0.41511783
219	0x3f279e79	0.65476185
220	0x3ea2f8e6	0.3183052
221	0x3ec64c38	0.38730025
222	0x3eb14d1b	0.3462914
223	0x3e9a24ea	0.30106288
224	0x3f370881	0.7149735
225	0x3f49aa1e	0.78775203
226	0x3ec601d8	0.38673282
227	0x3e4f98ea	0.20273176
228	0x3f30f483	0.69123095
229	0x3eb70c3d	0.35751525
230	0x3eef9c4b	0.4679893
231	0x3ee4bc38	0.4467485
232	0x3f12c5ba	0.57332957
233	0x3f0a8f52	0.5412494
234	0x3efe3501	0.49649814
235	0x3eedeed1	0.46471265
236	0x3ea40e4d	0.3204216
237	0x3f47b35c	0.78008056
238	0x3e2d1e03	0.1690598
239	0x3e828128	0.25489163
240	0x3e1ea4ad	0.15492506
241	0x3e4a6edd	0.19768853
242	0x3ef03a1c	0.46919334
243	0x3f1bd21b	0.6086747
244	0x3e38ce83	0.18047528
245	0x3e7b0189	0.24512304
246	0x3f23aeb4	0.6393845
247	0xbd9f0507	-0.07764631
248	0x3e18fee5	0.14940985
249	0x3f1b6855	0.60706073
250	0x3e825a13	0.25459346
251	0x3ed3ca8a	0.41365463
252	0x3dcdc9f6	0.100482866
253	0x3ef4a424	0.4778148
254	0x3d8d6e79	0.069058366
255	0x3eeba1d2	0.46021897

bias f4 [36]
0	0x3e24daac	0.16099042
1	0x3edfe2af	0.43727633
2	0xbdc72c0f	-0.097252004
3	0x3f483c8b	0.7821738
4	0x3dab7e5e	0.08373712
5	0x3f031d09	0.5121618
6	0xbed72766	-0.42022246
7	0xbe348195	-0.17627557
8	0x3ec02afe	0.375328
9	0x3efe8707	0.49712393
10	0x3eec07ac	0.46099603
11	0xbd64dc12	-0.055873938
12	0xbd336b04	-0.04380323
13	0x3eaffd02	0.34372717
14	0x3e92d9e7	0.2868187
15	0x3ea9a888	0.33136392
16	0x3dde78b1	0.10862864
17	0xbd8e6ece	-0.06954728
18	0x3ecd645b	0.40115628
19	0x3e64a439	0.22328271
20	0x3e871890	0.26385927
21	0x3f008bde	0.5021342
22	0x3e938d55	0.28818765
23	0xbd493cfe	-0.049130432
24	0x3d86261e	0.06550239
25	0xbe5903a2	-0.21192792
26	0x3e84f999	0.25971678
27	0xbdba00bf	-0.090821736
28	0x3dd04fdb	0.10171481
29	0x3f045aec	0.51701236
30	0xbe782ec7	-0.24236594
31	0x3f0e5b09	0.5560766
32	0x3f09f635	0.5389131
33	0x3efe866f	0.4971194
34	0x3ebc77d7	0.3681018
35	0x3d7f8e31	0.062391464

weight f4 [24, 36]
0	0x3d6f06ad	0.058355976
1	0x3e9bf1ce	0.3045792
2	0xbe29c1b5	-0.165778
3	0x3f2b5bfa	0.6693722
4	0x3f440963	0.76576823
5	0x3f50edb2	0.81612694
6	0xbee428e0	-0.44562435
7	0xbe21a27e	-0.15784642
8	0x3f3ba5a2	0.7329961
9	0x3f4ff19b	0.81228036
10	0x3f129566	0.57259214
11	0x3e9d77d9	0.307555
12	0xbdd508b7	-0.10402053
13	0x3e800852	0.25006348
14	0x3eb9a6fe	0.36260217
15	0x3ea4ec56	0.3221156
16	0x3ea0ff16	0.31444615
17	0xbe0f7536	-0.14009556
18	0x3f1a656b	0.60311
19	0x3e79f0cf	0.24408267
20	0x3ebec454	0.3725916
21	0x3f10991f	0.56483644
22	0x3f0d4327	0.5518059
23	0x3ca36a7a	0.019948233
24	0xbe487909	-0.19577421
25	0x3dab629d	0.08368418
26	0x3ee241ea	0.44190913
27	0x3e181713	0.14852552
28	0x3d8797d7	0.06620758
29	0x3f13d4e6	0.5774673
30	0x3dce957c	0.10087106
31	0x3f396682	0.7242204
32	0x3f020e2a	0.5080286
33	0x3f216240	0.6304054
34	0x3edea55a	0.43485528
35	0x3e63939e	0.2222428
36	0xbe3267a5	-0.1742235
37	0xbe5ed2ef	-0.21760152
38	0xbe165696	-0.14681467
39	0x3bd1ea53	0.0064061075
40	0xbe086e79	-0.13323392
41	0xbd85b79f	-0.065291636
42	0x3e58aca1	0.21159603
43	0xbaced48b	-0.0015779895
44	0xbdad8e87	-0.084744506
45	0xbd83264a	-0.064037874
46	0xbd579795	-0.052634794
47	0xbdd654ae	-0.1046537
48	0xbd976881	-0.073929794
49	0xbd6edb10	-0.058314383
50	0xbe046421	-0.12928821
51	0xbdbfe9e3	-0.09370782
52	0x3ca7b2a0	0.020470917
53	0xbbd5c62e	-0.006523869
54	0xbe2f46e4	-0.17116886
55	0x3d2122ce	0.039339833
56	0x3db3337a	0.08750053
57	0x3c95b858	0.018276379
58	0x3b907d68	0.004409481
59	0x3e0abe7a	0.13549224
60	0x3d52ff56	0.05151304
61	0xbe344c31	-0.1760719
62	0x3d340dda	0.043958522
63	0xbc7b6f24	-0.015346322
64	0xbd6b953f	-0.05751538
65	0x3d9009e5	0.07033137
66	0x3cd05919	0.02543311
67	0xbe345ad0	-0.17612767
68	0x3bebac10	0.0071921423
69	0xbe34448c	-0.17604274
70	0x3d20ca82	0.039255626
71	0xbdbd9b6e	-0.092581615
72	0xbdf6eeb0	-0.12057245
73	0x3c4e8e9f	0.012607246
74	0xbdbf80a0	-0.09350705
75	0xbd21aa6f	-0.03946918
76	0xbe291104	-0.16510397
77	0x3e123720	0.14278841
78	0x3e3cf3d8	0.18452394
79	0x3dd7aa2a	0.10530503
80	0xbe047a17	-0.12937199
81	0xbdf52f2e	-0.119718894
82	0xbd980908	-0.074235976
83	0xbe1b238d	-0.1515028
84	0x3cad0dc6	0.021124732
85	0x3cc881c7	0.024475945
86	0xbe5637c9	-0.20919718
87	0x3cafc806	0.021457683
88	0x3d0c9ea5	0.034330983
89	0xbe29343a	-0.16523829
90	0xbdf3c98e	-0.11903678
91	0xbe02c8be	-0.1277189
92	0xbd0e7a36	-0.03478452
93	0xbbda5b23	-0.0066636964
94	0xbc88528c	-0.016640924
95	0xbd5b6b6a	-0.053569235
96	0x3da54444	0.08069661
97	0xbd3d8ac1	-0.046274904
98	0x3d78c4a0	0.06073439
99	0xbb1c974e	-0.0023893896
100	0xbcd0ad0e	-0.025473144
101	0x3ceb9f7c	0.028762572
102	0x3da0a07b	0.07843109
103	0xbbef0611	-0.0072944243
104	0xbdbca5df	-0.09211325
105	0xbde5013e	-0.111818776
106	0xbe3e9e18	-0.18614995
107	0x3e114580	0.14186668
108	0xbd2e634c	-0.042575166
109	0xbe29853c	-0.16554731
110	0xbe00e59b	-0.12587588
111	0xbdb2f58d	-0.08738241
112	0xbdf0db03	-0.11760523
113	0x3c60f2a5	0.013729726
114	0x3e1d4b4e	0.15360758
115	0xbcf1759d	-0.029475028
116	0xbeaed441	-0.34146312
117	0x3d174aad	0.03693645
118	0x3c83414d	0.016022349
119	0xbd8ab40d	-0.06772623
120	0x3d862efd	0.06551931
121	0xbd89a23e	-0.06720398
122	0xbdd27a7b	-0.102772675
123	0xbdaa0f1f	-0.08303665
124	0x3d8f1aa9	0.06987507
125	0xbda1c147	-0.07898193
126	0x3d7dfcfc	0.062008843
127	0xbd909ffd	-0.07061765
128	0xbe12f1fc	-0.14350122
129	0xbeaa2b53	-0.3323618
130	0xbeb2a57c	-0.3489188
131	0xbe244819	-0.16043128
132	0xbd85462e	-0.06507526
133	0xbd372fc9	-0.044723306
134	0xbe82ff7a	-0.25585538
135	0x3bfb0c49	0.0076613766
136	0xbd4200e9	-0.04736415
137	0x3981b1f6	0.0002473739
138	0x3dcf0c9d	0.10109828
139	0xbe255946	-0.16147336
140	0xbe09d775	-0.13461097
141	0x3d10e085	0.03537037
142	0xbe815dd2	-0.25266892
143	0xbe473636	-0.19454274
144	0x3ccadfcc	0.024764918
145	0xbe6fdf3d	-0.23425002
146	0xbd771caf	-0.06033009
147	0xbe011e56	-0.12609228
148	0xbe4b5355	-0.19856007
149	0xbe6c0f84	-0.23052794
150	0xbd8c23c7	-0.068427615
151	0xbde6e320	-0.112737894
152	0xbeae1aa2	-0.34004694
153	0xbead517a	-0.33851224
154	0x3caebf86	0.02133156
155	0xbe1857de	-0.14877269
156	0x3d918105	0.07104687
157	0xbddbf496	-0.107400104
158	0x3c44958c	0.011998545
159	0xbe8abfcb	-0.2709945
160	0xbe7bd080	-0.24591255
161	0x3d31e5fe	0.04343223
162	0xbe9fccfe	-0.31211084
163	0xbe5221c8	-0.20520699
164	0x3d884a2d	0.06654773
165	0xbe00ff2c	-0.1259734
166	0xbc88c027	-0.016693188
167	0x3d8c0633	0.0683712
168	0x3c84865a	0.016177345
169	0xbe06d353	-0.13166551
170	0xbe05966e	-0.13045666
171	0xbe1a92b6	-0.15095028
172	0x3d696c6a	0.056988157
173	0xbed104b5	-0.40823904
174	0x3e36768d	0.17818661
175	0xbdc0a3b4	-0.09406224
176	0xbf068fed	-0.52563363
177	0xbed55111	-0.4166341
178	0xbf110116	-0.5664228
179	0xbe852198	-0.26002192
180	0x3e1492c1	0.14509107
181	0xbe34e456	-0.17665228
182	0x3df7b872	0.12095727
183	0xbe3cc8a9	-0.18435921
184	0xbe6e7bae	-0.23289368
185	0x3dd2eab7	0.102986746
186	0x3c87df0d	0.016585851
187	0xbdc770bb	-0.097382985
188	0x3d1be009	0.038055453
189	0xbdb963a9	-0.09052212
190	0xbe2a6a4d	-0.16642113
191	0x3e134408	0.1438142
192	0x3e1a7a2e	0.1508567
193	0x3dd9a78f	0.106276624
194	0xbe3c8308	-0.1840936
195	0xbd9b4c41	-0.07582904
196	0xbde0f601	-0.109844215
197	0xbda5b0fa	-0.08090396
198	0xbe182e03	-0.14861302
199	0xbdf07911	-0.117418416
200	0xbca85b50	-0.020551354
201	0xbe6b5688	-0.22982228
202	0x3d86b25c	0.06576988
203	0xbe06a104	-0.1314736
204	0xbdf4a6ec	-0.119459
205	0xbde29beb	-0.11064895
206	0xbd16e925	-0.036843438
207	0xbdcc5e57	-0.099789314
208	0xbe01dca4	-0.12681824
209	0xb92adbe1	-0.00016294375
210	0xbddf6402	-0.10907747
211	0x3d2f96f0	0.042868555
212	0xbe1f2168	-0.15540087
213	0x3d9363e5	0.07196788
214	0x3d33191d	0.04372512
215	0x3d905f9d	0.07049487
216	0x3d89c948	0.067278445
217	0x3e9e3cb4	0.30905688
218	0xbd51d785	-0.051230926
219	0x3ee03c25	0.43795887
220	0x3db1eec4	0.08688119
221	0x3ed16ba2	0.4090243
222	0xbe5f8f06	-0.21831903
223	0xbe0c1658	-0.13680398
224	0x3ef42bc0	0.4768963
225	0x3ebd98f3	0.37030753
226	0x3e935fbb	0.28783974
227	0x3d470c72	0.048595853
228	0xbe316264	-0.1732269
229	0x3ea5ccb2	0.32382733
230	0x3e2852fd	0.16437908
231	0x3e434bdb	0.19071905
232	0x3e224ecd	0.15850373
233	0x3de6b701	0.11265374
234	0x3e0e9efb	0.13927834
235	0x3ed02332	0.40651852
236	0x3e626d45	0.22111996
237	0x3efda764	0.4954177
238	0x3eac7405	0.33682266
239	0xbdfb5a76	-0.122731134
240	0xbea73044	-0.3265401
241	0x3d931f38	0.07183689
242	0x3e94e92c	0.29084146
243	0x3d84d0f6	0.06485169
244	0xbdd8d1d9	-0.105869
245	0x3e4607e6	0.1933895
246	0xbdda86a1	-0.1067021
247	0x3f1e3252	0.6179553
248	0x3f16cba5	0.58904487
249	0x3ee0d20e	0.4391026
250	0x3e9a8378	0.30178428
251	0x3cf56981	0.029957535
252	0x3e249459	0.16072215
253	0x3e82b8e8	0.25531697
254	0x3d018029	0.031616364
255	0x3ea4d655	0.32194772

bias f4 [24]
0	0x3ef7d46f	0.4840426
1	0xbd39b2b1	-0.04533643
2	0xbde2fb92	-0.110831395
3	0xbe42f5f9	-0.19039144
4	0xbe116c93	-0.14201574
5	0x3ddee2a9	0.10883076
6	0x3e00e07a	0.12585631
7	0x3e9d7046	0.3074972
8	0x3e865658	0.2623775
9	0xbc6e115f	-0.014530509
10	0x3e572030	0.21008372
11	0x3dc952e7	0.098302655
12	0x3edad3d6	0.42739743
13	0x3c635082	0.013874175
14	0x3e64ccee	0.223438
15	0x3e1869b0	0.14884067
16	0x3de6f992	0.112780705
17	0x3eab327d	0.33436957
18	0xbd801d54	-0.06255594
19	0xbe05814f	-0.13037609
20	0x3e891128	0.26770902
21	0x3e31184e	0.17294428
22	0x3ea87f9b	0.32909855
23	0x3e27b054	0.16375858

weight f4 [8, 24]
0	0x3eb8f979	0.36127833
1	0x3c8b3c6a	0.016996581
2	0x3e29d8c4	0.16586596
3	0xbe04d7ad	-0.12972899
4	0xbec3bba2	-0.3822909
5	0x3dbc8c65	0.09206466
6	0x3ec55cb3	0.38547286
7	0x3f08c495	0.5342496
8	0x3ef86b48	0.4851935
9	0x3dd01680	0.101605415
10	0x3eec494b	0.46149668
11	0x3e5fffbd	0.218749
12	0x3f31202c	0.69189715
13	0x3c61de4c	0.01378591
14	0x3f2831c9	0.65700966
15	0x3e6d3938	0.23166358
16	0x3e036daf	0.1283481
17	0x3e1e45fb	0.15456383
18	0xbda3694a	-0.07979067
19	0x3dda8a79	0.10670943
20	0x3f637c03	0.888611
21	0xbc2014dd	-0.009770599
22	0x3ed1e136	0.40992135
23	0x3ed589ad	0.417066
24	0xbe9f33a2	-0.3109408
25	0x3d79254d	0.06082659
26	0xbd363900	-0.044487953
27	0x3ee066af	0.4382834
28	0x3eb79446	0.3585531
29	0x3d91c1c3	0.07117035
30	0xbeeb62aa	-0.45973712
31	0xbf022d91	-0.5085078
32	0xbf2608db	-0.6485726
33	0xbe02dd8d	-0.12779827
34	0xbf06a28a	-0.52591765
35	0xbefd1f43	-0.49437913
36	0xbf2ddf05	-0.67918426
37	0xbe7ecbf3	-0.24882488
38	0xbf08b02e	-0.5339383
39	0xbefdf537	-0.49601147
40	0xbe0c6846	-0.13711652
41	0xbee04dc1	-0.43809322
42	0xbd132a14	-0.0359288
43	0x3ed48c04	0.41513073
44	0xbf53e678	-0.8277354
45	0xbf173e9a	-0.590799
46	0xbf2a5816	-0.6654066
47	0xbe938e0e	-0.28819317
48	0x3eefcabf	0.4683437
49	0xbda691a1	-0.08133245
50	0xbe36b91c	-0.17844051
51	0xbe42009b	-0.18945543
52	0xbe74714e	-0.23871347
53	0xbe04f93e	-0.12985703
54	0x3edb59a1	0.4284182
55	0x3e8e63d3	0.27810535
56	0x3ecdafda	0.40173227
57	0xbe29b5f1	-0.16573311
58	0x3e93c4e3	0.2886115
59	0x3ec3042d	0.38089123
60	0x3f34240f	0.7036752
61	0x3eacf8a3	0.33783445
62	0x3efcbe27	0.49363825
63	0x3ddbf2eb	0.10739692
64	0x3f010f55	0.5041402
65	0x3f0abe30	0.54196453
66	0x3e248813	0.16067533
67	0xbe8da71f	-0.27666566
68	0x3f096fd1	0.53686243
69	0x3ed50c93	0.41611156
70	0x3ed64213	0.41847286
71	0x3eaee40b	0.34158358
72	0x3f21d897	0.63221115
73	0xbdaf8029	-0.085693665
74	0x3de549e7	0.111957364
75	0xbe3cff20	-0.18456697
76	0xbe4755ee	-0.19466373
77	0xbd2f07fe	-0.04273223
78	0x3ece9bdf	0.40353295
79	0x3e30b606	0.17256936
80	0x3f09f956	0.5389608
81	0xbd92c231	-0.07165945
82	0x3ed9a5c2	0.42509276
83	0x3ec1b2cc	0.37831724
84	0x3f677a07	0.90420574
85	0x3f07dc1e	0.5307025
86	0x3f50970e	0.8148049
87	0x3de44ef5	0.11147872
88	0x3f087c86	0.5331501
89	0x3f11ea99	0.5699859
90	0x3ccc48df	0.024937091
91	0x3d3356b3	0.043783855
92	0x3eb3b7f9	0.35101297
93	0x3ea9cae2	0.331626
94	0x3e59d830	0.21273875
95	0x3f30c6db	0.6905343
96	0xbcc386d7	-0.023868008
97	0xbddc1e68	-0.10747987
98	0x3e349bb0	0.17637515
99	0x3e68a116	0.227177
100	0x3e96b024	0.2943126
101	0xbd6fc3d5	-0.05853637
102	0xbebd807a	-0.37012082
103	0xbe3c26d0	-0.18374181
104	0xbe5b433b	-0.21412365
105	0x3e30f916	0.17282519
106	0xbda7d42a	-0.08194764
107	0xbeca82e0	-0.39552975
108	0xbe040230	-0.1289146
109	0xbe934ed0	-0.28771067
110	0xbe0125e2	-0.12612107
111	0x3d626296	0.0552698
112	0xbe48efab	-0.19622676
113	0xbe73c1a9	-0.23804344
114	0x3e1e4782	0.15456966
115	0x3d205860	0.03914678
116	0xbcfd08c5	-0.03088797
117	0xbea04e05	-0.31309524
118	0xbd958c9c	-0.0730221
119	0x3d15259f	0.03641283
120	0xbe326288	-0.17420399
121	0xbd600d02	-0.054699905
122	0x3d2d90d9	0.042374466
123	0x3eb4ed22	0.35337168
124	0x3e593e9e	0.21215293
125	0xbd05cd39	-0.03266642
126	0xbe99bae3	-0.30025396
127	0xbd9bb15b	-0.07602187
128	0xbe004c38	-0.12529075
129	0x3d6df0da	0.058091022
130	0x3d86118f	0.06546318
131	0xbe2745b0	-0.16335177
132	0xbef9b572	-0.48771244
133	0xbc4c5f99	-0.012473964
134	0xbd0c2059	-0.034210537
135	0xbe384769	-0.17995991
136	0x3cccc36a	0.024995524
137	0xbe3861ce	-0.1800606
138	0x3e38a5b8	0.18031967
139	0x3e379480	0.17927742
140	0xbeb4b901	-0.35297397
141	0x3c448648	0.011994906
142	0xbeaa53b7	-0.33266994
143	0xbea6869b	-0.3252457
144	0x3f00d477	0.50324196
145	0xbd7b0ac7	-0.061289575
146	0xbdfd387b	-0.123642884
147	0x3d1d68c7	0.03843
148	0xbebd2e08	-0.36949182
149	0x3d67ade9	0.056562338
150	0x3f12a33a	0.57280314
151	0x3ef32a18	0.47493052
152	0x3e802abe	0.2503261
153	0xbe41da41	-0.18930914
154	0x3ef36648	0.47538972
155	0x3efd8278	0.49513602
156	0x3f037567	0.51351017
157	0x3f048854	0.5177052
158	0x3ed72fec	0.4202875
159	0x3e965649	0.29362705
160	0x3effdbcc	0.4997238
161	0x3f043667	0.5164551
162	0x3c6ab645	0.014325683
163	0xbe0c34e9	-0.13692059
164	0x3f0784bb	0.52936906
165	0x3e5bd64b	0.21468465
166	0x3e1f7000	0.15570068
167	0x3de55532	0.1119789
168	0x3f4aaed4	0.79173017
169	0xbe216fd7	-0.1576532
170	0x3db51ba4	0.08843163
171	0xbd6b459f	-0.057439443
172	0xbd9654b9	-0.07340378
173	0xbe4d2ba3	-0.20036177
174	0x3ebd371d	0.3695611
175	0x3e3b6153	0.18298845
176	0x3f16c3dc	0.5889261
177	0xbe8cae5f	-0.27476785
178	0x3f0af098	0.54273367
179	0x3f0618e3	0.52381724
180	0x3f1529de	0.5826701
181	0x3e857192	0.2606321
182	0x3f0668db	0.52503747
183	0x3ddac9e1	0.106830366
184	0x3eb3e5cf	0.35136268
185	0x3ea63de5	0.32469097
186	0xbde0d17e	-0.109774575
187	0xbdf7d4f7	-0.12101167
188	0x3f195df0	0.5990896
189	0x3e52e4de	0.20595118
190	0x3ebc8ca3	0.36826047
191	0x3e891158	0.26771045

bias f4 [8]
0	0x3e188189	0.14893164
1	0xbef72e65	-0.48277584
2	0x3e380434	0.17970353
3	0x3d29b301	0.041430477
4	0xbd78ab69	-0.060710344
5	0xbebf3326	-0.3734371
6	0x3e8c01a9	0.27345017
7	0x3e0370a3	0.12835936

weight f4 [2, 8]
0	0x3e3f4088	0.1867696
1	0xbf04a90e	-0.51820457
2	0x3e83dab4	0.25752795
3	0x3eace877	0.33771107
4	0xbf06b5d7	-0.52621216
5	0xbe8438cf	-0.25824592
6	0x3eabb924	0.3353969
7	0x3ea42a4e	0.32063526
8	0xbf6da237	-0.92825645
9	0x3f99779d	1.1989628
10	0xbf4da2b9	-0.8032642
11	0xbf4080f2	-0.75196755
12	0x3ec193b1	0.37807992
13	0x3ec9c902	0.3941117
14	0xbf94cc69	-1.1624881
15	0xbfac8f7c	-1.3481288

bias f4 [2]
0	0x3e1b8bcd	0.15190049
1	0xbd3a89f9	-0.045541737
