Network2/paramsPre/mlp_nwParams15.pth (torch_old, 91202 bytes, 8 tensors)

weight f4 [102, 90]
0	0xbfb57a38	-1.4177923
1	0x3f26efd9	0.6520973
2	0x3f354273	0.7080452
3	0xbf1c7a89	-0.61124474
4	0x3f92a435	1.1456362
5	0xbfb11337	-1.3833989
6	0x3f1a7ae9	0.60343796
7	0xbfafc462	-1.3731806
8	0x3f078b33	0.52946776
9	0xbeb07f76	-0.34472245
10	0xc085e467	-4.184131
11	0x3f660ead	0.89866143
12	0x3f2c882d	0.6739529
13	0x3f2ebdb1	0.68258196
14	0xbfad513c	-1.3540416
15	0x4005ec0e	2.0925326
16	0xc027d4af	-2.6223562
17	0xc01b7241	-2.4288485
18	0xbfaf8172	-1.3711379
19	0x3f0454aa	0.5169169
20	0x3f37c1ef	0.71780294
21	0xbf822c5d	-1.0169789
22	0x3faf1fa8	1.3681536
23	0xc01ab141	-2.4170687
24	0x3f2fcb3b	0.6866948
25	0xbfa3d2b8	-1.2798681
26	0x3f22a50f	0.6353311
27	0x3fb4fdae	1.4139917
28	0xc08841b2	-4.2580194
29	0x3d727867	0.059196856
30	0x3f0a7f59	0.5410057
31	0x3f391411	0.72296244
32	0xbfa7f238	-1.3120794
33	0x402dabbf	2.7136075
34	0xc0499226	-3.1495452
35	0xc07a1576	-3.9075599
36	0xbfb80482	-1.4376376
37	0x3f2723db	0.65289086
38	0x3f249e6b	0.64304227
39	0xbfcf926f	-1.6216563
40	0x3fefb83c	1.8728099
41	0xc07ace0d	-3.9188263
42	0x3f2ed7a7	0.6829781
43	0xbfa25008	-1.2680674
44	0x3f26aadd	0.65104467
45	0xbf74b7e5	-0.955931
46	0xc0531eb0	-3.298748
47	0x3f484b9f	0.7824039
48	0x3f0a5a31	0.5404387
49	0x3f37bf49	0.71776253
50	0xbfa71b8e	-1.3055284
51	0x3f32e3c6	0.69878805
52	0xbe6f4fe3	-0.23370318
53	0xbf4db450	-0.8035326
54	0xbfb2dbe0	-1.397335
55	0x3f04fdb1	0.519496
56	0x3f46cecb	0.7765929
57	0x3f005ec6	0.5014461
58	0x3fb2c4ea	1.3966343
59	0xc05a6490	-3.4123878
60	0x3f1bcc2f	0.60858434
61	0xbfaff3dc	-1.3746295
62	0x3ef44ca1	0.47714713
63	0xbe558161	-0.20850135
64	0xc093a4b7	-4.613857
65	0x3f3e5b8c	0.7435844
66	0x3f0b24e5	0.5435317
67	0x3f3461dd	0.7046183
68	0xbfa4d1e4	-1.2876554
69	0x3fbd1a5c	1.4773669
70	0xc062ab36	-3.5417
71	0xbfe8abaf	-1.8177394
72	0xbfa34acc	-1.2757201
73	0x3f12cedd	0.573469
74	0x3f3c7127	0.73610157
75	0xbf82637f	-1.0186614
76	0x3f7e3465	0.992987
77	0xc072dc31	-3.7946894
78	0x3f16c641	0.5889626
79	0xbfaf79aa	-1.3709004
80	0x3f276a0d	0.65396196
81	0xbf865141	-1.0493547
82	0xc017fb84	-2.3747263
83	0x3f5e633c	0.8687017
84	0x3f0c3953	0.5477497
85	0x3f41320d	0.75466996
86	0xbfa4e898	-1.2883482
87	0x40870237	4.2190204
88	0xc063ff04	-3.56244
89	0xc103b005	-8.2304735
90	0xbfa595f2	-1.2936385
91	0x3f26a278	0.6509166
92	0xbf5dd5cb	-0.8665435
93	0xbfc0c86e	-1.5061166
94	0xc06c4677	-3.6918008
95	0xc02fc5e4	-2.7464533
96	0xbf6cebac	-0.92547107
97	0xbfa1fd04	-1.2655339
98	0x3f54ed06	0.8317417
99	0xc02f384e	-2.7378116
100	0xc08fcd5b	-4.493818
101	0xbec360b6	-0.38159722
102	0x3f34162a	0.7034632
103	0xbf50c475	-0.8154977
104	0xbfacf734	-1.351294
105	0xbfce2e44	-1.6107869
106	0xbf9bd1b7	-1.2173375
107	0x3bb0a6f8	0.005390998
108	0xbf9f256b	-1.2433294
109	0x3f55b594	0.8348019
110	0xbf5d8a21	-0.86538893
111	0xc01ea272	-2.4786649
112	0xc06c18ff	-3.6890256
113	0x3f704268	0.9385133
114	0xbf7ce1c3	-0.98781985
115	0xbfb55746	-1.4167259
116	0x3f2f0f3c	0.6838262
117	0xc0895a97	-4.2923083
118	0xc02aacbd	-2.666793
119	0xbeee7106	-0.46570605
120	0x3f34486e	0.7042302
121	0xbf803f27	-1.0019273
122	0xbfa2dda2	-1.2723887
123	0xc074beda	-3.8241487
124	0x4002d098	2.0439816
125	0xbf41b20f	-0.7566232
126	0xbfb10ce8	-1.3832064
127	0x3f426a3c	0.7594335
128	0xbf67a25c	-0.90482116
129	0x3ea8c28a	0.32960922
130	0xc0551ee4	-3.3300104
131	0xc0799e6b	-3.900294
132	0xbf6403f8	-0.89068556
133	0xbfa75f38	-1.3075933
134	0x3f4caab0	0.7994795
135	0xc08b363b	-4.35037
136	0xbfb838b6	-1.4392307
137	0xbef6dc68	-0.48215032
138	0x3f22e1fe	0.63626087
139	0xbf6760cc	-0.90382075
140	0xbfa46941	-1.2844621
141	0xbfd86cd7	-1.6908215
142	0xc06b5241	-3.6768954
143	0xbf7a793f	-0.97841257
144	0xbfaafd12	-1.3358481
145	0x3f3b9b0e	0.7328347
146	0xbf56aa9d	-0.83854085
147	0xc00f2891	-2.236851
148	0xc07659e1	-3.8492358
149	0xbf4508fe	-0.76966846
150	0xbf8071e7	-1.003476
151	0xbfa26771	-1.2687818
152	0x3f41e3a0	0.75737953
153	0xc01ae3ef	-2.420162
154	0xc08331c9	-4.0998273
155	0xbf283a6f	-0.6571416
156	0x3f24fe46	0.6445049
157	0xbf7e57dd	-0.9935282
158	0xbf9e6fc1	-1.2377855
159	0xbfb6d61d	-1.4284092
160	0xbf650090	-0.89453983
161	0xc03e87df	-2.977043
162	0xbfa3d4cc	-1.2799315
163	0x3f24189a	0.6410004
164	0xbf805a8c	-1.0027633
165	0xbf61f4f6	-0.88264406
166	0xc05c9105	-3.4463513
167	0xbfc8cb8b	-1.5687116
168	0xbf5d535e	-0.86455333
169	0xbfa1cc9d	-1.2640568
170	0x3f49eb6e	0.7887486
171	0xc071898a	-3.7740197
172	0xc001fe01	-2.0311282
173	0xbe8d003a	-0.27539235
174	0x3f4c4b30	0.7980223
175	0xbf5ddf91	-0.8666926
176	0xbfb33478	-1.4000387
177	0xc088b430	-4.2719955
178	0x409e0ecd	4.9393067
179	0x3ed886d4	0.42290366
180	0x40028dad	2.0398972
181	0x3fac26ac	1.3449302
182	0x3ea82e04	0.32847607
183	0xbf87559b	-1.0573
184	0xbd20403a	-0.03912375
185	0xbfd84e48	-1.689889
186	0x3e1633d5	0.1466821
187	0x3ffa337f	1.9546965
188	0x3fbea4a4	1.4893994
189	0xc01aa419	-2.4162657
190	0xbfb812e1	-1.4380761
191	0xbf479166	-0.77956235
192	0x3fa96178	1.323287
193	0x3e204df5	0.15654738
194	0x3ffd43a3	1.9786266
195	0xbed03c48	-0.4067099
196	0xc031629d	-2.7716439
197	0xc00a8d14	-2.1648607
198	0x3ffdb032	1.9819396
199	0x3fbe74fe	1.4879453
200	0x3e1a142b	0.15046756
201	0xbf45fa98	-0.773355
202	0x400284b4	2.0393496
203	0xc08155cb	-4.041723
204	0x3ea47226	0.32118338
205	0x40096bcf	2.147205
206	0x3fb319f2	1.3992293
207	0xc0635e96	-3.552648
208	0xbfe3913a	-1.7778695
209	0xbf84ef2f	-1.0385493
210	0x3fbb2dd2	1.4623358
211	0x3e6409fd	0.22269435
212	0x4007ad77	2.1199625
213	0x3f853f53	1.040995
214	0xc0836b24	-4.1068287
215	0xc01ab569	-2.4173224
216	0x40092ec6	2.1434798
217	0x3fbd8090	1.4804859
218	0x3e11c195	0.14234002
219	0xbfab7958	-1.3396406
220	0x3ffd1b1b	1.9773897
221	0xc053efde	-3.3115153
222	0x3e95d7f7	0.2926633
223	0x4002ed76	2.0457435
224	0x3faa2cf4	1.3294969
225	0xc0103bc7	-2.2536485
226	0xc00aa119	-2.1660826
227	0x3d5290a2	0.051407464
228	0x3fa80aa6	1.312825
229	0x3e45d67b	0.19320099
230	0x4007fe37	2.124891
231	0x3f7ae11f	0.9799976
232	0xc05a2133	-3.4082763
233	0xbffd0141	-1.9766008
234	0x4007d213	2.122197
235	0x3fb15aa8	1.3855791
236	0x3e822072	0.2541538
237	0xbe2a279a	-0.1661667
238	0x3fdacd7d	1.709396
239	0xc056a512	-3.353825
240	0x3e35403b	0.17700283
241	0x40052b05	2.0807507
242	0x3fb649e2	1.4241297
243	0xc05a37be	-3.4096522
244	0xc036d65e	-2.856834
245	0xbe691af5	-0.2276419
246	0x3fb635be	1.4235151
247	0x3e673303	0.22578053
248	0x3ffbecb8	1.9681616
249	0xc02db3af	-2.714092
250	0xbeafdff5	-0.34350553
251	0xbf6099be	-0.8773459
252	0x40021267	2.0323732
253	0x3fba872e	1.4572504
254	0x3e23755d	0.1596274
255	0xbe63b5da	-0.2223734

bias f4 [102]
0	0xbe931341	-0.28725627
1	0xbfca84a0	-1.5821724
2	0xbfcdd327	-1.6080064
3	0x3e64d5de	0.22347209
4	0x3f12f6a6	0.57407606
5	0x3e41d6a0	0.18929529
6	0xbfc137db	-1.5095171
7	0x3e5705ba	0.20998278
8	0xbfe66919	-1.8000823
9	0xbfa6c2fd	-1.3028256
10	0xbf0bbf12	-0.54588425
11	0xbe2c6c20	-0.16838121
12	0xc008590b	-2.1304348
13	0xbf69ee44	-0.9137919
14	0xbed00d66	-0.40635222
15	0xbff2b201	-1.8960572
16	0xbf8adafd	-1.084808
17	0xc024afbf	-2.5732267
18	0xc092382a	-4.569356
19	0xc0349e31	-2.8221552
20	0xbf6c426e	-0.92288864
21	0xbfcee3dd	-1.6163288
22	0xbf1b1795	-0.6058286
23	0xc0b7fffe	-5.749999
24	0xbff2b889	-1.8962566
25	0xbf0ee065	-0.5581115
26	0xc005c090	-2.089878
27	0x3e86ebcb	0.2635177
28	0xc084d87d	-4.151427
29	0xbf981b8a	-1.1883404
30	0x3f1a4478	0.60260725
31	0xc04c90af	-3.1963308
32	0xbede4f45	-0.43419853
33	0xc0217b66	-2.5231566
34	0xbc8b88cb	-0.017033001
35	0xbe40e45b	-0.1883711
36	0xbfb6129f	-1.4224433
37	0xbfb0d6ac	-1.3815513
38	0xbf08d6d6	-0.53452814
39	0x3f27fa23	0.65616053
40	0xbf33e7da	-0.7027565
41	0xbedb0de8	-0.42784047
42	0xbfa105a1	-1.2579843
43	0xbe604669	-0.2190186
44	0xbff3b613	-1.903994
45	0xbf9272cc	-1.1441283
46	0xbfa5c692	-1.2951224
47	0xbfe0bee7	-1.7558259
48	0xbf09e64b	-0.53867024
49	0xbfb9fb30	-1.4529781
50	0xbf3faf2a	-0.74876654
51	0xbf37468c	-0.7159202
52	0x3ee56c98	0.44809413
53	0xbf7aac95	-0.9791959
54	0xbe8bf3b3	-0.27334365
55	0xbfb88529	-1.4415637
56	0xbf56d443	-0.83917636
57	0xbf79efe5	-0.97631675
58	0xbfbaa0ee	-1.4580362
59	0x3e89244c	0.26785505
60	0xbf20f3c0	-0.62871933
61	0xbf92c0db	-1.1465105
62	0xbfd35364	-1.6509824
63	0x3e4b6a34	0.19864732
64	0xbf2a6ddb	-0.66573876
65	0x3f2da3a5	0.67827827
66	0x3e40ed4e	0.18840525
67	0xbf153556	-0.5828451
68	0xbecf34f4	-0.40470088
69	0xbf158a38	-0.5841403
70	0xbed1f00a	-0.41003448
71	0xbfcba507	-1.5909737
72	0xc02193cc	-2.5246458
73	0xbfae9e99	-1.364215
74	0xc048dabb	-3.1383502
75	0xc06474a0	-3.5696182
76	0xbe73061c	-0.237328
77	0xc05b80ec	-3.4297438
78	0xbee070ed	-0.43836156
79	0xc02c81ea	-2.6954293
80	0xbf7f61b9	-0.9975849
81	0xc03ad1fb	-2.9190662
82	0xbff1fa91	-1.8904592
83	0xbfcb107f	-1.5864409
84	0xbf3e644b	-0.74371785
85	0xbf135214	-0.57547116
86	0x3ee817e9	0.45330742
87	0xbec2d2c3	-0.38051423
88	0xbd0e4831	-0.034736816
89	0xbf42488c	-0.7589195
90	0xbf15694c	-0.58363795
91	0xbf683bf0	-0.9071646
92	0xbf99f62f	-1.2028254
93	0xc007c1df	-2.121208
94	0xbf102de6	-0.56320035
95	0xbf7a6c6e	-0.978217
96	0xbfc8f1db	-1.5698808
97	0xbc8712c0	-0.016488433
98	0x3ea6ef28	0.32604337
99	0xbf2914af	-0.66047186
100	0xbf1b869e	-0.60752285
101	0xbfe94d86	-1.8226783

weight f4 [90, 102]
0	0xc02da9b2	-2.7134824
1	0xc01439ae	-2.3160205
2	0xbfee1db2	-1.8602812
3	0xbf8805a6	-1.0626724
4	0xbed24248	-0.41066194
5	0xc0246fc5	-2.5693219
6	0xbf2880d4	-0.65821576
7	0x3fb069f5	1.3782336
8	0xc08aad93	-4.3336883
9	0x3ffff315	1.9996058
10	0xbd443411	-0.047901217
11	0xc05a925f	-3.4151838
12	0xc02a5ac9	-2.661791
13	0xc0196cca	-2.397265
14	0x4056c451	3.3557322
15	0xbf7b9654	-0.9827626
16	0xbfa87dd5	-1.3163401
17	0xbfd2a63a	-1.6456978
18	0xbe8ba7f0	-0.27276564
19	0xbfc2e778	-1.5226889
20	0x4045a8b5	3.088422
21	0x3ef269a5	0.47346225
22	0xbfd93baa	-1.6971333
23	0xbf9f8f8d	-1.2465683
24	0xbf3fe240	-0.74954605
25	0xc0134148	-2.3008595
26	0xbd60aea2	-0.054854043
27	0xc04dec3d	-3.2175438
28	0xbf2111fb	-0.6291806
29	0x3ed8c99f	0.42341325
30	0xbfee3f62	-1.8613093
31	0x3e918285	0.2841989
32	0x3fea5350	1.8306675
33	0x3f21c3b3	0.6318924
34	0x3d5e1fde	0.05422961
35	0x4081cac4	4.0560017
36	0x3e5bc5ee	0.21462223
37	0x3ef219bf	0.47285268
38	0xbf48c952	-0.7843219
39	0xbd686a36	-0.056741916
40	0xbfdb7e36	-1.7147892
41	0x3f959100	1.1684875
42	0xbfb578c8	-1.4177485
43	0xc03f428b	-2.9884365
44	0xbe72c848	-0.23709214
45	0xbf9267e4	-1.1437955
46	0xbf150466	-0.58209836
47	0xbfc3b9ea	-1.5291111
48	0xbf5fd638	-0.87436247
49	0xc03094c7	-2.7590806
50	0x3fd46466	1.6593139
51	0xc03f2018	-2.9863338
52	0x3fd83102	1.6889956
53	0x40752566	3.8304076
54	0xbfbb697b	-1.4641565
55	0x3fb7dca9	1.4364215
56	0x3ec2fc23	0.3808299
57	0xc08d750a	-4.420537
58	0xbf892e92	-1.0717337
59	0xbfb91546	-1.4459617
60	0x3eb9f598	0.36320186
61	0xbfcfc7c3	-1.6232837
62	0xc0231c84	-2.5486155
63	0x406786f0	3.617611
64	0xc01b0114	-2.4219408
65	0x401d029f	2.453285
66	0x3fea23d2	1.8292181
67	0xbf9d2b42	-1.2278826
68	0x3ff2098f	1.8909167
69	0xbfd9412c	-1.6973014
70	0x3e8329bd	0.2561778
71	0xc089d835	-4.3076425
72	0xc02375f9	-2.5540755
73	0xc067f725	-3.6244595
74	0xbec02aca	-0.37532645
75	0xbff2de53	-1.8974098
76	0xc01f8221	-2.4923174
77	0xbf81534e	-1.0103548
78	0xc0535e4e	-3.302631
79	0xc008e09c	-2.138709
80	0xbed28da0	-0.41123676
81	0xbfd2734f	-1.6441439
82	0xc0164e7b	-2.34854
83	0xbf5a9094	-0.8537686
84	0xbf147519	-0.57991177
85	0xc0370826	-2.8598723
86	0xbdc156b2	-0.09440364
87	0x3e8e0fa4	0.27746308
88	0xc020d6a8	-2.5131016
89	0x3e535fdd	0.20642038
90	0x3f8b124a	1.0864956
91	0xc0606663	-3.5062492
92	0xc035c7b2	-2.8403134
93	0x3f475ef7	0.7787928
94	0xc07c9f6c	-3.9472303
95	0xbe8748d6	-0.26422757
96	0x3ee936a5	0.45549503
97	0xc0119ee9	-2.275324
98	0xbef8057f	-0.48441693
99	0xbff36931	-1.9016477
100	0xbffef352	-1.9918005
101	0xbf2c4008	-0.67285204
102	0xc030d881	-2.7632143
103	0x3fc4f85b	1.5388292
104	0x4008a372	2.134976
105	0x40136341	2.302933
106	0x3f83dab0	1.0301113
107	0xc01cb058	-2.4482632
108	0xbffe670d	-1.9875199
109	0x3fb70dcd	1.4301087
110	0x3f5e91c9	0.869412
111	0x3f6a00b8	0.91407347
112	0x4067294e	3.611896
113	0xbec8a70d	-0.3918995
114	0x3fe667a0	1.8000374
115	0xbfa8bd3e	-1.3182752
116	0xc083d43f	-4.119659
117	0xc00501ca	-2.0782342
118	0xc04839e4	-3.1285334
119	0x3f53feef	0.8281087
120	0xbff4e708	-1.9133005
121	0x3f99bd36	1.2010868
122	0xc0994fb5	-4.79098
123	0xbfe0de31	-1.7567807
124	0x3fd87d73	1.6913284
125	0x3f6943ba	0.9111897
126	0x3f008b26	0.50212324
127	0xbffb1c0a	-1.9617932
128	0x3e23637c	0.15955919
129	0xc061a123	-3.52546
130	0x3f667e7f	0.9003677
131	0x3e2db179	0.16962232
132	0x3fe16145	1.7607809
133	0xc00958f6	-2.1460547
134	0xbe13156f	-0.14363645
135	0xc00f9d90	-2.2439919
136	0xbe541915	-0.20712693
137	0xc0159409	-2.3371603
138	0x3db58945	0.08864073
139	0xc045ce64	-3.090722
140	0xc08c1c47	-4.378452
141	0x3fe84f36	1.8149173
142	0xbff6cd35	-1.9281374
143	0xc0647ba3	-3.5700462
144	0x3efaf7b5	0.4901711
145	0x3fb9f36a	1.4527409
146	0x3e876106	0.2644121
147	0xbcfbf465	-0.030756185
148	0xc02002fd	-2.5001824
149	0x3fc819cf	1.5632876
150	0x3fe8d807	1.8190926
151	0x3e706d1e	0.23479125
152	0xc08e8d16	-4.4547224
153	0x3fb5acac	1.419332
154	0xc047a43b	-3.1193988
155	0xc065b92f	-3.5894277
156	0xbf8d15b7	-1.1022252
157	0xbe929591	-0.28629735
158	0x3f918c9a	1.1371033
159	0xc09ad679	-4.8386807
160	0x404f0800	3.2348633
161	0x3f48b9a9	0.78408295
162	0xc0439aa1	-3.0563128
163	0xbfbd2040	-1.4775467
164	0xc054f204	-3.3272715
165	0xc005882e	-2.0864367
166	0xbfc5d255	-1.5454813
167	0xbf148c58	-0.5802665
168	0xc0b0f61d	-5.530043
169	0x3f8b2ab5	1.0872408
170	0x3f23b17f	0.6394271
171	0xbf7a8049	-0.97852
172	0xc026eb47	-2.6081102
173	0xc06abe1e	-3.6678538
174	0xbe7e3d69	-0.24828114
175	0xbf9efb87	-1.242051
176	0xbf8ae59f	-1.0851325
177	0x3fa48788	1.2853861
178	0xbfa699c0	-1.3015671
179	0xbf243920	-0.64149666
180	0x4085dc72	4.18316
181	0xbfa2dbfc	-1.2723384
182	0x3c8cdd4c	0.017195366
183	0xc0569272	-3.3526883
184	0xc03f0052	-2.9843946
185	0x3e85d67e	0.26140207
186	0x3fdca604	1.7238164
187	0x3f3d4571	0.73934084
188	0x3fb23deb	1.3925146
189	0xbe66b502	-0.22529987
190	0xc0392a57	-2.8932092
191	0xc08ee43b	-4.46536
192	0xbff13e85	-1.8847204
193	0xc09230eb	-4.5684714
194	0x4040b43d	3.0110009
195	0xbe4576f4	-0.19283658
196	0x3fedf9cf	1.859186
197	0xbff04b47	-1.8772973
198	0xc00b82c1	-2.1798556
199	0x3ed1c14a	0.4096778
200	0x4011b745	2.276811
201	0x3eafc130	0.34327078
202	0xc0405088	-3.0049152
203	0xc0505266	-3.2550292
204	0xc04631c8	-3.0967884
205	0x4035d69f	2.8412244
206	0xc03c7999	-2.9449217
207	0xbffe4909	-1.9866039
208	0x3f5b394e	0.85634315
209	0x40873260	4.2248993
210	0x3f38e6a6	0.7222694
211	0xbee55530	-0.44791555
212	0x409e1e63	4.9412093
213	0xb9c1e6ee	-0.00036983885
214	0x405b4062	3.4258046
215	0x40d6f3c1	6.717255
216	0x40cc9033	6.3926024
217	0x40a95e80	5.2927856
218	0x3fa464c6	1.2843254
219	0x40b04da1	5.509476
220	0x3ece88a3	0.4033862
221	0x407e54a4	3.973916
222	0xbf0147b4	-0.50500035
223	0x408e6f95	4.451121
224	0xc08787d3	-4.23533
225	0x40554dc7	3.3328722
226	0x40187b4e	2.382526
227	0xbebd50e1	-0.36975768
228	0x4020dc60	2.5134506
229	0x40fdc1bd	7.9298997
230	0x4100ed4c	8.057934
231	0x3ffdc9b1	1.9827176
232	0x3f6953ce	0.911435
233	0x40d79168	6.7365
234	0xc03b15c9	-2.9232047
235	0xbf4f955c	-0.8108728
236	0xbf37e496	-0.7183317
237	0xbe71dfcd	-0.2362053
238	0xbebaf5a0	-0.36515522
239	0xbf671ff0	-0.9028311
240	0x402c1b6c	2.6891737
241	0x3e7aeb9e	0.24503943
242	0x407a89ba	3.9146562
243	0x3f86b977	1.0525349
244	0x3f15a2c8	0.5845151
245	0xbfb52340	-1.4151382
246	0x40687fb2	3.632794
247	0x3f972f92	1.1811392
248	0x40658794	3.5864
249	0x3f4d0513	0.8008587
250	0xc035a25d	-2.8380349
251	0xbf5d5063	-0.86450785
252	0xc03c0ee9	-2.93841
253	0x40f141ac	7.5392666
254	0xc0495cd3	-3.1462905
255	0x40896a0b	4.2941947

bias f4 [90]
0	0x400089fc	2.008422
1	0x3fe15e05	1.7606817
2	0x3f32e4fd	0.6988066
3	0xc082d9ad	-4.0890718
4	0x3e8b2f1d	0.27184382
5	0xbfea8fe3	-1.8325161
6	0xbfbbe0a7	-1.4677933
7	0x404f03eb	3.2346141
8	0x40149609	2.3216574
9	0xbda370ea	-0.07980521
10	0xc052b3e2	-3.2922292
11	0xbf5984c5	-0.84968215
12	0x3f8c6151	1.0967199
13	0xbfb567c6	-1.4172294
14	0xbfc90ca9	-1.5706989
15	0xc003b99b	-2.0582035
16	0xc08c6c85	-4.388247
17	0xc0aa7a68	-5.327442
18	0xbe9e0317	-0.30861732
19	0xbf846ac4	-1.0345082
20	0x402585e5	2.5862973
21	0xbfffbf9a	-1.9980347
22	0x3f9c72d8	1.2222548
23	0xbfd70897	-1.6799496
24	0xbfb17047	-1.3862389
25	0x3fc2a724	1.5207257
26	0x3e0e82ef	0.13917135
27	0x3e9f2b83	0.31087884
28	0xbeaa1112	-0.3321615
29	0x3f90aa2b	1.1301931
30	0xc02a086f	-2.6567647
31	0x4016437c	2.347869
32	0xc0072b66	-2.1120238
33	0xbfcfe306	-1.6241157
34	0xc0031a68	-2.0484867
35	0xbf00c5ef	-0.5030202
36	0xbf36f7eb	-0.7147204
37	0xc08f1cb6	-4.4722548
38	0xbfab9c15	-1.3407007
39	0xc00af104	-2.1709604
40	0x3eb89b0a	0.36055785
41	0x3fb3e32e	1.4053705
42	0x3f85c326	1.045018
43	0xbf35b148	-0.70973635
44	0x3e31f292	0.1737769
45	0xc0090913	-2.1411788
46	0x3de1deae	0.11028801
47	0xc02f02aa	-2.7345376
48	0xbf246073	-0.6420967
49	0x3ff5f015	1.9213892
50	0x3e642d95	0.22283013
51	0x3ed0609e	0.40698713
52	0xc00e6f2a	-2.225535
53	0xbc59384c	-0.013258051
54	0x4063c6bf	3.5590055
55	0xc100a854	-8.041096
56	0x3daf9c67	0.08574753
57	0xbf9c1707	-1.2194527
58	0xbf9751e3	-1.1821865
59	0xbec4c8d5	-0.38434473
60	0xc00ed550	-2.2317696
61	0xbe82b31e	-0.2552728
62	0xc099ef84	-4.8104877
63	0x3eda6a47	0.42659208
64	0xc00a548b	-2.16141
65	0xbfd0b9e1	-1.6306726
66	0xc086e908	-4.215946
67	0xbf8da66c	-1.1066413
68	0xbf0c62da	-0.54838336
69	0xbf96a673	-1.1769546
70	0xc03d0430	-2.9533806
71	0xbe9bd4b3	-0.30435714
72	0xbfb39562	-1.4029963
73	0xbfb04dd0	-1.3773746
74	0xbf496a5a	-0.78677905
75	0xbfd2c621	-1.6466714
76	0xbf25c6e2	-0.64756596
77	0xc005943e	-2.087173
78	0xbfeaacf0	-1.8334026
79	0x406f4f3f	3.7392118
80	0x3d9ac879	0.075577684
81	0xbfdf248c	-1.7433028
82	0x408b47a5	4.3524957
83	0xbfd6d8a0	-1.6784859
84	0x3f1c50ce	0.610608
85	0xc00afea0	-2.171791
86	0xbcb3bde9	-0.021941142
87	0xc084e1fe	-4.152587
88	0x3f071059	0.5275932
89	0xbbae9208	-0.005327467

weight f4 [8, 90]
0	0xbebb9de4	-0.36643898
1	0xc0348d61	-2.821129
2	0xc0d9a965	-6.801928
3	0xbfd58983	-1.668259
4	0xc0811650	-4.0339737
5	0xc0abd005	-5.369143
6	0x400cc939	2.1997817
7	0xbf5e886e	-0.86926925
8	0xbf904094	-1.1269708
9	0x402d7031	2.7099726
10	0x3ff29ea6	1.8954666
11	0x407ef027	3.9834077
12	0x3ead203e	0.3381366
13	0x3ff835e0	1.9391441
14	0x3f494466	0.7861999
15	0xc07efb36	-3.9840827
16	0xbe85807c	-0.26074588
17	0x3fd84bef	1.6898173
18	0xc095a65f	-4.676559
19	0xbf18d49a	-0.59699404
20	0xbf7afba8	-0.98040247
21	0x4023c272	2.558743
22	0xc0241a89	-2.5641196
23	0xc09dcab0	-4.930992
24	0xbff71733	-1.9303955
25	0xc0420dd8	-3.032095
26	0xbfd3b864	-1.6540647
27	0x4002d932	2.0445065
28	0x3fe3388f	1.7751635
29	0x40830aca	4.095067
30	0x3f4099d8	0.75234747
31	0xbfe3b2d0	-1.7788944
32	0xc0ea9dd3	-7.3317657
33	0xc0c943e5	-6.289538
34	0xc07072d0	-3.7570076
35	0xc1044f10	-8.269302
36	0xc019acb2	-2.4011655
37	0x3da977af	0.08274781
38	0xc0e65006	-7.1972685
39	0x402c2407	2.689699
40	0xbeada674	-0.33916056
41	0xbf241d17	-0.6410689
42	0xc0a93b03	-5.2884536
43	0x405381eb	3.3048046
44	0xc0a9942b	-5.299337
45	0x3e62c449	0.2214519
46	0xc0932ca5	-4.5992
47	0x3fe5e8c4	1.796166
48	0x3f728e2a	0.94748175
49	0xbf206019	-0.62646633
50	0xc0899bd2	-4.300271
51	0xc0856c45	-4.1694665
52	0xc0bf28d8	-5.973736
53	0x4069d812	3.653813
54	0x3e24f32e	0.1610839
55	0x4002b435	2.042249
56	0xbfd775f7	-1.6832875
57	0xc04fbc4a	-3.2458673
58	0xc04e878b	-3.227023
59	0x40132221	2.298958
60	0xc08c80b5	-4.3907113
61	0xc082aa3b	-4.08328
62	0x3f5307ee	0.82433975
63	0x3f892c37	1.0716618
64	0x402c4e4d	2.692279
65	0xc0982024	-4.7539234
66	0x40034a38	2.051405
67	0x3f432299	0.76224667
68	0xc0a154b6	-5.0415907
69	0x3e9721df	0.2951803
70	0xbf771584	-0.96517205
71	0xbfa24da4	-1.2679944
72	0x400f2c50	2.2370796
73	0xbfcf675b	-1.6203417
74	0x3fc58a99	1.5432922
75	0xc0ffe877	-7.997127
76	0x401b0759	2.4223235
77	0xbf0c6632	-0.5484344
78	0x40150b74	2.328824
79	0x3f08a080	0.53369904
80	0xc00db767	-2.214319
81	0x4004c440	2.0744781
82	0xbf685533	-0.90755004
83	0xc0b4ece6	-5.6539183
84	0xc0446547	-3.0686815
85	0xc02b6a0c	-2.6783476
86	0xc0ad40d7	-5.414165
87	0x3f9fa4e9	1.2472202
88	0x400d443f	2.2072904
89	0xc0118c58	-2.274191
90	0x3e461b12	0.19346264
91	0xc047caff	-3.121765
92	0xc0a2b939	-5.08511
93	0xbf9443ea	-1.1583226
94	0xc0a1fc41	-5.0620427
95	0xc0be4cf9	-5.946896
96	0x4036206c	2.8457289
97	0xbf72f17a	-0.94899714
98	0xbf07e8cf	-0.5308961
99	0x4072ee8d	3.79581
100	0x401abe24	2.4178553
101	0x403d7b49	2.9606497
102	0x3ea8b618	0.32951427
103	0x3f9de550	1.2335606
104	0x4017e35d	2.3732522
105	0xbfdfcbb4	-1.748404
106	0xbf85326e	-1.0406015
107	0xbe2a4bf4	-0.16630536
108	0xc00aceb4	-2.1688662
109	0xbf41fa3b	-0.75772446
110	0xbff15356	-1.8853557
111	0x3f875967	1.0574158
112	0xc009cd07	-2.1531389
113	0xc08f4a0f	-4.4777904
114	0xc03097f0	-2.7592735
115	0xc02c84f8	-2.6956158
116	0xbf332503	-0.6997835
117	0x3f97016b	1.1797308
118	0x3f9622eb	1.1729406
119	0x40445ab0	3.0680351
120	0x3f2c2dd4	0.6725743
121	0xbf406ec6	-0.75169027
122	0xc11f28de	-9.947477
123	0xc0df8c03	-6.9858413
124	0xc0ba6d0a	-5.8258104
125	0xc1059162	-8.347994
126	0xbfd14b1f	-1.635105
127	0x3f1e0779	0.6173015
128	0xc0808dd7	-4.0173144
129	0x4053bcc3	3.308396
130	0x3f94b647	1.1618127
131	0xbf49d96c	-0.78847384
132	0xbffbb337	-1.9664067
133	0x3fc1dcdf	1.514553
134	0xc05c9094	-3.4463243
135	0xbf858001	-1.0429689
136	0xc086c4b5	-4.211512
137	0x3f48b996	0.7840818
138	0x3feae6a9	1.8351642
139	0x3da35f08	0.0797711
140	0xc07e2509	-3.9710104
141	0xc051d3fa	-3.278563
142	0xc0f8bd35	-7.7730966
143	0x3ff16794	1.8859735
144	0xbf9138f6	-1.1345508
145	0x3f2f0849	0.6837202
146	0xbea2f10a	-0.31824523
147	0xbffdf686	-1.9840858
148	0xc0b34fe1	-5.603501
149	0xbd2382d7	-0.0399197
150	0xc05354fe	-3.3020625
151	0xc0a81204	-5.252199
152	0xc0805045	-4.0097985
153	0x3ff65d57	1.9247235
154	0x403febed	2.9987748
155	0xc0bee675	-5.965632
156	0x3ffc53a2	1.9713023
157	0x40793374	3.8937654
158	0xc088fc1e	-4.280776
159	0xbffad930	-1.959753
160	0xbf5e63fc	-0.86871314
161	0xbd806559	-0.062693305
162	0x3fa342a8	1.2754717
163	0xc0999350	-4.7992325
164	0x3fe1161c	1.7584872
165	0xc12bc638	-10.735893
166	0x40063f31	2.097607
167	0xbfaabf63	-1.3339657
168	0x4056d588	3.356783
169	0xbf5a07c7	-0.8516812
170	0x3d43d32a	0.047808804
171	0x3fb8289d	1.4387394
172	0x3e6856f4	0.2268942
173	0xc08f49a6	-4.4777403
174	0xc006b9fa	-2.105101
175	0xc00eb857	-2.2300012
176	0xc08a976c	-4.330984
177	0x3f864927	1.0491074
178	0x3f4b826a	0.7949587
179	0xbfe270a5	-1.7690626
180	0xbebbfee3	-0.367179
181	0xc0211c30	-2.5173454
182	0xc0b21652	-5.5652246
183	0x3e6f4259	0.23365153
184	0xc0a79eaf	-5.2381206
185	0xc0b25742	-5.5731516
186	0x403299dc	2.7906408
187	0xbfc24665	-1.5177733
188	0xbf852e9d	-1.040485
189	0x3ffb05f1	1.9611188
190	0x403c614f	2.9434392
191	0x40366283	2.8497627
192	0xbfbfa0aa	-1.4970906
193	0x40514bc2	3.270249
194	0x4045bcdd	3.0896523
195	0xbf9f69fc	-1.2454219
196	0x3d762502	0.060093887
197	0x3f0ea62a	0.55722296
198	0xc08e8f02	-4.454957
199	0xbfab3e9f	-1.3378485
200	0xbf947aa6	-1.1599929
201	0x40327fef	2.7890584
202	0xc05105dd	-3.2659829
203	0xc066142b	-3.594981
204	0xc0430426	-3.0471282
205	0xc0620a46	-3.531877
206	0xc01e0e14	-2.4696093
207	0xbd224e2f	-0.039625343
208	0x3f26926c	0.6506717
209	0x401f5a3a	2.489882
210	0x3f326b25	0.6969474
211	0xbfecea38	-1.8508978
212	0xc10d652e	-8.837202
213	0xc0a4f6a9	-5.15511
214	0xc0c4a110	-6.144661
215	0xc11af528	-9.684853
216	0xc05c5f85	-3.44333
217	0xbf588421	-0.8457661
218	0xc0a6a094	-5.207102
219	0x3fe6f25f	1.8042716
220	0x3eb3543f	0.35025212
221	0xbf8f4abf	-1.1194686
222	0xc0974cea	-4.728139
223	0x406bdee7	3.6854799
224	0xbffac8ca	-1.9592526
225	0x3ec8c5c6	0.3921339
226	0xc00ce661	-2.2015612
227	0x3fc5d226	1.5454757
228	0x4023b82d	2.5581162
229	0xbfe11e4f	-1.7587374
230	0xc0b8f27d	-5.7796006
231	0xc07a2222	-3.9083333
232	0xc0c9bf49	-6.3046002
233	0x4009439b	2.1447513
234	0xbfe551ad	-1.791555
235	0x40a5db2b	5.183004
236	0xbf40dfba	-0.7534138
237	0xc019eac2	-2.4049535
238	0xc01d230e	-2.4552646
239	0x3fe9b7eb	1.8259252
240	0xc0b9dbcc	-5.8080807
241	0xc0bf4887	-5.9776034
242	0x3fa8c730	1.3185787
243	0x400583e2	2.0861745
244	0x400bbea4	2.1835108
245	0xc1051b3a	-8.319147
246	0x3f673b3a	0.9032475
247	0x402e1bd9	2.7204497
248	0xc016bb8f	-2.3551977
249	0xbf8ffb89	-1.1248637
250	0x3edaf7db	0.42767224
251	0xc09ca8b0	-4.8955917
252	0x3fef5637	1.8698186
253	0xc03ddec1	-2.9667208
254	0x3f375128	0.7160821
255	0xc102624e	-8.149

bias f4 [8]
0	0xc01fa646	-2.4945235
1	0x3e3a745e	0.18208453
2	0xc067ce52	-3.6219678
3	0x3f4b2a10	0.7936106
4	0xc0bae52c	-5.840475
5	0xc0391dc1	-2.892441
6	0xbfdc0734	-1.7189698
7	0xc03c09a1	-2.9380877

weight f4 [2, 8]
0	0x3f7b1918	0.98085165
1	0x3f5e12e7	0.8674759
2	0x3f4ac258	0.79202795
3	0x3faa2c1f	1.3294715
4	0xbeb74369	-0.35793617
5	0xbd67b995	-0.05657347
6	0x3f842957	1.0325116
7	0x3d579e41	0.052641157
8	0xbe8cee4e	-0.27525562
9	0xbddcca45	-0.10780767
10	0xbf15b8e2	-0.58485234
11	0xbd8c9fe5	-0.06866435
12	0x3d65c5c1	0.056096796
13	0x3fbf4270	1.494215
14	0xbe9e1a15	-0.30879274
15	0x3e4a95c8	0.197837

bias f4 [2]
0	0xc0545383	-3.3175972
1	0xc101da8e	-8.115858
