Network2/params/cnn_nwParams08111446.pth (torch_old, 220889 bytes, 10 tensors)

weight_ih_l0 f4 [256, 3]
-0.49998936 -1.2201531 2.6855588 -1.5429189 0.15685324 1.1824417 -1.0633566 0.092094034
2.3346648 0.69610435 0.019475093 -0.82010555 1.1434183 1.5844885 2.414891 -0.05921649
0.34444234 -1.8139887 -2.3453157 0.06986318 1.1219059 0.046195608 0.47790226 2.9724298
-1.0773234 -0.2889338 4.294847 1.0746608 -2.036218 1.4461834 -0.34268913 0.6831464
1.696876 0.4990189 -0.15299693 2.284794 -0.499003 -1.9528606 1.5153344 -0.21041727
-0.23830321 2.6273613 0.45244533 -0.9119393 1.6770167 -0.051177576 0.013410641 -1.9247906
0.53501064 0.26190192 0.12800215 0.100077644 -0.2343436 1.0287354 0.97717595 0.9087913
-0.36925617 -2.6095626 -0.22098687 1.2628156 0.09094626 -0.42716116 -0.64471525 1.3733075
1.323568 0.5153069 0.65831965 -1.0029544 1.2963052 1.1963146 -1.4154096 0.36360586
0.35604987 0.4782685 -0.44396204 3.348828 -3.2954507 1.1828035 1.0056833 -0.4041792
-0.90131986 0.661404 0.3371286 -0.008955251 -1.1924013 -0.7269082 0.5114657 1.2580426
-1.554072 0.68669915 -0.8900777 -1.2602007 1.7631133 -1.18449 0.36201397 1.0390431
-2.5780354 -1.7091945 -1.1104902 1.6010509 1.1913736 -0.7202107 -1.4886768 -0.86021304
3.1303751 -0.9946473 0.19304195 2.7913535 1.4281634 0.8360175 -0.753581 1.0898352
0.7923251 -0.3743932 0.35271937 -0.4862482 0.7585407 -1.8054469 -3.5000336 0.03632874
0.002317411 0.8001131 0.23376174 -2.7739935 -0.86618286 1.6725794 1.1807516 1.3227092
-1.156838 0.8113356 0.56548244 -1.118543 0.6751841 1.2762177 1.257088 -1.0070833
0.63315403 0.5985616 0.34670892 0.18914112 -1.5395895 -1.9687332 -0.4112132 2.0691512
0.8628329 0.740426 -0.084239535 0.7334318 0.6118353 2.8114123 0.891034 0.23226333
-0.66197896 -1.694512 -2.193288 -1.1901932 -1.4676466 -2.753489 -1.5407814 0.3193253
-1.6704364 1.2259216 0.17827214 -0.01912592 -0.7395053 0.15222088 0.48078614 0.3346644
0.31722683 -0.103599176 -0.7497308 -2.4141977 0.0016238375 2.1241424 -1.0756129 0.42776486
4.046562 -1.0631108 0.52139384 1.2984247 0.80176544 -1.2940644 0.7241539 -1.7630659
0.052269936 1.624812 1.3817939 -1.2481363 0.4595246 1.0583344 -3.0877461 1.9636228
-2.604971 2.2212415 -1.4232483 -2.536584 0.5063295 -0.35121232 -1.929969 2.328242
-1.4923443 4.102546 -0.286532 -2.1383216 0.8562035 1.6197891 -3.7487378 -0.23944816
1.7852435 -3.8864639 2.1227531 0.89198637 -3.3663967 -1.2076325 2.03038 -1.8856101
-3.2509496 2.5082507 -0.3180141 1.3667872 -0.011143874 -1.8316354 0.48939258 2.0512168
-1.9812129 -1.0368809 1.5588614 -2.149478 -0.8788851 1.0143207 -2.078551 -1.8333994
2.2612195 -2.4541721 -0.40298018 1.5739696 -1.7936704 -0.4097043 0.61014926 -2.249233
4.212481 0.8375111 -2.1872172 -0.29512322 0.041189596 0.32917863 3.7313912 2.060413
-2.2531009 -2.3429208 1.7876086 -0.63538736 0.4432075 0.7447274 -3.8443577 1.2515783
00000000: 9bfe ffbe fa2d 9cbf 32e0 2b40 5e7e c5bf
00000010: 239e 203e 405a 973f 121c 88bf cc9b bc3d
00000020: 266b 1540 e533 323f 3b8a 9f3c 70f2 51bf
00000030: 885b 923f 85d0 ca3f 938d 1a40 fd8c 72bd
00000040: bf5a b03e c830 e8bf a719 16c0 6d14 8f3d
00000050: 9d9a 8f3f 9b37 3d3d 9baf f43e 4a3c 3e40
00000060: bce5 89bf 22ef 93be 636f 8940 7c8e 893f
00000070: 6551 02c0 8a1c b93f f374 afbe afe2 2e3f
00000080: 3c33 d93f 687f ff3e 3aab 1cbe 113a 1240
00000090: 527d ffbe 56f7 f9bf 7af6 c13f a077 57be
000000a0: c205 74be b026 2840 eaa6 e73e db74 69bf
000000b0: 7ca8 d63f 949f 51bd 4eb8 5b3c 8a5f f6bf
000000c0: 75f6 083f 0218 863e ff12 033e 82f5 cc3d
000000d0: c5f7 6fbe 9aad 833f 3428 7a3f 8ca6 683f
000000e0: 250f bdbe 1303 27c0 624a 62be f1a3 a13f
000000f0: 0842 ba3d deb4 dabe 0f0c 25bf 8ac8 af3f
00000100: ad6a a93f 27eb 033f a387 283f cf60 80bf
00000110: 54ed a53f d620 993f 242c b5bf 8c2a ba3e
00000120: 2b4c b63e 9cdf f43e fe4e e3be 3353 5640
00000130: aae8 52c0 1b66 973f 3bba 803f 93f0 cebe
00000140: e6bc 66bf c651 293f 1f9c ac3e 0cb9 12bc
00000150: 9ba0 98bf a816 3abf 6bef 023f 8a07 a13f
00000160: d5eb c6bf 84cb 2f3f 22dc 63bf 424e a1bf
00000170: b2ad e13f 5e9d 97bf e559 b93e 5dff 843f
00000180: 88fe 24c0 e3c6 dabf 8b24 8ebf 3cef cc3f
00000190: ee7e 983f ba5f 38bf f68c bebf ec36 5cbf
000001a0: 1158 4840 35a1 7ebf caac 453e 89a5 3240
000001b0: 0fce b63f 3e05 563f afea 40bf b87f 8b3f
000001c0: d1d5 4a3f 77b0 bfbe a297 b43e 86f5 f8be
000001d0: b92f 423f e218 e7bf 8d00 60c0 72cd 143d
000001e0: b4df 173b 36d4 4c3f 3d5f 6f3e 1c89 31c0
000001f0: 29be 5dbf 1517 d63f de22 973f 894e a93f
00000200: 4513 94bf b1b3 4f3f 75c3 103f 6b2c 8fbf
00000210: ddd8 2c3f 1a5b a33f 42e8 a03f 1be8 80bf
00000220: 6216 223f 553b 193f d583 b13e 36ae 413e
00000230: 4511 c5bf 73ff fbbf 898a d2be f96c 0440
00000240: 9ee2 5c3f 8f8c 3d3f c785 acbd 30c2 3b3f
00000250: 3da1 1c3f 2eee 3340 ce1a 643f 70d6 6d3e
00000260: 7477 29bf c5e5 d8bf d55e 0cc0 4058 98bf
00000270: d8db bbbf 2a39 30c0 5338 c5bf 9b7e a33e
00000280: dcd0 d5bf 00eb 9c3f f98c 363e f6ad 9cbc
00000290: 3850 3dbf cadf 1b3e 9a29 f63e 2259 ab3e
000002a0: 8e6b a23e ce2b d4bd 5cee 3fbf 3782 1ac0
000002b0: f2d6 d43a f3f1 0740 afad 89bf ff03 db3e
000002c0: 707d 8140 0414 88bf 117a 053f c832 a63f
000002d0: 8040 4d3f e7a3 a5bf 2662 393f 25ac e1bf
000002e0: 0019 563d d7f9 cf3f 9fde b03f eec2 9fbf
000002f0: cf46 eb3e 8077 873f a29d 45c0 fe57 fb3f
00000300: d8b7 26c0 d228 0e40 002d b6bf 6457 22c0
00000310: cf9e 013f 1ad2 b3be 3909 f7bf eb01 1540
00000320: 2305 bfbf 0f48 8340 53b4 92be 43da 08c0
00000330: 2730 5b3f 4055 cf3f 52eb 6fc0 e631 75be
00000340: dc82 e43f d3bb 78c0 30db 0740 3859 643f
00000350: 0b73 57c0 b493 9abf bff1 0140 ac5b f1bf
00000360: 8f0f 50c0 2e87 2040 bed2 a2be e2f2 ae3f
00000370: cc94 36bc 0773 eabf aa91 fa3e 2347 0340
00000380: 6298 fdbf 83b8 84bf c588 c73f 0c91 09c0
00000390: 9dfe 60bf 43d5 813f fb06 05c0 d5ac eabf
000003a0: d2b7 1040 2811 1dc0 6b53 cebe d677 c93f
000003b0: fe96 e5bf c3c4 d1be be32 1c3f 6ff3 0fc0
000003c0: a5cc 8640 2167 563f 5efb 0bc0 641a 97be
000003d0: 6cb6 283d 1a8a a83e 1dcf 6e40 cedd 0340
000003e0: ce32 10c0 6af2 15c0 5cd0 e43f bfa8 22bf
000003f0: 18ec e23e 74a6 3e3f f509 76c0 b833 a03f

weight_hh_l0 f4 [256, 64]
-0.8798598 2.0818684 1.7358725 -3.092111 -0.3773733 -0.8497452 -1.053042 1.8815316
-0.8857889 0.33483246 -1.4057004 -0.99273294 1.3576186 -1.6132689 0.944467 -2.0568035
3.4913642 -3.6018167 -2.9609373 -3.3345246 0.7403071 -0.26531637 0.97743577 1.9326695
-3.1952326 -3.4107413 -2.6682382 -3.207413 1.5533357 -0.20214014 1.8801851 -0.51208884
0.48028344 -2.9051514 1.4119431 -2.6514452 2.9349422 2.9422507 -1.894268 0.24725354
0.31060407 2.719673 -1.8502152 -0.8903584 1.9026117 0.55477417 0.21165064 -0.1550665
-3.3527255 -0.4974926 -2.87377 0.4817419 0.2973759 0.56524307 2.3008394 2.6926816
-3.2113578 -2.0496957 1.038805 -1.8800341 1.1668228 0.50789326 -0.7606084 3.6461747
-0.61583996 2.3032432 1.9527597 -0.97402436 -0.17418419 -1.1729503 -1.0697038 1.4861107
-2.6191103 0.4911392 -1.0401136 -0.82609105 0.64225674 -1.2087849 0.8258178 -1.8548701
2.6546683 -0.45014504 -2.382258 -2.698693 -0.5507901 -0.7430646 0.9775082 1.7289095
-2.1158285 -1.8774971 -2.4226844 -1.3536372 2.6217275 -1.1326512 1.1556523 -1.7459142
1.0337354 -2.073573 2.1487827 -2.880874 2.0502644 1.7435229 -1.9129286 -0.2295773
-0.91549265 1.8929775 -1.3404802 -0.6190861 1.1677878 1.1280872 -0.3027294 -0.24813215
-0.9265302 -0.17874885 -2.2833574 0.63876414 -0.71424496 1.664342 1.5090653 1.585651
-2.319079 -2.4934576 2.1169555 -1.3910599 2.0619433 0.36578587 -1.3604325 2.253839
0.9482091 0.37613073 0.26095405 -2.925047 -2.7433872 1.3258865 -0.944207 -0.0107570095
-0.71986055 -0.047046576 -0.367046 0.39107677 -0.622524 -0.077785395 -0.59332824 -0.76270866
2.488802 -3.7682302 -2.0259054 -1.5551627 1.3062487 -0.6259768 -0.50125754 1.0483344
-2.333475 -4.101557 -0.27024934 -3.0498614 -0.5037302 0.32096317 1.6955512 1.2631575
-0.6063444 -2.4563715 0.339683 -1.6954025 2.2009966 2.7395258 -0.271592 -0.6454728
0.22394514 1.6106901 -1.737877 -1.7998642 0.23153713 1.961104 0.055478744 0.093845785
-3.160867 -1.169333 -1.9711657 -0.043778475 0.2418523 -0.26458314 1.5845821 3.0548131
-2.2781034 -0.47886425 0.29685426 -0.8450685 -0.48059133 -0.119593956 0.69969153 4.570494
-1.1511217 1.1585685 1.1260719 -1.2703049 0.1549142 0.36051694 -0.122699276 0.74425906
-1.2491723 0.57530135 -0.65525556 -0.78024846 1.0509703 -0.5029675 0.9890331 -0.17328621
0.59285176 -1.0144933 -0.9090335 -2.5556586 0.5056855 -0.75044906 0.73025906 0.08600677
-0.5746065 -0.28639722 -0.2692687 -0.6291229 1.2268448 -0.57394296 1.1452876 -0.49840766
-0.4024667 -1.1636882 -0.09393379 -1.8557847 1.2270374 0.267503 -0.41473415 0.52592295
-0.046770122 1.42567 -0.95996135 -0.6531988 1.9041753 0.04300133 -0.45468473 -0.81316453
-0.44779527 -0.08705893 -0.83823806 -0.1504688 -0.09135917 0.7086921 1.0453573 1.7087756
0.13260418 -1.1226155 0.25811496 -1.0400325 0.5717585 0.023462541 0.31778672 -0.24213806
00000000: 7e3e 61bf 553d 0540 1231 de3f 26e5 45c0
00000010: 1337 c1be e788 59bf 15ca 86bf 07d6 f03f
00000020: 10c3 62bf 296f ab3e feed b3bf bf23 7ebf
00000030: 72c6 ad3f 987f cebf 97c8 713f aba2 03c0
00000040: 8372 5f40 2a84 66c0 ff7f 3dc0 da68 55c0
00000050: c484 3d3f 8cd7 87be 3b39 7a3f b761 f73f
00000060: b17e 4cc0 9649 5ac0 6ac4 2ac0 4146 4dc0
00000070: b4d3 c63f d3fd 4ebe e8a9 f03f 4118 03bf
00000080: b6e7 f53e 00ee 39c0 8dba b43f 47b1 29c0
00000090: 18d6 3b40 d64d 3c40 6077 f2bf 0830 7d3e
000000a0: 7f07 9f3e 1f0f 2e40 dad3 ecbf 87ee 63bf
000000b0: c888 f33f ae05 0e3f f2ba 583e c1c9 1ebe
000000c0: 0e93 56c0 5ab7 febe d9eb 37c0 e0a6 f63e
000000d0: a741 983e c5b3 103f f440 1340 e554 2c40
000000e0: e386 4dc0 372e 03c0 90f7 843f f5a4 f0bf
000000f0: 735a 953f 4b05 023f 3bb7 42bf ed5a 6940
00000100: b0a7 1dbf 5668 1340 08f4 f93f a959 79bf
00000110: 575d 32be 3c23 96bf 0eec 88bf e038 be3f
00000120: 819f 27c0 9976 fb3e 7122 85bf b47a 53bf
00000130: f06a 243f 77b9 9abf cc68 533f 626c edbf
00000140: 16e6 2940 6979 e6be ea76 18c0 63b7 2cc0
00000150: 9400 0dbf 7b39 3ebf fa3d 7a3f e84c dd3f
00000160: bc69 07c0 d351 f0bf 430d 1bc0 fc43 adbf
00000170: 62ca 2740 b7fa 90bf 6aec 933f 1e7a dfbf
00000180: 7151 843f 6cb5 04c0 a885 0940 3d60 38c0
00000190: 8837 0340 c22b df3f d8da f4bf 5016 6bbe
000001a0: ba5d 6abf 164d f23f db94 abbf 6d7c 1ebf
000001b0: 127a 953f 2965 903f 59ff 9abe 5b16 7ebe
000001c0: 1531 6dbf f009 37be 8722 12c0 0c86 233f
000001d0: c2d8 36bf 2909 d53f 0d29 c13f 9df6 ca3f
000001e0: ca6b 14c0 cf94 1fc0 337c 0740 400e b2bf
000001f0: e1f6 0340 4948 bb3e a722 aebf e63e 1040
00000200: d5bd 723f 3594 c03e c59b 853e f833 3bc0
00000210: a893 2fc0 a6b6 a93f 8db7 71bf 2b3e 30bc
00000220: c848 38bf e9b3 40bd 74ed bbbe 373b c83e
00000230: bc5d 1fbf f34d 9fbd 5ce4 17bf e040 43bf
00000240: 8848 1f40 af2a 71c0 6fa8 01c0 920f c7bf
00000250: 2833 a73f 0440 20bf 6a52 00bf d22f 863f
00000260: a857 15c0 f43f 83c0 1f5e 8abe ee30 43c0
00000270: 76f4 00bf 4955 a43e d207 d93f 25af a13f
00000280: 6339 1bbf 3135 1dc0 eeea ad3e f302 d9bf
00000290: 21dd 0c40 6454 2f40 1b0e 8bbe b53d 25bf
000002a0: e051 653e 182b ce3f c172 debf f361 e6bf
000002b0: 1218 6d3e 7505 fb3f ae3d 633d 3832 c03d
000002c0: a54b 4ac0 b4ac 95bf 284f fcbf 0f51 33bd
000002d0: 21a8 773e 7177 87be 96d3 ca3f 0f82 4340
000002e0: 72cc 11c0 b22d f5be 48fd 973e 6956 58bf
000002f0: 1110 f6be aded f4bd fc1e 333f 7d41 9240
00000300: f557 93bf f94b 943f 2023 903f 5a99 a2bf
00000310: d4a1 1e3e ad95 b83e c249 fbbd c387 3e3f
00000320: e1e4 9fbf f346 133f d4be 27bf 5dbe 47bf
00000330: 3286 863f 7ac2 00bf 4631 7d3f f171 31be
00000340: 22c5 173f ebda 81bf 6bb6 68bf e98f 23c0
00000350: 9b74 013f 6e1d 40bf 42f2 3a3f 5124 b03d
00000360: 6919 13bf a8a2 92be 96dd 89be 330e 21bf
00000370: 4009 9d3f eded 12bf c998 923f 4a2f ffbe
00000380: 1e10 cebe bcf3 94bf 5c60 c0bd 5a8a edbf
00000390: 900f 9d3f 27f6 883e 0958 d4be e3a2 063f
000003a0: 0792 3fbd 5b7c b63f 07c0 75bf 0938 27bf
000003b0: 04bc f33f 2a22 303d 70cc e8be 8d2b 50bf
000003c0: 6c45 e5be f44b b2bd c596 56bf 7e14 1abe
000003d0: 841a bbbd d86c 353f 45ce 853f 29b9 da3f
000003e0: 64c9 073e ddb1 8fbf a527 843e c91f 85bf
000003f0: c45e 123f 8434 c03c f1b4 a23e 0af3 77be

bias_ih_l0 f4 [256]
-0.9647529 -1.1861736 -0.6878472 -1.848731 -1.2732953 -1.9348445 -0.9338806 -0.8983637
-0.5328164 -0.77371764 -1.7897996 -1.1755954 -1.2189822 -0.75872153 -0.9089519 -1.4425541
-1.000551 -2.3046796 -1.4134369 -0.9873611 -2.1420019 -1.2484126 -1.2987279 -1.825764
-1.5174301 0.61682767 -1.5724046 -1.3966413 -2.400283 -0.8584288 -1.3537564 -1.2110056
-3.5273764 -1.735761 -0.90094566 -0.7052042 -1.8408638 -1.7304182 -1.3638549 -2.5768633
-1.537908 -0.72008395 -1.8724475 -1.5525482 -1.7045388 -1.338844 -1.8344103 -0.936582
-1.4628563 -0.74768394 -1.7534502 -3.5468874 -2.9160562 -1.9808322 -1.8723279 -1.251876
-1.4640422 -0.66929764 -0.5655389 -1.47671 -1.8627319 -1.0359324 -1.1481719 -0.26379254
-0.8238369 -0.7252046 -0.37741214 0.17432171 -0.7320003 -0.44998217 -0.25540358 -0.8688368
-0.19970301 0.04524913 -0.10893195 -1.0229768 -1.0231986 -1.0969533 -0.5515131 -0.5795147
0.57425004 -0.19009326 0.4967883 -0.39931333 -1.0040094 -0.28550363 -0.03960183 -0.383644
-0.04417311 3.0630228e-05 0.47321865 0.45237714 0.21320298 -0.81171757 -0.12759395 -2.150564
0.0077687944 0.22959384 -0.41992748 -0.47532058 0.52999336 0.30076498 -0.24282983 -1.1179546
-0.35061607 -1.4929907 0.028874325 -0.0019902028 -0.22521481 -0.64701444 -0.6261445 -0.6873905
0.30427682 -0.4359817 -0.07498721 -0.073850825 -0.8778959 0.0707337 -0.10393186 -1.1570135
0.114951044 -0.98425126 -1.6276015 -0.94418484 -0.51315767 -0.44327113 -0.57380456 0.03964468
-0.0336067 0.2990777 0.34137598 -0.48320085 0.09711347 -0.2087744 -0.23986405 0.09571283
-0.110302374 -0.022341195 -0.031423215 -0.11151227 0.08061972 -0.13609086 0.21525961 -0.3664311
0.036951937 -0.31292567 -0.14721477 -0.3994154 -0.1621637 0.12887533 0.32041252 0.05254483
-0.9799251 -0.7815204 0.20060991 -0.67174774 0.2203859 -0.056609716 0.5939749 -0.25426885
-0.010343963 -0.33091116 0.11978253 -0.23722708 0.87658054 0.08887414 -0.13886555 -0.42649662
0.005746073 0.23134086 0.11294597 -0.07299203 0.3587685 0.23561391 0.16290268 -0.15229386
-0.45435748 -0.19014901 -0.4733004 0.1976463 -0.04725715 0.20272477 -0.08191697 0.64408666
-0.5649251 -0.13857122 -0.22099003 -0.20391703 0.25617054 0.011625508 -0.115082055 0.71148103
-0.48119605 -0.9046746 -0.83547133 -2.1202621 -1.4165907 -1.9499754 -0.8508413 -0.52949685
-0.27341196 -0.70064765 -1.0969526 -0.9952309 -0.68097997 -0.659403 -0.6744171 -1.2147144
-0.9024601 -2.1675603 -1.5377942 -0.9147799 -1.9940008 -1.5821629 -1.258867 -1.0296576
-1.2946886 0.53900325 -1.4234331 -1.223522 -2.275761 -0.5139156 -1.2701383 -1.23947
-3.2259383 -1.5590622 -0.84384376 -0.69761515 -1.7679694 -1.4965614 -0.72917193 -2.481143
-1.3577187 -0.54211587 -1.666021 -1.8821987 -0.9832676 -1.3337758 -1.9608101 -0.6748871
-1.4954072 -1.2905904 -1.8499011 -3.2575414 -2.841583 -0.76455665 -2.017338 -1.2889959
-1.3208174 -0.6815141 -0.5728947 -1.1814159 -0.91813236 -0.8435412 -0.60332966 0.08722888
00000000: 0cfa 76bf 89d4 97bf c116 30bf 38a3 ecbf
00000010: 57fb a2bf fca8 f7bf cd12 6fbf 2afb 65bf
00000020: a866 08bf 5c12 46bf 2718 e5bf e979 96bf
00000030: 9c07 9cbf 933b 42bf 12b1 68bf 9da5 b8bf
00000040: 0e12 80bf df7f 13c0 80eb b4bf b2c3 7cbf
00000050: 8f16 09c0 fccb 9fbf b73c a6bf a2b2 e9bf
00000060: 263b c2bf 6be8 1d3f 8e44 c9bf 24c5 b2bf
00000070: 3d9e 19c0 fdc1 5bbf e447 adbf 3b02 9bbf
00000080: 89c0 61c0 6b2d debf 60a4 66bf 4388 34bf
00000090: 6da1 ebbf 587e ddbf cc92 aebf 54eb 24c0
000000a0: 2bda c4bf 6c57 38bf 5cac efbf e6b9 c6bf
000000b0: 542e dabf 3d5f abbf f5cd eabf d7c3 6fbf
000000c0: e03e bbbf 3768 3fbf 0e71 e0bf 3400 63c0
000000d0: aaa0 3ac0 e98b fdbf 71a8 efbf 793d a0bf
000000e0: bc65 bbbf 1757 2bbf 28c7 10bf d504 bdbf
000000f0: 006e eebf 6f99 84bf 4cf7 92bf d10f 87be
00000100: fae6 52bf 02a7 39bf 2a3c c1be 6481 323e
00000110: 5f64 3bbf 1064 e6be 42c4 82be 176c 5ebf
00000120: f27e 4cbe 2757 393d b717 dfbd e7f0 82bf
00000130: 2cf8 82bf f768 8cbf f62f 0dbf 135b 14bf
00000140: 0d02 133f cfa7 42be 095b fe3e cc72 ccbe
00000150: 6183 80bf 882d 92be 8735 22bd fd6c c4be
00000160: ddee 34bd f578 0038 b749 f23e fa9d e73e
00000170: e251 5a3e b9cc 4fbf fda7 02be d7a2 09c0
00000180: 5f91 fe3b a61a 6b3e bc00 d7be 385d f3be
00000190: a5ad 073f defd 993e 62a8 78be 2319 8fbf
000001a0: f383 b3be 521a bfbf d989 ec3c 106e 02bb
000001b0: b69e 66be bda2 25bf 024b 20bf d3f8 2fbf
000001c0: 2cca 9b3e fe38 dfbe e592 99bd 1a3f 97bd
000001d0: c9bd 60bf d5dc 903d 3ada d4bd 0519 94bf
000001e0: 746b eb3d e4f7 7bbf 3f55 d0bf 19b6 71bf
000001f0: 4d5e 03bf 6ff4 e2be dbe4 12bf 7662 223d
00000200: 2ea7 09bd b620 993e d5c8 ae3e 1a66 f7be
00000210: 6de3 c63d f5c8 55be ec9e 75be 1705 c43d
00000220: 36e6 e1bd e204 b7bc a1b5 00bd 8c60 e4bd
00000230: f41b a53d 675b 0bbe 046d 5c3e db9c bbbe
00000240: ea5a 173d cb37 a0be 78bf 16be 2d80 ccbe
00000250: 3e0e 26be e5f7 033e 1c0d a43e 3f39 573d
00000260: 5fdc 7abf b911 48bf af6c 4d3e a9f7 2bbf
00000270: d7ac 613e 97df 67bd bd0e 183f 872f 82be
00000280: ba79 29bc 306d a9be 8b50 f53d a8eb 72be
00000290: 9567 603f a503 b63d c532 0ebe c45d dabe
000002a0: 8e49 bc3b 9ee4 6c3e 3750 e73d d87c 95bd
000002b0: 81b0 b73e c644 713e f6cf 263e ecf2 1bbe
000002c0: 8ba1 e8be 6cb6 42be 6e54 f2be cb63 4a3e
000002d0: b790 41bd 1597 4f3e 16c4 a7bd dde2 243f
000002e0: ee9e 10bf 9de5 0dbe 364b 62be a0cf 50be
000002f0: c928 833e ea78 3e3c 24b0 ebbd 9f23 363f
00000300: 545f f6be c198 67bf 73e1 55bf 60b2 07c0
00000310: d852 b5bf cb98 f9bf bcd0 59bf 1b8d 07bf
00000320: a7fc 8bbe a55d 33bf f168 8cbf 74c7 7ebf
00000330: b454 2ebf a3ce 28bf 99a6 2cbf c37b 9bbf
00000340: a007 67bf 4fb9 0ac0 71d6 c4bf 042f 6abf
00000350: 6b3b ffbf 5084 cabf 8e22 a1bf d2cb 83bf
00000360: 5bb8 a5bf 1efc 093f 0e33 b6bf 5e9c 9cbf
00000370: 11a6 11c0 f98f 03bf e493 a2bf f4a6 9ebf
00000380: c675 4ec0 5a8f c7bf 2506 58bf e896 32bf
00000390: d24c e2bf 538f bfbf 03ab 3abf 0ccb 1ec0
000003a0: bac9 adbf 1bc8 0abf 2d40 d5bf e3eb f0bf
000003b0: 6db7 7bbf 2ab9 aabf d3fb fabf 67c5 2cbf
000003c0: 8169 bfbf 1132 a5bf 8fc9 ecbf 8f7b 50c0
000003d0: 7fdc 35c0 fcb9 43bf 111c 01c0 d1fd a4bf
000003e0: 8b10 a9bf b577 2ebf 3aa9 12bf a338 97bf
000003f0: b90a 6bbf 51f2 57bf d073 1abf 0ea5 b23d

bias_hh_l0 f4 [256]
-0.98547596 -1.2007076 -0.5171923 -1.8859735 -1.152695 -1.7387626 -0.90587157 -0.9080874
-0.6509465 -0.786625 -1.878956 -1.1885728 -1.1715498 -0.69990927 -0.94975245 -1.3802961
-0.9752447 -2.452029 -1.644125 -0.96371114 -2.1321485 -1.1458809 -1.5313705 -1.8846045
-1.3414547 0.6658817 -1.5741742 -1.2115669 -2.268871 -0.83271354 -1.5097127 -1.3284496
-3.3303273 -1.7911478 -0.93208927 -0.7770012 -1.8134421 -1.7141285 -1.3687336 -2.6289177
-1.532849 -0.6867014 -1.8895867 -1.575707 -1.5844958 -1.3244125 -1.8249711 -0.92619604
-1.4613583 -0.7724728 -1.7098157 -3.455288 -3.0080605 -1.8311316 -2.0460246 -1.398858
-1.3859019 -0.54375535 -0.6605193 -1.4686974 -2.0161855 -1.0669714 -1.1259763 -0.19701503
-0.8810135 -0.74541914 -0.58350116 -0.0067332364 -0.6959662 -0.51301336 -0.37818012 -0.89938754
-0.16198471 0.03268807 -0.13148884 -1.0435342 -0.90444916 -1.0682231 -0.43843672 -0.5261761
0.5123767 -0.18238398 0.54516387 -0.45671493 -1.0916063 -0.31492537 -0.04163024 -0.15814513
0.12301069 -0.10246888 0.6750241 0.414773 0.316546 -0.9577021 -0.21990724 -2.0981152
-0.029670937 0.18828987 -0.40596414 -0.6258403 0.42256746 0.23440395 -0.27849603 -1.1390663
-0.43090394 -1.3490427 -0.022416858 -0.068957366 -0.16085222 -0.658981 -0.46092057 -0.61911124
0.12549205 -0.45896715 -0.10218241 -0.033621013 -0.7610702 0.08557561 0.04821246 -1.1527687
0.27202734 -0.9611709 -1.6169773 -0.7957691 -0.45915976 -0.64043736 -0.6348323 -0.052438423
0.07932817 0.32581025 0.33816585 -0.40170866 0.18414019 -0.31345943 -0.23196028 0.091010176
-0.117857054 -0.00060356234 -0.0769308 -0.06142611 -0.08385484 -0.1879125 0.18157345 -0.39471796
0.07658906 -0.18108155 -0.33076862 -0.5365934 -0.12805744 0.20103282 0.28592148 0.03288893
-1.0057635 -0.8578206 0.20286699 -0.73809 0.24632592 -0.050923686 0.61062115 -0.23267333
0.1602001 -0.49119657 0.062045153 -0.39474335 0.7095433 0.05540114 -0.06144139 -0.38406378
-0.042042296 0.4234087 0.15206476 0.047825623 0.4302744 0.13986377 0.07620573 -0.20889074
-0.3389562 -0.14069165 -0.44529814 0.19831394 0.084215134 0.18563442 -0.10353355 0.7939481
-0.6241101 0.025021253 -0.10232757 -0.16487285 0.25694793 -0.12277383 -0.12084992 0.65710396
-0.66116256 -0.9884482 -0.6900999 -1.9614478 -1.3492033 -1.9024998 -0.79907596 -0.42268375
-0.18529639 -0.77284735 -1.1517956 -1.0481218 -0.79151976 -0.8510466 -0.6953549 -1.128668
-0.7129878 -2.290881 -1.5357689 -0.8013568 -2.0147216 -1.5960081 -1.2148318 -0.8618072
-1.5120002 0.51647824 -1.5563357 -1.1182563 -2.2283676 -0.504525 -1.4063883 -1.1451864
-3.3466864 -1.5408316 -0.9177671 -0.65226483 -1.8508141 -1.5930554 -0.71404225 -2.4045043
-1.482871 -0.456752 -1.6500849 -1.782195 -1.0228642 -1.343183 -1.9050261 -0.569548
-1.3514031 -1.1377927 -1.8869723 -3.4040124 -2.8238842 -0.64120346 -2.060866 -1.3531562
-1.2505447 -0.65942305 -0.6356211 -1.3086005 -0.89880854 -0.820937 -0.64410067 0.10122983
00000000: 2748 7cbf c9b0 99bf b766 04bf 9467 f1bf
00000010: 828b 93bf c68f debf 33e7 67bf 6a78 68bf
00000020: 6ea4 26bf 4260 49bf a181 f0bf 2723 98bf
00000030: 58f5 95bf 412d 33bf fa22 73bf 8bad b0bf
00000040: a3a9 79bf 0bee 1cc0 b072 d2bf c6b5 76bf
00000050: 1f75 08c0 3aac 92bf f303 c4bf b83a f1bf
00000060: cab4 abbf 3977 2a3f 8a7e c9bf a014 9bbf
00000070: 2f35 11c0 b72c 55bf 443e c1bf a30a aabf
00000080: 1524 55c0 5544 e5bf 679d 6ebf 8de9 46bf
00000090: df1e e8bf 9068 dbbf aa32 afbf 3040 28c0
000000a0: 6534 c4bf aacb 2fbf fadd f1bf c4b0 c9bf
000000b0: c2d0 cabf 5986 a9bf a798 e9bf 2f1b 6dbf
000000c0: ca0d bbbf c7c0 45bf 3edb dabf 7023 5dc0
000000d0: 1084 40c0 8562 eabf 11f2 02c0 c70d b3bf
000000e0: 3c65 b1bf 8d33 0bbf cb17 29bf 47fe bbbf
000000f0: 2f09 01c0 8592 88bf fe1f 90bf 4fbe 49be
00000100: 1a8a 61bf cad3 3ebf 5560 15bf 7ba2 dcbb
00000110: d72a 32bf d854 03bf d3a0 c1be 433e 66bf
00000120: 52df 25be ede3 053d 03a5 06be 8792 85bf
00000130: fb89 67bf 89bb 88bf c77a e0be 7ab3 06bf
00000140: 1f2b 033f dec2 3abe dc8f 0b3f 8ad6 e9be
00000150: c1b9 8bbf e63d a1be 7884 2abd ccf0 21be
00000160: 07ed fb3d 34db d1bd 61ce 2c3f 205d d43e
00000170: 5112 a23e f72b 75bf 5d2f 61be 8547 06c0
00000180: 7710 f3bc 0fcf 403e 88da cfbe 1237 20bf
00000190: c35a d83e 9707 703e 0897 8ebe edcc 91bf
000001a0: 719f dcbe 6ead acbf 8fa3 b7bc 8539 8dbd
000001b0: 72b6 24be fbb2 28bf c8fd ebbe 137e 1ebf
000001c0: fd80 003e befd eabe 0345 d1bd 30b6 09bd
000001d0: 7fd5 42bf 4442 af3d 6e7a 453d ed8d 93bf
000001e0: 2b47 8b3e 4c0f 76bf 1df9 cebf 86b7 4bbf
000001f0: fd16 ebbe b4f3 23bf 5f84 22bf acc9 56bd
00000200: cf76 a23d 9ad0 a63e 1324 ad3e c2ac cdbe
00000210: 3f8f 3c3e c17d a0be ff86 6dbe 8b63 ba3d
00000220: 0a5f f1bd 6238 1eba e58d 9dbd f299 7bbd
00000230: 16bc abbd 226c 40be 64ee 393e 7918 cabe
00000240: bada 9c3d 716d 39be 815a a9be 2f5e 09bf
00000250: 7d21 03be 8cdb 4d3e 4d64 923e 8bb6 063d
00000260: dcbc 80bf 219a 5bbf 5dbc 4f3e 77f3 3cbf
00000270: dd3c 7c3e 5b95 50bd ab51 1c3f eb41 6ebe
00000280: 7f0b 243e 1e7e fbbe 0f23 7e3d cd1b cabe
00000290: a1a4 353f 4eec 623d f8a9 7bbd 02a4 c4be
000002a0: 8b34 2cbd 06c9 d83e ddb6 1b3e cde4 433d
000002b0: ed4c dc3e 7338 0f3e c011 9c3d 74e7 55be
000002c0: ab8b adbe 7911 10be 1efe e3be cf12 4b3e
000002d0: fc78 ac3d f316 3e3e 6609 d4bd 2f40 4b3f
000002e0: aec5 1fbf 5ff9 cc3c 1e91 d1bd 6ed4 28be
000002f0: ae8e 833e d970 fbbd 2a80 f7bd f737 283f
00000300: f341 29bf f10a 7dbf 63aa 30bf b910 fbbf
00000310: b2b2 acbf 1d85 f3bf 3e90 4cbf 016a d8be
00000320: 56be 3dbe 53d9 45bf 0a6e 93bf db28 86bf
00000330: 0aa1 4abf 31de 59bf c702 32bf 3178 90bf
00000340: 5e86 36bf cb9d 12c0 1394 c4bf b825 4dbf
00000350: 33f1 00c0 fe49 ccbf 9c7f 9bbf 669f 5cbf
00000360: 3989 c1bf eb37 043f 0236 c7bf 0623 8fbf
00000370: 939d 0ec0 8d28 01bf 8804 b4bf 7895 92bf
00000380: 1c30 56c0 f839 c5bf c9f2 6abf d4fa 26bf
00000390: 7ae7 ecbf 3de9 cbbf 79cb 36bf 66e3 19c0
000003a0: b8ce bdbf 66db e9be fb35 d3bf f71e e4bf
000003b0: 37ed 82bf 6ced abbf e5d7 f3bf e6cd 11bf
000003c0: c7fa acbf 31a3 91bf 4f88 f1bf 57db 59c0
000003d0: 85ba 34c0 e925 24bf 3be5 03c0 3934 adbf
000003e0: d911 a0bf f3cf 28bf 10b8 22bf 3980 a7bf
000003f0: 5118 66bf ed28 52bf c8e3 24bf 9651 cf3d

weight_ih_l1 f4 [256, 64]
-0.4623895 -0.33804342 1.2836103 -0.28387067 2.2172697 -0.99103254 0.7660298 0.31900764
-1.2347986 -1.0434284 -0.52046674 -0.5686588 0.22878549 -1.7862437 0.9805113 0.41510862
-0.47623265 2.7911928 2.124036 0.14458077 0.35914132 1.9352298 -0.78812087 -0.9669017
1.9868772 -0.31729433 1.3235911 1.15964 0.04901582 0.048810706 -0.5452333 -0.08933887
0.51513064 3.0885649 -1.4427807 -0.6872435 -2.9077957 -1.4118643 -0.042812478 1.2080637
-0.7798348 0.71495783 1.0195422 0.09422733 0.9984784 -1.215315 -0.32094184 1.0341332
1.2246151 1.1897161 1.226074 0.89490676 0.4038574 -1.6547756 -0.25069425 -1.1067779
1.4068179 -0.18237628 1.7718573 -0.40899032 -1.2958019 0.89652014 0.57719314 0.32561174
-0.8168043 0.7678995 1.3223788 1.3315485 2.168628 -0.6862425 2.4216554 1.3585701
-0.31529367 2.1609998 -2.3604484 -1.6698134 0.17781055 -0.6623244 2.262024 0.5361741
1.0065762 1.4856256 -0.71881574 -1.4339448 0.5414862 1.3736296 1.9214824 0.9241184
-0.17058505 1.7339492 0.0378596 0.3849133 0.5145365 -1.4735924 -0.15245004 -2.050208
-0.05441926 1.864397 0.28583798 -0.336861 -1.2371662 -0.5370013 -0.40358737 0.56116545
-0.93225235 2.1154208 0.7420362 1.2011831 -0.46708018 -1.22575 1.2267394 1.2951436
-0.026682358 1.8086946 2.1235068 0.22607377 -0.37452298 1.4570554 -1.1695287 -2.1060672
-0.11959082 -1.9493796 0.93996835 -1.4019799 1.1878787 2.15777 -1.391327 -2.39381
-0.5994921 1.3149717 0.36566433 0.8214844 0.53231907 -0.34035808 2.630432 0.86676705
-0.6896861 0.03531939 0.5768345 -0.42324752 0.07464517 -1.6049228 0.44592944 -1.101294
-0.1781052 0.17794396 -0.23144574 -1.2029347 -0.26067734 -0.1344995 0.93587565 -1.101475
0.9839438 1.9745591 -0.97564954 1.3584448 -0.15698451 -0.38618824 -2.1640615 -2.325141
0.026500981 -0.5454748 -0.41577592 -2.112017 0.51812875 -0.2890508 -1.2112579 0.62180585
-1.5362512 -0.3331871 0.24349505 -0.115122065 -1.1161468 -2.6395888 0.536056 2.2511146
1.6278573 1.0364344 1.3804871 -0.13748282 0.04243535 1.9433789 0.21797201 -3.2928073
-0.42511985 -1.1487312 1.0652279 -1.0964464 1.7573074 2.4400218 0.022896603 -1.4244059
1.4931961 -2.4463775 -1.9857706 -1.5559735 -2.1556976 1.4687922 -0.8795501 -1.7313547
1.4759884 -0.8823333 0.7177803 1.9717349 -0.85671884 0.4132294 -1.2200531 1.6283259
-0.3996252 1.7343572 0.23241961 0.3586136 -0.6496153 -0.4363797 -1.8517494 -0.9338165
0.28283983 -2.006094 0.8558655 0.45146164 -2.251093 1.0230236 0.48481473 1.4056157
0.6975579 0.51470405 -0.6789456 4.1622005 -0.6194748 -0.50100076 1.7491142 -1.802913
2.3154042 -0.366086 0.47292998 0.2109038 -1.8592904 0.9839548 0.2769817 0.27369133
0.19428658 -0.94759244 0.04318339 0.6498272 0.35910967 -2.0746694 -0.3215916 1.8070412
0.5021982 4.181239 -1.6940877 1.1919849 -2.1250105 -0.942578 0.92522055 2.6744676
00000000: 51be ecbe 0714 adbe 584d a43f 7f57 91be
00000010: bfe7 0d40 4fb4 7dbf 871a 443f f854 a33e
00000020: e10d 9ebf 108f 85bf 4f3d 05bf a093 11bf
00000030: be46 6a3e a2a3 e4bf ca02 7b3f 1e89 d43e
00000040: c4d4 f3be e7a2 3240 35f0 0740 fb0c 143e
00000050: 5fe1 b73e 9cb5 f73f 4ac2 49bf df86 77bf
00000060: fe51 fe3f 6774 a2be 6f6b a93f 156f 943f
00000070: d0c4 483d bced 473d 6994 0bbf 4cf7 b6bd
00000080: 9adf 033f 0cab 4540 0aad b8bf 31ef 2fbf
00000090: 5319 3ac0 f8b7 b4bf 235c 2fbd d5a1 9a3f
000000a0: 41a3 47bf 7a07 373f 5c80 823f 42fa c03d
000000b0: 489c 7f3f 718f 9bbf 7d52 a4be 7a5e 843f
000000c0: 30c0 9c3f 9e48 983f feef 9c3f 9c18 653f
000000d0: 66c6 ce3e b0cf d3bf ff5a 80be e6aa 8dbf
000000e0: 9c12 b43f d9c0 3abe 38cc e23f 2e67 d1be
000000f0: d6dc a5bf 5882 653f eec2 133f 95b6 a63e
00000100: 161a 51bf 1095 443f b543 a93f 2e70 aa3f
00000110: cdca 0a40 97ad 2fbf 67fc 1a40 a0e5 ad3f
00000120: 2c6e a1be d24d 0a40 9611 17c0 72bc d5bf
00000130: f813 363e 188e 29bf 00c5 1040 b542 093f
00000140: 7dd7 803f fb28 be3f 4f04 38bf 818b b7bf
00000150: d79e 0a3f 18d3 af3f 23f3 f53f 0693 6c3f
00000160: d9ad 2ebe 0cf2 dd3f ab12 1b3d 5b13 c53e
00000170: aab8 033f ad9e bcbf dd1b 1cbe 9c36 03c0
00000180: bbe6 5ebd 90a4 ee3f 5b59 923e 0c79 acbe
00000190: 765b 9ebf eb78 09bf 01a3 cebe 8aa8 0f3f
000001a0: 17a8 6ebf 0e63 0740 16f6 3d3f 5ec0 993f
000001b0: 2225 efbe 60e5 9cbf cc05 9d3f 44c7 a53f
000001c0: f694 dabc 4e83 e73f 89e7 0740 e27f 673e
000001d0: 7ac1 bfbe cb80 ba3f 1eb3 95bf cec9 06c0
000001e0: 08ec f4bd 4585 f9bf c4a1 703f 1474 b3bf
000001f0: 690c 983f e718 0a40 0117 b2bf 2f34 19c0
00000200: 5078 19bf fe50 a83f 5b38 bb3e cd4c 523f
00000210: 1046 083f 6a43 aebe ff58 2840 72e4 5d3f
00000220: 458f 30bf 11ab 103d 6dab 133f e6b3 d8be
00000230: 91df 983d 1c6e cdbf dd50 e43e 34f7 8cbf
00000240: 3661 36be f136 363e 1d00 6dbe c4f9 99bf
00000250: 8077 85be 3dba 09be 8c95 6f3f 22fd 8cbf
00000260: bee3 7b3f 5abe fc3f 2bc4 79bf 85e1 ad3f
00000270: 8cc0 20be 77ba c5be fc7f 0ac0 1ccf 14c0
00000280: 9618 d93c 3da4 0bbf 95e0 d4be 492b 07c0
00000290: 16a4 043f 77fe 93be 800a 9bbf ab2e 1f3f
000002a0: e1a3 c4bf 8097 aabe c456 793e 1ec5 ebbd
000002b0: e6dd 8ebf 06ef 28c0 f73a 093f 4312 1040
000002c0: a15d d03f e2a9 843f cdb3 b03f 4cc8 0cbe
000002d0: b1d0 2d3d a4c0 f83f 0e34 5f3e 5bbd 52c0
000002e0: 4fa9 d9be a009 93bf 6359 883f 5b58 8cbf
000002f0: 73ef e03f 5129 1c40 a891 bb3c ef52 b6bf
00000300: 0d21 bf3f 7391 1cc0 bb2d febf 242a c7bf
00000310: f3f6 09c0 6201 bc3f 322a 61bf 089d ddbf
00000320: 30ed bc3f 98e0 61bf 73c0 373f cf61 fc3f
00000330: ed51 5bbf ce92 d33e b32a 9cbf fc6c d03f
00000340: ad9b ccbe 6bff dd3f 68ff 6d3e 349c b73e
00000350: 304d 26bf 296d dfbe 2006 edbf 990e 6fbf
00000360: 62d0 903e d863 00c0 001a 5b3f fb25 e73e
00000370: e811 10c0 70f2 823f a339 f83e 37eb b33f
00000380: 2893 323f a5c3 033f 61cf 2dbf bf30 8540
00000390: e795 1ebf 9641 00bf f9e2 df3f dac5 e6bf
000003a0: 952f 1440 a06f bbbe e123 f23e 2af7 573e
000003b0: 3afd edbf 76e4 7b3f 8cd0 8d3e 4521 8c3e
000003c0: 10f3 463e 6b95 72bf 11e1 303d 135b 263f
000003d0: 39dd b73e 62c7 04c0 a7a7 a4be 204d e73f
000003e0: 1090 003f b6cc 8540 ded7 d8bf f692 983f
000003f0: 2c00 08c0 cb4c 71bf 41db 6c3f 7a2a 2b40

weight_hh_l1 f4 [256, 64]
1.6394552 -0.62512934 1.0748873 -0.03084198 2.2774255 -0.30916104 -0.6723644 -0.47376642
-0.51634705 0.2920638 -1.8696378 0.13718653 1.3783078 0.13112284 -0.36355987 -1.3059636
0.20486642 -2.286895 -0.034054097 1.6168382 -0.43026078 -0.0344538 1.6981493 -1.1718967
-1.1148231 -0.44479442 1.3683944 0.15016873 -0.021153104 1.3120484 -0.18349758 -1.4923787
0.073909864 1.4345703 -0.57359827 0.5220733 -1.2770711 1.6553859 -0.5297556 -0.8227318
-0.77360475 -1.1141924 0.31633472 -2.1149633 -0.55432105 -1.9948066 -1.6033229 0.42377254
1.0828599 -0.7275993 0.4708688 -0.45629674 -1.5173517 -0.16932434 -0.5268455 0.8264258
0.7393991 0.27823642 0.49618816 1.8047919 -0.5091491 -1.5326104 2.1779294 -1.1325355
-0.23206659 1.8013425 1.2342552 0.4298973 1.8534027 0.4986217 -0.3638934 -1.3945602
2.1718535 -0.112189025 -0.5437191 -0.24667627 0.36793715 -2.1192718 -3.210777 -0.53527814
0.38965207 0.06338252 -1.5714333 1.6683342 -0.5696811 -1.4453198 0.68248904 3.3381808
0.11726489 0.111082375 0.30706653 0.9462249 0.45487034 0.38825506 0.3561304 -2.7736697
-1.3312804 0.4905995 0.09740054 -0.5018356 -0.6132696 1.2538441 0.47344574 0.6335893
-0.124774106 2.742761 0.017277708 -1.6286411 0.5687869 -1.6101806 -1.8673209 2.083429
0.06612995 -0.32773763 -0.24346077 1.08345 -0.9135421 -1.5144528 0.7174888 -1.0601959
1.2739817 0.82109267 1.0203336 1.2537065 -0.23445797 0.80547255 2.3578644 1.200883
0.09176069 -1.678132 -1.4586048 0.35200164 -1.1690866 -0.99610394 1.8467537 2.969389
-1.16257 0.047531523 0.33731028 0.46939453 -0.2778598 0.7079844 1.5573463 0.64980614
0.5494166 1.6642601 1.3398131 -1.8353148 1.4664034 1.0892795 -1.0533261 -1.4977521
-1.6933978 -0.40334198 -0.5964854 -0.58260626 -1.1761292 -1.2355846 -0.7563242 1.0449429
1.0717331 -0.80355144 0.92803234 0.91356397 0.25756985 -0.086083606 -0.7115959 1.1560787
-1.5388179 0.8086387 1.2218401 1.1352137 -1.5281439 1.5229758 1.5290729 -1.8209667
-0.12250568 -0.14896569 -1.7659669 -1.705879 0.28406355 -0.20210578 0.48633105 -0.8082491
0.7319513 1.5532295 -0.3891522 -1.2877314 0.7356784 -0.029230608 -2.2075903 -0.06621291
1.3401442 0.36466685 0.43064338 1.9350296 -0.025432197 0.0669924 1.4771719 0.4609171
0.2238338 -0.2657512 -1.4617448 -0.024888948 0.12506002 -3.3590515 -1.9991584 1.7517266
-1.1294926 -0.028505018 -1.7401266 0.8318805 0.13201231 0.86402607 0.044263054 0.95075077
-0.2280446 -1.8204598 0.010134361 1.261097 0.45733052 2.1145198 1.7777398 0.00012933217
-0.03074318 0.6527257 0.09714194 1.5835718 0.9601875 -0.37278008 -0.082153566 1.7877893
-0.9927143 0.5353853 1.8863537 -2.1287546 -0.40973118 0.85641074 -0.3713417 1.4308368
1.383246 0.61207944 -0.52819663 -0.05013125 0.16391736 -0.19871709 -0.17820185 -0.75071377
0.12817664 0.5659636 0.23127045 0.37329096 0.69308466 0.34472397 1.4506936 -0.63691646
00000000: abd9 d13f 7a08 20bf e895 893f 52a8 fcbc
00000010: 57c1 1140 5b4a 9ebe 1320 2cbf 8391 f2be
00000020: 522f 04bf 6389 953e 4b50 efbf a07a 0c3e
00000030: 646c b03f 1145 063e 8524 babe d129 a7bf
00000040: 81c8 513e 7d5c 12c0 4f7c 0bbd 8ef4 ce3f
00000050: 244b dcbe 6e1f 0dbd f55c d93f b600 96bf
00000060: 86b2 8ebf 18bc e3be 8c27 af3f d5c5 193e
00000070: 4649 adbc 34f1 a73f cae6 3bbe 4406 bfbf
00000080: 0e5e 973d 00a0 b73f 56d7 12bf 99a6 053f
00000090: 1177 a3bf afe3 d33f 109e 07bf 8d9e 52bf
000000a0: f60a 46bf db9d 8ebf a0f6 a13e 8f5b 07c0
000000b0: fce7 0dbf d355 ffbf af39 cdbf b7f8 d83e
000000c0: 279b 8a3f f343 3abf b715 f13e ba9f e9be
000000d0: 9538 c2bf 5c63 2dbe 59df 06bf a490 533f
000000e0: 4249 3d3f 0175 8e3e 600c fe3e 6c03 e73f
000000f0: 9857 02bf 942c c4bf 3263 0b40 ecf6 90bf
00000100: dda2 6dbe 6492 e63f 13fc 9d3f 801b dc3e
00000110: 4d3c ed3f 584b ff3e 3c50 babe f380 b2bf
00000120: a6ff 0a40 5cc3 e5bd 2d31 0bbf b498 7cbe
00000130: 4262 bc3e 26a2 07c0 5f7d 4dc0 fd07 09bf
00000140: 7a80 c73e b2ce 813d ba24 c9bf fa8b d53f
00000150: 9fd6 11bf 3d00 b9bf 9ab7 2e3f c1a4 5540
00000160: 9328 f03d 287f e33d d337 9d3e cc3b 723f
00000170: c4e4 e83e 5ec9 c63e b956 b63e ce83 31c0
00000180: 6567 aabf dc2f fb3e ef79 c73d 4c78 00bf
00000190: 3dff 1cbf f77d a03f 7b67 f23e e932 223f
000001a0: 9189 ffbd 6589 2f40 fb89 8d3c 5077 d0bf
000001b0: 059c 113f 661a cebf 5f04 efbf e756 0540
000001c0: 246f 873d 3acd a7be c84d 79be 7dae 8a3f
000001d0: e5dd 69bf 97d9 c1bf 59ad 373f 80b4 87bf
000001e0: d511 a33f 2133 523f 4b9a 823f 7479 a03f
000001f0: c015 70be 7333 4e3f 40e7 1640 89b6 993f
00000200: 07ed bb3d 08cd d6bf 90b3 babf 8f39 b43e
00000210: a1a4 95bf ab00 7fbf 6d62 ec3f 780a 3e40
00000220: 18cf 94bf 6ab0 423d efb3 ac3e 7b54 f03e
00000230: a443 8ebe 773e 353f 2057 c73f b259 263f
00000240: 91a6 0c3f 7a06 d53f ff7e ab3f 98eb eabf
00000250: 1bb3 bb3f 836d 8b3f 64d3 86bf 57b6 bfbf
00000260: 42c1 d8bf d782 cebe 44b3 18bf af25 15bf
00000270: 678b 96bf a327 9ebf 769e 41bf b0c0 853f
00000280: 8d2e 893f 8cb5 4dbf 8793 6d3f 54df 693f
00000290: 32e0 833e 9a4c b0bd 262b 36bf 63fa 933f
000002a0: fcf7 c4bf f202 4f3f 4265 9c3f af4e 913f
000002b0: 389a c3bf dff0 c23f a9b8 c33f 7015 e9bf
000002c0: 42e4 fabd 768a 18be 340b e2bf 3e5a dabf
000002d0: c770 913e d1f4 4ebe 6200 f93e 6ae9 4ebf
000002e0: 2961 3b3f 39d0 c63f f53e c7be 62d4 a4bf
000002f0: 6b55 3c3f 0775 efbc 2949 0dc0 a29a 87bd
00000300: d889 ab3f 9db5 ba3e 4a7d dc3e 0daf f73f
00000310: 2f57 d0bc 5033 893d f813 bd3f 53fd eb3e
00000320: b034 653e 8b10 88be 741a bbbf e8e3 cbbc
00000330: bc0f 003e b3fa 56c0 6ce4 ffbf 9438 e03f
00000340: 3793 90bf 5b83 e9bc 78bc debf 1ff6 543f
00000350: 3c2e 073e d030 5d3f 2d4d 353d 6764 733f
00000360: 8684 69be d404 e9bf 970a 263c a06b a13f
00000370: 3a27 ea3e 4b54 0740 fa8c e33f 579d 0739
00000380: 1fd9 fbbc 0819 273f 5af2 c63d 7bb2 ca3f
00000390: d9ce 753f 08dd bebe 2140 a8bd 48d6 e43f
000003a0: 8622 7ebf 030f 093f 0a74 f13f 843d 08c0
000003b0: 49c8 d1be bc3d 5b3f 8020 bebe a925 b73f
000003c0: 340e b13f 3db1 1c3f e537 07bf 6d56 4dbd
000003d0: f4d9 273e 7e7c 4bbe 8c7a 36be c72e 40bf
000003e0: bd40 033e fee2 103f 29d2 6c3e fe1f bf3e
000003f0: ff6d 313f a97f b03e 54b0 b93f f50c 23bf

bias_ih_l1 f4 [256]
-0.4857446 -1.471225 -0.54858875 -0.54151213 -0.1856243 -1.4031416 -1.4969062 -1.6523395
-1.1528493 -1.7401578 -1.7042801 -0.8018573 -0.72386855 -0.978844 -0.49236983 -2.0152564
-1.1375911 0.7835169 -0.395324 -2.2773018 -1.4245055 -0.26469257 -2.082834 -0.24309526
-1.8854278 -1.4520755 1.477763 -1.1592835 -2.109062 -2.081979 -1.4138526 -1.7025332
-1.3954068 -1.5232195 -1.6217151 -0.81807756 -1.8362857 -1.4028095 -1.3976414 -1.9526902
-0.5293049 -1.5266252 -0.28196123 -0.83323646 -0.07212974 -1.0992261 -1.8192338 -0.26591337
-1.0027694 -1.417822 -1.5068285 -0.49732497 -2.2547274 -0.9739215 -1.8974196 -0.5519623
-0.98335385 -1.4979002 -1.0797162 0.049030356 -2.1430318 -0.5319607 -0.4084302 -0.7230111
0.30139002 -1.2900513 -0.8543387 -0.7000791 -0.19656496 0.13121286 -2.0249913 -1.2526888
-1.0915946 1.2451735 1.3157576 -0.721639 -0.6922601 0.20954683 1.5303208 1.144321
-0.48677218 0.013325742 -1.7274221 0.761271 -0.21142295 -0.3920574 -0.22238037 -0.9751804
-0.9298006 0.14014629 -0.6317215 -1.5772353 0.84641606 0.1338954 -0.8257864 -0.2657605
-0.60841197 0.5690764 -0.83710796 -0.5463524 -2.049173 -1.3082047 -0.1587875 0.019513577
-1.9104553 0.39829546 -1.8166646 -1.5004333 -1.2570946 0.62693334 -0.8185655 -0.8185363
-0.5334042 -0.3262088 -0.5257235 -0.6623922 0.1949461 -1.5734924 -0.2896582 0.6778526
-2.3168874 0.542015 0.26086333 0.10064648 0.50963753 -0.7243694 0.71414834 -1.34925
0.8945551 0.27750006 0.22021689 0.77020395 0.64053786 0.34074804 -0.33815607 -0.18168682
0.08395914 -0.81222844 -0.040709414 0.33884513 -0.16150254 -0.5089718 -0.6169174 0.94708586
0.2476589 -1.0827298 -0.40690506 0.23840433 0.9848157 0.122523785 0.5768292 1.6571244
-0.31570145 0.20902896 -0.31380382 0.69874156 -0.2870698 0.27219614 -0.3512515 -0.09022893
0.00025893023 -0.49868238 0.34267893 0.3530627 -0.53698766 0.33252957 -0.77876836 0.59914225
0.23526113 0.22317858 -0.019781783 -0.6467079 0.12921214 -0.7545918 -0.03997874 -0.19707616
-0.2617134 -0.15208305 -0.01589595 -0.2737209 -0.66400063 0.40275422 0.341724 0.8458453
0.4324886 0.63893473 -0.40487543 0.52664435 0.7816567 0.10795056 0.7779228 -0.0508305
-0.9021559 -1.242089 -0.4808199 -0.34549943 -0.017560156 -1.9740118 -1.7853987 -1.2228856
-1.250912 -1.7252961 -1.49287 -1.3952823 -0.43013248 -1.3831178 -0.41058344 -1.5475789
-1.1672412 -1.5997345 -1.9643738 -2.4540575 -1.9663856 -0.06895205 -2.0569775 -0.5313537
-0.60131335 -1.5150722 -0.11726265 -1.2359979 -1.8268974 -1.5286465 -1.5250039 -1.6103203
-1.0693128 -1.4562132 -1.178641 -1.2551526 -1.8135532 -1.3386409 -1.2724376 -1.6707106
-1.6970522 -1.4188507 -0.88150746 -0.88397944 -0.39893723 -2.076171 -2.4309855 -0.4932016
-0.871111 -1.1163343 -1.268922 -0.8198547 -1.868321 -0.060469408 -1.7726543 -0.97938955
-1.7952406 -1.0519773 -1.4973089 -0.20236222 -1.5464656 -1.2686026 -0.11746451 -0.9781602
00000000: 84b3 f8be 1a51 bcbf 5070 0cbf 8aa0 0abf
00000010: 4c14 3ebe 259a b3bf 9f9a bfbf dc7f d3bf
00000020: 9190 93bf 7ebd debf da25 dabf 8546 4dbf
00000030: 734f 39bf 8595 7abf e617 fcbe f6f9 00c0
00000040: 969c 91bf 9094 483f e867 cabe 50bf 11c0
00000050: 3256 b6bf c985 87be 274d 05c0 f7ed 78be
00000060: b355 f1bf 9cdd b9bf 5727 bd3f 6763 94bf
00000070: dffa 06c0 253f 05c0 1ff9 b4bf 9cec d9bf
00000080: b19c b2bf dbf8 c2bf 5c94 cfbf 886d 51bf
00000090: 690b ebbf 438f b3bf eae5 b2bf c1f1 f9bf
000000a0: 8780 07bf 7468 c3bf 395d 90be fc4e 55bf
000000b0: c2b8 93bd 71b3 8cbf a7dc e8bf cc25 88be
000000c0: bf5a 80bf 317b b5bf c2df c0bf 61a1 febe
000000d0: 744d 10c0 eb52 79bf a5de f2bf 674d 0dbf
000000e0: 14bd 7bbf 32bb bfbf 2434 8abf 0ed4 483d
000000f0: 6f27 09c0 942e 08bf c31d d1be 4117 39bf
00000100: cb4f 9a3e 6720 a5bf f1b5 5abf 6238 33bf
00000110: 5348 49be aa5c 063e 7599 01c0 1b58 a0bf
00000120: 5fb9 8bbf d861 9f3f bf6a a83f 55bd 38bf
00000130: f537 31bf 7293 563e 8de1 c33f 1c79 923f
00000140: 343a f9be 3754 5a3c 2b1c ddbf a8e2 423f
00000150: 427f 58be bfbb c8be aeb7 63be 6ca5 79bf
00000160: 6a07 6ebf 8282 0f3e 80b8 21bf d9e2 c9bf
00000170: b9ae 583f e01b 093e bd66 53bf c311 88be
00000180: e3c0 1bbf feae 113f b54c 56bf c0dd 0bbf
00000190: a725 03c0 4073 a7bf 3199 22be f0da 9f3c
000001a0: cd89 f4bf 62ed cb3e 7788 e8bf 330e c0bf
000001b0: 7ae8 a0bf b47e 203f 828d 51bf 988b 51bf
000001c0: 2d8d 08bf d704 a7be d195 06bf 8992 29bf
000001d0: f39f 473e 3368 c9bf 144e 94be bf87 2d3f
000001e0: e247 14c0 7fc1 0a3f e18f 853e be1f ce3d
000001f0: 9b77 023f 4670 39bf 6dd2 363f 39b4 acbf
00000200: 9001 653f 7d14 8e3e 8980 613e 162c 453f
00000210: 4afa 233f 8776 ae3e cb22 adbe 1c0c 3abe
00000220: c5f2 ab3d 34ee 4fbf eabe 26bd 1c7d ad3e
00000230: ec60 25be fa4b 02bf 4cee 1dbf 3874 723f
00000240: 4b9a 7d3e e496 8abf dc55 d0be 4420 743e
00000250: e21c 7c3f c0ed fa3d 14ab 133f a71c d43f
00000260: 9fa3 a1be b00b 563e e5aa a0be bae0 323f
00000270: d0fa 92be 4b5d 8b3e 3dd7 b3be f2c9 b8bd
00000280: 07c1 8739 4c53 ffbe 9d73 af3e a2c4 b43e
00000290: 0678 09bf 5141 aa3e 5d5d 47bf 6361 193f
000002a0: 4be8 703e ed88 643e 680d a2bc a68e 25bf
000002b0: 3050 043e ee2c 41bf bfc0 23bd 55ce 49be
000002c0: 4cff 85be a9bb 1bbe 3938 82bc 2525 8cbe
000002d0: f2fb 29bf cd35 ce3e 73f6 ae3e 5189 583f
000002e0: 256f dd3e 3a91 233f d54b cfbe 2ad2 063f
000002f0: a71a 483f 2f15 dd3d f325 473f a433 50bd
00000300: b0f3 66bf c6fc 9ebf 072e f6be 4de5 b0be
00000310: 51da 8fbc 6bac fcbf f287 e4bf 8487 9cbf
00000320: e21d a0bf 81d6 dcbf 5d16 bfbf 9c98 b2bf
00000330: 533a dcbe 010a b1bf fe37 d2be 1117 c6bf
00000340: 2968 95bf 1ac4 ccbf 9a70 fbbf 470f 1dc0
00000350: 86b2 fbbf bb36 8dbd 85a5 03c0 cc06 08bf
00000360: acef 19bf e3ed c1bf 6627 f0bd 2e35 9ebf
00000370: c6d7 e9bf b0aa c3bf 5433 c3bf fa1e cebf
00000380: 3edf 88bf 3265 babf b5dd 96bf d7a8 a0bf
00000390: 8322 e8bf 9658 abbf 3cdf a2bf d8d9 d5bf
000003a0: 0239 d9bf e69c b5bf 79aa 61bf 7a4c 62bf
000003b0: 8041 ccbe fcdf 04c0 4495 1bc0 ec84 fcbe
000003c0: 2101 5fbf 0be4 8ebf 096c a2bf ffe1 51bf
000003d0: 2425 efbf c5ae 77bd 56e6 e2bf 46b9 7abf
000003e0: 72ca e5bf 31a7 86bf d1a7 bfbf 0b38 4fbe
000003f0: 96f2 c5bf 9261 a2bf 3c91 f0bd b568 7abf

bias_hh_l1 f4 [256]
-0.6565933 -1.499274 -0.37549686 -0.41018087 -0.36074176 -1.2086622 -1.6881753 -1.6274533
-1.0312797 -1.6703782 -1.584245 -0.70252997 -0.6725573 -0.9927012 -0.35502982 -2.216188
-1.0760694 0.7063291 -0.26449567 -2.2701187 -1.4499271 -0.27367502 -2.1721723 -0.3074192
-1.9838828 -1.3414729 1.5858351 -1.1533161 -2.1118848 -1.929451 -1.3009323 -1.6634874
-1.4379107 -1.5164887 -1.7571442 -0.8470683 -1.7927734 -1.3340133 -1.4008026 -1.9322869
-0.54478705 -1.3949988 -0.13896337 -0.7311914 -0.027929619 -0.94531447 -1.998117 -0.13835464
-0.96954143 -1.5414194 -1.4781711 -0.36918858 -2.3766441 -1.0381587 -1.9737399 -0.63659877
-1.123153 -1.5620658 -1.1993914 -0.1415989 -2.0829728 -0.44698477 -0.38150498 -0.5603395
0.35671082 -1.3550962 -0.82169217 -0.8828814 -0.20433415 0.17839082 -2.213455 -1.2068425
-1.101103 1.164515 1.25364 -0.92226297 -0.5589296 0.3470206 1.6611139 1.3619087
-0.5705284 -0.14144017 -1.7483562 0.9695816 -0.2266342 -0.47319627 -0.28450242 -0.9320232
-0.85045904 0.15339528 -0.49338186 -1.5701109 1.0602645 0.2705687 -0.77913624 -0.17675644
-0.6341426 0.64854705 -0.7931927 -0.53563756 -1.9129639 -1.2896502 -0.21698083 0.21164674
-1.8674637 0.26329118 -1.7005047 -1.5542542 -1.2660551 0.75856626 -0.85486364 -0.8694097
-0.44934517 -0.31240782 -0.4453478 -0.78781 0.35163674 -1.4888664 -0.47946465 0.48767945
-2.11792 0.5860822 0.15932608 0.089609556 0.5072987 -0.81389475 0.6945111 -1.337715
0.7328366 0.25981757 0.058295526 0.623332 0.69452226 0.2529571 -0.24699943 -0.113876924
-0.0017340545 -0.9543897 0.08852616 0.34032243 -0.008428577 -0.62410074 -0.64393425 1.074042
0.15982068 -1.0556489 -0.31527013 0.042094883 1.0218575 0.13887124 0.5552106 1.7396792
-0.32137457 0.23306876 -0.29447305 0.76961935 -0.19281879 0.20944603 -0.2583649 -0.09973674
-0.2161744 -0.41984424 0.2699644 0.235338 -0.35711214 0.43726614 -0.6328228 0.50668013
0.28698137 0.1415084 0.041652597 -0.54256845 0.3490128 -0.8720851 0.013399308 -0.10437101
-0.3416217 -0.06554091 -0.088391565 -0.40824965 -0.7547593 0.28757647 0.24422905 0.81897444
0.30228516 0.538647 -0.42445758 0.4018143 0.6977981 0.27822757 0.6425788 -0.10783992
-0.7938694 -1.3389988 -0.4574758 -0.4200699 -0.12123682 -1.8577129 -1.7170029 -1.26982
-1.1818316 -1.8183821 -1.5617429 -1.1589787 -0.625324 -1.3160948 -0.61958975 -1.4655229
-1.1308147 -1.4929461 -1.9530793 -2.5486677 -1.8346765 -0.07712432 -2.063321 -0.5147296
-0.7404989 -1.4247662 -0.059748717 -1.1497684 -2.0501347 -1.6313753 -1.4452431 -1.8174844
-1.2414658 -1.6060596 -1.1499342 -1.0685581 -1.8255605 -1.1956365 -1.2820446 -1.6891603
-1.6556075 -1.504674 -0.90533894 -0.7481413 -0.2642728 -1.9312303 -2.2788577 -0.5908886
-0.82649165 -0.9752524 -1.2229599 -0.7992316 -1.9217892 0.02971415 -1.8624549 -0.945166
-1.7526698 -1.2428449 -1.5471216 -0.3634439 -1.4995439 -1.303227 -0.10569151 -0.9923882
00000000: 8016 28bf 36e8 bfbf 2041 c0be 3a03 d2be
00000010: 25b3 b8be 71b5 9abf 2116 d8bf 6450 d0bf
00000020: f900 84bf f4ce d5bf 8ac8 cabf 01d9 33bf
00000030: b72c 2cbf aa21 7ebf 78c6 b5be 06d6 0dc0
00000040: a4bc 89bf fcd1 343f fa6b 87be a049 11c0
00000050: 3697 b9bf 221f 8cbe df04 0bc0 0d66 9dbe
00000060: dfef fdbf 62b5 abbf a5fc ca3f dd9f 93bf
00000070: 1f29 07c0 40f8 f6bf f384 a6bf 28ed d4bf
00000080: 750d b8bf 4d1c c2bf 1aea e0bf 78d9 58bf
00000090: 9979 e5bf f3c0 aabf 804d b3bf 2d55 f7bf
000000a0: 2a77 0bbf 528f b2bf 6a4c 0ebe 5c2f 3bbf
000000b0: a8cc e4bc 2100 72bf 4cc2 ffbf d7ac 0dbe
000000c0: de33 78bf 3b4d c5bf b634 bdbf 4906 bdbe
000000d0: f01a 18c0 62e2 84bf 82a3 fcbf 23f8 22bf
000000e0: 7ac3 8fbf c6f1 c7bf a885 99bf 4dff 10be
000000f0: 6d4f 05c0 30db e4be 9f54 c3be 6972 0fbf
00000100: cda2 b63e cb73 adbf 6b5a 52bf 8404 62bf
00000110: f93c 51be 15ac 363e 3fa9 0dc0 d179 9abf
00000120: f1f0 8cbf d40e 953f 4777 a03f 6d19 6cbf
00000130: 0316 0fbf afac b13e 619f d43f 0653 ae3f
00000140: 260e 12bf b1d5 10be 23ca dfbf 8036 783f
00000150: cc12 68be c846 f2be 4daa 91be 1399 6ebf
00000160: afb7 59bf a713 1d3e 8c9c fcbe 65f9 c8bf
00000170: bfb6 873f fb87 8a3e 7975 47bf a4ff 34be
00000180: 2b57 22bf 2e07 263f ad0e 4bbf 8b1f 09bf
00000190: 00dc f4bf 4213 a5bf 3930 5ebe ecb9 583e
000001a0: 0d09 efbf 1ace 863e 23aa d9bf cdf1 c6bf
000001b0: 180e a2bf 6631 423f 58d8 5abf a291 5ebf
000001c0: 9210 e6be ebf3 9fbe a004 e4be ebad 49bf
000001d0: bb09 b43e 2d93 bebf 647c f5be 1fb1 f93e
000001e0: 008c 07c0 7c09 163f 6026 233e 3785 b73d
000001f0: 54de 013f 685b 50bf 7bcb 313f 3f3a abbf
00000200: 2e9b 3b3f cf06 853e 4ac7 6e3d b092 1f3f
00000210: 36cc 313f 9883 813e 6bed 7cbe 4e38 e9bd
00000220: 3749 e3ba e252 74bf 344d b53d be3e ae3e
00000230: 0418 0abc 11c5 1fbf e0d8 24bf 357a 893f
00000240: 08a8 233e 811f 87bf 166b a1be af6b 2c3d
00000250: 3acc 823f 4334 0e3e 4822 0e3f cfad de3f
00000260: 358b a4be 94a9 6e3e 2cc5 96be c605 453f
00000270: 4a72 45be 0579 563e 6748 84be c742 ccbd
00000280: d25c 5dbe d3f5 d6be c638 8a3e 72fc 703e
00000290: 67d7 b6be 59e1 df3e ad00 22bf cab5 013f
000002a0: 39ef 923e 94e7 103e ea9b 2a3d c4e5 0abf
000002b0: ceb1 b23e f840 5fbf c588 5b3c 78c0 d5bd
000002c0: 0ae9 aebe 503a 86bd a306 b5bd 1906 d1be
000002d0: e837 41bf 393d 933e 2e17 7a3e 4fa8 513f
000002e0: 1fc5 9a3e c5e4 093f 8152 d9be 9bba cd3e
000002f0: e5a2 323f d873 8e3e 0b80 243f 2ddb dcbd
00000300: 063b 4bbf 5064 abbf 453a eabe 6713 d7be
00000310: 034b f8bd 89c9 edbf c0c6 dbbf 7689 a2bf
00000320: 4246 97bf bfc0 e8bf 31e7 c7bf 6a59 94bf
00000330: 3c15 20bf cb75 a8bf 6f9d 1ebf 4196 bbbf
00000340: 89be 90bf dc18 bfbf 81fe f9bf 5f1d 23c0
00000350: aed6 eabf 5bf3 9dbd 740d 04c0 52c5 03bf
00000360: 5691 3dbf bd5e b6bf 12bb 74bd 9c2b 93bf
00000370: 6835 03c0 e8d0 d0bf bafd b8bf 54a3 e8bf
00000380: 5ae8 9ebf 5c93 cdbf 0b31 93bf 83c6 88bf
00000390: f7ab e9bf 9e0a 99bf 0a1a a4bf 6836 d8bf
000003a0: f2ea d3bf 2899 c0bf 4bc4 67bf 3086 3fbf
000003b0: c44e 87be 8e32 f7bf ced8 11c0 7a44 17bf
000003c0: f594 53bf 24aa 79bf f389 9cbf 719a 4cbf
000003d0: 30fd f5bf 176b f33c ec64 eebf 66f6 71bf
000003e0: 7c57 e0bf 8b15 9fbf 1508 c6bf 5215 babe
000003f0: 0ef1 bfbf 24d0 a6bf ca74 d8bd 270d 7ebf
