Network2/params/cnn_nwParams0808144200.pth (torch_old, 79683 bytes, 26 tensors)

weight f4 [16, 3, 2]
0	0xbe40c108	-0.18823636
1	0xbe4df2c6	-0.20112142
2	0xbe19f3c1	-0.15034391
3	0x3c05ce18	0.008166812
4	0xbefd74a9	-0.49503067
5	0x3e286707	0.16445552
6	0xbed9f17a	-0.42567044
7	0xbe99718e	-0.29969448
8	0xbe9b9b51	-0.30391935
9	0x3dac876f	0.084242694
10	0xbd541a61	-0.05178297
11	0xbe5fd43d	-0.21858306
12	0x3eebc133	0.46045837
13	0x3def6129	0.11688454
14	0x3d0e0c8b	0.03467993
15	0xbcb97a11	-0.022641214
16	0xbd6a0cad	-0.057140995
17	0x3e81abbb	0.25326332
18	0xbebecae4	-0.37264168
19	0xbd63edda	-0.055646755
20	0xbdeccabd	-0.11562107
21	0xbe817cf5	-0.25290647
22	0x3e93d7d7	0.2887561
23	0xbe6a3e46	-0.22875318
24	0x3e782b9f	0.2423539
25	0x3cbb7c67	0.022886468
26	0x3e514d13	0.20439558
27	0x3e0cba81	0.1374302
28	0xbce2d6a4	-0.02769024
29	0xbe0ad24a	-0.13556781
30	0xbe35f8db	-0.17770712
31	0x3e7e128a	0.2481176
32	0xbe8e4bf9	-0.27792338
33	0xbe62b9e9	-0.22141232
34	0x3ebb1817	0.36541817
35	0x3d672363	0.05643023
36	0x3e902963	0.28156576
37	0x3d784bc5	0.060619134
38	0xbebf6d34	-0.37388003
39	0x3d3b03e5	0.04565801
40	0xbefcc013	-0.4936529
41	0x3e56ecb0	0.20988727
42	0x3e28c92a	0.16482988
43	0x3e367411	0.17817713
44	0x3e9950d6	0.29944485
45	0x3ef0f83c	0.47064388
46	0x3d50b29e	0.050951593
47	0x3d8ed337	0.0697388
48	0x3e1d809c	0.15381092
49	0x3ec378ab	0.38178
50	0xbe5b02c0	-0.21387768
51	0x3d9e8e58	0.07741994
52	0xbea3e5c8	-0.32011247
53	0xbef5f139	-0.480356
54	0x3ebd679f	0.3699312
55	0xbd9b5d9b	-0.07586213
56	0x3e05d3e7	0.13069116
57	0x3e980a7d	0.29695502
58	0x3ed8d2d5	0.42348352
59	0xbe1034f7	-0.14082704
60	0x3c02f48c	0.007992875
61	0xbdad8621	-0.08472849
62	0x3e3135c2	0.17305663
63	0xbf12b61b	-0.5730912
64	0x3d7aa3f5	0.061191518
65	0x3d668f5f	0.056289073
66	0xbe15ccc4	-0.14628893
67	0xbe168295	-0.1469825
68	0x3d7be2ad	0.06149547
69	0x3c52412f	0.012832924
70	0x3d13f07d	0.03611802
71	0x3e27ed67	0.16399156
72	0xbe93e782	-0.28887564
73	0xbe6d1ece	-0.23156282
74	0x3f0cd7d9	0.5501686
75	0x3e021e4e	0.12706873
76	0xbe80ad21	-0.25132087
77	0xbddbb326	-0.10727529
78	0xbd99c2ff	-0.07507896
79	0x3eb5618d	0.35425988
80	0xbe9aa1d9	-0.30201605
81	0xbcb86dc3	-0.022513276
82	0x3e5630da	0.20917073
83	0xbe793c7f	-0.24339484
84	0xbe9bf741	-0.30462077
85	0xbe28a38c	-0.16468638
86	0x3ebb8803	0.36627206
87	0xbe5160c9	-0.20447077
88	0x3dd0c3b3	0.10193577
89	0xbe567231	-0.20941998
90	0x3e02698f	0.1273558
91	0x3e2b4ddd	0.16728921
92	0x3dc9a1e1	0.09845329
93	0xbe0293dd	-0.12751718
94	0xbeeadb49	-0.45870426
95	0xbe65a565	-0.22426374

bias f4 [16]
0	0x3ea52744	0.3225652
1	0x3e2c73a4	0.16840988
2	0x3eaba863	0.33526906
3	0x3e02c210	0.12769341
4	0x3e5a736a	0.2133309
5	0x3df2509a	0.1183178
6	0x3e90bdd9	0.28269842
7	0x3eb70bc6	0.3575117
8	0x3e25099d	0.16116948
9	0xbe583181	-0.21112634
10	0x3e9789ba	0.29597265
11	0x3ea94749	0.330622
12	0xbebe8e79	-0.37218073
13	0xbe262eb5	-0.16228755
14	0xbd48337b	-0.04887722
15	0x3e59c6df	0.2126727

weight f4 [16]
0	0x3e4f6ac9	0.20255579
1	0x3f45b96f	0.77236074
2	0x3f01178a	0.5042654
3	0x3f758fe2	0.9592267
4	0x3f554224	0.8330405
5	0x3ec53a31	0.3852096
6	0x3f124550	0.5713701
7	0x3ea09ac2	0.3136807
8	0x3ed2ba73	0.41157874
9	0x3f71b2ce	0.9441346
10	0x3eac5524	0.33658707
11	0x3f6732ac	0.90311694
12	0x3f3d1fce	0.73876655
13	0x3f2a78b0	0.66590405
14	0x3e746163	0.23865275
15	0x3e83fa59	0.25776938

bias f4 [16]
0	0x3beabc62	0.0071635703
1	0x3ca3a346	0.019975316
2	0xbd4f4e28	-0.050611645
3	0x39270442	0.00015927947
4	0x3d57f2ed	0.052721906
5	0xbda3800f	-0.079834096
6	0xbdce0fe3	-0.10061624
7	0xbdae2590	-0.08503258
8	0xbd2119fb	-0.039331418
9	0xbe146f92	-0.14495686
10	0xbdc0f4bd	-0.0942168
11	0xbd62d3f4	-0.055377916
12	0xbbe6536f	-0.007028989
13	0xbe11f2f2	-0.14252833
14	0xbcbf8f37	-0.02338372
15	0x3c8d35bd	0.017237538

running_mean f4 [16]
0	0xbd72cefd	-0.05927943
1	0xbe82c589	-0.25541332
2	0x3f17d1c5	0.5930446
3	0xbd88d1ed	-0.06680665
4	0x3eb657f1	0.3561397
5	0x3e3e7db6	0.18602642
6	0x3dcfc405	0.1014481
7	0x3f476614	0.77890134
8	0xbd193d4a	-0.037411965
9	0x3e4df9ee	0.20114872
10	0x3e46c05c	0.19409317
11	0x3ea9b5a9	0.33146408
12	0xbef9f49c	-0.48819435
13	0xbe1b8c0e	-0.15190145
14	0xbe2d08b5	-0.16897853
15	0xbc3e8ef3	-0.011630761

running_var f4 [16]
0	0x3e112cf0	0.14177299
1	0x3dc2186a	0.09477313
2	0x3d98fffb	0.074706994
3	0x3dafd8ad	0.085862495
4	0x3ce794f2	0.028269265
5	0x3db462c3	0.088079
6	0x3e1986d6	0.14992842
7	0x3d3bfd2d	0.045895744
8	0x3e590e4a	0.21196857
9	0x3e068098	0.13134992
10	0x3d0b418b	0.033998054
11	0x3ca011f7	0.019539816
12	0x3d638cd9	0.055554245
13	0x3d7c00e7	0.061524298
14	0x3d808bf4	0.06276694
15	0x3e12fd1e	0.14354369

weight f4 [32, 16, 1]
0	0x3e587a8d	0.211405
1	0xbe84c9d4	-0.25935233
2	0x3e2fa5f8	0.17153156
3	0x3e39dd50	0.1815083
4	0xbb3d2cb9	-0.0028865768
5	0x3eb7d857	0.35907242
6	0xbddc0083	-0.10742285
7	0x3e7d7cff	0.24754713
8	0x3e1a9725	0.1509672
9	0x3e882aca	0.26595145
10	0x3e5a3f37	0.21313177
11	0x3e2860a2	0.16443112
12	0x3e69c41d	0.22828718
13	0xbde42a91	-0.111409314
14	0xbdc8d009	-0.098053046
15	0x3e155acf	0.14585422
16	0xbd9ef0c6	-0.07760768
17	0xbd996e6c	-0.074917644
18	0xbd4764a1	-0.04867995
19	0xbdb39b1c	-0.08769819
20	0x3e085cd4	0.13316661
21	0xba75a078	-0.000936992
22	0xbe16faff	-0.14744185
23	0xbd9bd7e2	-0.07609536
24	0xbe41731c	-0.18891567
25	0x3e64aea8	0.22332251
26	0xbf0fdee7	-0.56199497
27	0xbe36dc02	-0.17857364
28	0x3de3aaf4	0.11116591
29	0xbd77054d	-0.06030779
30	0x3d9de343	0.07709362
31	0x3e228ca1	0.15873958
32	0x3e3845aa	0.17995325
33	0x38819f30	6.18085e-05
34	0x3e64cb7c	0.22343248
35	0x3c8a3230	0.016869634
36	0xbd53a510	-0.051671088
37	0x3e006b01	0.12540819
38	0x3e4cf7d0	0.20016408
39	0xbe2205c0	-0.15822506
40	0xbdb14207	-0.08655172
41	0x3e595bee	0.21226475
42	0x3e26f40b	0.16304033
43	0xbdedf410	-0.11618817
44	0xbe162654	-0.14663059
45	0x3e728a65	0.23685606
46	0x3e2bc5e3	0.16774707
47	0xbe29a83e	-0.16568086
48	0xbd98b479	-0.074562974
49	0x3e037092	0.12835911
50	0xbe4bf876	-0.19918999
51	0x3e56ceb8	0.20977294
52	0x3e3f66ef	0.1869161
53	0xbea58c8a	-0.32333785
54	0x3dc3b902	0.09556772
55	0xbdb5cfa1	-0.08877493
56	0xbd28bce2	-0.041195758
57	0xbea22cb1	-0.31674722
58	0xbda7031f	-0.08154892
59	0xbe243106	-0.16034326
60	0xbd0d0bbf	-0.03443503
61	0x3d19174e	0.03737574
62	0x3cb13f07	0.0216365
63	0xbe0537e0	-0.13009596
64	0xbd8415ee	-0.06449495
65	0xbc842497	-0.016130729
66	0x3dd84d93	0.10561671
67	0xbdd73715	-0.10508553
68	0xbde06115	-0.10956017
69	0xbe94468d	-0.28960076
70	0xbe6bed82	-0.23039821
71	0xbe195ea4	-0.14977509
72	0xbe026add	-0.12736078
73	0xbe7050dc	-0.23468345
74	0x3e9eb0a9	0.30994156
75	0xbebe1f67	-0.37133333
76	0x3db45872	0.08805932
77	0x3dae8bcd	0.08522759
78	0xbe8108cd	-0.25202027
79	0x3d7c73cb	0.061633866
80	0x3e15f9f6	0.14646134
81	0x3de40224	0.11133221
82	0xbde5971a	-0.11210461
83	0x3e5c345a	0.21504346
84	0x3d0f9892	0.03505761
85	0x3dddf131	0.10837019
86	0x3e82a9a5	0.25520054
87	0xbe7ccc86	-0.24687394
88	0x3d53f8dd	0.051751006
89	0x3e53e604	0.20693213
90	0xbd659018	-0.05604562
91	0x3e73f53b	0.23824017
92	0xbdf99baf	-0.121878974
93	0x3e8cc8ea	0.27497035
94	0xbe29717f	-0.16547202
95	0xbcc6f35c	-0.024285965
96	0x3e8a67db	0.2703236
97	0xbe117ab1	-0.1420696
98	0x3e04859c	0.12941593
99	0xbd1b1aac	-0.037867233
100	0x3d7a6cda	0.061138965
101	0xbea5b799	-0.32366636
102	0x3bad69b5	0.0052921423
103	0xbd632b3f	-0.055461165
104	0x3e8cfb39	0.27535418
105	0xbe5c1196	-0.21491084
106	0xbeb7771b	-0.35833058
107	0x3da6fe95	0.081540264
108	0x3d331f48	0.043731004
109	0xbe613a3c	-0.21994871
110	0x3dbf3e36	0.09338038
111	0x3dd71b36	0.10503237
112	0xbc94a75c	-0.01814621
113	0x3d2ddc28	0.042446285
114	0x3d73aa5a	0.05948863
115	0xbe02edce	-0.12786028
116	0x3da11aaf	0.078664176
117	0x3e8d83d6	0.27639645
118	0x3e153d0a	0.14574066
119	0x3e1a32b2	0.15058401
120	0xbe8382b9	-0.2568567
121	0xbe8776e0	-0.26457882
122	0x3c96d652	0.018412743
123	0xbae3c692	-0.0017377904
124	0x3d078bb5	0.03309222
125	0xbc05f7c4	-0.008176748
126	0xbea12b69	-0.31478432
127	0xbe05395f	-0.13010167
128	0xbe8cbb73	-0.27486762
129	0xbe4f7270	-0.20258498
130	0x3dc1e15b	0.09466811
131	0x3d9d1e43	0.076717876
132	0xbe5cc70d	-0.21560307
133	0xbe5e6aee	-0.21720478
134	0xbdd1704c	-0.10226497
135	0x3ed60532	0.4180084
136	0xbddb9964	-0.10722616
137	0xbe80a215	-0.2512366
138	0x3e36b90e	0.1784403
139	0x3d2c2e91	0.042036597
140	0xbbbef69b	-0.0058277375
141	0xbde55003	-0.11196902
142	0x3da9d37b	0.0829229
143	0xbdfc35eb	-0.123149715
144	0xbe3a64c2	-0.18202499
145	0x3e07343d	0.13203521
146	0xbe5f074f	-0.21780132
147	0x3d210a7b	0.039316636
148	0xbdee385c	-0.116318434
149	0xbe5b7f1c	-0.21435207
150	0x3c81f58a	0.015864152
151	0x3de1bf45	0.1102281
152	0x3e3ad655	0.18245824
153	0xbdd396d5	-0.10331503
154	0xbdd85e11	-0.10564817
155	0x3e81589b	0.25262913
156	0x3e908c3d	0.28231993
157	0x3cfdf205	0.030999193
158	0x3e99caec	0.3003763
159	0xbe8546a0	-0.26030445
160	0x3d1a2889	0.037636314
161	0xbd0ddc5f	-0.03463399
162	0xbd2512be	-0.040301077
163	0xbdd8f649	-0.1059385
164	0xbcf5eb7b	-0.030019512
165	0x3e8c7782	0.27434927
166	0x3d69c6dc	0.057074413
167	0xbd29dc69	-0.041469965
168	0x3e9cf53f	0.30655858
169	0xbd487db5	-0.04894801
170	0xbe3d5fc4	-0.18493563
171	0x3da4b6e0	0.08042693
172	0xbe93b3e5	-0.28848186
173	0xbdfe2ed7	-0.12411278
174	0x3e39f959	0.18161525
175	0xbdb05060	-0.0860908
176	0xbdb4ac69	-0.08821947
177	0xbdcf071e	-0.10108779
178	0x3e1cb356	0.15302786
179	0xbea186ef	-0.3154826
180	0xbe299881	-0.16562082
181	0xbe7b1c30	-0.24522471
182	0x3e4d0cf2	0.2002447
183	0x3e98e306	0.29860705
184	0xbce93581	-0.028467895
185	0xbeabb4b7	-0.33536312
186	0x3e3b5f1b	0.18297999
187	0xbe78fb5d	-0.24314637
188	0xbd9ac78f	-0.07557594
189	0xbea59047	-0.32336637
190	0xbe030f84	-0.12798887
191	0x3de29620	0.1106379
192	0xbc93a735	-0.018024066
193	0xbdd3b292	-0.10336794
194	0xbc3de6c3	-0.011590662
195	0xbca24ba1	-0.019811453
196	0x3cd9ca07	0.026585592
197	0x3d9b9125	0.075960435
198	0x3d8ab68a	0.06773098
199	0xbe141d53	-0.14464311
200	0x3e122027	0.14270078
201	0x3ddbc9a0	0.10731816
202	0xbd9d2c8f	-0.076745145
203	0x3e496eaa	0.19671121
204	0x3d98c282	0.074589744
205	0xbeb47468	-0.3524506
206	0xbd8fa467	-0.07013779
207	0x3e27e2f2	0.16395167
208	0x3e39258f	0.18080734
209	0x3db5901b	0.088653766
210	0x3d8d5ca4	0.069024354
211	0xbabab414	-0.0014244341
212	0x3ddc373a	0.10752721
213	0xbd5321b9	-0.051545832
214	0x3e9d8ef4	0.30773127
215	0xbdc5a3c6	-0.09650378
216	0x3da57691	0.08079255
217	0x3ddcce57	0.10781544
218	0xbe1e6290	-0.15467286
219	0xbd0c426d	-0.034243036
220	0xbe49f921	-0.19723941
221	0x3e567131	0.20941617
222	0x3e90e779	0.283016
223	0xbd99cfeb	-0.0751036
224	0x3e2ba943	0.16763787
225	0xbe931444	-0.287264
226	0x3e46a29a	0.19397965
227	0x3cd74ea7	0.026282622
228	0x3e50d61f	0.2039418
229	0x3d13f72b	0.03612439
230	0xbd92a231	-0.07159842
231	0x3c233f8a	0.009963879
232	0xbded1a95	-0.11577336
233	0x3e8229a5	0.25422397
234	0x3e4ff781	0.20309259
235	0x3c6e5cc6	0.014548486
236	0xbea48bb2	-0.3213783
237	0xbdc2da03	-0.09514239
238	0xbd90b44c	-0.07065639
239	0xbe28cd13	-0.1648448
240	0xbe7228cb	-0.23648374
241	0x3d2f5f1b	0.04281531
242	0xbe90763a	-0.282152
243	0xbe323372	-0.17402437
244	0x3d60de1b	0.054899316
245	0x3e1156c5	0.14193256
246	0xbe8959da	-0.26826364
247	0xbd539d67	-0.051663782
248	0x3e927748	0.2860663
249	0xbda566db	-0.08076259
250	0xbe1c7238	-0.15277946
251	0x3e4409c7	0.19144355
252	0xbdb13cfa	-0.086542085
253	0xbdb123f7	-0.08649438
254	0xbc8dacd4	-0.017294325
255	0xbd999cd2	-0.07500614

bias f4 [32]
0	0xbdbfb522	-0.0936072
1	0x3d006073	0.03134198
2	0x3db2a115	0.0872213
3	0x3d5005e1	0.050786857
4	0xbea28a79	-0.3174627
5	0x3e1e1c1d	0.15440412
6	0xbd0b90ee	-0.034073763
7	0xbe2803da	-0.16407719
8	0x3c65a9d6	0.014017543
9	0x3cc756be	0.024333354
10	0x3c9c2c56	0.01906411
11	0xbe4caa7c	-0.1998691
12	0xbe0e70fe	-0.1391029
13	0xbe04ddec	-0.12975281
14	0x3d84dd62	0.06487538
15	0x3e4e5aed	0.20151873
16	0x3e836317	0.25661537
17	0x3db5c965	0.088763036
18	0x3cc3522b	0.023842892
19	0xbd45c1da	-0.048280574
20	0x3d73fd3d	0.05956768
21	0x3e12c147	0.14331542
22	0xbe26f8bd	-0.16305824
23	0xbe261f05	-0.1622277
24	0xbe38c8b3	-0.1804531
25	0x3d4adf1c	0.04952918
26	0x3df99d8c	0.12188253
27	0x3da2e7e5	0.079543866
28	0x3d93b1cc	0.072116464
29	0xbd7e246f	-0.062046465
30	0xbe2b5595	-0.16731866
31	0xbe022bf8	-0.12712085

weight f4 [32]
0	0x3e59e2b0	0.2127788
1	0x3e7623b4	0.24037057
2	0x3ec22720	0.37920475
3	0x3f4280d2	0.75977814
4	0x3f2f55f5	0.68490535
5	0x3f6eec7f	0.93329614
6	0x3e5e408c	0.2170431
7	0x3f03dbbd	0.5150717
8	0x3f1cb6f1	0.61216646
9	0x3f2a6248	0.66556215
10	0x3ed3ed96	0.413922
11	0x3f387179	0.72048146
12	0x3f068e45	0.52560836
13	0x3f5c23b2	0.85991967
14	0x3f3f2fa2	0.74682057
15	0x3e988593	0.2978941
16	0x3f47293e	0.77797306
17	0x3f193900	0.598526
18	0x3f3b0b7d	0.73064405
19	0x3f1d8ee6	0.6154617
20	0x3eabb7cf	0.33538672
21	0x3e83b535	0.25724187
22	0x3e8aeafe	0.2713241
23	0x3f23dac9	0.64005715
24	0x3e541481	0.20710947
25	0x3e8dd81c	0.2770394
26	0x3f2f965a	0.68588793
27	0x3f40e9d4	0.75356793
28	0x3f69366e	0.9109868
29	0x3f11c370	0.5693884
30	0x3f5545e7	0.8330979
31	0x3f2abbcb	0.666928

bias f4 [32]
0	0xbd71295f	-0.058877345
1	0x3dcc49ca	0.09975012
2	0xbc12f73b	-0.008970077
3	0xbda2ddab	-0.07952436
4	0xbe120024	-0.14257866
5	0x3a9b555a	0.0011850998
6	0x3ddfa7f6	0.10920708
7	0xbd99bd93	-0.075068615
8	0xbcd8cf83	-0.026466137
9	0x3d1c688d	0.038185645
10	0xbd1cc72c	-0.038275883
11	0x3c45b588	0.012067206
12	0xbd64865d	-0.0557922
13	0xbd0934a3	-0.033497464
14	0xbc994e26	-0.018714022
15	0xbd546a92	-0.051859446
16	0x3cd73c63	0.026273912
17	0xbe13cdca	-0.14433971
18	0xbd053700	-0.032523155
19	0x3d56b911	0.052422587
20	0xbd81af23	-0.06332233
21	0xbd1942fd	-0.0374174
22	0x3b33134a	0.002732473
23	0xbd1a7e3b	-0.03771804
24	0xbdbfd681	-0.09367085
25	0xbdcf384d	-0.101181604
26	0x3cac3b7c	0.021024458
27	0xbd2255e6	-0.0396327
28	0x3cb4bc3e	0.022062417
29	0xbc9b9f6d	-0.018996919
30	0xbe0eb924	-0.13937813
31	0xbd75e6fb	-0.060034733

running_mean f4 [32]
0	0x3e5ddea6	0.21666965
1	0xbd830e4f	-0.063992135
2	0x3e3d184f	0.18466304
3	0xbcee48bd	-0.029087419
4	0xbf21ff89	-0.6328054
5	0x3ee77c5b	0.45212063
6	0xbdd582ec	-0.10425362
7	0xbe76a578	-0.24086559
8	0xbe4cff51	-0.2001927
9	0x3e22b8a4	0.15890747
10	0xbdb4d31a	-0.08829327
11	0xbf1b7726	-0.6072868
12	0xbdb3bb48	-0.087759554
13	0x3c7140c1	0.014724911
14	0x3c9d56b4	0.019206382
15	0x3da51063	0.08059766
16	0x3d0bea88	0.034159213
17	0x3db79f3e	0.0896592
18	0x3de99812	0.11405958
19	0xbe82433e	-0.25441927
20	0x3e145f58	0.14489496
21	0x3dc8c611	0.09803403
22	0xbd2f70ef	-0.04283231
23	0xbeeb8620	-0.46000767
24	0x3c8d4348	0.017243996
25	0x3d1c29e9	0.038125906
26	0x3e5ff505	0.21870811
27	0x3e1b592c	0.15170735
28	0x3e1e1fd5	0.1544183
29	0xbe99f6ac	-0.30071008
30	0xbeab59fe	-0.33467096
31	0x3de87b4a	0.113516405

running_var f4 [32]
0	0x3da8a0a1	0.082337625
1	0x3d6fccb9	0.058544848
2	0x3cff4225	0.03115947
3	0x3db3648c	0.08759412
4	0x3db5555a	0.0885417
5	0x3d24e70d	0.04025941
6	0x3ce1328b	0.027489921
7	0x3c8f49a7	0.017491175
8	0x3d3f0734	0.04663773
9	0x3daad860	0.083420515
10	0x3cbb4053	0.02285782
11	0x3dbcac1f	0.09212517
12	0x3cf339d8	0.029690668
13	0x3d05b19b	0.03264008
14	0x3e3aafcd	0.18231125
15	0x3c615cea	0.013755063
16	0x3cb86ca5	0.022512743
17	0x3e4490ab	0.19195811
18	0x3d8556da	0.06510706
19	0x3d11de6a	0.0356125
20	0x3c8d1493	0.017221725
21	0x3d818ea6	0.06326036
22	0x3c71cf6a	0.014758924
23	0x3d1d7365	0.038440127
24	0x3d252e6f	0.040327486
25	0x3dc7e322	0.09760119
26	0x3de3862b	0.11109575
27	0x3c379e4f	0.011207177
28	0x3d7c6e37	0.061628547
29	0x3d80e8e0	0.062944174
30	0x3d9f364e	0.0777403
31	0x3d43d781	0.047812942

weight f4 [64, 32, 1]
0	0x3dbb13d9	0.09134645
1	0x3dd74dc4	0.105128795
2	0x3e13bd9a	0.14427796
3	0xbd4734ab	-0.048634212
4	0xbe13efbd	-0.14446922
5	0x3d830be5	0.06398753
6	0x3d499105	0.049210567
7	0x3d31ddff	0.043424603
8	0x3dcb83bd	0.099372365
9	0x3e5376f4	0.20650846
10	0x3da2aa4b	0.07942637
11	0x3dd4fd7c	0.10399911
12	0x3d6fdd66	0.05856075
13	0xbe32a2dc	-0.17444938
14	0x3dd841f1	0.10559452
15	0x3de6a6cf	0.11262285
16	0xbe1d7c04	-0.1537934
17	0x3db86eb8	0.09005493
18	0xbcbee011	-0.023300203
19	0xbdfb88e7	-0.122819714
20	0xbdd21c71	-0.10259331
21	0x3ca2c086	0.019867193
22	0xbd49a677	-0.04923102
23	0xbe267754	-0.16256458
24	0xbd52f9ad	-0.05150764
25	0xbd4fafd1	-0.05070478
26	0xbcc0fd25	-0.023558209
27	0xbdc49c17	-0.09600084
28	0xbea8acd5	-0.3294436
29	0x3d0d1b09	0.03444961
30	0xbe1309ab	-0.14359157
31	0x3e34f73a	0.17672434
32	0xbcc72696	-0.024310391
33	0xbcc47234	-0.023980238
34	0x3d81e170	0.06341827
35	0xbd3e6a0b	-0.04648785
36	0x3d19c12f	0.03753775
37	0x3d34494a	0.044015206
38	0xbe20e45f	-0.15712117
39	0x3d46bd5e	0.04852044
40	0x3dd03b7d	0.101675965
41	0x3d5c0de8	0.0537242
42	0x3c682452	0.014168816
43	0x3e02305a	0.12713757
44	0xbdb893cb	-0.09012564
45	0xbe06a153	-0.13147478
46	0xbe10c689	-0.14138235
47	0x3ceb8674	0.028750636
48	0xbc2fbb14	-0.010725755
49	0xbe5c007a	-0.21484557
50	0xbd4b26a4	-0.049597397
51	0xbe8d5767	-0.27605745
52	0xbd861de7	-0.06548672
53	0x3ca52e54	0.020163693
54	0xbe49f2a1	-0.19721462
55	0xbdcb8478	-0.09937376
56	0xbe1dafde	-0.1539912
57	0x3cb10d55	0.021612803
58	0xbe47f80c	-0.19528216
59	0xbe41f551	-0.18941237
60	0xbdbe887f	-0.09303378
61	0x3d446ae0	0.047953486
62	0xbe73c9d1	-0.23807456
63	0xbde4b178	-0.11166662
64	0xbd4a9feb	-0.049468916
65	0xbe38a249	-0.18030657
66	0x3e51646d	0.20448466
67	0x3d9d9873	0.07695093
68	0x3e31e17c	0.17371172
69	0xbdd23d22	-0.102655664
70	0x3e506a1c	0.20352978
71	0x3e195a97	0.14975964
72	0x3e54db30	0.20786738
73	0x3c46f850	0.012144163
74	0x3e06c0bb	0.13159458
75	0x3ca5a030	0.020217985
76	0xbe307c90	-0.17235017
77	0xbe80bc2c	-0.25143564
78	0x3c5a6501	0.013329745
79	0xbdb276f3	-0.08714094
80	0xbdfd7194	-0.12375179
81	0x3da587ad	0.08082519
82	0x3d197827	0.0374681
83	0xbd0a238f	-0.033725318
84	0x3c803160	0.015648544
85	0xbe476582	-0.19472316
86	0x3e02522b	0.12726657
87	0x3d2ef5f3	0.042715024
88	0x3da8c2f6	0.08240311
89	0xbdf1dca3	-0.11809661
90	0x3da243ab	0.07923063
91	0xbd8ee314	-0.069769055
92	0xbbae4372	-0.0053180987
93	0x3d16b94a	0.0367978
94	0x3b7555a1	0.0037435072
95	0xbe675722	-0.22591832
96	0x3df03770	0.11729324
97	0x3db9d3d2	0.09073605
98	0xbdc9133b	-0.09818121
99	0xbe40b4d7	-0.18818985
100	0xbd61b07f	-0.05509996
101	0xbd30deb3	-0.043181133
102	0x3e0ff19d	0.14057012
103	0x3e3feef1	0.18743493
104	0xbe56c77e	-0.20974538
105	0x3d02faf6	0.031977616
106	0x3cad8a28	0.021184042
107	0x3c7e4592	0.015519517
108	0x3e2c70b1	0.16839863
109	0x3e04a0ef	0.12952016
110	0xbe09bf10	-0.13451791
111	0x3de73f31	0.1129135
112	0xbde7b95e	-0.11314653
113	0x3dc0ab50	0.09407675
114	0x3d5f44a4	0.05450882
115	0x3c2faea7	0.010722793
116	0x3db6039b	0.088874064
117	0x3dd3c4e7	0.103402905
118	0x3df5a020	0.11993432
119	0xbcf858f7	-0.03031586
120	0xbe146087	-0.14489947
121	0x3c7887e2	0.015169116
122	0xbe1f4c7d	-0.15556522
123	0x3e3b5499	0.1829399
124	0xbd35fbc3	-0.04442955
125	0xbe6872f1	-0.22700097
126	0xbdda4bbf	-0.10658979
127	0x3b8a5d5e	0.004222556
128	0xb9d77de8	-0.00041101803
129	0xbda12df5	-0.07870094
130	0x3e423f16	0.18969378
131	0xbe23ea8d	-0.16007443
132	0x3b8716f9	0.0041226116
133	0xbde0ae0a	-0.10970695
134	0xbcf42d64	-0.0298068
135	0xbd974a4e	-0.07387219
136	0xbd913796	-0.0709068
137	0x3e7e0767	0.24807511
138	0xbd5d9be0	-0.054103732
139	0xbe2dff62	-0.16991952
140	0xbd430e23	-0.047620904
141	0x3d260451	0.04053146
142	0xbdbe5c84	-0.0929499
143	0xbe153963	-0.14572673
144	0x3da010d9	0.078157134
145	0xbe0c17bf	-0.13680933
146	0x3e0fa593	0.14028005
147	0xbbc81506	-0.006106022
148	0xbe13c049	-0.1442882
149	0xbe196027	-0.14978085
150	0xbea293c1	-0.31753352
151	0x3ddf8439	0.10913891
152	0x3e16743e	0.1469278
153	0xbc1f7587	-0.009732611
154	0x3cb825d4	0.022478975
155	0x3d57d4e2	0.052693255
156	0xbcf9e41b	-0.030504277
157	0x3caa741f	0.020807324
158	0x3d66a038	0.05630514
159	0x3e1bfb2a	0.1523253
160	0xbd6fd372	-0.05855126
161	0x3df88a08	0.12135702
162	0x3dfa19d7	0.1221196
163	0xbd7ee775	-0.062232453
164	0xbb5fdd96	-0.0034159175
165	0xbd14b2ad	-0.03630321
166	0x3c2dab6a	0.01059995
167	0x3db7ac90	0.089684606
168	0x3e76823a	0.24073115
169	0x3db6ea96	0.089314625
170	0x3caccfe4	0.021095224
171	0x3de8f8a5	0.1137555
172	0x3dd6e5e2	0.104930654
173	0x3d93dc8d	0.07219801
174	0x3d8ccbaf	0.06874787
175	0xbd585091	-0.05281121
176	0x3d3fe007	0.04684451
177	0xbd42602a	-0.04745499
178	0xbe0052ca	-0.12531582
179	0xbe730d38	-0.23735511
180	0xbea16e52	-0.3152948
181	0x3e194bb3	0.14970283
182	0xbc816562	-0.015795413
183	0x3d66c6bb	0.056341868
184	0x3e2c2e00	0.16814423
185	0xbce977de	-0.02849954
186	0x3e76ae60	0.24089956
187	0xbd95a0cb	-0.073060594
188	0x3e1389ac	0.14407986
189	0x3df101b7	0.11767905
190	0x3d02792f	0.03185385
191	0xbd9ac0dc	-0.07556316
192	0x3d2f65c8	0.042821676
193	0x3e20adfc	0.1569137
194	0xbd09d309	-0.033648524
195	0x3d9bf1de	0.07614492
196	0xbbca2355	-0.0061687627
197	0x3db3f7f9	0.087875314
198	0x3e3b7111	0.1830485
199	0xbe082b17	-0.13297687
200	0x39e6d2e6	0.0004402615
201	0x3e48bbdf	0.19602917
202	0xbe352bc3	-0.17692475
203	0xbe094894	-0.13406593
204	0x3d5bc986	0.053658985
205	0x3e150462	0.14552453
206	0xbe6e8fa6	-0.23296985
207	0xb9d971e0	-0.0004147431
208	0xbe67a75a	-0.22622433
209	0xbdc12f95	-0.09432904
210	0x3dc5f3cc	0.09665641
211	0x3d9451f4	0.07242194
212	0xbc2adbf0	-0.010428414
213	0xbdb52d45	-0.08846525
214	0xbd790d2f	-0.06080359
215	0xbe9788ee	-0.29596657
216	0xbcee83cf	-0.029115586
217	0xbdc9272b	-0.09821924
218	0xbe27681c	-0.16348308
219	0x3d08cd95	0.033399183
220	0xbe8551b2	-0.2603889
221	0x3ce0fa88	0.027463213
222	0x3dd47ea9	0.10375721
223	0x3e2cdb76	0.16880593
224	0x3e0f933f	0.14021014
225	0x3d473c7d	0.04864167
226	0x3ab6ce9e	0.0013947075
227	0x3e6a18cf	0.22861026
228	0xbcc83199	-0.024437713
229	0xbe918424	-0.28421128
230	0xbe201159	-0.15631618
231	0xbe0d776e	-0.1381509
232	0x3d2171d2	0.039415188
233	0x3dc1dfea	0.09466536
234	0x3d8eba2a	0.06969102
235	0xbdbaf657	-0.09129017
236	0xbd647158	-0.055772156
237	0xbd0ad77a	-0.0338969
238	0xbd65278f	-0.05594593
239	0xbdecd02f	-0.11563145
240	0xbdcde8e8	-0.10054189
241	0x3ddf7b49	0.10912187
242	0xbda8a112	-0.08233847
243	0x3da250b8	0.07925552
244	0x3e1ee4dc	0.1551699
245	0xbe7f2b58	-0.24918878
246	0xbed7cc20	-0.42147923
247	0x3dc48bfb	0.09597012
248	0xbdca354a	-0.09873445
249	0x3d6fb1d2	0.058519192
250	0x3d8ae282	0.06781484
251	0x3dcf57df	0.10124182
252	0xbcf6fc11	-0.030149492
253	0x3e1240fe	0.14282605
254	0xbd8ff278	-0.07028669
255	0x3d0f06b0	0.034918487

bias f4 [64]
0	0x3d24fdbd	0.040281046
1	0xbb26db56	-0.0025460324
2	0xbc8fda61	-0.017560186
3	0x3da06c02	0.07833101
4	0xbd6804df	-0.05664527
5	0xbd9dae49	-0.07699258
6	0xbceb4cb9	-0.028723108
7	0x3def2097	0.11676138
8	0x3e5e4945	0.21707638
9	0x3e0a37e2	0.1349788
10	0x3d82321d	0.063572146
11	0xbdc1500d	-0.094390966
12	0x3d9444b9	0.0723967
13	0xbdd2600b	-0.10272225
14	0xbd958ae5	-0.07301883
15	0xbdf4ea43	-0.119587444
16	0xbd901c4d	-0.07036648
17	0xbe3a8e8b	-0.18218438
18	0xbdae6229	-0.08514816
19	0x3dd8ad8c	0.105799764
20	0x3dc83859	0.097763725
21	0x3e41befd	0.18920512
22	0xbe2465d5	-0.16054471
23	0xbded4a75	-0.11586467
24	0xbdead694	-0.11466709
25	0x3d9c36b2	0.0762762
26	0x3e242e2d	0.1603324
27	0xbe87217f	-0.26392743
28	0xbdeb7d43	-0.11498501
29	0x3e1e574e	0.15462992
30	0x3d9738ce	0.073838815
31	0x3cd8c8d8	0.026462957
32	0x3d16bbcd	0.036800195
33	0x3c26f20c	0.010189544
34	0xbcefb2a6	-0.02925999
35	0xbe28d346	-0.16486844
36	0xbe030809	-0.12796034
37	0xbe2d7071	-0.16937424
38	0x3e2b63cf	0.16737293
39	0x3dceddbe	0.10100888
40	0xbd4836cb	-0.04888038
41	0x3cc5c960	0.024143875
42	0xbd081e19	-0.03323183
43	0x3bb570dd	0.005537136
44	0x3d90efe9	0.07077009
45	0x3dd1276c	0.10212597
46	0x3ad5639a	0.0016280294
47	0xbd64e741	-0.055884603
48	0xbe6bf8ca	-0.23044124
49	0x3cf8b2f6	0.030358773
50	0xbd95ae6c	-0.07308659
51	0x3cd113b1	0.025522085
52	0x3c2a7654	0.010404188
53	0xbc88c881	-0.01669717
54	0x3cec7ee7	0.028869106
55	0x3d7f978f	0.062400397
56	0xbd26487a	-0.040596463
57	0x3d6e4e9c	0.058180436
58	0xbdf19731	-0.117964156
59	0x3e321abc	0.17393011
60	0xbe52f4cf	-0.206012
61	0x3dc7039c	0.09717485
62	0x3caa06fe	0.020755287
63	0x3e209f30	0.15685725

weight f4 [64]
0	0x3f46ac9f	0.7760715
1	0x3e848e9a	0.25890046
2	0x3f86ef8a	1.0541852
3	0x3ef1a077	0.47192737
4	0x3e7ed568	0.24886096
5	0x3f274f29	0.65355164
6	0x3ed54e40	0.41661263
7	0x3ee7f4d1	0.45303968
8	0x3f8a54b2	1.0807097
9	0x3f377ed9	0.7167793
10	0x3f8dd254	1.1079812
11	0x3f8c4a36	1.0960147
12	0x3f3715b9	0.7151752
13	0x3f0de2ca	0.5542418
14	0x3f6ae233	0.917514
15	0x3f0ac4bf	0.5420646
16	0x3f2e868f	0.6817407
17	0x3e945e8d	0.28978387
18	0x3f4da00a	0.80322325
19	0x3ea366cf	0.31914374
20	0x3e6aa13f	0.22913073
21	0x3e9c4aa1	0.30525687
22	0x3f3d27e7	0.7388901
23	0x3f2ff118	0.68727255
24	0x3f93fa55	1.156077
25	0x3e47838b	0.19483773
26	0x3ee9eaad	0.45686856
27	0x3f644eda	0.8918282
28	0x3e86a09f	0.2629442
29	0x3f670ca2	0.9025365
30	0x3f50a824	0.8150656
31	0x3ee49756	0.4464671
32	0x3f2d01af	0.67580694
33	0x3f0a1905	0.53944427
34	0x39ff21ae	0.00048662483
35	0x3f282e38	0.65695524
36	0x3f89e02d	1.0771538
37	0x3f115c24	0.5678122
38	0x3f4f1b17	0.8090071
39	0x3f88fcd5	1.0702158
40	0x3ef8c1d8	0.4858539
41	0x3f4d674d	0.8023575
42	0x3f7b87b9	0.9825397
43	0x3f88b45c	1.0680041
44	0x3ea00393	0.31252727
45	0x3f4d9cc1	0.8031731
46	0x3f7278e9	0.94715744
47	0x3f2993b0	0.6624098
48	0x3f188208	0.5957341
49	0x3f98b8d6	1.1931407
50	0x3e53c1f0	0.2067945
51	0x3f1cb80e	0.61218345
52	0x3f8439de	1.033016
53	0x3f08d05c	0.5344293
54	0x3f680fb4	0.9064896
55	0x3ede9ef2	0.4348064
56	0x3f7736ca	0.96567976
57	0x3ed4678c	0.4148525
58	0x3f44ee74	0.7692635
59	0x3f551e80	0.83249664
60	0x3f6b30d5	0.91871387
61	0x3f6acc3e	0.917179
62	0x3f8a0643	1.0783161
63	0x3f2686cd	0.6504944

bias f4 [64]
0	0xbe1aaaa3	-0.15104155
1	0xbbdec3e8	-0.006798256
2	0xbdd0b881	-0.10191441
3	0xbd182336	-0.037142955
4	0xbd22206e	-0.03958171
5	0x3d775388	0.060382396
6	0xbc9fed98	-0.019522473
7	0xbd93920d	-0.07205591
8	0xbd16ec94	-0.036846712
9	0xbd7c7139	-0.061631415
10	0x3db7f02d	0.08981357
11	0xbe2aa9b3	-0.16666298
12	0xbe1c7ec7	-0.15282737
13	0x3cdba895	0.026813785
14	0x3b07fecd	0.0020751238
15	0xbc9e2836	-0.019306283
16	0xbdee3b29	-0.11632378
17	0xbce764c6	-0.028246295
18	0x3d79ed7f	0.06101751
19	0x3d463f24	0.04840006
20	0xbd0d905d	-0.034561504
21	0xbd51241d	-0.05105983
22	0xbe2f07b2	-0.1709278
23	0xbe0d7201	-0.1381302
24	0xbbf15ec2	-0.0073660323
25	0xbd72654c	-0.059178635
26	0xbd79033a	-0.060794093
27	0x3dcafb1a	0.09911175
28	0xbdfa1f3c	-0.12212989
29	0xbe091087	-0.13385211
30	0xbd6cd824	-0.057823315
31	0xbd755dc9	-0.059903894
32	0x3db6568c	0.08903226
33	0xbd796506	-0.06088736
34	0xbc37a922	-0.011209758
35	0x3c2dc62c	0.01060633
36	0xbc4e6927	-0.012598312
37	0xbe14348d	-0.14473172
38	0xbcc769a9	-0.024342375
39	0xbdcf6d2d	-0.101282455
40	0xbcc72dd9	-0.024313854
41	0xbb51a4d0	-0.0031989105
42	0x3cfaf00f	0.030632047
43	0x3d040d34	0.032239154
44	0xbd44f0df	-0.048081275
45	0xbd9198cf	-0.07109224
46	0xbda8798b	-0.082263075
47	0xbe535d15	-0.20640977
48	0xbc9312cb	-0.017953297
49	0x3d09cbb0	0.033641517
50	0x3bc3d611	0.0059764464
51	0xbe18d58b	-0.1492521
52	0xbc7ebd15	-0.01554801
53	0x3df1cdd6	0.11806838
54	0xbb2dcdfc	-0.0026520481
55	0xbd18b69f	-0.037283536
56	0x3cb27eba	0.021788944
57	0x3a978f89	0.0011563163
58	0xbd5a66b1	-0.05332059
59	0xbd9ad8ca	-0.075608805
60	0x3c90e0ec	0.017685376
61	0xbd3db33d	-0.046313513
62	0x3e1edb32	0.15513304
63	0xbe1bd952	-0.1521962

running_mean f4 [64]
0	0xbd0773f2	-0.03306956
1	0xbec3d0b5	-0.38245168
2	0x3c947575	0.018122414
3	0x3d23a822	0.039955266
4	0xbe299f34	-0.16564637
5	0x3df1684a	0.1178747
6	0xbe6c74c6	-0.2309142
7	0xbd2426a9	-0.04007593
8	0x3f11e15a	0.56984484
9	0xbdec3540	-0.11533594
10	0x3e6ec7d3	0.23318414
11	0x3e0b34b4	0.13594323
12	0x3e25ea3d	0.16202636
13	0x3eeef217	0.46669075
14	0xbe4abe7c	-0.19799227
15	0x3e4b4307	0.19849788
16	0xbe8cb381	-0.274807
17	0xbe96711d	-0.29383174
18	0xbebe73ce	-0.37197727
19	0xbd2c95f0	-0.04213518
20	0x3de18b3b	0.11012884
21	0x3f1a02f6	0.6016077
22	0x3cf3b964	0.029751487
23	0xbe62b2f5	-0.22138579
24	0xbed49e25	-0.41526905
25	0xbdb1f326	-0.08688955
26	0x3efcef11	0.49401143
27	0xbe997410	-0.2997136
28	0x3e834563	0.25638875
29	0xbe91652a	-0.28397495
30	0xbe547e22	-0.20751241
31	0x3d9c7ef1	0.076414
32	0x3e331ad3	0.17490701
33	0x3ea22858	0.31671405
34	0x3b97508f	0.0046177576
35	0xbdea8efb	-0.114530526
36	0xbdd580f5	-0.10424987
37	0xbda837da	-0.08213778
38	0x3f2c7ec2	0.6738092
39	0x3e9cf7b5	0.30657735
40	0xbede6972	-0.43439823
41	0xbdae9c55	-0.08525912
42	0xbe1f06fa	-0.15530005
43	0x3e5e5eb1	0.2171581
44	0x3c2244ab	0.009904067
45	0xbe3d225f	-0.18470143
46	0xbea49969	-0.32148293
47	0xbea85a2a	-0.3288129
48	0xbea2e8ec	-0.3181833
49	0xbe9a2a6e	-0.30110496
50	0xbf14ca5c	-0.58121276
51	0x3d1f0ba4	0.03882946
52	0x3e072534	0.13197786
53	0xbdc6af0f	-0.097013585
54	0x3e891462	0.26773363
55	0xbdc224b8	-0.0947966
56	0x3e94513d	0.2896823
57	0x3e919607	0.28434774
58	0xbd3fe289	-0.0468469
59	0x3e82a8cd	0.2551941
60	0xbe7372a7	-0.23774205
61	0x3effcc04	0.4996034
62	0xbd33e8dd	-0.043923248
63	0xbd59fb39	-0.0532181

running_var f4 [64]
0	0x3cea373b	0.028590789
1	0x3d3dd2ca	0.046343602
2	0x3d6232fe	0.05522441
3	0x3d6754fc	0.05647753
4	0x3cedb9b5	0.029019216
5	0x3c29ae90	0.01035656
6	0x3dedb4c9	0.11606748
7	0x3da06388	0.07831484
8	0x3d1cbb70	0.03826469
9	0x3ddc7d94	0.107661396
10	0x3c7247e6	0.01478765
11	0x3d6cfc0d	0.05785756
12	0x3d5cf247	0.05394199
13	0x3e2983b0	0.16554141
14	0x3d8f4615	0.06995789
15	0x3d982827	0.074295335
16	0x3d8c363a	0.068462804
17	0x3d16ee05	0.036848087
18	0x3d2adcda	0.041714527
19	0x3d213153	0.03935368
20	0x3d87f0f0	0.06637752
21	0x3d4424d0	0.04788667
22	0x3d52e984	0.05149223
23	0x3d85d544	0.06534818
24	0x3e3e44a7	0.18580876
25	0x3ccb4075	0.024811009
26	0x3d922197	0.07135313
27	0x3da86e66	0.08224182
28	0x3d833e28	0.0640834
29	0x3ddfd2e3	0.10928895
30	0x3d220400	0.039554596
31	0x3c523df3	0.012832153
32	0x3dba92f1	0.09110058
33	0x3d303057	0.04301485
34	0x3d2a24af	0.04153889
35	0x3d04d6ef	0.03243154
36	0x3d39feaa	0.045408882
37	0x3d93106c	0.071808666
38	0x3e0ad3b5	0.13557322
39	0x3d077552	0.03307087
40	0x3df4f5e9	0.11960966
41	0x3d2ff780	0.042960644
42	0x3d72d28f	0.059282836
43	0x3d4cd96e	0.050012045
44	0x3cbb79b6	0.022885185
45	0x3d14b1db	0.03630243
46	0x3d26c378	0.040713757
47	0x3dcc12ec	0.099645466
48	0x3c5af27b	0.013363476
49	0x3d577312	0.052599974
50	0x3dbabaa2	0.09117629
51	0x3db4abfa	0.088218644
52	0x3da3f880	0.08006382
53	0x3d99904e	0.07498227
54	0x3d1f81ad	0.038942028
55	0x3c9c3dc0	0.019072413
56	0x3d67dfef	0.056610044
57	0x3cdcd56c	0.026957236
58	0x3d27c777	0.04096171
59	0x3da5fd6f	0.08104979
60	0x3db0f70f	0.08640873
61	0x3dda079b	0.10645982
62	0x3d60c0fb	0.05487154
63	0x3d448c69	0.047985468

weight f4 [64, 128]
0	0x3e7b957c	0.24568743
1	0x3e1c44b0	0.15260577
2	0xbc6054d7	-0.013692102
3	0xbe129300	-0.14313889
4	0x3db7330c	0.08945283
5	0x3e4362e4	0.19080693
6	0x3dd6b20a	0.10483177
7	0x3e51f857	0.2050489
8	0x3d893ff6	0.06701653
9	0xbd83b12a	-0.06430276
10	0x3dafa7ea	0.08576949
11	0x3ea62fc6	0.32458323
12	0x3e149bdb	0.14512579
13	0xbddf3054	-0.1089789
14	0x3e01cd0e	0.12675878
15	0xbe9f1130	-0.310678
16	0x3da746f3	0.08167829
17	0xbe38ae16	-0.18035159
18	0x3b46fffb	0.0030364979
19	0xbe218bc0	-0.15775967
20	0xbd8a979d	-0.06767199
21	0x3e6233da	0.22090092
22	0x3da3bcab	0.0799497
23	0x3e96d053	0.29455814
24	0xbd2b40f2	-0.041809984
25	0x3e136175	0.14392646
26	0x3e5091c3	0.20368104
27	0x3daad841	0.083420284
28	0xbcdcde50	-0.026961476
29	0xbe4fa3f5	-0.20277388
30	0x3d4205e1	0.047368888
31	0xbe225848	-0.15853989
32	0xbca1f764	-0.019771285
33	0xbe061c2d	-0.13096686
34	0xbd32cba3	-0.043651234
35	0x3da3feef	0.08007609
36	0xbc8ef8cd	-0.017452622
37	0xbe82eed6	-0.25572842
38	0xbddf8a3b	-0.10915037
39	0x3d7973d6	0.060901485
40	0xbd035532	-0.03206367
41	0xbe2fcdcd	-0.1716835
42	0xbde1dcb9	-0.11028428
43	0xbe119fdd	-0.14221139
44	0x3cbab5c5	0.022791753
45	0xbddb3432	-0.10703315
46	0x3dd76601	0.105175026
47	0x3e093b84	0.1340161
48	0x3cb550da	0.02213328
49	0x3e8fadd4	0.28062308
50	0x3e31695a	0.17325345
51	0x3e535607	0.20638286
52	0xbb0767ad	-0.002066116
53	0xbe63be27	-0.22240506
54	0x3d59e81a	0.053199865
55	0xbe1716f0	-0.14754844
56	0x3ca1e17d	0.019760842
57	0xbe0451f2	-0.12921885
58	0xbe0802dd	-0.13282342
59	0x3cc06c0f	0.023489026
60	0x3e0a6e80	0.13518715
61	0xbe2b92a9	-0.16755165
62	0x3d9a9986	0.075488135
63	0xbc7bc556	-0.015366873
64	0x3af34d69	0.0018562499
65	0xbe824aed	-0.2544779
66	0x3e131622	0.14363912
67	0x3e2a9d0d	0.16661473
68	0xbd5d0484	-0.053959385
69	0x3baea97b	0.0053302622
70	0x3d119b32	0.035548396
71	0xbe0de5d7	-0.13857208
72	0x3c92b4bb	0.017908445
73	0x3e5400d0	0.20703435
74	0x3de7feef	0.113279216
75	0xbd9a550b	-0.07535752
76	0x3e010d2d	0.12602682
77	0xbdc43010	-0.0957948
78	0x3ce430bf	0.027855275
79	0xbe4b09a3	-0.19827895
80	0xbbdb8bfb	-0.0067000366
81	0x3e44d942	0.19223502
82	0xbe66a069	-0.22522129
83	0x3e2be590	0.1678679
84	0x3e090f45	0.13384731
85	0xbdd5b902	-0.10435678
86	0xbe25904b	-0.16168325
87	0xbdadfb77	-0.08495229
88	0x3c812b44	0.015767701
89	0x3e4326b5	0.19057734
90	0x3dc98763	0.09840276
91	0x3e023bdc	0.12718147
92	0xbbd3da67	-0.0064652446
93	0xbceb8438	-0.02874957
94	0x3db4b146	0.08822875
95	0xbe2583b5	-0.16163523
96	0x3cec3e44	0.028838284
97	0xbe428f99	-0.1900009
98	0xbd29d8b1	-0.04146642
99	0xbdfb7b72	-0.12279405
100	0x3d200b14	0.039073065
101	0xbdaa47eb	-0.083144985
102	0x3e441423	0.19148307
103	0xbdaa755c	-0.08323166
104	0xbd95e568	-0.073191464
105	0xbe68b14f	-0.22723888
106	0x3de330a1	0.110932596
107	0xbde7bc3f	-0.11315202
108	0xbcb951d9	-0.022622036
109	0x3e00dc3f	0.12584017
110	0xbde19482	-0.11014654
111	0xbe4844c2	-0.19557479
112	0x3e132f05	0.14373405
113	0xbe50e600	-0.20400238
114	0x3c85a6b8	0.01631485
115	0x3e7ba925	0.24576242
116	0x3dae2933	0.08503952
117	0x3e6943e2	0.22779801
118	0xbaf923a0	-0.001900781
119	0xbe886f7f	-0.26647565
120	0xbdc13651	-0.09434188
121	0xba35f609	-0.0006941264
122	0x3d49fff3	0.049316358
123	0x3d97389f	0.073838465
124	0x3d766c19	0.060161684
125	0xbe537991	-0.20651843
126	0xbd385a3b	-0.045007925
127	0x3e3096bf	0.17245005
128	0x3da29e94	0.079404026
129	0x3e39b98e	0.1813719
130	0xbdd61404	-0.104530364
131	0xbba06e8e	-0.0048959916
132	0xbdb5a262	-0.08868863
133	0x3e771326	0.24128398
134	0xbd1327f8	-0.03592679
135	0x3e25ba7d	0.16184421
136	0x3c812c15	0.01576809
137	0xbdfac1ef	-0.12244021
138	0xbdca0082	-0.09863378
139	0x3ed9ccac	0.42538965
140	0x3dc3da06	0.09563069
141	0xbc9f4f1e	-0.019446906
142	0x3dc2da6e	0.095143184
143	0xbe3ce0ab	-0.18445079
144	0x3dc82594	0.097727925
145	0xbdc09149	-0.09402711
146	0x3cb97242	0.02263749
147	0xbd9983a9	-0.07495815
148	0xbd4e0408	-0.050296813
149	0x3e45c094	0.19311744
150	0x3de69fcc	0.112609476
151	0x3ecf8df2	0.40537983
152	0xbe0a7685	-0.13521774
153	0x3e7d2ab3	0.2472332
154	0x3e460508	0.19337857
155	0x3de0dd11	0.10979665
156	0xbdd54fa9	-0.104155846
157	0xbe5fd52a	-0.2185866
158	0x3ca11ca2	0.019666974
159	0xbe76e1a9	-0.2410952
160	0x3c851ef1	0.016250106
161	0xbe942e6a	-0.2894166
162	0xbe1d6a5c	-0.15372604
163	0x3e59c874	0.21267873
164	0xbd57ca6c	-0.05268328
165	0xbe2c08a0	-0.16800165
166	0xbe168ec8	-0.14702904
167	0x3e038d7d	0.12846942
168	0x3d720e47	0.059095647
169	0xbe0f9a63	-0.14023738
170	0xbd33db76	-0.043910466
171	0xbda0f9e0	-0.0786016
172	0x3c91480d	0.017734552
173	0xbd5c5f2e	-0.053801708
174	0x3e0e7b75	0.13914283
175	0x3de1db3a	0.11028142
176	0x3d81c535	0.063364424
177	0x3e74d3bc	0.23908895
178	0x3e35da30	0.17759013
179	0x3e515445	0.20442303
180	0x3d522e60	0.051313758
181	0xbe942952	-0.28937775
182	0xbd6b7e2a	-0.057493366
183	0xbd9b1304	-0.07571986
184	0xbccb8aff	-0.024846552
185	0xbdc6bbc7	-0.097037844
186	0xbd98e039	-0.07464642
187	0x3dc2e0fb	0.09515568
188	0x3dac0404	0.083992034
189	0xbdd8d7eb	-0.10588058
190	0x3deb6286	0.11493401
191	0xbd0c2ae1	-0.03422058
192	0xbcf92ccc	-0.030416869
193	0xbe327e5d	-0.17431016
194	0x3d55ce7c	0.052198872
195	0x3da4091f	0.08009552
196	0x3d05ef3e	0.032698862
197	0xbda23d3f	-0.07921838
198	0xbd1f917b	-0.0389571
199	0xbdd673a1	-0.10471273
200	0x3d394ff9	0.045242283
201	0x3e3f2ff3	0.18670635
202	0x3d8044f7	0.06263154
203	0xbd9a068f	-0.07520782
204	0x3d9db964	0.07701376
205	0xbd8f5879	-0.06999297
206	0x3c620edb	0.013797487
207	0xbe5aea1d	-0.2137837
208	0xbd57bdde	-0.052671306
209	0x3d849f18	0.06475657
210	0xbd70faf3	-0.058833074
211	0x3d8ff76a	0.07029612
212	0x3e1b73e9	0.15180935
213	0xbcc980b2	-0.0245975
214	0x3cd38fe9	0.025825458
215	0xbdeb2a23	-0.11482646
216	0xbd0ac941	-0.033883337
217	0x3e8572db	0.2606419
218	0x3d13eaed	0.036112715
219	0x3d86288a	0.06550701
220	0x3d58007c	0.052734837
221	0xbc57e949	-0.013178178
222	0x3d2df25c	0.04246746
223	0x3d0552cd	0.032549668
224	0x3dab38ed	0.08360467
225	0xbe178d4b	-0.14799993
226	0x3aa90025	0.001289372
227	0xbe76174c	-0.24032325
228	0x3c94c2dd	0.018159324
229	0xbdecefd7	-0.11569183
230	0x3e421444	0.18953043
231	0x3d1d0364	0.03833331
232	0xbc979cc1	-0.018507363
233	0xbe81cffa	-0.25353986
234	0x3dcb5ccc	0.09929809
235	0xbcc50a1a	-0.024052668
236	0xbcb60b78	-0.022222266
237	0x3d2544f5	0.040348966
238	0xbda748b1	-0.08168162
239	0xbe212b0d	-0.15739079
240	0x3dd586c1	0.10426093
241	0xbe497c4e	-0.19676325
242	0x3da20402	0.07910921
243	0x3e89bc7e	0.2690162
244	0xbd514375	-0.051089723
245	0x3eb7305e	0.3577909
246	0x3cb39a23	0.021924084
247	0xbdee1733	-0.11625519
248	0xbda6d183	-0.0814543
249	0xbc672aae	-0.014109297
250	0x3d0d6a77	0.03452536
251	0xbd3d8d04	-0.04627706
252	0x3cacd0de	0.02109569
253	0xbd963948	-0.07335144
254	0xbd1cca14	-0.038278654
255	0x3e332114	0.17493087

bias f4 [64]
0	0x3c4d2dda	0.012523139
1	0x3d981432	0.07425727
2	0x3d14e26b	0.03634874
3	0x3a908d63	0.0011028465
4	0x3d23c639	0.03998396
5	0x3cc2d2bc	0.023782127
6	0x3d52b8f3	0.051445913
7	0xbda9f7a4	-0.08299187
8	0x3d954706	0.07288937
9	0xbd782a3e	-0.06058716
10	0xbd3933a5	-0.045215268
11	0xbcee5062	-0.029091064
12	0xbd1af075	-0.037826974
13	0x3c67bfa1	0.014144809
14	0x3ca494bd	0.020090455
15	0x3bc15a64	0.005900668
16	0x3d6d661f	0.05795872
17	0xbd25dafe	-0.04049205
18	0xbda4d9df	-0.08049368
19	0x3cdbca00	0.02682972
20	0xbc83af23	-0.016074723
21	0xbd393043	-0.04521204
22	0xbc497a20	-0.012297183
23	0x3cf23f27	0.029571129
24	0xbd9ca202	-0.07648088
25	0x3d302f16	0.043013655
26	0xbcebf013	-0.028801
27	0x3d9229ce	0.0713688
28	0xbd5f67ca	-0.05454234
29	0x3de71332	0.11282958
30	0xbdae9137	-0.08523791
31	0x3d3682a1	0.04455817
32	0xbd86514b	-0.06558474
33	0xbaedd64a	-0.0018145528
34	0x3d3e1bb1	0.046413127
35	0x3daa4fb3	0.08315983
36	0xbd96a9e1	-0.073566206
37	0x3c326e11	0.0108905
38	0x3d2fedce	0.042951398
39	0x3b457e4a	0.0030135089
40	0x3c93fff8	0.018066391
41	0xbd173131	-0.036912147
42	0x3db8c875	0.09022609
43	0xbd4addab	-0.049527805
44	0xbbe89bd2	-0.0070986534
45	0x3ce44d6b	0.027868947
46	0x3ca28489	0.019838588
47	0x3cc98103	0.02459765
48	0x3d92462f	0.07142293
49	0xbc80deb7	-0.015731199
50	0xbb42d950	-0.002973158
51	0x3c1708ab	0.009218375
52	0x3c4e45a7	0.012589849
53	0xbd1aa7f3	-0.037757825
54	0x3d40a85d	0.047035564
55	0x3d6a6ab3	0.057230663
56	0x3daaa6de	0.08332609
57	0xbd7927b6	-0.060828887
58	0x3d22d8b7	0.039757457
59	0x3d83906b	0.0642403
60	0xbc4ba3c0	-0.012429178
61	0xbe217da2	-0.15770581
62	0x3d221795	0.03957327
63	0x3d981d57	0.07427471

weight f4 [16, 64]
0	0x3e8549d9	0.26032904
1	0x3eae3bbf	0.34029958
2	0x3e370b22	0.1787534
3	0x3e9fb20c	0.31190526
4	0x3e9984fd	0.29984275
5	0x3e3ed879	0.18637265
6	0x3d1e5b51	0.038661305
7	0x3ed93a16	0.4242713
8	0x3e67df0c	0.2264368
9	0xbeb77021	-0.35827735
10	0xbea0c83d	-0.3140277
11	0xbe92ddc4	-0.2868482
12	0x3d8dbba7	0.069205575
13	0x3ec6040c	0.38674963
14	0xbebbc4a1	-0.36673453
15	0x3e4ff979	0.2031001
16	0xbe8e5357	-0.27797958
17	0xbe758d6e	-0.23979732
18	0x3ec4b801	0.38421634
19	0xbe172829	-0.14761414
20	0xbe8f5f7e	-0.28002542
21	0xbe3e6693	-0.18593816
22	0xbe883d74	-0.26609385
23	0xbe8f1b45	-0.27950493
24	0x3e9e9110	0.3097005
25	0x3e92cd53	0.28672275
26	0xbe410f9a	-0.18853608
27	0xbe44f1bc	-0.1923284
28	0x3ebad880	0.364933
29	0x3ea2c9d7	0.31794617
30	0x3eb0a5c9	0.34501484
31	0x3e0e615f	0.13904332
32	0x3e77ed0a	0.24211517
33	0xbe9bb387	-0.30410406
34	0xbb26273c	-0.0025352975
35	0xbe9311a8	-0.28724408
36	0x3ecd6f9a	0.40124208
37	0xbe9b8632	-0.3037582
38	0xbdd52481	-0.10407353
39	0xbe77daf1	-0.24204613
40	0xbe60a6df	-0.21938656
41	0xbe1a3ec6	-0.15063009
42	0x3e4d99f7	0.20078264
43	0x3e9c70f3	0.30554923
44	0xbe7e3bcc	-0.24827498
45	0x3e8c0990	0.27351046
46	0x3e2e4abb	0.17020695
47	0x3e855656	0.26042432
48	0xbe3bb074	-0.1832903
49	0xbe8f0f78	-0.2794149
50	0x3e9c4e42	0.30528456
51	0x3ef064ab	0.46951804
52	0x3e87d765	0.2653152
53	0x3ebd8bb9	0.37020662
54	0x3efeac91	0.49741033
55	0x3e57ab86	0.21061525
56	0x3da08ace	0.07838975
57	0x3e1a04cb	0.15040891
58	0x3e34e9e1	0.17667343
59	0x3e9a52bd	0.3014125
60	0xbe891f1a	-0.2678154
61	0x3e878e99	0.2647598
62	0xbe784a6c	-0.2424714
63	0xbe968503	-0.29398355
64	0xbe9eb309	-0.30995968
65	0xbed11ce6	-0.4084236
66	0xbe94dee4	-0.29076302
67	0xbedd1fb0	-0.43188238
68	0xbf0d08ff	-0.5509185
69	0xbed97d01	-0.42478183
70	0xbed493d8	-0.41519046
71	0xbeca0117	-0.39453956
72	0xbe5c2853	-0.21499757
73	0x3ebac637	0.3647935
74	0x3f2d4f44	0.67699075
75	0x3f1862ca	0.5952574
76	0xbe9db4ef	-0.30802104
77	0xbef2dfba	-0.47436315
78	0x3ef78f20	0.48351383
79	0xbe83e4ec	-0.2576059
80	0x3ee2b479	0.44278315
81	0x3e98f971	0.2987781
82	0xbe8e8e3e	-0.27842897
83	0x3f0d7de4	0.5527022
84	0x3ed1c367	0.40969393
85	0x3e63051b	0.22169916
86	0x3f0fe4ba	0.56208384
87	0x3e97c502	0.29642493
88	0xbeb0cb5b	-0.34530148
89	0xbedba1aa	-0.42896777
90	0x3e72a57d	0.23695941
91	0x3ea2df9d	0.31811228
92	0xbeda1f0d	-0.42601815
93	0xbee032c2	-0.43788725
94	0xbed6887d	-0.41901007
95	0xbf03f377	-0.5154337
96	0xbecfe991	-0.40607885
97	0x3e25e64c	0.16201133
98	0x3e439022	0.19097951
99	0x3ecc38c0	0.39887047
100	0xbef1e204	-0.4724275
101	0x3f287f88	0.658196
102	0x3ecea2e4	0.4035865
103	0x3ec49fed	0.38403264
104	0x3e8ac5f0	0.2710414
105	0x3e780e9d	0.24224325
106	0xbe96189a	-0.29315645
107	0xbedd70f5	-0.43250242
108	0x3f160ee3	0.58616465
109	0xbeea3544	-0.45743763
110	0xbe8f21e0	-0.27955532
111	0xbee17a9b	-0.44038853
112	0x3ede0ac2	0.43367583
113	0x3f3641ca	0.71194136
114	0xbee52342	-0.44753462
115	0xbeefc8f4	-0.46833003
116	0xbec3a18c	-0.38209188
117	0xbec21c43	-0.37912187
118	0xbed5bcbb	-0.41745552
119	0xbe99ad07	-0.30014822
120	0xbeb2eaae	-0.3494467
121	0xbe5f463b	-0.21804135
122	0xbeac526a	-0.33656627
123	0xbeaf2423	-0.34207258
124	0x3d981ed8	0.07427758
125	0x3d9afb6a	0.07567485
126	0x3f15ca62	0.58511937
127	0x3f1b621c	0.6069658
128	0x3e94bd2a	0.2905057
129	0x3ed7ccdd	0.42148486
130	0x3e8bd7e7	0.27313158
131	0x3ec2078d	0.37896386
132	0x3f001c04	0.5004275
133	0x3eb7fe6c	0.35936296
134	0xbd81f999	-0.06346435
135	0x3f093be5	0.53607017
136	0x3ea6a1e7	0.32545397
137	0xbe5c3a45	-0.21506603
138	0xbeaa6089	-0.33276775
139	0xbe365313	-0.17805128
140	0x3e3653af	0.1780536
141	0x3f0633ca	0.52422774
142	0xbeb3f528	-0.35147977
143	0x3f0440d4	0.5166142
144	0xbe99a8c8	-0.30011582
145	0xbe7b7ffc	-0.24560541
146	0x3ee0b5d9	0.4388874
147	0xbe7d996f	-0.24765562
148	0xbe91cea4	-0.28477967
149	0xbea4b2b9	-0.32167605
150	0xbe75338d	-0.23945446
151	0xbe9925f6	-0.29911774
152	0x3ef05963	0.46943197
153	0x3e8322b2	0.25612408
154	0xbda97eeb	-0.08276161
155	0xbe0bdab7	-0.13657652
156	0x3ef95108	0.48694634
157	0x3f04fc61	0.519476
158	0x3ea7c68c	0.32768667
159	0x3edc3955	0.4301249
160	0x3ee22722	0.4417048
161	0xbdbb264b	-0.09138163
162	0xbe27298f	-0.16324447
163	0xbe9f0fdd	-0.3106679
164	0x3f0677f9	0.52526814
165	0xbebdb049	-0.37048557
166	0xbe4b1e1b	-0.19835703
167	0xbec2c221	-0.38038734
168	0xbe6e5ebe	-0.23278329
169	0xbeb15233	-0.34633026
170	0x3e4c8ef6	0.1997641
171	0x3ee12961	0.43976882
172	0xbea3a979	-0.31965235
173	0x3e862ab3	0.26204452
174	0x3e705984	0.23471648
175	0x3ec3d728	0.3825009
176	0xbe3673f6	-0.17817673
177	0xbeb94525	-0.36185566
178	0x3f061905	0.52381927
179	0x3f1bb5b3	0.60824126
180	0x3eb76b4d	0.35824051
181	0x3ecc1613	0.3986059
182	0x3f18c8ce	0.59681404
183	0x3e935385	0.28774658
184	0x3e163e16	0.14672121
185	0x3cede007	0.029037489
186	0x3ec1612c	0.3776945
187	0x3ec38ce5	0.38193431
188	0xbe759ead	-0.23986311
189	0x3d4d1647	0.050070073
190	0xbe4b3d5d	-0.19847627
191	0xbe9e65a3	-0.30936918
192	0x3eb236e5	0.34807506
193	0x3eafa315	0.3430411
194	0x3e62bc58	0.2214216
195	0x3eaddb34	0.339563
196	0x3ee2d338	0.44301772
197	0x3eb99234	0.36244357
198	0x3e749e7f	0.23888586
199	0x3eef1821	0.46698096
200	0x3eab0aa9	0.3340657
201	0xbe777b9a	-0.24168244
202	0xbed1c498	-0.40970302
203	0xbe5c587d	-0.2151813
204	0x3e1b6fda	0.15179387
205	0x3ec53722	0.38518625
206	0xbe9f369d	-0.31096354
207	0x3eca2f06	0.39489
208	0xbe9b49a6	-0.30329627
209	0xbe81b1c1	-0.25330928
210	0x3ee23cc2	0.4418698
211	0xbea58799	-0.32330015
212	0xbe569505	-0.20955284
213	0xbe222f26	-0.15838298
214	0xbed5afd8	-0.4173572
215	0xbeabf9cc	-0.33589017
216	0x3ea6a34d	0.32546464
217	0x3e8cadfe	0.27476496
218	0xbdabd1e2	-0.08389641
219	0xbea3e49e	-0.3201036
220	0x3edf7fd2	0.43652207
221	0x3ed0c270	0.40773344
222	0x3eaf54c3	0.34244356
223	0x3e9b3412	0.30313164
224	0x3ef0548b	0.469395
225	0xbe3ed9f1	-0.18637826
226	0xbe31131e	-0.17292449
227	0xbe1d0143	-0.15332513
228	0x3ee108a5	0.43951908
229	0xbea7d620	-0.32780552
230	0xbe316734	-0.17324525
231	0xbe5a93b9	-0.21345414
232	0xbe6463e2	-0.22303727
233	0xbdf82af9	-0.121175714
234	0x3e62e42f	0.22157358
235	0x3ef05990	0.4694333
236	0xbe87acf6	-0.26499146
237	0x3e989fe9	0.29809502
238	0x3e9871e6	0.29774398
239	0x3ea95b9f	0.33077714
240	0xbe848b3e	-0.25887483
241	0xbeaba6bd	-0.3352565
242	0x3f12828f	0.57230467
243	0x3f2d51ef	0.67703146
244	0x3f07dd64	0.5307219
245	0x3eb77834	0.35833895
246	0x3ee9c514	0.4565817
247	0x3e9b74e4	0.30362618
248	0x3e58c78e	0.21169874
249	0x3d0cf352	0.034411736
250	0x3eaa1071	0.3321567
251	0x3ed28ffc	0.41125476
252	0xbe5d0e2b	-0.21587436
253	0x3e9b0fa4	0.3028537
254	0xbed8d659	-0.42351034
255	0xbec489c2	-0.3838635

bias f4 [16]
0	0xbd7feced	-0.06248181
1	0x3daa81b6	0.08325522
2	0xbe16661f	-0.14687394
3	0xbcab20fd	-0.020889753
4	0xbca2cc94	-0.019872941
5	0xbc262180	-0.010139823
6	0x3c692222	0.014229329
7	0x3b27a6f9	0.0025581701
8	0x3d2b17f4	0.04177089
9	0xba9cca39	-0.0011962123
10	0x3d3f7be1	0.046749
11	0xbe1db071	-0.15399338
12	0xbd41d512	-0.04732234
13	0x3b141be2	0.0022599627
14	0x3e4e658f	0.20155929
15	0xbdd85c67	-0.10564499

weight f4 [2, 16]
0	0xbfd605e5	-1.6720549
1	0x3ebe6193	0.37183818
2	0xbfd371ae	-1.6519067
3	0xbfd86a58	-1.6907454
4	0x3eb19b09	0.34688595
5	0xbfc1fe84	-1.5155797
6	0xbfc0322d	-1.5015312
7	0x3f00ee84	0.50363946
8	0xbfc35763	-1.5261043
9	0xbfdd8c42	-1.7308428
10	0xbfdc2017	-1.7197293
11	0xbfc2636f	-1.5186595
12	0xbfd0efb7	-1.6323155
13	0xbf94c721	-1.1623269
14	0x3e916494	0.28397048
15	0xbff92f2e	-1.9467523
16	0x3f0f99ac	0.5609386
17	0xbfa877a5	-1.3161513
18	0x3ebb10c0	0.36536217
19	0x3efa45b7	0.48881313
20	0xbfbf4e6d	-1.4945809
21	0x3ebdf813	0.37103328
22	0x3f1d90c3	0.61549014
23	0xbf94f232	-1.1636412
24	0x3ea9e765	0.33184353
25	0x3ee95834	0.45575106
26	0x3f170f12	0.5900737
27	0x3ebf5696	0.37370747
28	0x3ed1cdf8	0.40977454
29	0x3e34a137	0.17639624
30	0xbf522fd2	-0.8210422
31	0x3f254d39	0.6457096

bias f4 [2]
0	0x3eac8fd5	0.33703485
1	0xbf81d0b6	-1.0141819

weight f4 [2, 2]
0	0xc06ad28f	-3.6691015
1	0x40e14312	7.0394373
2	0x402d6c30	2.7097282
3	0xc0ee33b0	-7.4438095

bias f4 [2]
0	0xbf0e2a66	-0.55533445
1	0x3ecec5cc	0.40385282
