Network2/params/cnn_nnnParams0824105456.pth (torch_old, 375864 bytes, 26 tensors)

weight f4 [16, 1, 1]
0.5835538 -0.8535793 -0.83547837 -0.48032692 0.84253377 0.50046545 0.6008613 -0.065706655
0.77384955 -0.6274897 0.31743088 0.249049 -0.13696758 -0.34538308 0.13103794 0.3553433
00000000: c863 153f 2c84 5abf e9e1 55bf 69ed f5be
00000010: 4bb0 573f 811e 003f 0cd2 193f 3691 86bd
00000020: 011b 463f 2aa3 20bf 4d86 a23e b306 7f3e
00000030: 3b41 0cbe 0dd6 b0be cf2e 063e 8fef b53e

bias f4 [16]
0.39775145 -0.25898066 -0.59459996 -0.38017905 -0.1471335 0.386989 -0.53340065 0.4152205
-0.17520294 0.92475677 -0.728202 -0.8649452 0.28882042 -0.76343334 -0.7682168 -0.8775363
00000000: 14a6 cb3e 1d99 84be b437 18bf d4a6 c2be
00000010: 2aaa 16be 6c23 c63e f28c 08bf c897 d43e
00000020: 6668 33be dcbc 6c3f 726b 3abf 0c6d 5dbf
00000030: 45e0 933e 5e70 43bf dba9 44bf 38a6 60bf

weight f4 [16]
0.41224572 0.042315606 0.5167258 0.29302248 0.6274018 0.6366625 0.7010186 0.5636853
0.9124675 0.8386127 0.12556648 0.35359526 0.07263542 0.8380115 0.69427645 0.42813158
00000000: df11 d33e 2153 2d3d 2448 043f 0b07 963e
00000010: 689d 203f 50fc 223f f475 333f ae4d 103f
00000020: 7897 693f 52af 563f 8094 003e 700a b53e
00000030: e1c1 943d ec87 563f 1abc 313f 1034 db3e

bias f4 [16]
0.00011976652 -0.0033538754 -0.0015824303 -0.012717798 -0.011737768 0.012299008 0.008823628 0.020797985
0.009719531 -0.0028928758 0.007891216 -0.0011115791 -0.014006574 0.0068445946 0.0133758625 -0.012046403
00000000: 292b fb38 b1cc 5bbb 8d69 cfba 505e 50bc
00000010: c44f 40bc c781 493c fa90 103c 8960 aa3c
00000020: ab3e 1f3c 6796 3dbb 294a 013c 68b2 91ba
00000030: d47b 65bc 9f48 e03b 6f26 5b3c 475e 45bc

running_mean f4 [16]
0.5869671 -0.53577673 -0.8653421 -0.5358832 0.12602855 0.5493511 -0.33865952 0.39393836
0.07571118 0.72124237 -0.6252918 -0.78421795 0.24458253 -0.87544924 -0.72579587 -0.7622226
00000000: 7a43 163f aa28 09bf 0f87 5dbf a42f 09bf
00000010: a10d 013e 46a2 0c3f c864 adbe 4ab2 c93e
00000020: 770e 9b3d 57a3 383f 2013 20bf 82c2 48bf
00000030: d873 7a3e 711d 60bf c2cd 39bf 0521 43bf

running_var f4 [16]
0.01770104 0.03788504 0.036268227 0.011987736 0.036894888 0.013030372 0.018755859 0.00022485644
0.031146474 0.020469328 0.005235575 0.0032218818 0.00097303104 0.006206335 0.000889702 0.0065660486
00000000: c501 913c 582d 1b3d fe8d 143d 3668 443c
00000010: 181f 173d 577d 553c e3a5 993c 71c7 6b39
00000020: e426 ff3c 4baf a73c 308f ab3b 3526 533b
00000030: 0213 7f3a 835e cb3b e43a 693a 0228 d73b

weight f4 [32, 16, 1]
-0.23133412 -0.100068025 -0.12907015 -0.011350267 0.11035243 -0.13624309 -0.0425758 0.16959427
0.12543459 -0.14769122 -0.21027584 -0.06939272 -0.0729579 -0.06534577 0.16345535 -0.22019036
0.15313862 0.05844879 -0.114048496 -0.084413305 -0.05306988 0.14455816 -0.14277862 -0.006441891
0.038942084 0.20726569 0.1669883 0.24561831 0.15543742 -0.04981975 -0.06721588 -0.029320827
-0.0050259023 0.11525406 0.046825804 0.19875187 0.045108564 0.24722591 -0.19162597 -0.017507005
0.12130625 -0.04571515 -0.075171605 0.09987152 0.16216125 -0.06210386 0.25204486 -0.22041263
0.10452579 -0.18338485 -0.017326199 -0.11752494 0.08713448 0.06977939 0.013718399 -0.15454975
0.08907386 -0.101399295 -0.18770137 -0.11976567 -0.06646601 -0.007868337 0.036629636 -0.03911479
0.013934044 -0.18276103 -0.07716588 -0.06721572 -0.09673038 0.13562633 -0.1406164 0.113125704
-0.055065874 -0.16758375 0.054004222 -0.244909 -0.121422514 0.18773636 -0.2141756 -0.034351975
-0.031860884 -0.21813858 0.123197705 -0.090989634 0.12899229 0.21045646 -0.23636614 0.16942653
-0.15319717 0.033221927 -0.030243631 -0.0711958 -0.26361927 0.03044026 0.061104655 -0.12026042
-0.16587743 0.09775476 -0.20756185 0.19254966 0.09656237 0.14878917 -0.17862587 0.23159403
-0.19224367 -0.16681284 -0.010342541 0.0086531015 0.12196228 -0.037293468 0.10448649 0.25570008
0.21131052 -0.19477265 -0.047414333 -0.0015445472 0.1351888 -0.19378242 -0.070360444 0.18062612
0.15980896 0.24717072 0.1417249 -0.08260292 0.2529441 0.13676478 -0.05957892 -0.10676027
0.043589428 0.15507731 -0.17400965 0.105438 -0.069682 0.065406784 0.15521601 0.18539198
0.02152547 0.037117135 0.16717964 -0.016913593 0.18323074 -0.0025911028 -0.08158578 -0.22892445
0.21267255 0.005844102 0.10397336 0.20493032 0.0047638263 0.02081476 0.10109289 -0.097651124
0.23189335 -0.112427674 -0.047764357 -0.22793238 -0.14714341 -0.01749358 0.111690596 0.13413525
-0.11174467 -0.076344974 -0.14866863 0.099274345 -0.058251813 -0.13861214 -0.2682515 0.17023659
0.21222684 0.1706595 -0.23254785 -0.014770658 -0.075380065 0.18406664 0.05229892 0.08537155
0.10446421 -0.062936194 0.14881349 0.09469341 -0.1637596 -0.00091271586 -0.034403402 0.20655437
-0.022581082 0.19134638 -0.21534717 0.17594446 -0.18898411 0.13046987 -0.037396967 -0.12930097
0.09804777 0.051539958 -0.04931277 0.08929975 -0.11576072 0.19021416 0.114454694 -0.19748044
0.20505543 -0.038315818 0.1418827 0.14373508 0.06038448 -0.08626746 0.20625003 -0.043343294
0.0877377 0.14711744 0.18518761 0.043440007 -0.21033092 0.14403799 -0.19057162 0.16263276
0.098368235 -0.060864937 -0.0036552607 0.051692292 0.051768593 -0.105054624 -0.050884344 -0.077881806
-0.05441717 0.238391 0.20193152 0.11622479 0.20482297 -0.004981938 -0.22493327 -0.0693041
0.17167564 -0.057839237 0.023402741 0.22777376 0.15946767 -0.117738 0.11407424 0.077992424
0.01020923 0.1983291 -0.20315161 0.14596361 -0.15014759 0.049618807 -0.036035962 0.19003455
-0.04111139 0.091491014 -0.08250683 0.006889525 -0.07219935 0.046348326 -0.045651156 -0.08552874
00000000: dae2 6cbe 77f0 ccbd f72a 04be 78f6 39bc
00000010: 7400 e23d 4f83 0bbe f663 2ebd 1faa 2d3e
00000020: ed71 003e 5e3c 17be 8d52 57be c51d 8ebd
00000030: f46a 95bd 01d4 85bd d760 273e 9579 61be
00000040: 5fd0 1c3e 0068 6f3d 4292 e9bd e2e0 acbd
00000050: cd5f 59bd 0e07 143e 8f34 12be 8016 d3bb
00000060: bc81 1f3d 753d 543e fbfe 2a3e 5e83 7b3e
00000070: fd2a 1f3e cb0f 4cbd 7ba8 89bd 3b32 f0bc
00000080: 53b0 a4bb 520a ec3d 6acc 3f3d 9c85 4b3e
00000090: c2c3 383d ca28 7d3e 9939 44be da6a 8fbc
000000a0: 696f f83d cf3f 3bbd 92f3 99bd 7189 cc3d
000000b0: 990d 263e 9e60 7ebd 060c 813e d9b3 61be
000000c0: 9e11 d63d 3dc9 3bbe acef 8dbc eab0 f0bd
000000d0: 9073 b23d 7fe8 8e3d 23c3 603c 4a42 1ebe
000000e0: 5b6c b63d 6faa cfbd ca34 40be b447 f5bd
000000f0: 551f 88bd 33ea 00bc f508 163d d436 20bd
00000100: 9e4b 643c b525 3bbe 2509 9ebd 65a8 89bd
00000110: 941a c6bd a1e1 0a3e bffd 0fbe 73ae e73d
00000120: c18c 61bd 139b 2bbe 8833 5d3d 6dc9 7abe
00000130: 5eac f8bd f63d 403e d950 5bbe a8b4 0cbd
00000140: 8f80 02bd b85f 5fbe 144f fc3d c658 babd
00000150: 8e16 043e e681 573e f709 72be 267e 2d3e
00000160: b8df 1cbe b713 083d 7ec1 f7bc 1bcf 91bd
00000170: 1bf9 86be da5d f93c e048 7a3d 184b f6bd
00000180: c6db 29be a633 c83d 188b 54be bd2b 453e
00000190: 7ec2 c53d 305c 183e b3e9 36be fc26 6d3e
000001a0: 86db 44be fcd0 2abe c373 29bc bdc5 0d3c
000001b0: 5cc7 f93d 09c1 18bd 03fd d53d 1feb 823e
000001c0: c961 583e 7b72 47be 8835 42bd 6772 caba
000001d0: ef6e 0a3e e66e 46be 2319 90bd 0ef6 383e
000001e0: f6a4 233e 521a 7d3e 5520 113e b82b a9bd
000001f0: e481 813e 110c 0c3e 0709 74bd 21a5 dabd
00000200: d48a 323d 96cc 1e3e 962f 32be e1ef d73d
00000210: 70b5 8ebd fef3 853d f2f0 1e3e 65d7 3d3e
00000220: 2f56 b03c 2308 183d 2431 2b3e 608e 8abc
00000230: d7a0 3b3e 7ecf 29bb 7216 a7bd 2c6b 6abe
00000240: d5c6 593e e17f bf3b fcef d43d 41d9 513e
00000250: df19 9c3b b783 aa3c ca09 cf3d 50fd c7bd
00000260: 7375 6d3e 7b40 e6bd 8fa4 43bd 1b67 69be
00000270: c3ac 16be b24e 8fbc 0abe e43d c05a 093e
00000280: 64da e4bd c15a 9cbd 973c 18be 5950 cb3d
00000290: 7499 6ebd 57f0 0dbe 4358 89be 8052 2e3e
000002a0: fe51 593e 5dc1 2e3e 0621 6ebe a100 72bc
000002b0: dd60 9abd f77b 3c3e 6437 563d 47d7 ae3d
000002c0: 55f1 d53d b1e4 80bd 9062 183e 9eee c13d
000002d0: 99b0 27be 5343 6fba 95ea 0cbd fd82 533e
000002e0: f6fb b8bc 4ef0 433e f883 5cbe c92a 343e
000002f0: 0d85 41be e599 053e 902d 19bd 7967 04be
00000300: 45cd c83d 901b 533d 30fc 49bd cae2 b63d
00000310: f513 edbd 80c7 423e 3967 ea3d 5038 4abe
00000320: 0dfa 513e 0cf1 1cbd b349 113e 4a2f 133e
00000330: b755 773d feac b0bd 3533 533e bd88 31bd
00000340: d3af b33d f4a5 163e d2a1 3d3e 26ee 313d
00000350: fd60 57be b27e 133e 3525 43be 3489 263e
00000360: 4975 c93d 834d 79bd 198d 6fbb 4cbb 533d
00000370: 4e0b 543d e126 d7bd 1a6c 50bd 7f80 9fbd
00000380: 8ae4 5ebd c51c 743e 23c7 4e3e 4307 ee3d
00000390: 1dbd 513e 863f a3bb e854 66be 4fef 8dbd
000003a0: bdcb 2f3e d6e8 6cbd 1bb7 bf3c 863d 693e
000003b0: 7e4b 233e 9f20 f1bd c19f e93d 7eba 9f3d
000003c0: 9d44 273c c916 4b3e fa06 50be 7c77 153e
000003d0: 4ac0 19be 173d 4b3d 729a 13bd 6b98 423e
000003e0: 6b64 28bd a45f bb3d 57f9 a8bd 86c1 e13b
000003f0: 41dd 93bd bed7 3d3d b5fc 3abd b129 afbd

bias f4 [32]
-0.16681671 0.053926226 0.110020645 0.09682303 0.08039247 -0.053030167 0.18670727 -0.15726763
-0.10706401 -0.09628384 0.012583738 -0.05112262 0.12692852 -0.010209407 0.08052067 -0.16653807
0.07919405 0.07469953 0.050325483 -0.14726199 0.15629588 -0.22918288 -0.05778899 0.21343495
0.21179372 -0.05014606 0.21688174 0.022408893 -0.15139121 0.23499252 0.06373756 -0.20373459
00000000: 00d2 2abe bfe1 5c3d 8152 e13d 274b c63d
00000010: cfa4 a43d 2936 59bd 3130 3f3e c40a 21be
00000020: 6044 dbbd 7630 c5bd 062c 4e3c f465 51bd
00000030: 8df9 013e 5b45 27bc 05e8 a43d f588 2abe
00000040: 7d30 a23d 11fc 983d 1822 4e3d d9cb 16be
00000050: 070c 203e ebae 6abe 26b4 6cbd b18e 5a3e
00000060: 74e0 583e f465 4dbd 3f16 5e3e db92 b73c
00000070: 4c06 1bbe e1a1 703e d688 823d cd9f 50be

weight f4 [32]
0.05290874 0.21593842 0.34680432 0.19613948 0.45482907 0.9374392 0.14760989 0.48619696
0.32194152 0.65072304 0.57527226 0.85623795 0.059856866 0.5867345 0.2719582 0.16051462
0.4780164 0.7591829 0.34916672 0.7164272 0.84758246 0.33509627 0.6295202 0.6522456
0.7169536 0.6096658 0.18375938 0.17388074 0.010369344 0.19006978 0.034857173 0.37377018
00000000: d6b6 583d f61e 5d3e 5690 b13e cad8 483e
00000010: 5bdf e83e 04fc 6f3f 0c27 173e cfee f83e
00000020: 85d5 a43e c995 263f 0b45 133f 6932 5b3f
00000030: 792c 753d 3b34 163f 1b3e 8b3e f25d 243e
00000040: 91be f43e cf59 423f fbc5 b23e c667 373f
00000050: 2afb 583f bd91 ab3e 3c28 213f 91f9 263f
00000060: 458a 373f 0f13 1c3f 6b2b 3c3e cb0d 323e
00000070: 2ee4 293c a7a1 423e 65c6 0e3d ce5e bf3e

bias f4 [32]
0.009735169 -0.015806485 0.008603538 0.0028355021 0.0033807296 0.009293339 -0.00018099573 0.015391323
-0.0017421237 0.013037471 0.011302563 -0.0033939532 0.027160492 -0.029717097 0.0026542721 0.0063023944
-0.004222411 -0.008516028 0.021267558 0.013129352 0.0067601865 -0.010413012 0.017127078 0.030136717
0.031212855 0.021041647 0.0157622 0.015736956 0.00800295 0.009907033 -0.00029799523 0.01105083
00000000: 4280 1f3c 9a7c 81bc dbf5 0c3c d5d3 393b
00000010: 3b8f 5d3b 1743 183c acc9 3db9 e32b 7c3c
00000020: f957 e4ba 1e9b 553c 632e 393c 166d 5ebb
00000030: ae7f de3c 4571 f3bc 4cf3 2d3b 5184 ce3b
00000040: 275c 8abb cf86 0bbc 4d39 ae3c 7e1c 573c
00000050: 8e84 dd3b 569b 2abc 164e 8c3c 47e1 f63c
00000060: 1ab2 ff3c 885f ac3c bb1f 813c caea 803c
00000070: ce1e 033c 1c51 223c 3e3c 9cb9 8a0e 353c

running_mean f4 [32]
-0.26422635 0.12738207 0.22931975 0.07117603 -0.07499253 -0.04314104 0.13524322 0.044650085
-0.060149837 0.07072233 0.10558283 0.09499139 0.28201893 -0.020586533 0.19713508 -0.17986062
-0.07658195 0.019799927 0.107292295 -0.11863681 0.120731235 -0.06839137 0.021248402 0.20023349
0.088296056 0.05526357 0.21766981 0.21962002 -0.0732099 0.29337436 0.10500968 -0.26663283
00000000: ad48 87be 7270 023e ccd2 6a3e bdc4 913d
00000010: af95 99bd a9b4 30bd 337d 0a3e 02e3 363d
00000020: ad5f 76bd ded6 903d d03b d83d d98a c23d
00000030: c964 903e 17a5 a8bc c7dd 493e 622d 38be
00000040: ffd6 9cbd 7533 a23c 10bc db3d dbf7 f2bd
00000050: f041 f73d c610 8cbd 2111 ae3c 020a 4d3e
00000060: 90d4 b43d 0e5c 623d d6e4 5e3e 12e4 603e
00000070: 12ef 95bd 2a35 963e 510f d73d 1984 88be

running_var f4 [32]
0.007252664 0.0011535728 0.01584212 0.044773933 0.02795212 0.024085077 0.0016998178 0.059187856
0.0028839146 0.05168205 0.067270786 0.12455874 0.1302199 0.0064330124 0.021981796 0.031580422
0.006026111 0.07469698 0.0006385482 0.026334796 0.0079569 0.033530664 0.011639432 0.0015467643
0.005051885 0.002394914 0.0018561599 0.007950703 0.19546433 0.052963573 0.061992485 0.0013966818
00000000: c1a7 ed3b 7b33 973a 55c7 813c df64 373d
00000010: d8fb e43c 114e c53c 6ccc de3a f76e 723d
00000020: 0f00 3d3b 8fb0 533d 44c5 893d a718 ff3d
00000030: 5e58 053e 05cc d23b 2b13 b43c 795a 013d
00000040: af76 c53b bbfa 983d 3f64 273a 12bc d73c
00000050: a85d 023c 7357 093d 51b3 3e3c ccbc ca3a
00000060: 488a a53b fdf3 1c3b 644a f33a aa43 023c
00000070: cd27 483e 55f0 583d d5eb 7d3d dd10 b73a

weight f4 [64, 32, 1]
0.07323236 0.0009303367 0.13467559 -0.07146593 0.12866889 0.07171185 0.0385087 -0.0092630675
-0.05560323 0.00956296 -0.13975456 0.07224176 0.11179917 0.14216816 -0.11600649 -0.07364375
0.0844772 -0.033489466 0.034507725 0.06351858 -0.18715972 -0.12107586 -0.030935911 -0.031308416
0.12344958 0.12086777 0.12245996 -0.11097368 0.030867534 -0.19990852 0.015360583 0.06529991
0.12711519 0.12219636 0.1766246 0.11294083 -0.109282546 -0.11233838 0.093869396 -0.017105421
-0.14996481 -0.06858437 0.07303504 0.0078798495 0.00972976 -0.067963876 -0.058486994 -0.07232409
0.047958985 -0.003674969 -0.0029543831 -0.056088246 0.16442879 -0.082899176 0.009684631 -0.10063204
-0.13546619 -0.08305618 -0.05833038 -0.10923095 -0.031676915 0.10249046 -0.13556923 0.101475224
-0.024568839 -0.079751685 -0.07137541 0.10167007 0.012461501 0.08251879 -0.14209044 -0.0180143
0.11796744 0.14379773 0.10967827 -0.0051853964 0.069708824 -0.15008418 0.15735842 0.038830798
-0.10414871 0.1362375 -0.04709658 -0.16186409 -0.03950002 -0.10055812 -0.06077913 -0.067588866
-0.09170444 -0.14154981 -0.022626907 0.11896382 -0.07595813 -0.10091794 -0.1326853 0.033466168
0.024333263 -0.055850584 0.03075173 0.018946437 0.048867375 0.009728628 -0.06362004 -0.025623268
0.15167114 0.14622559 0.019706722 -0.083338246 0.098916925 0.12016066 -0.17214163 0.11420635
-0.059550885 -0.003632591 0.08003649 0.12470258 0.11564697 0.14612535 0.13923006 0.022441609
0.0976542 -0.03482851 0.15649875 0.12998149 0.10198628 0.110437185 -0.06316048 -0.104784794
0.12496224 -0.05571509 0.039048914 -0.040534325 0.07504153 -0.029114436 0.08716279 0.07439344
-0.092662856 -0.07715106 -0.1502803 0.06012166 0.046903655 -0.04143647 0.025571028 -0.049843688
-0.061984595 0.014034544 -0.1386035 -0.14960995 -0.14185211 -0.10163749 -0.010772146 0.0029668086
0.039959587 -0.011742583 0.09868362 -0.026672976 -0.11306408 -0.12752463 -0.15666905 0.11404938
0.08530923 0.099030875 -0.12697832 0.062379576 -0.1416855 -0.042478044 0.024910692 0.15363541
0.14750274 0.0027897037 -0.15836357 -0.0417518 0.039156847 0.1031069 -0.009377401 0.055992704
-0.0051187556 0.1212735 0.011807187 0.11687767 0.16864815 0.06299042 0.15386906 0.09370069
-0.0009707397 -0.16853565 -0.06653424 0.10063918 -0.00984558 0.122508556 0.041383438 0.15869428
-0.051244125 -0.100942284 -0.049828418 -0.02838453 0.05649023 0.11048484 -0.013585321 -0.1046875
0.08116577 0.076067306 -0.020807136 0.14525408 0.12616873 0.025367685 -0.12537718 -0.057374243
-0.15138617 0.07236728 0.10189286 -0.15927733 -0.11308311 0.06429338 0.032274272 0.18205673
0.07736197 0.17377704 -0.066648565 -0.13146202 0.08628912 0.101654194 0.13116041 -0.009875153
-0.10342611 -0.17687856 0.113756254 -0.05885429 0.05718057 -0.11649776 0.13414949 -0.16911022
-0.05723618 0.04097478 0.07819118 0.053990696 0.040910587 0.08472875 0.13270408 -0.11234589
0.15371266 0.12768973 -0.12363822 -0.13565332 0.11049912 -0.030555548 0.14330369 0.07123448
-0.037369683 0.012545999 -0.16743053 -0.16690852 0.023285555 -0.15370946 -0.04796395 -0.05380166
00000000: d9fa 953d d7e1 733a 66e8 093e bb5c 92bd
00000010: c7c1 033e aadd 923d 4cbb 1d3d 1fc4 17bc
00000020: 36c0 63bd f6ad 1c3c d21b 0fbe 7df3 933d
00000030: f7f6 e43d 8894 113e d094 edbd 89d2 96bd
00000040: 6202 ad3d 402c 09bd f957 0d3d 0716 823d
00000050: cca6 3fbe 9ff6 f7bd 4f6d fdbc 413d 00bd
00000060: 22d3 fc3d 8589 f73d 4acc fa3d 2b46 e3bd
00000070: e9dd fc3c d2b4 4cbe f4aa 7b3c f6bb 853d
00000080: 7c2a 023e 1642 fa3d 14dd 343e 864d e73d
00000090: 87cf dfbd aa11 e6bd 993e c03d ab20 8cbc
000000a0: 6090 19be f675 8cbd 6593 953d 7c1a 013c
000000b0: 9269 1f3c a530 8bbd 0f90 6fbd a71e 94bd
000000c0: a470 443d c0d7 70bb 539e 41bb cabc 65bd
000000d0: 0560 283e 0bc7 a9bd 49ac 1e3c 2c18 cebd
000000e0: a6b7 0abe 5c19 aabd d6eb 6ebd 7ab4 dfbd
000000f0: a7bf 01bd 85e6 d13d a9d2 0abe 3ed2 cf3d
00000100: 9744 c9bc da54 a3bd 452d 92bd 6638 d03d
00000110: 532b 4c3c 9dff a83d 2880 11be ba92 93bc
00000120: ea98 f13d b63f 133e 009f e03d 42ea a9bb
00000130: 80c3 8e3d abaf 19be 9122 213e 0b0d 1f3d
00000140: eb4b d5bd d881 0b3e 58e8 40bd b3bf 25be
00000150: c6ca 21bd 6af1 cdbd 89f3 78bd 086c 8abd
00000160: 8acf bbbd 6ff2 10be 105c b9bc 4ea3 f33d
00000170: f08f 9bbd 11ae cebd a8de 07be d213 093d
00000180: 8d56 c73c 95c3 64bd 0deb fb3c 8f35 9b3c
00000190: 2829 483d d364 1f3c 394b 82bd e3e7 d1bc
000001a0: ae4f 1b3e 29bc 153e fe6f a13c 3ead aabd
000001b0: f594 ca3d cb16 f63d e545 30be 05e5 e93d
000001c0: a1eb 73bd c410 6ebb 2cea a33d 1164 ff3d
000001d0: 52d8 ec3d e2a1 153e 5392 0e3e 77d7 b73c
000001e0: edfe c73d 57a8 0ebd 3541 203e de19 053e
000001f0: 2fde d03d e42c e23d 485a 81bd 6999 d6bd
00000200: 34ec ff3d 8235 64bd c1f1 1f3d 5207 26bd
00000210: 60af 993d 6681 eebc 6882 b23d 965b 983d
00000220: 06c6 bdbd 6001 9ebd 14e3 19be 2142 763d
00000230: 0c1e 403d 4ab9 29bd 557a d13c e528 4cbd
00000240: 8fe3 7dbd 25f1 653c 13ee 0dbe 5a33 19be
00000250: ae41 11be 5127 d0bd a87d 30bc ca6e 423b
00000260: aaac 233d f663 40bc a31a ca3d 4981 dabc
00000270: 248e e7bd d195 02be da6d 20be b992 e93d
00000280: 9bb6 ae3d b3d0 ca3d 9b06 02be ba81 7f3d
00000290: 0116 11be 75fd 2dbd 8211 cc3c 9a52 1d3e
000002a0: f50a 173e 76d3 363b 0f2a 22be ef03 2bbd
000002b0: ee62 203d b629 d33d aca3 19bc 9b58 653d
000002c0: 3cbb a7bb 3e5e f83d ef72 413c 8f5d ef3d
000002d0: 1ab2 2c3e 1f01 813d da8f 1d3e 26e6 bf3d
000002e0: 3d79 7eba 9c94 2cbe 1b43 88bd ea1b ce3d
000002f0: 5b4f 21bc c4e5 fa3d ae81 293d c180 223e
00000300: 5ce5 51bd d4ba cebd e218 4cbd ad86 e8bc
00000310: 4d62 673d e045 e23d f794 5ebc 6666 d6bd
00000320: 3d3a a63d 2dc9 9b3d ba73 aabc 7cbd 143e
00000330: 6032 013e e4cf cf3c e062 00be 4101 6bbd
00000340: fa04 1bbe 4c35 943d 34ad d03d 9919 23be
00000350: 1e98 e7bd 3fac 833d 0732 043d 146d 3a3e
00000360: f46f 9e3d 9cf2 313e 0b7f 88bd fb9d 06be
00000370: 5ab8 b03d 1330 d03d ea4e 063e 65cb 21bc
00000380: 12d1 d3bd a71f 35be 0af9 e83d 3211 71bd
00000390: 2c36 6a3d 6196 eebd 7c5e 093e 3b2b 2dbe
000003a0: 7c70 6abd 2cd5 273d b322 a03d 5925 5d3d
000003b0: dc91 273d 4486 ad3d 94e3 073e 9a15 e6bd
000003c0: da66 1d3e 19c1 023e 0936 fdbd b4e8 0abe
000003d0: 5d4d e23d a14f fabc 34be 123e 62e3 913d
000003e0: f410 19bd bc8d 4d3c e972 2bbe 11ea 2abe
000003f0: 59c1 be3c 0366 1dbe d975 44bd 215f 5cbd

bias f4 [64]
-0.16888586 -0.003673657 -0.10948915 -0.10045449 0.11018715 -0.1496372 0.09088921 0.0260353
-0.15458286 0.0014889046 -0.08060618 -0.09558504 -0.13547991 -0.083613284 0.009911831 0.094380915
0.14058115 0.14382315 -0.10553215 -0.15125814 0.058868088 0.011952887 -0.010815931 -0.13411391
-0.16635318 -0.14474423 0.110080376 -0.0072384514 0.13799945 -0.14937869 -0.050882094 0.06236654
0.13329974 -0.099472135 -0.10272381 0.14359583 -0.07710799 -0.13998803 -0.06869063 0.06407183
-0.07617576 -0.16089103 -0.16820058 -0.16463728 0.040814627 0.17229626 0.10313049 -0.073002756
-0.09078966 -0.101980075 -0.123060465 0.060510576 0.12538593 0.02149483 -0.119546056 0.12737946
-0.14011788 -0.120054 0.16975708 -0.057012383 0.13493395 -0.13325588 -0.038611002 -0.09880936
00000000: 6af0 2cbe bdc1 70bb d93b e0bd 15bb cdbd
00000010: cda9 e13d 7f3a 19be 1f24 ba3d fb47 d53c
00000020: f84a 1ebe 5927 c33a da14 a5bd 17c2 c3bd
00000030: 3fbb 0abe 713d abbd 3b65 223c c84a c13d
00000040: 81f4 0f3e 6046 133e 3d21 d8bd 6ae3 1abe
00000050: aa1f 713d 0bd6 433c 4d35 31bc 2855 09be
00000060: 7d58 2abe d537 14be d271 e13d 8830 edbb
00000070: ba4f 0d3e baf6 18be be69 50bd 0f74 7f3d
00000080: ba7f 083e 0cb8 cbbd dc60 d2bd c90a 133e
00000090: cbea 9dbd 0659 0fbe acad 8cbd 1738 833d
000000a0: 0902 9cbd 9ec0 24be c63c 2cbe ad96 28be
000000b0: 3d2d 273d 6e6e 303e 1436 d33d 7882 95bd
000000c0: eeef b9bd eeda d0bd 2007 fcbd f0d9 773d
000000d0: 2b65 003e ed15 b03c 90d4 f4bd c36f 023e
000000e0: 107b 0fbe dfde f5bd cdd4 2d3e d185 69bd
000000f0: 202c 0a3e 3b74 08be 9226 1ebd 905c cabd

weight f4 [64]
0.23746464 0.4253545 0.36742765 0.83214915 0.83100504 0.20689753 0.522094 0.52304375
0.13248082 0.64030623 0.6187402 0.58798456 0.32840073 0.70327693 0.88245696 1.0091491
0.78069556 0.9314529 0.9926827 0.6232729 0.72011656 0.9319978 0.092857756 0.41682824
0.78152126 0.22589211 0.23677185 0.6690609 0.5462554 0.27842245 0.25339285 0.68813217
1.0680863 0.94073474 0.35540816 0.9097888 1.0381348 0.323011 1.0475031 1.0245454
0.12692213 0.92113763 0.2990995 0.95270354 1.0693083 0.6919826 0.9365568 0.7938424
0.4954353 0.9962891 1.0071107 0.9475989 0.56140196 1.0594076 0.6741093 0.67411125
0.41857684 0.67433286 0.49763253 0.92238253 0.73947823 0.7549714 0.29244748 0.15233333
00000000: ee29 733e 11c8 d93e 7a1f bc3e ba07 553f
00000010: bfbc 543f f2dc 533e f4a7 053f 32e6 053f
00000020: 0da9 073e 1ceb 233f c265 1e3f 2886 163f
00000030: 2424 a83e f509 343f b3e8 613f cc2b 813f
00000040: aadb 473f b273 6e3f 7420 7e3f d08e 1f3f
00000050: 8f59 383f 6897 6e3f 352c be3d 836a d53e
00000060: c711 483f 4350 673e 5274 723e 9347 2b3f
00000070: 65d7 0b3f 638d 8e3e b5bc 813e 6e29 303f
00000080: 0db7 883f fed3 703f 0ff8 b53e ebe7 683f
00000090: 9ae1 843f b361 a53e 9514 863f 4e24 833f
000000a0: e0f7 013e adcf 6b3f 9223 993e 61e4 733f
000000b0: 18df 883f c625 313f 30c2 6f3f 4139 4b3f
000000c0: b2a9 fd3e cd0c 7f3f 01e9 803f d795 723f
000000d0: 0ab8 0f3f ab9a 873f 6d92 2c3f 8e92 2c3f
000000e0: b44f d63e 14a1 2c3f b1c9 fe3e 4321 6c3f
000000f0: 724e 3d3f ce45 413f adbb 953e 45fd 1b3e

bias f4 [64]
0.09724957 0.07883198 0.07084954 0.08350391 0.07862183 0.088648744 0.07225082 0.07852712
0.08690488 0.074500956 0.0798684 0.06460087 0.090466216 0.07521028 0.088184334 0.08005279
0.071489275 0.071297765 0.081671774 0.07299823 0.06673019 0.07104707 0.08774834 0.07190047
0.08254174 0.07562705 0.08035467 0.07315136 0.08051481 0.09630446 0.08126899 0.074463375
0.078285374 0.07921777 0.07669321 0.06934018 0.068813674 0.08460667 0.086945325 0.066298075
0.09101485 0.08644551 0.08479196 0.072642565 0.075383425 0.077712774 0.08108712 0.068546206
0.07197107 0.0762847 0.08772918 0.077086374 0.07789982 0.07790641 0.0893802 0.08629134
0.07620802 0.0778921 0.09000788 0.06893052 0.07520961 0.06598427 0.07676079 0.08164011
00000000: c82a c73d a972 a13d 9019 913d 1904 ab3d
00000010: 7b04 a13d 798d b53d 3df8 933d d4d2 a03d
00000020: 30fb b13d f593 983d 0b92 a33d 764d 843d
00000030: 5a46 b93d d907 9a3d fd99 b43d b8f2 a33d
00000040: f868 923d 9004 923d 8843 a73d 1980 953d
00000050: d6a9 883d 2081 913d 67b5 b33d 8e40 933d
00000060: a50b a93d 5be2 9a3d fd90 a43d 61d0 953d
00000070: f3e4 a43d 463b c53d 5b70 a63d 4180 983d
00000080: 1554 a03d ed3c a23d 5411 9d3d 3902 8e3d
00000090: 2fee 8c3d 4346 ad3d 6410 b23d 49c7 873d
000000a0: fe65 ba3d 580a b13d 68a7 ad3d a0c5 943d
000000b0: a062 9a3d e027 9f3d 0111 a63d f461 8c3d
000000c0: 9165 933d 273b 9c3d 5bab b33d 76df 9d3d
000000d0: f189 9f3d 658d 9f3d f70c b73d 84b9 b03d
000000e0: f312 9c3d e585 9f3d 0d56 b83d 722b 8d3d
000000f0: 7f07 9a3d c322 873d c334 9d3d ee32 a73d

running_mean f4 [64]
-0.09293228 -0.1167514 -0.19195107 0.16195276 -0.05269709 0.04957 0.24198659 0.08747416
-0.036814023 -0.03679451 -0.29708666 -0.0072487053 -0.17435844 0.073147275 0.12865186 0.17534181
0.21045737 0.16727614 -0.08586967 -0.1090454 -0.008229546 0.11366102 -0.103464045 -0.26094016
-0.10143555 -0.012893423 -0.0536645 -0.12561396 0.15007631 0.015445519 0.05420838 0.018119516
0.14838892 -0.14436838 -0.29153007 0.12425867 -0.07182834 -0.30287915 0.06719231 0.088597946
-0.06834649 0.00035372915 -0.17093019 -0.1603265 0.054656953 0.27792078 0.11979234 0.0004648354
-0.24168539 -0.17168362 -0.09999224 0.19842884 0.3961787 -0.033781406 -0.14768638 0.12837157
-0.21869248 -0.40723515 0.30424172 -0.046210773 0.059931904 -0.1082353 -0.3937394 -0.2214733
00000000: 4753 bebd 5c1b efbd d28e 44be f2d6 253e
00000010: e7d8 57bd ea09 4b3d 55cb 773e a725 b33d
00000020: 4dca 16bd d7b5 16bd be1b 98be 8c86 edbb
00000030: 058b 32be 3dce 953d 50bd 033e ce8c 333e
00000040: 2382 573e 704a 2b3e 70dc afbd 3253 dfbd
00000050: 38d5 06bc 1cc7 e83d f5e4 d3bd f399 85be
00000060: 71bd cfbd f03e 53bc 4fcf 5bbd f2a0 00be
00000070: 9bad 193e 340f 7d3c 9b09 5e3d 616f 943c
00000080: 44f3 173e 4ed5 13be 6e43 95be 547b fe3d
00000090: bd1a 93bd fa12 9bbe 1f9c 893d d772 b53d
000000a0: 3ff9 8bbd b974 b939 5308 2fbe a12c 24be
000000b0: f8df 5f3d a24b 8e3e b055 f53d 27b5 f339
000000c0: 607c 77be d5cd 2fbe bbc8 ccbd ee30 4b3e
000000d0: efd7 ca3e 5f5e 0abd 193b 17be d673 033e
000000e0: ecf0 5fbe 2081 d0be 92c5 9b3e 8247 3dbd
000000f0: 287b 753d 78aa ddbd 3698 c9be e6c9 62be

running_var f4 [64]
0.07089927 0.07440855 0.006275108 0.014591626 0.015544737 0.0028619713 0.025335489 0.03483861
0.009397842 0.0014770364 0.060840283 0.049621288 0.013258113 0.0029842625 0.03903098 0.09421518
0.025530575 0.014743466 0.009215916 0.020375516 0.007621458 0.005258284 0.04454257 0.018752582
0.05290717 0.03489516 0.013269819 0.02094375 0.012217959 0.03988823 0.009818982 0.04516209
0.032582436 0.011797713 0.04572588 0.02228865 0.03757708 0.008900595 0.12195103 0.0023521557
0.006952599 0.06409895 0.0038230135 0.03463155 0.005960422 0.020867838 0.002440602 0.06458337
0.015414814 0.0061564404 0.03730504 0.009517277 0.022231981 0.013408625 0.027474618 0.026802726
0.01069846 0.03046317 0.0046954374 0.014715157 0.008265417 0.024037613 0.03267088 0.029190902
00000000: a333 913d 8363 983d 6c9f cd3b b711 6f3c
00000010: 5aaf 7e3c e98f 3b3b 5f8c cf3c eeb2 0e3d
00000020: 68f9 193c 1e99 c13a a933 793d b13f 4b3d
00000030: 8e38 593c 9e93 433b f3de 1f3d e3f3 c03d
00000040: 7f25 d13c 948e 713c 5afe 163c 8eea a63c
00000050: 6cbd f93b af4d ac3b 4572 363d 049f 993c
00000060: 30b5 583d 3aee 0e3d a869 593c 3a92 ab3c
00000070: d62d 483c d761 233d ccdf 203c e2fb 383d
00000080: 2975 053d 324b 413c 0f4b 3b3d b096 b63c
00000090: 6dea 193d cdd3 113c 76c1 f93d a026 1a3b
000000a0: a1d2 e33b 4f46 833d 868b 7a3b d0d9 0d3d
000000b0: a54f c33b 07f3 aa3c 82f2 1f3b 4944 843d
000000c0: 6b8e 7c3c f7bb c93b 2bcd 183d 5aee 1b3c
000000d0: d81f b63c d9af 5b3c 7312 e13c 6491 db3c
000000e0: 9848 2f3c e68d f93c 2fdc 993b d817 713c
000000f0: ac6b 073c 87ea c43c e7d1 053d c221 ef3c

weight f4 [192, 384]
0.07641578 0.032955796 0.020452928 0.0059755803 0.016633987 -0.026232054 0.054551516 0.0015035836
0.01970172 0.02920917 -0.02655006 0.0010546432 0.05252259 0.005386457 0.010450728 -0.0104335705
0.034160383 0.06914669 0.038610548 0.041888814 0.0410596 -0.030949438 0.065203354 0.038919475
0.041242447 -0.0019868563 0.06361738 0.006704212 -0.008874368 0.056039296 -0.02343334 8.76247e-05
0.019758472 -0.018557658 0.015781902 -0.011810953 0.010945456 0.06330482 -0.030723194 -0.02625366
0.0293378 0.0028193614 0.0018299954 0.003343213 0.05476634 0.00027852715 -0.02060292 0.051782046
0.010848078 0.020546753 0.013980742 0.023557406 0.0314282 0.041657273 -0.015092996 0.053103197
-0.035336208 0.028059075 0.0481692 -0.015351038 0.034027383 0.03606009 0.022552775 0.032963157
0.019714512 0.006186892 0.045117073 0.0038365934 0.062085696 -0.002141374 0.033108924 -0.014881372
0.04760056 0.017410006 0.06203077 -0.013979887 0.042482417 -0.027300505 0.049667284 0.00904698
-0.027293116 0.007516168 0.02225982 0.0013606177 0.05801916 0.06792447 0.046639424 0.07029567
-0.027658539 0.048898134 -0.031225633 0.0024819204 0.028698493 -0.04957388 -0.019228294 -0.008343174
0.0074343276 0.058964085 0.025613828 0.044756897 0.07058299 0.01584947 0.0647281 0.06387471
0.059212703 0.016230382 -0.0290538 -0.0032997732 0.03335279 0.031611722 0.015260596 -0.015011659
-0.008493724 0.02512796 -0.00990844 0.058268186 0.031244269 0.010708686 -0.027757637 0.054418784
0.045258883 -0.023725564 0.061782464 0.008795414 0.0033069286 0.014797945 0.046917114 0.019168658
-0.011169186 0.022880876 -0.01345688 -0.012349459 0.039933123 0.07537436 0.05026779 0.012005496
0.026283443 0.03454348 0.03788197 -0.03017396 0.04159545 -0.027214253 0.024445858 -0.0067987945
0.04334244 0.054511372 -0.029037606 0.07121165 -0.004347943 -0.010471585 0.03200409 -0.004663588
0.021094251 0.04375493 -0.004385193 0.058507398 -0.0022944252 0.076620735 0.040224906 0.013000039
0.06844857 -0.025978845 -0.0048883846 -0.022810007 0.04275717 0.0016281834 0.018012917 0.058766443
0.04432098 -0.0082078 -0.019277623 -0.0071188253 0.043050125 -0.019160327 0.00020663178 -0.01479889
0.026806884 0.06415412 0.029313916 0.018322757 0.01396219 -0.024870498 0.014360438 -0.033577446
0.0053124204 -0.019842701 0.010104005 0.0464602 0.045116067 0.05589815 0.029383348 0.034273386
0.061566435 -0.005439937 0.0052832677 -0.035403118 0.059319746 0.044480372 0.00862536 0.017723262
0.046927076 -0.041466653 -0.03913987 0.02903991 0.031761244 0.059328835 0.054098066 0.05229751
-0.036210515 0.022785923 -0.027893513 0.0044033676 0.045923732 -0.014632399 -0.015508495 0.06439489
0.0012661881 0.007832292 -0.027602756 -0.0045573334 -0.01368439 0.0071283663 -0.0117316665 0.051267844
0.02194107 0.052276947 0.074776076 0.04064121 -0.01662175 -0.0064044665 -0.0113656465 0.040489145
-0.0075967126 0.049176753 0.048774064 0.024905788 0.04027612 -0.020703606 0.061777677 0.046038497
0.06380247 0.030448604 0.016169861 0.006492905 0.009920687 0.05817026 -0.020190872 0.0087158475
0.0046318225 0.025332639 0.06782438 -0.021617241 0.063807875 0.0052991607 0.03553882 0.045659292
00000000: e07f 9c3d a8fc 063d e68c a73c cdce c33b
00000010: 0044 883c 9be4 d6bc 6971 5f3d e513 c53a
00000020: 8065 a13c 1248 ef3c 837f d9bc f43b 8a3a
00000030: ed21 573d e080 b03b 8839 2b3c 91f1 2abc
00000040: c2eb 0b3d c89c 8d3d 1826 1e3d 9b93 2b3d
00000050: 1c2e 283d ad89 fdbc 5689 853d 076a 1f3d
00000060: d7ed 283d eb35 02bb d449 823d 02af db3b
00000070: cc65 11bc 7689 653d 47f7 bfbc 27c3 b738
00000080: 85dc a13c 3b06 98bc 0c49 813c ba82 41bc
00000090: 9254 333c f5a5 813d 35af fbbc ea11 d7bc
000000a0: d355 f03c 09c5 383b 75dc ef3a ce19 5b3b
000000b0: ab52 603d 4807 9239 74c7 a8bc 6919 543d
000000c0: 23bc 313c aa51 a83c 7b0f 653c 76fb c03c
000000d0: dbba 003d d1a0 2a3d 9d48 77bc bd82 593d
000000e0: b3bc 10bd 25dc e53c 114d 453d ec82 7bbc
000000f0: 4c60 0b3d bfb3 133d 99c0 b83c 6004 073d
00000100: 5480 a13c 69bb ca3b aecc 383d 5b6f 7b3b
00000110: 924d 7e3d 4b56 0cbb 399d 073d 00d1 73bc
00000120: cef8 423d 6e9f 8e3c fa13 7e3d e50b 65bc
00000130: 0b02 2e3d 4fa5 dfbc ec6f 4b3d c939 143c
00000140: d095 dfbc 304a f63b 3a5a b63c c156 b23a
00000150: 80a5 6d3d fc1b 8b3d fb08 3f3d 2df7 8f3d
00000160: 2994 e2bc 6949 483d e6cc ffbc b7a7 223b
00000170: 1a19 eb3c fb0d 4bbd a884 9dbc cfb1 08bc
00000180: a99b f33b 5384 713d 17d4 d13c 0253 373d
00000190: d18d 903d bfd6 813c 2b90 843d bed0 823d
000001a0: 0589 723d 94f5 843c 3c02 eebc 0241 58bb
000001b0: ef9c 083d 4b7b 013d 9407 7a3c 76f3 75bc
000001c0: 4329 0bbc 27d9 cd3c 0257 22bc 9faa 6e3d
000001d0: fbf3 ff3c 7c73 2f3c fc63 e3bc 3be6 5e3d
000001e0: 6161 393d 1d5c c2bc 9c0f 7d3d a41a 103c
000001f0: 0eb9 583b 1473 723c 292c 403d 9707 9d3c
00000200: f6fe 36bc ad70 bb3c 3f7a 5cbc 6355 4abc
00000210: ea90 233d df5d 9a3d 99e5 4d3d b3b2 443c
00000220: 6050 d73c 777d 0d3d 202a 1b3d 612f f7bc
00000230: fe5f 2a3d 6df0 debc ae42 c83c 6cc8 debb
00000240: d887 313d 5147 5f3d 46e0 edbc 6ad7 913d
00000250: 3079 8ebb 0391 2bbc b816 033d 03d1 98bb
00000260: dacd ac3c 5f38 333d aab1 8fbb 74a5 6f3d
00000270: 115e 16bb 55eb 9c3d dfc2 243d 1efe 543c
00000280: c42e 8c3d 96d1 d4bc be2e a0bb 0ddc babc
00000290: 2422 2f3d c568 d53a d38f 933c 15b5 703d
000002a0: ea89 353d 027a 06bc 1bec 9dbc 0945 e9bb
000002b0: 5455 303d 1ef6 9cbc 4cab 5839 0b77 72bc
000002c0: 1c9a db3c 3c63 833d bd23 f03c 9b19 963c
000002d0: abc1 643c 37bd cbbc 0b48 6b3c 8188 09bd
000002e0: d013 ae3b 298d a2bc 458b 253c 0d4d 3e3d
000002f0: a0cb 383d 75f5 643d 59b5 f03c 4062 0c3d
00000300: 162d 7c3d 8041 b2bb 431f ad3b dc02 11bd
00000310: 43f9 723d 0d31 363d 6251 0d3c 6030 913c
00000320: 9b36 403d f0d8 29bd 2151 20bd 1be5 ed3c
00000330: 1418 023d cb02 733d ef95 5d3d ea35 563d
00000340: 7a51 14bd 8ba9 ba3c f080 e4bc 204a 903b
00000350: 861a 3c3d bbbc 6fbc 5817 7ebc 78e1 833d
00000360: 39f6 a53a 0353 003c 2d1f e2bc af55 95bb
00000370: 7e34 60bc 1295 e93b 2d36 40bc 3bfe 513d
00000380: c2bd b33c 5a20 563d 3324 993d 6677 263d
00000390: 562a 88bc 8fdc d1bb fa36 3abc f2d7 253d
000003a0: d8ed f8bb 906d 493d 50c7 473d 3907 cc3c
000003b0: 93f8 243d 9c9a a9bc 970a 7d3d dd92 3c3d
000003c0: dfaa 823d 5a6f f93c a876 843c 6fc2 d43b
000003d0: 618a 223c f043 6e3d 5467 a5bc eacc 0e3c
000003e0: 8bc6 973b 6586 cf3c 82e7 8a3d a416 b1bc
000003f0: b4ad 823d 95a4 ad3b 2791 113d 3d05 3b3d

bias f4 [192]
0.041287564 0.029077927 0.013201261 -0.006920092 -0.0029898176 -0.031238968 0.017639562 0.07030011
0.030110912 0.016381443 -0.0032364689 0.04971369 -0.008306569 0.074442804 0.06945381 0.020299995
0.029501682 -0.045022745 0.06780083 0.0028082167 0.0019691468 0.02612757 0.06713272 0.07939322
0.034691166 -0.016912855 0.04046354 0.04015236 -0.014941584 -0.009672757 0.024662355 0.023388619
0.0065086917 0.004278681 0.032361448 -0.020515945 -0.023506897 -0.05296521 -0.0064017717 0.012388953
-0.014940914 0.062137328 -0.017550472 0.017877989 0.030690895 0.0064736223 0.010952607 -0.007292594
-0.0039314455 0.023839118 0.06844452 0.0347852 0.03207545 -0.01956531 0.016474225 -0.021108167
-0.029521765 0.05621874 0.016901752 -0.05650263 0.037974164 0.060616728 0.0051273922 -0.044438977
0.017611222 0.027404541 -0.00397734 0.01620682 -0.010579049 0.0040903077 0.034811467 0.019637546
0.026733782 0.020415416 0.028715974 -0.022608332 0.019739578 0.03269855 -0.022833144 -0.047344968
0.07010068 -0.016743975 0.07270347 -0.002104226 0.027360627 0.0691401 0.029672056 -0.03767167
0.018706203 0.07525951 0.04761084 -0.0028365604 0.010304612 -0.02312987 -0.014490781 0.041925613
0.042748526 0.014317771 0.073739745 0.0035706956 -0.0009767575 -0.007721952 -0.013339514 -0.018820263
0.033711404 -0.027936565 0.011713819 -0.04072094 0.011867919 0.017330749 -0.06434964 0.064872436
0.0018113033 0.055530068 0.037147544 -0.021051016 0.057642445 -0.012549211 0.04316298 -0.026949584
0.034575153 0.07893097 -0.017096955 0.05281886 -0.007918892 -0.009375768 0.006808257 0.029237265
-0.019303346 -0.01870631 0.030495847 -0.016679473 0.033595327 0.026839845 0.04894785 -0.04930697
-0.017066022 -0.007091923 0.037109006 -0.00979259 -0.021924641 0.019184753 -0.00217231 0.027243283
-0.04276205 0.02402851 -0.013615686 -0.014670658 0.040655952 0.02077518 -0.0029929224 -0.009405442
-0.015716484 -0.02653098 -0.013767736 -0.03056888 0.075196624 0.041600067 0.064825326 -0.023555998
0.010820213 0.031744342 0.039984345 -0.03680064 -0.0041185734 0.0067771603 -0.040275667 0.02962181
0.0122043 0.04454723 0.04321375 0.036236122 0.027014358 0.02451986 0.0033793615 -0.023817683
0.03264896 -0.01155488 0.06657516 0.0574089 -0.012406915 -0.0002474398 0.014289125 0.071147725
0.0763055 -0.03406875 0.06152008 0.0156915 0.041171152 0.06477806 0.059934717 0.028128115
00000000: 261d 293d d534 ee3c 1a4a 583c f0c1 e2bb
00000010: d1f0 43bb dde8 ffbc d880 903c 81f9 8f3d
00000020: 29ab f63c 6032 863c f01a 54bb 95a0 4b3d
00000030: 4718 08bc 7875 983d cd3d 8e3d 2d4c a63c
00000040: 83ad f13c c569 38bd 29db 8a3d 0f0a 383b
00000050: cd0c 013b 7c09 d63c e17c 893d ea98 a23d
00000060: 5318 0e3d d48c 8abc 19bd 253d cd76 243d
00000070: 8ccd 74bc 7c7a 1ebc b508 ca3c 7d99 bf3c
00000080: dd46 d53b 2d34 8c3b 708d 043d 0e11 a8bc
00000090: 8991 c0bc 0cf2 58bd f4c5 d1bb 09fb 4a3c
000000a0: bcca 74bc b683 7e3d 02c6 8fbc dc74 923c
000000b0: 796b fb3c ae20 d43b 9072 333c b6f6 eebb
000000c0: 5bd3 80bb 414a c33c a42c 8c3d ed7a 0e3d
000000d0: 8c61 033d 6e47 a0bc f4f4 863c 09eb acbc
000000e0: a1d7 f1bc 9f45 663d 8b75 8a3c 4d6f 67bd
000000f0: cc8a 1b3d 3f49 783d af03 a83b a505 36bd
00000100: 6945 903c 7d7f e03c 5954 82bb 2ac4 843c
00000110: bf53 2dbc fd07 863b 7896 0e3d ebde a03c
00000120: ce00 db3c 3b3e a73c c33d eb3c 1c35 b9bc
00000130: e5b4 a13c eaee 053d 930c bbbc ccec 41bd
00000140: f290 8f3d a92a 89bc 8fe5 943d 0ee7 09bb
00000150: 6523 e03c 5399 8d3d d012 f33c 9c4d 1abd
00000160: c03d 993c a821 9a3d 9603 433d 96e5 39bb
00000170: add4 283c da7a bdbc be6a 6dbc 31ba 2b3d
00000180: 1419 2f3d 1695 6a3c dd04 973d 5502 6a3b
00000190: 8b06 80ba 6e08 fdbb fa8d 5abc f42c 9abc
000001a0: f814 0a3d 39db e4bc 51eb 3f3c 00cb 26bd
000001b0: a971 423c 37f9 8d3c bec9 83bd d7db 843d
000001c0: 4169 ed3a 7f73 633d 0628 183d 2e73 acbc
000001d0: 7c1a 6c3d 359b 4dbc aacb 303d 60c5 dcbc
000001e0: ad9e 0d3d 8fa6 a13d ea0e 8cbc 9758 583d
000001f0: 3ebe 01bc d29c 19bc cd17 df3b fd82 ef3c
00000200: 0d22 9ebc fa3d 99bc 6dd2 f93c 64a3 88bc
00000210: 419b 093d 3cdf db3c 8a7d 483d 1bf6 49bd
00000220: 0bce 8bbc 5d63 e8bb 9dff 173d 1971 20bc
00000230: 4e9b b3bc 5829 9d3c 505d 0ebb 4e2d df3c
00000240: 4227 2fbd 70d7 c43c 5414 5fbc 335d 70bc
00000250: db86 263d b630 aa3c e824 44bb 4819 1abc
00000260: dbbf 80bc 7f57 d9bc 1292 61bc 966b fabc
00000270: b000 9a3d d564 2a3d 24c3 843d 82f8 c0bc
00000280: 4347 313c 5b06 023d a0c6 233d 45bc 16bd
00000290: 19f5 86bb f112 de3b 19f8 24bd 70a9 f23c
000002a0: 8bf4 473c 2877 363d e700 313d 546c 143d
000002b0: 374d dd3c e0dd c83c 4778 5d3b 4d1d c3bc
000002c0: eaba 053d ae50 3dbc 8f58 883d 9825 6b3d
000002d0: 6046 4bbc cfba 81b9 ef1c 6a3c e6b5 913d
000002e0: 0f46 9c3d ac8b 0bbd 7bfc 7b3d 768b 803c
000002f0: 15a3 283d 5caa 843d 1b7e 753d ef6c e63c

weight f4 [48, 192]
-0.07514483 -0.07286521 -0.050599515 0.06914396 -0.045341775 0.014232134 0.038841743 0.00032478812
0.028670177 0.018983673 0.0028587112 -0.068123735 -0.038083624 0.046234984 -0.0613185 -0.05658416
0.06320614 0.004436529 0.009876062 0.066580325 -0.03853953 0.028224116 -0.06726484 -0.0651407
0.022453371 0.038425036 0.044938408 -0.04009306 -0.06894021 0.0503333 -0.07571535 0.024670132
0.061824184 -0.08235184 -0.036972474 0.038363937 -0.07160335 -0.01585595 -0.086174965 -0.01756461
-0.08810053 0.04356887 0.03457184 0.050988473 -0.07892624 0.068260156 -0.08861227 0.05228904
-0.04178052 -0.047468193 -0.03092507 0.05606793 -0.065396115 0.012058277 -0.088115074 0.03414808
-0.049663227 0.0077829193 0.019810187 -0.01364033 0.063822515 0.048735615 0.018885294 0.050964788
-0.041689374 -0.0883618 0.0029115158 -0.07717553 0.05014918 0.03767905 0.031145707 -0.058109846
0.0013409061 -0.039711054 -0.05291243 -0.06554731 -0.06571774 -0.07751318 -0.0044944435 -0.019538945
-0.102639906 -0.006640063 -0.108554006 -0.0493739 0.033258695 -0.04084901 -0.0929705 -0.03156339
-0.082331575 -0.09809322 -0.07205743 -0.07515876 -0.10814202 0.015123284 0.0040603545 0.03226897
0.009415449 0.010871773 -0.09072508 -0.12490794 -0.07694033 0.039058067 0.07246466 -0.004207418
-0.057183757 -0.013609266 -0.081530675 -0.056460515 -0.04723138 0.003284987 0.065270856 -0.024205204
0.036407713 -0.041333273 0.052195936 -0.10191899 -0.018022193 0.016830333 0.031454004 0.038800474
-0.010252865 0.01672431 0.007887681 -0.037384704 -0.0514654 -0.016278666 -0.08549394 0.027746769
-0.037572447 0.031619057 -0.013497546 -0.00059938856 -0.043410882 -0.025614189 -0.06259485 -0.03188482
-0.10530803 -0.012240207 -0.091098756 -0.017575463 -0.016069943 0.00011053465 0.060700327 0.008498402
0.03161359 -0.06376084 -0.040689558 0.052255157 -0.076910265 0.035528783 -0.08457726 0.048778854
-0.055489108 -0.04774217 -0.0329025 -0.0041990755 -0.07591852 -0.009979768 0.027876884 0.0646784
-0.05250207 -0.0038009072 0.029846007 -0.07126644 -0.03406125 0.01700462 0.020355884 -0.07711913
-0.0652541 -0.03131221 0.023472367 -0.100965396 -0.05830559 -0.033226274 -0.009015024 0.00411754
0.011217604 0.053942278 -0.037025925 0.025497291 -0.06851815 0.03972335 0.055648595 0.033002898
-0.04087054 0.02995345 0.024690941 -0.056248177 -0.001030024 -0.08353516 -0.018782698 -0.06433574
-0.027319659 -0.06684036 -0.060606934 0.018849136 -0.031965494 -0.03366327 -0.0048274556 -0.039631926
-0.07054953 -0.06407854 -0.043600593 -0.015679352 -0.025250016 -0.038671337 -0.06340876 -0.0041455356
0.04903783 -0.07262641 -0.07327336 -0.07174542 -0.045047004 0.05096341 0.031952213 0.018804973
0.062551916 -0.0016498993 -0.0441878 0.041443072 -0.052704293 0.034623697 0.024243226 -0.036007088
0.010952642 -0.012655008 0.056575812 0.02145861 -0.039661847 0.064376585 0.05189905 -0.029500632
-0.07127754 -0.03595935 -0.00840263 0.047056187 -0.06644472 0.0259085 -0.01107982 -0.018779412
-0.015266847 -0.047198027 0.053553104 0.01887388 -0.0027847223 0.06376143 -0.018557282 -0.022350013
-0.018795054 0.019966984 -0.051688123 -0.030191218 0.037229046 -0.04613335 0.064071074 -0.07064341
00000000: 88e5 99bd 5b3a 95bd 7041 4fbd 599b 8d3d
00000010: 4cb8 39bd e62d 693c 8518 1f3d 5348 aa39
00000020: b8dd ea3c a683 9b3c 3759 3b3b 7584 8bbd
00000030: 93fd 1bbd e560 3d3d 1c29 7bbd cbc4 67bd
00000040: 3972 813d 4d60 913b 35cf 213c 445b 883d
00000050: a0db 1dbd 4336 e73c 26c2 89bd 7d68 85bd
00000060: 22f0 b73c 9263 1d3d 5611 383d 9f38 24bd
00000070: 8630 8dbd 4a2a 4e3d a610 9bbd 0419 ca3c
00000080: 5b3b 7d3d 15a8 a8bd 7370 17bd 8123 1d3d
00000090: c7a4 92bd 56e4 81bc 807c b0bd a8e3 8fbc
000000a0: 0d6e b4bd 4575 323d 349b 0d3d 4ad9 503d
000000b0: 15a4 a1bd fbcb 8b3d 5a7a b5bd 082d 563d
000000c0: 0d22 2bbd 026e 42bd 9356 fdbc 7ca7 653d
000000d0: 66ee 85bd 1490 453c ad75 b4bd dbde 0b3d
000000e0: ab6b 4bbd dc07 ff3b f948 a23c b17b 5fbc
000000f0: 61b5 823d ff9e 473d 55b5 9a3c 74c0 503d
00000100: 7ac2 2abd 08f7 b4bd 21cf 3e3b 340e 9ebd
00000110: 3a69 4d3d 5955 1a3d 4825 ff3c 9704 6ebd
00000120: 58c1 af3a 0fa8 22bd b4ba 58bd ab3d 86bd
00000130: 0697 86bd 3bbf 9ebd 2046 93bb 2310 a0bc
00000140: df34 d2bd e394 d9bb 9051 debd 493c 4abd
00000150: 453a 083d 4b51 27bd 5167 bebd 9d48 01bd
00000160: 759d a8bd 19e5 c8bd d992 93bd d6ec 99bd
00000170: 9079 ddbd a7c7 773c b90c 853b 782c 043d
00000180: 4143 1a3c 851f 323c 12ce b9bd bccf ffbd
00000190: e492 9dbd 5afb 1f3d 5a68 943d 61de 89bb
000001a0: 8439 6abd 66f9 5ebc 8ef9 a6bd 2443 67bd
000001b0: b175 41bd f048 573b baac 853d fe49 c6bc
000001c0: 4120 153d 144d 29bd 68cb 553d e7ba d0bd
000001d0: 47a3 93bc c4df 893c ead5 003d 3fed 1e3d
000001e0: a2fb 27bc 6c01 893c 553b 013c b420 19bd
000001f0: 62cd 52bd d65a 85bc 7217 afbd 314d e33c
00000200: 91e5 19bd fc82 013d d024 5dbc 4920 1dba
00000210: 9ccf 31bd d9d4 d1bc bb31 80bd a899 02bd
00000220: bdab d7bd 268b 48bc fc91 babd 6bfa 8fbc
00000230: 1da5 83bc d7ce e738 e8a0 783d e23c 0b3c
00000240: 407d 013d 0b95 82bd 18aa 26bd 8109 563d
00000250: 2183 9dbd a186 113d d836 adbd 56cc 473d
00000260: 8c48 63bd 4b8d 43bd c6c4 06bd 6698 89bb
00000270: 2b7b 9bbd 2e82 23bc 105e e43c 1c76 843d
00000280: 690c 57bd a418 79bb 9d7f f43c 24f4 91bd
00000290: cf83 0bbd 464d 8b3c 62c1 a63c a2f0 9dbd
000002a0: f1a3 85bd 3b41 00bd 1f49 c03c f2c6 cebd
000002b0: d8d1 6ebd 4618 08bd c0b3 13bc 6eec 863b
000002c0: 0bca 373c 94f2 5c3d 7fa8 17bd b2df d03c
000002d0: 3e53 8cbd f4b4 223d c8ef 633d 0c2e 073d
000002e0: de67 27bd f060 f53c a844 ca3c 7d64 66bd
000002f0: df01 87ba 7b14 abbd 2cde 99bc 75c2 83bd
00000300: 7acd dfbc 99e3 88bd fa3e 78bd 8169 9a3c
00000310: 40ee 02bd 7fe2 09bd a22f 9ebb 1655 22bd
00000320: 467c 90bd 9c3b 83bd 8996 32bd fc71 80bc
00000330: 1fd9 cebc d665 1ebd 74dc 81bd 46d7 87bb
00000340: e4db 483d 28bd 94bd 5810 96bd 43ef 92bd
00000350: 3583 38bd 02bf 503d 53e0 023d e30c 9a3c
00000360: 381b 803d 6f41 d8ba 44fe 34bd 36c0 293d
00000370: 75e0 57bd 94d1 0d3d bb99 c63c 2b7c 13bd
00000380: b672 333c f356 4fbc 0abc 673d f8c9 af3c
00000390: 7674 22bd dfd7 833d 1994 543d 4fab f1bc
000003a0: f5f9 91bd 1d4a 13bd 2fab 09bc fdbd 403d
000003b0: 2b14 88bd 103e d43c 2288 35bc 48d7 99bc
000003c0: cc21 7abc b852 41bd 805a 5b3d 659d 9a3c
000003d0: e37f 36bb 5a95 823d 7105 98bc 6017 b7bc
000003e0: 16f8 99bc cd91 a33c edb6 53bd 9353 f7bc
000003f0: 7c7d 183d 53f6 3cbd b237 833d 7ead 90bd

bias f4 [48]
-0.052241158 -0.06204054 0.06505283 -0.034747325 -0.021667168 0.004457173 -0.071591824 0.09086569
0.06330873 0.06456312 -0.036684502 0.026191484 0.051742803 -0.053721942 0.0036253184 0.018175669
0.06879991 0.054358203 0.020872837 0.015722863 -0.013714336 -0.075106315 -0.021272186 -0.05433574
0.12457899 0.041503236 0.023506602 0.04624883 0.06719339 -0.06942254 -0.018960278 -0.00075204007
-0.050549604 0.054854754 0.027844008 -0.01046288 0.03283559 0.03053822 -0.03916249 0.059898794
0.0025171775 -0.062231265 -0.0058131055 -0.06457544 0.07575258 -0.07744116 -0.0027313281 0.0300628
00000000: d3fa 55bd 391e 7ebd 6b3a 853d 3653 0ebd
00000010: 587f b1bc 7a0d 923b bc9e 92bd ca17 ba3d
00000020: 02a8 813d ab39 843d 7d42 16bd 868f d63c
00000030: 43f0 533d 8a0b 5cbd c096 6d3b 24e5 943c
00000040: f8e6 8c3d b5a6 5e3d 83fd aa3c 3ccd 803c
00000050: 18b2 60bc 57d1 99bd 0243 aebc 278f 5ebd
00000060: 4523 ff3d 4cff 293d eb90 c03c 6a6f 3d3d
00000070: b09c 893d 682d 8ebd 9652 9bbc 8e24 45ba
00000080: 1a0d 4fbd 61af 603d 1e19 e43c 806c 2bbc
00000090: 9d7e 063d 4a2b fa3c d968 20bd 7058 753d
000000a0: 3bf7 243b 36e6 7ebd dd7b bebb 2140 84bd
000000b0: 2b24 9b3d 7999 9ebd 1500 33bb 4346 f63c
