Network2/params/cnn_nnnParams0825202851.pth (torch_old, 79003 bytes, 22 tensors)

weight f4 [16, 1, 1]
000000 d7 31 41 be 55 77 50 bf 70 ac 14 3f c8 b6 06 3f
       -0.18866669 -0.81432086 0.5807562 0.5262265
000010 9b ab e0 3e 7a c0 15 3e 32 03 af 3e 33 cd 22 3f
       0.43880925 0.14624205 0.34182125 0.6359436
000020 18 7c 05 3e c8 3d c8 be 9e e0 5a 3f 05 d2 f5 3e
       0.1303562 -0.39109635 0.8549899 0.48011795
000030 28 79 de 3e bb 03 c9 3e 48 1f 74 be 78 18 86 3e
       0.4345181 0.3926066 -0.23840058 0.26190543

bias f4 [16]
000000 55 f2 49 3f ce 55 9e 3d 00 62 d0 3e 63 62 a9 3d
       0.78885394 0.0773121 0.40699768 0.08270719
000010 77 00 0b 3f 61 15 2a 3f c8 ed 8f bd 2e 4b 16 3d
       0.54297584 0.6643887 -0.07027775 0.03669279
000020 b0 5d 28 be 3e 2d 43 bf cb 8c 92 be 7b 06 9e bd
       -0.16441989 -0.7624091 -0.28623042 -0.0771608
000030 f2 0c 60 bf 33 5c 48 3f b6 2f 02 bf d8 de 39 bf
       -0.8751975 0.78265685 -0.5085405 -0.7260566

weight f4 [32, 16, 1]
000000 c3 8d 07 3e ba b2 26 bd 93 c3 e8 bc 2e d3 7e be
       0.13237672 -0.04069779 -0.02841357 -0.24885246
000010 b8 f0 f6 bc 22 93 c8 bd be 35 53 bd 0b db 02 3c
       -0.03014408 -0.09793688 -0.051564924 0.007986794
000020 28 cd ee bd 74 45 38 be 21 d4 a2 bd 24 fb 96 3d
       -0.11660224 -0.17995244 -0.07950617 0.0737212
000030 3a 65 48 be 8d 65 06 be 88 d1 b5 bd 68 58 23 bd
       -0.19569865 -0.13124676 -0.088778555 -0.039879233
000040 54 71 5a 3e 50 ae a1 3d 26 b6 aa 3c cb 20 bb 39
       0.21332294 0.078945756 0.020838808 0.00035691852
000050 86 e9 d8 3d 90 64 0e 3e 1f 5e 8a 3d 9e 24 76 3d
       0.10591416 0.13905549 0.067562334 0.060093515
000060 de 8e 46 be 68 83 89 3d 90 80 4d be f7 26 db bd
       -0.19390437 0.06714517 -0.20068574 -0.10700791
000070 44 bb c0 3d 59 12 77 3e e4 95 f3 3d 48 a5 d3 bd
       0.09410718 0.24128093 0.11893824 -0.10334259
000080 26 a6 a7 bd ac 82 27 3b d0 c8 a6 bc e0 75 80 3e
       -0.08185987 0.0025560064 -0.020359427 0.2508993
000090 ab 67 6b 3e 60 4f eb 3d c0 fc 29 3e d8 6b 74 3e
       0.22988765 0.11489749 0.16600323 0.23869264
0000a0 78 15 d6 bd 64 9b b2 3d a7 7d 78 3e 1a 0f 17 bd
       -0.104533136 0.08721045 0.24266683 -0.036879636
0000b0 b0 96 9a bc 4e c2 42 3e 70 58 15 be a8 68 0a bd
       -0.018870682 0.19019434 -0.14584517 -0.033791214
0000c0 5e ae 16 3e 89 e8 7a 3d 5e 2d fd 3d 1f e6 34 bd
       0.14714953 0.06125692 0.12362169 -0.044164773
0000d0 ac 3a 22 3e a1 48 38 be 34 40 f5 3d 33 3c 34 be
       0.15842694 -0.17996456 0.119751364 -0.17601089
0000e0 b8 be 86 3d 80 9d bb 3b 4b 2a 3d 3e 36 e7 d6 3c
       0.065793455 0.0057255626 0.18473165 0.026233297
0000f0 90 fd 21 3d 2e 26 f3 3b c0 f0 e0 3c a0 4d 12 bd
       0.039548457 0.007420323 0.027458549 -0.03571856
000100 cf 6a 40 be 8a 0a a6 bd b2 4b 48 3e 12 e4 9a 3d
       -0.18790744 -0.08107479 0.19560125 0.07563032
000110 b2 ff df bd 3e b6 11 bd b4 93 80 3e 25 c6 18 3e
       -0.10937442 -0.03557419 0.2511269 0.14919336
000120 f0 70 31 bd 40 9b af 3c 28 e2 5d be 52 fd 34 be
       -0.043320596 0.021436334 -0.21668303 -0.17674759
000130 98 9e f9 3d 77 f2 13 3e 58 32 74 bd d0 f2 31 bd
       0.121884525 0.14447962 -0.059618324 -0.043444455
000140 5d 8a e8 3d ca b7 16 3e 10 95 f8 bd 80 0d 06 3e
       0.11354516 0.14718547 -0.121378064 0.13091087
000150 30 d9 6d 3d 60 3d b5 bd 62 2b e3 bd 23 de 7a 3e
       0.058068454 -0.08849597 -0.11092259 0.24498801
000160 4c 47 ef bd 08 af 40 3e ff 46 ce 3d 79 e8 6f be
       -0.11683521 0.18816769 0.10072135 -0.23428525
000170 f8 48 33 3e e5 79 49 3e e0 f2 64 bc a2 c8 4c be
       0.17508304 0.19675405 -0.013973922 -0.1999841
000180 19 27 26 3e 29 01 80 bc 1a 7b 9a 3d 9c 02 5c bd
       0.16225852 -0.015625553 0.07543011 -0.053713426
000190 89 f6 80 be 87 d5 9c 3d 64 2e 7e 3e ff fb 08 be
       -0.2518809 0.076579146 0.24822384 -0.13377379
0001a0 a4 58 40 be 9c 9f c9 bd b7 5d d7 bc 24 9c 46 be
       -0.18783814 -0.09844896 -0.026289804 -0.193955
0001b0 a8 00 d3 bd c4 15 4d bd 28 20 fb 3d c0 7e 88 bc
       -0.103028595 -0.050069585 0.12261993 -0.016662002
0001c0 e6 2f 40 3e 4c 06 85 bd e1 a8 a2 bd b7 5f f2 3c
       0.18768272 -0.06495342 -0.07942367 0.029586656
0001d0 1f 23 83 3d e2 87 ef 3d 16 07 08 3d 6b fc c7 bd
       0.06403183 0.116958395 0.033209883 -0.09764942
0001e0 5a a5 5c be 24 24 37 be c1 46 21 3e 81 df d0 bd
       -0.21547452 -0.1788488 0.15749647 -0.1019888
0001f0 70 13 d2 3c c6 7e 39 be 6e 22 14 be 30 a4 e2 bd
       0.025644034 -0.18114766 -0.14466259 -0.110664725
000200 0e 0b e0 3a 98 a1 53 be 9c 07 78 be 9d d1 20 3e
       0.0017093138 -0.20667112 -0.24221653 0.15704961
000210 7d ed 89 3d 55 ee 70 be 75 3e 98 bd 41 b2 18 3e
       0.067347504 -0.23528416 -0.07433788 0.14911748
000220 d6 08 58 3e b8 e0 d8 3d 5e ee 42 3d ff 34 2a 3e
       0.2109712 0.10589737 0.047590606 0.16621779
000230 50 b3 f2 bd e6 24 07 3e a6 fd 2f 3e 3c c8 d9 3d
       -0.118506074 0.1319767 0.17186603 0.10633895
000240 fd 97 6a be f5 00 93 3a 03 ee f5 bd 85 57 34 3e
       -0.22909541 0.0011215495 -0.12008288 0.17611511
000250 7d ae a2 bb fe 82 2d 3e b1 d7 64 be 06 de f1 bc
       -0.0049646483 0.16944501 -0.22347905 -0.029524814
000260 8e 9f 62 3e 38 70 0f 3d 0b b0 93 bd 9d 21 63 be
       0.22131178 0.03501913 -0.07211312 -0.22180791
000270 ea c1 3f be e7 23 fe 3d 58 83 0d be 50 52 3e be
       -0.18726316 0.124091916 -0.13819635 -0.18586087
000280 f1 ff a3 bd 33 cc 4a 3e f9 df ef bd f6 36 c9 bd
       -0.08007801 0.19804458 -0.11712641 -0.09824936
000290 64 08 f1 3b 8b 50 56 be f1 43 d8 3d 98 35 e0 3c
       0.0073557366 -0.20929162 0.10559834 0.027369305
0002a0 c0 9a 48 be 20 23 a8 bc af bb 68 3e c7 eb 16 be
       -0.19590282 -0.020524561 0.22727846 -0.1473838
0002b0 80 2e 99 3c 57 72 48 3e c0 87 5a bc 66 4a 7b be
       0.01869893 0.19574867 -0.013338029 -0.245401
0002c0 6e 4a 94 3d 5f a8 fb bd 10 a6 6b be c1 49 4e 3d
       0.07240759 -0.122879736 -0.23012567 0.050363306
0002d0 4e d4 51 3d a2 84 93 3d b9 7b 95 3c 02 ad 6b 3e
       0.05122786 0.07203032 0.018247472 0.23015216
0002e0 74 9d 28 be d0 0f 51 3e 72 34 6a 3c 47 2b 13 be
       -0.16466314 0.20416188 0.0142947305 -0.14371978
0002f0 60 b5 43 be bf 44 b7 bc be 94 72 3e 14 98 26 be
       -0.19112158 -0.022371648 0.23689553 -0.1626895
000300 0f 87 14 3d 8f 8e 57 3e ad 0f 50 be 91 4f 5a 3e
       0.036261614 0.21050476 -0.2031848 0.21319415
000310 a6 f5 5f be 07 ce 26 3e 36 ef 90 bd c1 8d c1 bc
       -0.21871051 0.1628953 -0.07076876 -0.023627164
000320 2c cd 43 3e 80 37 62 bc 46 f1 24 3c ad 10 bc bd
       0.19121236 -0.013807178 0.01006729 -0.09182868
000330 9a fa 18 be 35 46 07 be 88 45 f8 bd 28 28 67 bd
       -0.14939347 -0.13210376 -0.12122637 -0.05643478
000340 45 64 68 be 63 aa 6a 3e 56 34 12 3e a3 df 88 bd
       -0.226945 0.2291656 0.14277777 -0.0668328
000350 e2 b6 17 3d af 23 da bd cd 53 18 3e 97 d7 63 3e
       0.037039645 -0.10651337 0.14875717 0.2225021
000360 48 94 a7 bd 90 90 53 bd c4 7b 14 3e da 7b 54 be
       -0.08182579 -0.051651537 0.14500338 -0.2075037
000370 fe c0 68 3e 23 2b 2d 3d 00 15 e8 ba b0 6a b1 bd
       0.2272987 0.042277467 -0.0017706454 -0.08662927
000380 f3 68 2f be 49 21 b3 3d 08 47 cf bd 70 4a 96 bc
       -0.17129879 0.08746583 -0.1012097 -0.018346041
000390 69 4f de bc a5 cc f5 bd 3a 74 db 3c 36 15 b5 bd
       -0.027137475 -0.120019235 0.02678882 -0.08841936
0003a0 d8 3c 01 3d 18 26 20 be 88 68 5d be 97 8f 67 3e
       0.031552166 -0.15639532 -0.21621907 0.22613369
0003b0 84 a0 0e 3e c2 fa f3 3c dc e4 64 3e e0 55 4f bc
       0.1392842 0.029782657 0.22352928 -0.012654752
0003c0 17 d8 4a 3d 85 31 c4 bd d9 5a 06 3c 5d 77 1c be
       0.049522486 -0.095797576 0.008200371 -0.15279908
0003d0 90 85 42 bc bd bd 7e 3e eb b2 53 3e 12 62 c8 3d
       -0.011872664 0.24877067 0.2067372 0.097843304
0003e0 54 d2 3a be a6 cd 51 3e 6d 62 8e 3d 0b 76 13 3e
       -0.18244296 0.20488605 0.06952367 0.14400499
0003f0 08 c9 bf 3d 2c 8a 12 be f2 d1 20 be 9e 15 2b 3e
       0.093645155 -0.14310521 -0.15705088 0.16707465

bias f4 [32]
000000 eb 43 d7 bc c5 69 6e bd 61 c8 99 bc f4 95 53 3e
       -0.026277503 -0.05820634 -0.018772306 0.20662671
000010 55 6b c9 bd d5 bd 4f be a3 ab 73 bd d1 c8 40 3d
       -0.09834925 -0.20287259 -0.059489857 0.047066513
000020 77 68 87 3d 97 16 33 be 62 2e 67 3e 79 bd 45 bc
       0.06611722 -0.17489086 0.22576287 -0.0120691
000030 83 ae 77 be 3d 80 05 3e 98 80 10 3b 42 3a 18 3e
       -0.24187665 0.130372 0.0022049304 0.14865974
000040 70 58 07 bd f9 4d 7b be da fa b1 bd d9 d2 0b be
       -0.033043325 -0.24541463 -0.08690424 -0.13654651
000050 70 10 22 3e f6 fe 1d 3e 22 9f 7e 3e 1d cb 12 3e
       0.15826583 0.15429291 0.24865392 0.14335294
000060 4a 4a a6 bd 20 e5 3e be 85 0e 88 3d 7e 94 da 3d
       -0.08119638 -0.18642092 0.066433944 0.10672854
000070 11 09 a7 bd 50 c6 73 bc 36 04 21 3e cf 60 12 bc
       -0.08156026 -0.014878824 0.15724263 -0.008934214

weight f4 [32]
000000 bf e3 76 3f dc 9b 04 3f a3 96 c7 3e 13 03 40 3f
       0.9644126 0.5180032 0.38982114 0.7500469
000010 2c 17 94 3e 1a 5b 2d 3f 59 7d 50 3f 52 fc bb 3e
       0.2892393 0.67717135 0.81441265 0.36715943
000020 69 62 61 3f 27 a8 4a 3f 39 2f 7b 3e ef 30 c1 3e
       0.88040787 0.7916283 0.24529733 0.37732646
000030 b8 a4 63 3f 7c db 8f 3e 73 10 13 3f 7b 2a 7e 3f
       0.88923216 0.2809714 0.57446975 0.9928357
000040 2e fe 51 3f 5f d7 ce 3b 76 e8 77 3f 46 94 71 3f
       0.8202847 0.0063122953 0.9683908 0.9436687
000050 2e e6 f6 3e 9b 3d 6f 3f 4e 8a 45 3f e3 84 65 3f
       0.48222488 0.9345338 0.7716416 0.89655894
000060 59 9d a4 3e 43 fd 7b 3e e2 91 7b 3f 17 8d a7 3e
       0.32151297 0.2460833 0.98269475 0.3272483
000070 59 f8 48 3f 3a 41 0e 3f 40 1f 3c 3f b5 0f 0b 3f
       0.7850395 0.5556828 0.73485184 0.5432084

bias f4 [32]
000000 22 91 e3 39 df 17 eb 39 80 4c 9f ba 15 f7 ef b9
       0.00043404946 0.00044840478 -0.0012153536 -0.00045769723
000010 36 81 00 bb a7 fa b5 3a 4a d7 a0 ba 7e 92 10 3b
       -0.0019608266 0.0013883904 -0.0012271192 0.0022059972
000020 e4 33 29 3b 0a 89 4e 3b 65 44 28 ba ff b9 04 bb
       0.0025818283 0.0031514787 -0.0006418883 -0.0020252464
000030 5b 53 16 3b 96 b3 25 3b 66 32 47 ba 8d d5 c4 3a
       0.0022937867 0.0025284044 -0.00075987575 0.0015017256
000040 d3 07 01 bb d2 05 56 ba 00 fa 1f bb c7 2a 9a ba
       -0.0019688501 -0.00081643194 -0.0024410486 -0.0011762016
000050 6d 2f 87 bb 60 05 61 3a 3b 2d 5a 3b 0e 55 53 bb
       -0.0041255266 0.000858387 0.003329112 -0.0032246741
000060 90 fc e5 b9 5f e2 31 bb 1f 51 ba 39 d0 ac 04 bb
       -0.00043866457 -0.0027142984 0.00035537124 -0.0020244606
000070 bf c7 52 3b 22 83 3b ba 75 c2 8b 3a 8c 2f d0 ba
       0.0032162515 -0.0007153024 0.0010662811 -0.0015883311

running_mean f4 [32]
000000 1b a9 17 be bb 39 f1 3e 5a 5e 9d 3e 61 4e aa 3e
       -0.14810602 0.47114357 0.30736047 0.33262923
000010 37 31 01 be 3f 98 7a 3c 39 d2 3d bd e2 c0 f4 3d
       -0.1261643 0.015295087 -0.046343062 0.11950852
000020 b3 b5 25 bd ad 54 3c be 56 3a 17 3e e2 33 a2 3c
       -0.040456485 -0.18391676 0.14768347 0.01980013
000030 d3 73 ba be dc 7b f9 3c 77 2b 78 be 58 0d 62 3e
       -0.36416492 0.030454569 -0.2423533 0.22075403
000040 01 aa 59 bd 54 65 34 be ae 70 50 be cc 7c 85 3e
       -0.053140644 -0.17616779 -0.20355484 0.26071775
000050 9f e4 68 3e 43 c6 a0 3e aa 83 1f 3e 73 92 81 3e
       0.22743462 0.31401262 0.1557757 0.25307044
000060 b8 9e 04 be 1a c0 c5 be 1c 34 05 3f 3c c1 11 3e
       -0.12951171 -0.38623124 0.5203264 0.1423387
000070 69 bf e8 bb c4 25 a7 3d 3a f2 48 3f c4 22 41 be
       -0.007102896 0.081615 0.7849461 -0.18860918

running_var f4 [32]
000000 73 7d 01 3b e0 4f 1a 3a 0b 0e 05 3c fa 96 f1 37
       0.0019758611 0.0005886536 0.008121024 2.8799743e-05
000010 26 c6 95 3b 1e d6 e3 38 4b 57 d6 3a a0 80 0a 3a
       0.0045707403 0.00010864086 0.001635292 0.0005283449
000020 05 7d b2 3a fc d0 e7 39 b9 b2 cf 3a 0c 32 f5 38
       0.0013617581 0.0004421546 0.001584611 0.00011691832
000030 e1 d8 c7 3b 1d 40 51 39 6a 40 77 3a 45 9f d7 37
       0.006098852 0.00019955677 0.00094319007 2.5704163e-05
000040 53 4a 27 3b 74 eb 32 3b 8a 99 e6 3b 74 a0 9a 3b
       0.0025526478 0.0027300986 0.0070373463 0.0047188345
000050 dd 32 e7 3a fc c8 1b 3b 46 ba 0c 3b 07 0c b0 3b
       0.001763906 0.002377092 0.0021473332 0.0053725275
000060 78 70 d4 3a 6a 70 9a 3b 61 0b 4e 39 92 d1 16 38
       0.0016207835 0.004713108 0.0001964993 3.5957964e-05
000070 b9 f1 85 3a 01 b0 a1 3b 63 88 b5 36 1d 00 11 37
       0.0010219134 0.0049343114 5.410098e-06 8.6427e-06

weight f4 [64, 32, 1]
000000 db 16 22 bd d5 5f 2e bd 35 da 31 be b5 db d4 bb
       -0.039572578 -0.04257186 -0.17368396 -0.0064959177
000010 ef 72 1f 3e 5d c0 81 3d d4 61 8a bc a5 9c b0 3d
       0.15571187 0.063355185 -0.016892351 0.086236276
000020 ec 3a 1b 3e 5f 59 87 bd 45 0c 3e 3d 1d 1d e2 3d
       0.15159196 -0.06608843 0.04639842 0.11040709
000030 ad d6 21 be f0 c1 17 3e be 3d 9e bd cc 23 08 be
       -0.15804549 0.14820075 -0.0772662 -0.13294905
000040 22 f6 32 3e c3 05 09 3e 4d d1 74 bd 45 4f 43 bd
       0.17476705 0.13381104 -0.059769917 -0.04768302
000050 64 39 dc bd 7c b8 b0 bc 51 33 10 be 3a 38 08 be
       -0.10753134 -0.021572344 -0.14082076 -0.13302699
000060 25 3f 2f 3e 12 f5 11 3d 06 6a 30 3e fa e5 c9 3d
       0.17113931 0.035634108 0.17227945 0.09858318
000070 a9 6b 01 3e b4 63 b4 3d 57 26 66 3d c5 12 1d be
       0.12638725 0.08808079 0.056188907 -0.15339191
000080 5e b7 34 3e 85 59 60 bd 30 20 f3 3d 48 b6 bf 3d
       0.17648074 -0.054772872 0.11871374 0.09360939
000090 03 9f 43 3c 10 f0 0c be bc bd 03 3e a7 9e cb 3c
       0.011939767 -0.13763452 0.12865347 0.024855925
0000a0 a2 c3 ba bd cf ef c2 bc 63 24 41 bc ea 05 fd bd
       -0.09119345 -0.02379599 -0.01178846 -0.12354644
0000b0 82 54 04 be c9 b7 ee 3d 3e 74 c9 3d f4 b0 2e 3e
       -0.12922862 0.11656148 0.098366246 0.1705969
0000c0 56 dc 24 3e 4e d2 f0 3d e0 28 d1 bd 8b 96 3e bd
       0.16099676 0.117588624 -0.102128744 -0.046530288
0000d0 a5 8f 2d 3e 6b a4 33 be 37 98 0d 3e e4 e8 2e 3e
       0.16949327 -0.17543189 0.13827597 0.17081028
0000e0 a1 be ca bc 20 e3 94 bd 23 19 36 3c c1 53 9e bd
       -0.024749102 -0.07269883 0.0111143915 -0.077308185
0000f0 31 a7 86 3d 0e 89 f8 bc 00 98 0c 3e a4 43 63 bd
       0.06574858 -0.03033879 0.13729858 -0.05548443
000100 45 60 0e be e9 e7 1e 3e 0a 4f 31 bd f3 26 13 be
       -0.13903911 0.15518154 -0.04328827 -0.14370327
000110 bc 80 c6 3d 2e 43 84 3d 07 b9 08 3c fb c4 f5 3c
       0.09692523 0.06458126 0.008344895 0.030001154
000120 8e 03 e2 3d bc a7 33 3c eb 4f f1 bd 84 00 c3 3d
       0.11035834 0.010965284 -0.11782821 0.09521583
000130 31 23 52 bd 5c 85 08 be ba 9e 7e bd 2c d2 2b be
       -0.051303092 -0.13332123 -0.062163092 -0.16779393
000140 25 72 e3 bd 9e d6 74 3c 2f 48 5d 3d b8 9d 28 3e
       -0.11105756 0.014943747 0.054023918 0.16466415
000150 1d 84 2b 3e 90 3d af bd c1 56 f4 3d 79 7d 2f 3d
       0.16749616 -0.08556664 0.119306095 0.04284427
000160 9e da b6 bd 38 78 18 3e 27 9e c4 bd 74 64 1b 3c
       -0.08928417 0.1488961 -0.09600478 0.009484399
000170 08 06 24 3e c8 a3 6c 3c e7 9c 69 bd 94 f9 17 3e
       0.16017926 0.014443345 -0.0570344 0.148413
000180 a9 6a 16 3e a9 0a 80 bd 73 40 81 3c ec d9 fc bd
       0.14689125 -0.06252033 0.015777802 -0.12346253
000190 0c 9e ba 3d ec 3c 2b 3c 66 15 8d bd 56 0a 81 bc
       0.09112176 0.010451537 -0.06888847 -0.015751999
0001a0 d7 5a f9 3d 41 6f ec bd ab 78 b8 3d 32 0d a9 bd
       0.121755295 -0.115446575 0.090073906 -0.0825447
0001b0 7d 73 21 3e 8a c3 24 3e a7 3c 4c 3d 6c b5 1f bd
       0.15766712 0.16090217 0.04986253 -0.038991377
0001c0 1d 43 e7 bd 84 72 c7 bd 6d 1b 17 3e 4b f3 1d 3e
       -0.11292098 -0.09738639 0.14756556 0.1542484
0001d0 75 c9 28 3e 73 b0 e2 3d a3 91 7b bc ed 42 12 3e
       0.164831 0.11068811 -0.015354547 0.14283343
0001e0 19 78 33 be 13 24 3e 3d 15 5b f5 bc f6 9a 07 3c
       -0.17526282 0.04642112 -0.029950658 0.008276692
0001f0 e0 00 90 3c b1 e7 b1 bd 33 22 be bd 8c 5f eb bd
       0.017578542 -0.0868677 -0.09283867 -0.114928335
000200 10 ee c4 3d 5e 0b 74 3d 95 56 26 be 4d ab 34 3e
       0.09615719 0.059581153 -0.16243966 0.17643471
000210 81 00 99 3d 7d 8d db ba 83 08 23 be 7f cb 5f bd
       0.07470799 -0.0016750541 -0.15921216 -0.05463743
000220 71 43 dd bd 9f 56 70 bd 9d 24 11 be bd 34 9c bd
       -0.10803879 -0.05867636 -0.14174123 -0.076272465
000230 f1 71 cc bd 1b d5 cf 3d 9e 00 5f 3c 97 89 05 bd
       -0.0998267 0.101480685 0.013610987 -0.03260192
000240 bd e7 f9 bd b7 e9 02 3d 8b f3 89 bd 20 79 0d 3e
       -0.12202404 0.03196117 -0.06735905 0.13815737
000250 94 28 bd 3d 99 77 c4 3c dd 68 26 be f3 34 90 bd
       0.09236255 0.02398281 -0.1625094 -0.07041349
000260 9c 3f 9d 3d f3 4e bf 3d 0b 15 d3 3d c8 0f 03 3e
       0.07678148 0.0934123 0.10306748 0.12798989
000270 47 58 15 be 5d d1 13 3e 60 9b e6 bd 92 3c d7 3d
       -0.14584456 0.14435335 -0.11260104 0.105096
000280 3e c0 f9 3d e5 00 e7 3d 1b d5 87 3d d6 5c 1b bd
       0.121948704 0.112794675 0.066324435 -0.037930332
000290 f7 c2 07 be 3e d2 b4 bd 38 6a db bc 4a cb 22 be
       -0.13257967 -0.08829163 -0.026784047 -0.15897861
0002a0 1c f2 83 3a 0f 82 77 3d d7 f0 2f 3e 03 f7 81 bd
       0.0010066661 0.060426768 0.17181717 -0.06345942
0002b0 71 fb cb bd ef 55 3b 3e d0 3a e5 bb a2 4b 86 bd
       -0.09960068 0.182945 -0.0069955364 -0.065573946
0002c0 a1 18 a2 3c 1e ec f9 bd 1e ae 9d bc 58 37 54 bd
       0.019787135 -0.12203239 -0.019248065 -0.051810592
0002d0 24 85 bc 3d 43 7c dc 3c aa 13 30 3d a2 c8 a6 3d
       0.09205082 0.026914721 0.042987503 0.081437364
0002e0 20 25 91 bd dd 79 e5 3d b0 0c 3f 3c 90 bc 2b 3e
       -0.07087159 0.11204884 0.01166074 0.1677115
0002f0 97 ba 17 ba c2 07 d6 bd 96 61 11 3d 1d 05 ef 3d
       -0.0005787997 -0.104506984 0.035493456 0.11670897
000300 af e4 2b 3d 7c b8 2f bd 4d cb 7f 3c d6 49 09 3b
       0.041966137 -0.042900547 0.0156124355 0.002094855
000310 d3 69 0b be 0e 48 23 3e a3 bb d2 bc 56 04 07 3e
       -0.13614587 0.15945455 -0.025724238 0.13185248
000320 d2 39 01 be 08 23 ad 3d 17 da 26 be 41 fc 25 3d
       -0.12619713 0.08453947 -0.16294132 0.04052377
000330 3e 92 93 bd c6 51 29 3e e1 49 1e 3e 10 eb 21 be
       -0.07205628 0.165351 0.1545787 -0.15812325
000340 4b 4e 81 3d 9a 24 09 be f8 1b ea 3d 64 0d 20 3e
       0.06313761 -0.13392869 0.11431116 0.15630108
000350 fe f2 cb 3d 36 f0 87 3d 21 2b dc 3d b0 a0 74 3c
       0.099584565 0.066376135 0.10750414 0.014930889
000360 c7 e2 1a be b4 0e 03 bd 27 37 1f be 45 28 6f bd
       -0.15125571 -0.031996444 -0.15548383 -0.058388013
000370 81 c8 dd 3c 0e c2 16 3e d6 12 ed bc 99 bc 0d 3e
       0.027073147 0.14722463 -0.028939646 0.13841476
000380 aa 87 82 bc d7 14 88 3d 4d d4 ed 3d ba bd 07 3e
       -0.01593383 0.066446 0.11612759 0.13255969
000390 f7 4a a8 3d 7e ca 8c bd 04 9e dd bd 99 05 16 3e
       0.082174234 -0.0687456 -0.10821155 0.14650573
0003a0 5a 90 3a 3d 9f 06 d5 3d 1d 1a 03 be fe 5c 2e be
       0.04554782 0.104016535 -0.1280293 -0.17027661
0003b0 90 84 c6 bd 96 6b 27 3e fb 0d 07 bd d5 10 f1 3d
       -0.09693253 0.16349635 -0.032972317 0.117707886
0003c0 54 c5 1e be 89 8c f4 3d 1d e1 e4 bc 60 c9 9d 3d
       -0.15504962 0.119408675 -0.027939374 0.07704425
0003d0 4e 26 65 3d 2e 5c 0e be 62 0b 22 3d 85 56 c6 3c
       0.055944733 -0.13902351 0.039561637 0.024211178
0003e0 04 39 a6 3d 84 ac fd 3c 99 06 23 be 0a 07 c0 bd
       0.081163436 0.03096605 -0.15920486 -0.093763426
0003f0 73 30 19 3e 20 fc 0d be c8 f8 8c 3d 4e 2b 2d 3e
       0.14959888 -0.1386571 0.06883389 0.1691105

bias f4 [64]
000000 d4 a5 a1 bb e6 91 a7 bd 3a a5 09 bc 8b 3c 32 be
       -0.0049330983 -0.08182125 -0.0084012095 -0.17405908
000010 a1 05 ff 3d dd 2d 21 3e 9a 08 48 bc ae 08 da 3d
       0.124522455 0.15740152 -0.012209082 0.10646187
000020 7c 8a 08 be fc 35 34 3e 24 7d 11 be a6 b3 43 bd
       -0.13334078 0.17598718 -0.14207894 -0.047778748
000030 94 bb a6 3b e5 78 aa bb 4f 22 c3 3d 95 46 3e 3d
       0.005088279 -0.0052024 0.09528028 0.04645403
000040 60 e3 ac bd 35 56 28 3e a1 47 ee 3d c9 ba 2a 3e
       -0.08441806 0.16439135 0.11634756 0.16672815
000050 09 d2 99 3d 10 da a2 3c d2 95 c3 bd 3f e5 fa 3d
       0.07510764 0.01987937 -0.0955006 0.122507565
000060 22 70 6f bd 9b ad 2d 3e 79 7a 46 bc 03 4f 2b be
       -0.058456548 0.16960756 -0.012114161 -0.1672936
000070 5f 0a 0c be c0 74 29 3e 62 78 30 bd 4b 6d 11 be
       -0.13675831 0.16548443 -0.043083556 -0.14201848
000080 7b 08 31 3e b7 df 77 bc 26 0d a9 bd 93 33 38 bc
       0.17288391 -0.015129021 -0.08254461 -0.011242765
000090 b2 c2 fe bd 90 ae 96 3d 95 ab e3 3d d8 82 00 3d
       -0.12439479 0.07357514 0.11116711 0.031374782
0000a0 85 26 8b bd da 34 1f 3e 8e 0d b0 3d 17 91 fa 3d
       -0.067944564 0.15547505 0.08596335 0.12234705
0000b0 fd 17 b5 3d f4 52 35 bb 09 69 ad 3c 5f a5 0d 3e
       0.08842466 -0.0027667852 0.021168249 0.13832615
0000c0 cb 96 34 bb 59 f8 26 be bc 76 6c bc 1a 55 2c be
       -0.00275557 -0.16305675 -0.014432605 -0.16829339
0000d0 d1 cb 02 3d 32 ab 13 be 90 08 0d 3d 30 6c 0e bd
       0.031932656 -0.14420775 0.034431994 -0.034771144
0000e0 11 96 a9 bc 3b 0e 2a be 03 a1 dd 3d 3a 8c f2 3d
       -0.02070144 -0.16606991 0.10821726 0.11843152
0000f0 d3 e0 cc bd 10 d4 ee bd 8c e2 f2 3c c4 76 06 be
       -0.10003819 -0.116615415 0.029649042 -0.13131243

weight f4 [64]
000000 ea be 59 3f d2 bd 9e 3e ed 3f 2e 3f 78 41 49 3f
       0.85056937 0.31004196 0.68066293 0.7861552
000010 94 e6 e9 3d 53 f6 0a 3f 9b e5 75 3e 1c 2a 3a 3f
       0.114209324 0.5428211 0.24013369 0.72720504
000020 17 17 e2 3e 41 36 7e 3f 2e d4 0d 3f 71 61 e6 3e
       0.4415824 0.99301535 0.55401886 0.44996217
000030 6d df fa 3e 8e 87 3c 3d 8d 75 b6 3e 26 ad 40 3f
       0.48998585 0.046027713 0.3563656 0.75264204
000040 54 d6 0a 3e 56 e0 70 3f 03 a8 57 3f 88 43 1e 3e
       0.13558322 0.9409231 0.8424074 0.15455449
000050 a0 f6 66 3e 1b 7d 61 3f 58 ba 90 3e 32 b0 91 3e
       0.22555017 0.8808152 0.2826717 0.2845474
000060 bb 50 92 3e f5 30 6d 3f ba 29 5d 3f 72 4a d4 3e
       0.28577217 0.9265283 0.86391795 0.41463047
000070 0c 2e b9 3d 37 16 43 3d ab 30 2e 3f 61 c0 a8 3d
       0.09041986 0.047628608 0.6804301 0.08239818
000080 c1 a5 2d 3e 61 78 68 3f 39 9d 74 3e 45 01 69 3f
       0.16957761 0.90808684 0.238881 0.9101756
000090 c7 86 47 3e 04 8b df 3e 39 c2 c2 3e cb 4d 0c 3e
       0.19485007 0.43660748 0.38038805 0.1370155
0000a0 d5 b3 78 3f 10 13 09 3e e5 21 1f 3f e7 a4 34 3e
       0.971494 0.13386178 0.62161094 0.1764103
0000b0 cb 55 ec 3e 2d 37 81 3f 9b 66 eb 3e fe e9 1f 3f
       0.46159205 1.0094963 0.4597672 0.6246642
0000c0 3c 49 2a 3f 58 e6 df 3e 99 94 4a 3f 1f 34 24 3e
       0.66517997 0.43730426 0.7913299 0.16035508
0000d0 34 50 ac 3e 15 ac e1 3e e3 31 74 3f 1a ed b0 3d
       0.3365494 0.440766 0.9538862 0.086389735
0000e0 dd 3f f2 3d 9c 6b 18 3e a3 83 bc 3e 42 be 45 3f
       0.11828587 0.148848 0.3681918 0.77243435
0000f0 39 d5 30 3f 6e 6b 20 3e f0 8d 76 3f 74 1d 3f 3f
       0.6907535 0.15665981 0.9631033 0.74654317

bias f4 [64]
000000 52 87 25 3d 6f cb 0b 3d 9f f8 17 3d 19 7d e1 3c
       0.040412255 0.034129556 0.037102338 0.027525472
000010 98 58 8f 3c d5 76 50 3c 6e dd a2 3c 15 df f6 3c
       0.0174983 0.012723644 0.019880977 0.03013567
000020 50 e6 ad 3c f4 71 43 3d 5a 26 43 3d 1a 23 54 3c
       0.021227986 0.047716096 0.047643997 0.012947822
000030 18 4d 36 3d c3 5c 0b 3d da ee 4a 3d 05 6b 0e 3d
       0.044507116 0.03402401 0.049544193 0.03477003
000040 44 89 31 3d e5 43 13 3d 92 b9 31 3d cc 3b fd 3c
       0.043343797 0.03595342 0.043389864 0.030912302
000050 f0 76 26 3d ab 19 78 3c 63 3d 36 3d f7 5b b4 3c
       0.04064077 0.0151428385 0.044492137 0.022016509
000060 ad 24 dc 3c c9 dd 24 3d b0 9f be 3c fb 96 03 3d
       0.026872957 0.040250573 0.023269504 0.032126408
000070 07 32 36 3d 7a a9 04 3d 47 8c 27 3d c0 01 fb 3c
       0.044481304 0.032388188 0.040905263 0.030640483
000080 63 dd ff 3c ee c5 31 3d 28 65 1d 3d 71 4e ab 3c
       0.031233495 0.04340165 0.03842655 0.020911427
000090 4b 8f fc 3c f1 51 50 3d 79 97 2a 3d c7 49 09 3d
       0.030830046 0.050859395 0.04164836 0.033517625
0000a0 9f 35 f1 3c b7 cb 39 3d 1f ab 08 3d fe bc 47 3d
       0.029444514 0.045360293 0.03336632 0.04876422
0000b0 38 d8 3e 3d 04 60 03 3d 14 4b a4 3c 40 a8 16 3d
       0.04659292 0.03207399 0.020055331 0.03678155
0000c0 50 c0 26 3d e4 cd 18 3d e1 28 2c 3d d6 00 3d 3d
       0.040710747 0.037305728 0.042031173 0.046143375
0000d0 00 7c 05 3d 96 46 b5 3c c1 0f 22 ba 4b fc bf 3b
       0.03258896 0.022128385 -0.0006182157 0.005858933
0000e0 b3 91 31 3c 7a 57 4c 3c cb f7 4f 3d 43 31 1c 3d
       0.01083796 0.012472028 0.050773423 0.038132917
0000f0 f9 86 f8 3c 57 74 3d 3d 4c 87 14 3d 56 6a 05 3d
       0.030337797 0.04625353 0.03626184 0.032572113

running_mean f4 [64]
000000 95 82 8c bc 74 17 0b 3e 8a b5 c0 3c 21 0f 62 3d
       -0.01715211 0.13583165 0.023524065 0.05519021
000010 e3 6e 40 3c 94 6a 6a 3e c8 f8 27 3e 2c f2 d7 3d
       0.011745187 0.22892219 0.16403496 0.105442375
000020 7d 64 11 3e 30 8a 42 3e c6 03 9d be e7 ed 16 be
       0.1419849 0.18998027 -0.3066694 -0.1473919
000030 34 84 a3 bd 78 1e eb 3d ab 43 eb 3c 2b 94 e9 bd
       -0.079842 0.11480421 0.02871879 -0.11405214
000040 91 90 5c bd 96 3d 06 3e 74 3f b2 bd 63 57 a1 3e
       -0.053848807 0.1310943 -0.08703509 0.31511983
000050 b4 e9 11 bc 97 48 4f 3e 39 bd 39 3d a7 58 8c 3e
       -0.008905817 0.20242535 0.045346472 0.27411386
000060 67 09 9d bc 53 9b 05 3e f8 12 6c bd ed 61 a2 bd
       -0.019169522 0.13047533 -0.057635278 -0.07928834
000070 09 7c 80 be 86 8f 82 bc 5d cf ef 3d d2 1d 70 be
       -0.2509463 -0.015937578 0.11709473 -0.23448876
000080 62 d1 bd 3e 55 bc a8 3d 3b bc 10 be 49 61 52 be
       0.3707381 0.082390465 -0.14134304 -0.20544924
000090 1e 42 72 3e 96 1c bd 3b 8f 13 1b 3e 84 44 da 3e
       0.23658034 0.00577123 0.1514418 0.42630398
0000a0 8b 20 99 3e 0a 0e 98 3c 8d c6 02 3e 9d b3 73 be
       0.2990764 0.018561382 0.12771054 -0.23798986
0000b0 84 db ef bc 24 e4 f6 bd 4c 2e 67 3b 7d 70 2f 3d
       -0.029279478 -0.12055233 0.0035275398 0.042831887
0000c0 b8 ff 2d be 56 f1 1c 3e 11 da 05 be b6 84 1a be
       -0.1699208 0.15326437 -0.13071467 -0.15089688
0000d0 bb 2b b5 be 96 4e be bc 99 b2 10 bc 37 9c 8b be
       -0.35384926 -0.023230832 -0.0088316435 -0.2726762
0000e0 4e ec 3e be 2e 86 21 be 63 25 af bc ab fe d6 3e
       -0.1864483 -0.15773842 -0.021380132 0.4199117
0000f0 d0 22 c6 bd 4f d1 ff be f2 cd 1d be 64 44 2f be
       -0.09674609 -0.49964377 -0.15410593 -0.17115933

running_var f4 [64]
000000 a4 82 af 3d ac 0e 53 3e 8c 78 75 3d 6c 90 84 3d
       0.085698396 0.20611066 0.059929416 0.06472859
000010 31 7f 72 3d 11 4f 70 3c 40 49 11 3d 3d 92 82 3d
       0.05920333 0.014667288 0.035470247 0.06375549
000020 84 58 a0 3c 3b af 89 3e 96 5c 1d 3c 55 fd 14 3d
       0.019573458 0.26891503 0.009604594 0.03637441
000030 1e e3 65 3b 31 59 59 3c 91 3c 46 3c 2b b1 50 3e
       0.0035078 0.013265894 0.012099401 0.20380084
000040 e5 eb 84 3b 31 86 55 3c 1b d8 51 3c f2 d5 b2 3c
       0.004056441 0.013032482 0.012807871 0.021830533
000050 1b 98 5b 3d 71 6c 23 3d 6e 17 50 3c 10 d7 7e 3c
       0.053611856 0.03989834 0.012700899 0.015554205
000060 c1 f5 c0 3b 8e 7f 28 3b 2d 71 a7 3c ee fc 28 3e
       0.005888671 0.0025710794 0.020439709 0.16502735
000070 dc 46 e9 3d 42 9f 27 3d 8d 93 8c 3c 0a ba ae 3b
       0.113904685 0.040923364 0.017160201 0.005332236
000080 06 bb 38 3d 6a 14 47 3b 7d a6 a2 3d f4 47 c5 3d
       0.045100234 0.0030377158 0.07941911 0.096328646
000090 df 33 01 3d 69 51 ea 3d 4f 26 5d 3c c8 12 66 3e
       0.03154361 0.11441309 0.013497903 0.22468102
0000a0 4f 70 52 3e 13 22 84 3b 56 ed 7d 3c 7a a5 a4 3c
       0.20550655 0.0040323823 0.01549848 0.020098437
0000b0 b0 30 e4 3c c5 d0 88 3c d2 a2 74 3d fb 61 d0 3b
       0.027855247 0.016701112 0.05972559 0.0063593364
0000c0 e9 0d 96 3d 7f 8a 4e 3d c0 88 02 3d 93 d9 0f 3c
       0.07326872 0.05042505 0.031868696 0.008779901
0000d0 3c 25 83 3d 14 f5 dc 3c 02 b7 92 3c c3 32 5f 3c
       0.06403586 0.026972331 0.01790953 0.013622942
0000e0 cc 07 cd 3b c8 6e e1 3b f9 35 57 3c c6 78 24 3d
       0.006257033 0.006879661 0.013135427 0.04015424
0000f0 20 5f 29 3c c5 62 4a 3c 09 3d 83 3d df a8 55 3c
       0.010337621 0.01235265 0.06408126 0.01304075

weight f4 [64, 128]
000000 37 87 3f bb 45 59 6d bd 88 08 73 bd 13 65 88 ba
       -0.0029224881 -0.057946462 -0.059334308 -0.0010406099
000010 a1 62 b2 bc 86 f1 a9 3d 00 31 97 3d 6b 2d 85 bd
       -0.021775546 0.0829802 0.07382393 -0.065028034
000020 a0 0f 99 3d 5c 3a c7 3d 94 9d 56 bd 73 d7 9a bd
       0.07473683 0.09727928 -0.052396372 -0.07560625
000030 52 8d cf bc e2 e4 25 3d e3 01 78 3d dc 3e ca 3d
       -0.025335941 0.040501483 0.060548674 0.09875271
000040 41 ca 7e 3d 09 67 e8 bb ce 10 b2 3d 0c c6 63 bc
       0.062204603 -0.007092361 0.086946115 -0.0139021985
000050 fa c2 20 3d 56 2e a2 bc ab 3d 6f 3d b6 5d 68 bc
       0.039248444 -0.019797485 0.05840842 -0.014182499
000060 15 a5 cf 3d 12 1f 83 3d 90 ae a3 3d 9a 8a 5b bd
       0.10138909 0.064024106 0.079922795 -0.053598978
000070 36 0d 85 bd 8d 12 5d 3d c7 76 37 3d f3 6a cd ba
       -0.064966604 0.05397277 0.04479101 -0.0015672132
000080 4e 28 91 bd 27 36 93 bd b2 ff 32 3d 20 64 76 bd
       -0.07087766 -0.07188063 0.04370088 -0.06015408
000090 ad a6 19 3d c0 b1 c6 3d bd d1 97 bb 1f 9c 8e 39
       0.03751247 0.09701872 -0.004633157 0.0002720067
0000a0 1b 34 8c 3c 80 2f 8f 3c 12 34 96 3d 66 d3 88 bd
       0.01711469 0.017478704 0.073341504 -0.06680946
0000b0 ce 5c bf 3c 38 45 f4 bc ca 3c 94 bd e3 3d 61 bd
       0.023359682 -0.029818162 -0.07238157 -0.05499066
0000c0 10 58 c6 bc 3c 52 57 3c 63 00 e4 bc dd 78 9d 3d
       -0.024211913 0.013142165 -0.027832216 0.076890685
0000d0 26 2e 2f 3d f9 88 7a bd 19 4d 89 3b 9b 63 88 3b
       0.04276862 -0.061165784 0.004190099 0.0041622645
0000e0 a2 45 f2 3c 2a 86 bc ba d5 02 14 bd 1e 33 b3 3d
       0.02957422 -0.0014383246 -0.036135513 0.08749984
0000f0 09 be b6 3d 6b 33 86 bd 48 5d 4f 3c 76 ca dc 3b
       0.08922965 -0.06552776 0.012656517 0.0067380024
000100 40 1b e5 bc 35 60 88 bc 99 3e c5 bc 80 af 87 3d
       -0.027967095 -0.016647438 -0.0240777 0.06625271
000110 f8 b0 b7 3d b5 17 90 3c 3a 2e 64 bd 68 05 05 bd
       0.08969301 0.01758943 -0.055708148 -0.03247586
000120 da bd 33 bc cd 07 20 bd fd a3 49 3d 67 93 b0 3d
       -0.010970557 -0.03906994 0.049228657 0.08621865
000130 3d 66 28 3d 68 d0 e3 3c 32 1c 8d bd 02 96 7d 3d
       0.041113127 0.027809337 -0.068901435 0.061910637
000140 0f ca 2f bd f0 f8 9a bd c5 3b 85 3d 25 b6 86 bd
       -0.042917307 -0.07567012 0.06505541 -0.0657771
000150 62 d1 6a 3d 25 f7 d6 3c 0e 22 23 3c 82 88 0a bd
       0.05732859 0.026240895 0.00995685 -0.03382159
000160 7e 66 c7 3d 52 0d 85 bd 71 ba 2d bd 34 a9 c2 3d
       0.09736346 -0.06496681 -0.042414133 0.09504929
000170 a7 7d 85 bd 6c d0 9b 3d 3e 26 15 3d 74 6c 90 bd
       -0.06518107 0.07608113 0.036413424 -0.07051936
000180 c5 26 73 bc ed 15 bc 3d 0c 3a 97 bd f3 1a 87 bd
       -0.014840786 0.091838695 -0.073841184 -0.06596937
000190 14 9c 62 3c 0d 1a 90 3c d8 5b ac bb e3 91 cb 3c
       0.013831157 0.017590547 -0.005259972 0.024849838
0001a0 3f 8c eb bc b7 07 d4 3c fd 05 c0 3d 83 fd 77 3d
       -0.028753398 0.025882585 0.09376142 0.060544502
0001b0 29 04 cf 3d 26 08 5e 3c 8a c5 33 3d 1d 4e a1 3d
       0.10108215 0.013551747 0.04388956 0.07876227
0001c0 c1 cb a8 3d 67 3c 26 3b a0 3b 04 3b 1c ea 3b 3d
       0.08241988 0.0025365592 0.002017714 0.04587756
0001d0 4b 38 c0 3c db 97 56 bd 70 30 84 bd bd 10 a2 3d
       0.023464343 -0.052390914 -0.06454551 0.07913349
0001e0 3e 08 6e 3d df f9 56 bd ce 61 72 bd 07 b4 fc bb
       0.05811333 -0.05248439 -0.059175305 -0.0077118906
0001f0 53 03 90 3d e5 65 6f 3c 9c b2 b3 bc 03 a7 bc 3d
       0.07031884 0.014611696 -0.021935754 0.092115425
000200 56 fd a3 ba 9a 0b f2 3d 97 16 56 bd 09 b4 6f bc
       -0.0012511413 0.11818619 -0.052267637 -0.014630326
000210 38 c3 88 3c f2 ba 9a 3d de 13 8b 3c 07 72 28 bd
       0.01669465 0.07555188 0.016977247 -0.04112437
000220 c4 6c 62 bd cc 20 d9 3d da 7c ab 3d 7c 3d e9 39
       -0.05527951 0.10601959 0.08373423 0.00044487033
000230 d9 24 0c 3c 26 c7 4f bc 80 ff 7b 3d 22 3a d1 3d
       0.008553707 -0.012681758 0.06152296 0.10216166
000240 78 3b 1d 3d f9 f2 fa bc 58 3c 4b 3d 88 2b 89 3d
       0.038386792 -0.030633437 0.049618095 0.06697756
000250 ad 7d af 3d c4 7a 57 3d 83 61 99 3c e7 ea 94 3d
       0.08568893 0.052607313 0.018723255 0.072713666
000260 4d c5 f3 3c db fd 9e 3d ae 74 b2 3d ba e3 f8 3d
       0.029757166 0.07763263 0.08713661 0.121528104
000270 8b b7 c3 3d 37 ad f8 bb 44 ec 52 bd 17 e2 b7 3b
       0.095564924 -0.007589008 -0.05149485 0.005611669
000280 ab d8 3b 3d 54 19 9b 3d 41 dd 21 bd 68 74 dc 3c
       0.045860928 0.0757319 -0.039517645 0.026910976
000290 d5 93 2f bd 44 3e b1 3c de 6a 04 3d 11 7e db bb
       -0.042865593 0.021636136 0.03232848 -0.006698378
0002a0 52 00 ab 3c 00 59 c4 3d 11 86 8b 3c 7c 86 c4 3d
       0.020874176 0.09587288 0.017031701 0.09595963
0002b0 99 a2 78 bd 53 38 cc 3c 99 7e cc ba 96 b7 1b bc
       -0.06070194 0.024929201 -0.0015601694 -0.0095042195
0002c0 49 34 de bc a4 e3 53 bd e0 35 46 3d 22 3f 30 3d
       -0.02712454 -0.051730767 0.048391223 0.04302896
0002d0 24 2a 78 3d a0 67 44 bd 3d 9f e0 3d 28 c5 19 bd
       0.060587063 -0.047950387 0.10967872 -0.03754154
0002e0 89 24 28 3d 78 7e 3c 3d c3 0b 6e 3c 23 ad 07 3d
       0.041050468 0.046019047 0.014529171 0.0331241
0002f0 68 d3 d1 3d c6 e4 5a 3c 46 df 38 bc 45 ba 21 bc
       0.10245401 0.013360208 -0.011283701 -0.00987107
000300 12 75 d5 3d 4d 1b 48 3c 95 4b 11 3d 63 12 00 3c
       0.1042272 0.01221354 0.03547247 0.007816884
000310 91 41 ba 3d 8f a9 45 bb 1c 14 bc 3d fb 1b 38 bd
       0.09094537 -0.003016088 0.09183523 -0.04494856
000320 6d d8 33 bd 22 1d da 3d c6 df 86 3b 52 84 72 3d
       -0.04390757 0.10650088 0.0041160313 0.05920822
000330 2d d6 eb 3d 7f b6 23 3d 08 46 64 bd 0f 9e cb 3d
       0.1151546 0.039968964 -0.05573085 0.09942257
000340 55 c4 d7 3c c0 49 7a bd d4 91 9a 3d e5 2c 17 3d
       0.026338736 -0.06110549 0.07547346 0.03690805
000350 10 61 d7 bc 39 52 b3 3d 15 d5 d6 3d 48 c0 72 3d
       -0.0262914 0.08755917 0.10489861 0.059265405
000360 64 42 2a 3a c7 43 97 3d 99 c8 3d 3d 85 24 df 3d
       0.00064948783 0.073859744 0.046333883 0.108956374
000370 56 58 80 3d 00 b4 06 bd ad 05 32 3a d5 6f 4b 3c
       0.06266849 -0.032886505 0.0006791007 0.0124168
000380 b5 72 d6 3d e7 32 43 3d a1 6e a9 3c ea 81 5e bd
       0.104710974 0.047655966 0.020682635 -0.054323114
000390 ad ea db 3d 03 72 78 3d e3 8b 98 3d ff 22 4f bd
       0.1073812 0.060655605 0.07448556 -0.050570484
0003a0 58 ce f4 3b e2 12 0a 3d 21 72 91 3c 1c f2 97 3d
       0.007470887 0.033709414 0.017754616 0.074192256
0003b0 7c 01 93 3d 70 49 2a bd 56 09 9a 3d 64 7f 8f bb
       0.071780175 -0.04157394 0.07521312 -0.0043792
0003c0 a8 9d 5d bd a3 6f 45 bd c5 88 4e bc 2b 9a 8c 3d
       -0.05410543 -0.04820217 -0.012605851 0.06865343
0003d0 ac b6 46 bd 8c a7 f1 3b 23 62 e3 38 dd 69 71 bd
       -0.048514053 0.0073747095 0.00010842483 -0.05893885
0003e0 ed 4e af bc 6c f8 92 3d ca 6a 9b 3d c2 52 8d 3d
       -0.02139994 0.07176289 0.07588728 0.069005504
0003f0 13 7e a0 3d 4a 50 37 bc 63 58 87 3d 3e 3d 11 3d
       0.07836547 -0.011188576 0.06608655 0.035458796

bias f4 [64]
000000 f2 5f 19 bd 98 a5 78 3d ae fa 99 bd 55 31 08 bc
       -0.037445016 0.060704798 -0.075185165 -0.008312543
000010 22 40 7c 3d 6c 38 e4 3c 8d 26 60 3d 83 d6 d3 3d
       0.0615846 0.027858935 0.054724265 0.10343649
000020 ef 2f 5b 3c 77 30 8b bc f6 e0 ba bc bd 92 2f 3d
       0.0133781275 -0.016990883 -0.022812348 0.04286455
000030 de c3 89 bd 11 9a e6 3c bf 4b 19 bd 81 43 ad bc
       -0.06726812 0.028149636 -0.037425753 -0.021150352
000040 2d ce 05 3d 32 f0 1a bd 61 78 86 bd 4a b3 50 3c
       0.032667328 -0.037826724 -0.06565929 0.012738058
000050 cb 87 19 bd 0e 6b 5c bd 60 86 06 3e d7 08 1c 3d
       -0.037483018 -0.053813033 0.13137197 0.038094368
000060 b9 85 df 3d e1 46 ae 3d a7 b4 ce bd dd d6 7a 3d
       0.109141774 0.08509613 -0.100930505 0.061240066
000070 c0 07 5c bd 59 13 71 3d 01 b9 32 3c 63 0b da 3c
       -0.05371833 0.058856342 0.010908366 0.026616758
000080 5e 7f ca 3c 64 98 90 bd 9e b7 bf 3d 46 05 49 3c
       0.024718937 -0.07060316 0.09361194 0.012269324
000090 aa cf 4d 3d 64 ab 07 bd 83 b2 b6 3d 51 2b 01 bd
       0.050246872 -0.033122435 0.08920767 -0.03153545
0000a0 e4 c9 ce 3d 16 d3 8f bc 16 d6 46 bd 27 a4 a0 3c
       0.10097101 -0.017556708 -0.048544012 0.019609524
0000b0 60 62 71 bd af 63 46 3d 1c 3b 52 bd 12 bd 75 bd
       -0.05893171 0.04843491 -0.051325902 -0.059994765
0000c0 75 91 5f 3d cf bf 2b 3d 60 87 1c bd a7 14 30 3c
       0.054582078 0.04193097 -0.03821504 0.010747111
0000d0 b5 68 74 3d cb ed f7 bc f7 2f 88 3b 2b 42 01 3e
       0.05967017 -0.030264756 0.0041561085 0.12622897
0000e0 a1 5b 57 3d 9b 9d 72 3d a6 9d cd bd b1 66 6f 3d
       0.05257762 0.059232336 -0.10039835 0.058447544
0000f0 c1 bd 12 ba b8 89 4d bd 70 78 a9 bd c9 7a b6 3c
       -0.00055977335 -0.050180167 -0.08274925 0.022275345

weight f4 [16, 64]
000000 6d bb 3f 3d 8a b7 62 bc 2f 53 bb 3d f6 d8 e2 3d
       0.046809603 -0.013837704 0.091467254 0.11076538
000010 9a d6 a7 3d 16 49 a5 bd f8 06 09 3d 5a 73 b6 bd
       0.08195229 -0.08070581 0.03345391 -0.0890872
000020 78 d6 38 3d 3c 1f 71 bc 31 c9 e0 bd a7 d6 13 3d
       0.04512641 -0.0147169195 -0.10975874 0.03609338
000030 d1 f1 74 3c 07 7f 35 3c 6e 38 7d bd fd 85 7a 3d
       0.014950232 0.011077649 -0.061821394 0.061162937
000040 72 0a 97 3d 8c 1a 96 bb 4a 1c 8b 3d c0 51 05 bd
       0.07375039 -0.0045808014 0.06792505 -0.032548666
000050 97 dd 7d 3b 57 ff d0 3d 2a ba b7 bd 54 02 33 3d
       0.0038736814 0.10204952 -0.08971055 0.043703392
000060 72 a0 c5 bd 67 f7 e6 bd 71 1c 9f bd 8a f7 51 3c
       -0.09649743 -0.11277657 -0.07769097 0.012815366
000070 1a 2b 49 3d ef cd b2 bc 6a 73 39 3c 2b f0 bb 3d
       0.04911337 -0.021826712 0.011319021 0.09176668
000080 ea 2e 91 bd d4 3a b1 3d b2 90 80 3d 71 2e df bd
       -0.07089026 0.08653799 0.062775984 -0.1089753
000090 4c c8 bc bd 1a d7 ba bd 27 11 2a bd 59 e1 3b 3c
       -0.09217891 -0.091230586 -0.041520264 0.011467301
0000a0 aa e8 b0 3b 0e 66 f5 bc 10 69 4a 3d 2c 85 4f bc
       0.0053988295 -0.02995589 0.0494166 -0.012666028
0000b0 02 c3 ad 3d d4 90 ba 3c 86 6b a7 bd 61 37 44 bc
       0.084844604 0.022774138 -0.08174805 -0.011976094
0000c0 0e 23 0f 3d d1 bb da 3c 45 bf cb bd 1e ca ff 3d
       0.03494554 0.026700886 -0.09948591 0.12489723
0000d0 35 ef ac bc d5 3f 5b bd 7a 43 7d bd 9f e9 c2 3d
       -0.021110157 -0.05352767 -0.06183193 0.09517216
0000e0 49 64 fd bd 00 ba a5 3d 59 bf 87 3d b2 47 a5 3c
       -0.123726435 0.08092117 0.066282935 0.020175789
0000f0 b6 0d 0a bd ee d1 c8 3d cb 4d 07 3d 9c 02 bb bd
       -0.033704482 0.09805666 0.033033174 -0.09131357
000100 0a 26 a4 bd e6 94 71 3c 21 22 2c bc aa 17 bf bc
       -0.08015068 0.014744973 -0.010506184 -0.023326714
000110 15 28 34 3d 82 5f 2e bd 9b ab 89 3d f0 3d 3d 3d
       0.043983538 -0.042571552 0.06722184 0.046201646
000120 7f 32 fe bd 7c 69 cd 3d eb d5 1e 3c d0 40 77 3d
       -0.12411975 0.10029885 0.009694557 0.060364544
000130 99 a8 54 bd e9 19 bc 3d 83 3e bf bd 23 15 d7 bd
       -0.0519186 0.091846295 -0.09338095 -0.105020784
000140 26 e9 f8 bd c3 f8 3e 3d 17 e1 1a bd c5 f5 a3 bd
       -0.121538445 0.046623956 -0.03781232 -0.08005861
000150 35 e7 b9 bd 83 b2 74 bd 91 18 0c 3e 82 1d db bd
       -0.09077302 -0.059740555 0.13681246 -0.106989875
000160 bd 7e 34 bd 2d ae 90 3d 49 22 d7 3d 86 62 8c bc
       -0.04406618 0.070644714 0.10504586 -0.017136823
000170 4f f0 3c 3d 74 2e b1 bd 82 70 77 3d d4 d8 cb bd
       0.046127614 -0.08651438 0.06041003 -0.09953466
000180 b4 8f d7 3d 0f 01 f5 3c 6e 07 86 bd c4 a1 21 bc
       0.10525456 0.029907731 -0.06544386 -0.009865228
000190 c6 14 cb bd 52 2f b7 3d 11 f9 e5 3d 06 9d 8c 3d
       -0.099160716 0.089445725 0.11229146 0.06865887
0001a0 a0 73 b2 3c f0 16 75 3d c6 a6 5d bb ba 00 a8 bd
       0.02178365 0.059836328 -0.0033821329 -0.082032636
0001b0 4f 63 cd 38 38 27 d7 3d 82 59 04 3e 2b f6 4f 3d
       9.7936594e-05 0.10505527 0.1292477 0.050771873
0001c0 59 22 d8 3d d8 cd c9 bc de 45 be 3d 25 4f 6c bd
       0.10553426 -0.024634287 0.0929067 -0.057692666
0001d0 ce 6e 1f 3d f1 52 d4 bd 82 09 a5 bb af 96 e2 38
       0.03892403 -0.10367382 -0.005036534 0.00010804587
0001e0 2f 9e 16 3c 94 32 b2 bd 78 73 c8 bd 70 f8 71 bc
       0.009192987 -0.08701053 -0.09787649 -0.014768705
0001f0 2f 63 a4 3c 1a 89 e3 3c b5 38 f6 bd 05 53 c6 bd
       0.020066826 0.027775336 -0.12022535 -0.096838035
000200 39 17 c9 3d fd 32 0b 3e 8b 5a 9f bd 34 63 0a bd
       0.098188825 0.13593669 -0.077809416 -0.033786014
000210 e8 94 68 3d f9 3a ca bc 1e 6d 8b 3d 75 85 02 3d
       0.056782633 -0.024686323 0.06807922 0.031865556
000220 5e 9c 46 bd 59 ed e7 3d 0c a3 0c 3e 3e 13 96 bd
       -0.048488967 0.11324567 0.13734072 -0.07327889
000230 eb 15 88 bd 21 e4 ba bc ff 0e c2 3d 82 ef 93 bd
       -0.066448055 -0.022813858 0.094755165 -0.07223417
000240 ba 40 80 ba 03 0a 9c 3c a9 f5 b0 bd ad be f9 bd
       -0.0009784915 0.019047743 -0.08640606 -0.12194572
000250 e6 e0 c6 bb dd 3b dc 3d 72 6a 0b 3e c0 ff 6e 3b
       -0.0060692905 0.107536055 0.13614824 0.0036468357
000260 e0 e1 21 3e d0 f3 88 3c 29 2c 81 bd e4 d6 17 3e
       0.1580882 0.016717821 -0.06307251 0.14828068
000270 14 09 c1 3c 6d 8c 1c bb b2 78 26 3c df e2 bb bc
       0.0235639 -0.0023887411 0.010160612 -0.022935329
000280 5b b5 28 bd 1f 1d 26 3c bd da 22 bd 48 2c 1f 3c
       -0.04118858 0.010138779 -0.039759386 0.009715147
000290 e1 26 fc bd 52 42 c2 3d 8b 8a b1 bd e3 a4 81 bd
       -0.12312103 0.09485306 -0.08669003 -0.06330278
0002a0 a5 16 f3 3c 72 fb 94 bd c8 f3 d9 bb ca d3 18 3c
       0.029673884 -0.07274522 -0.0066513754 0.009327838
0002b0 7f bd c6 bd 33 db 66 3d 86 2f 8e 3d 6e 62 84 bc
       -0.09704112 0.05636139 0.06942658 -0.016160216
0002c0 d5 f6 d9 3d e9 82 74 3c 2f a3 9d bd d3 bc 0d be
       0.106427826 0.01492379 -0.076971404 -0.13841562
0002d0 1f ec ed bb 6b ab 8a 3d cb e1 9a 3c 9f 7e 11 bc
       -0.007260814 0.06770977 0.018906495 -0.0088802865
0002e0 95 a4 c2 3d d4 fd 8a 3d 95 58 d7 3c e2 67 06 bd
       0.09504048 0.06786695 0.026287356 -0.032813914
0002f0 6f 99 99 3c bb fe 9f bc db e8 a9 bd c2 77 09 3d
       0.01874992 -0.019530645 -0.08296367 0.033561476
000300 6d 0c da 3c d5 d0 ea 3d c2 bc 43 3d dd f7 94 3b
       0.026617253 0.11465613 0.047787435 0.004546149
000310 98 97 9e bd a9 8b fc 3d 9e 6c b1 3c b6 44 2d 3d
       -0.07743758 0.123313256 0.021658238 0.042301856
000320 81 d2 26 3d 8f fc d7 bd ef 9d cf 3d 22 fb b3 3d
       0.040728096 -0.105462186 0.10137545 0.08788134
000330 a8 c4 88 3d cf 1a a3 3d 8a 45 25 bd bd 1b 5c bd
       0.06678134 0.07964098 -0.04034952 -0.05373739
000340 b0 9d c5 bd 57 dc 8c 3d bf d4 a0 3d 69 ff 5a bd
       -0.09649217 0.06877964 0.07853078 -0.053466234
000350 89 17 b4 bc ff af 40 3d 0b a7 8d 3c f8 9e fd bb
       -0.021983879 0.047042843 0.017291566 -0.007739898
000360 3c b8 12 bd b6 dc ff 3d 27 c0 41 bb d4 6b 00 3e
       -0.03582023 0.12493269 -0.0029563995 0.12541133
000370 8c 2e b1 3c fa de 83 bc 07 1a ee bc 6e e4 61 3d
       0.02162864 -0.016097534 -0.029065145 0.05514949
000380 6a 0e 20 3c fe b0 f7 3d 6f 1f bc 3d 79 44 a0 3d
       0.009769062 0.120943055 0.09185683 0.0782556
000390 3e 30 be 3c c3 1a 8f 3d 69 4e 6e 3d ce d9 f9 3d
       0.023216363 0.06987526 0.058180247 0.12199746
0003a0 4a 7a 39 bc aa be e5 3d 8a e0 90 bd aa 69 44 bd
       -0.01132066 0.11218007 -0.070740774 -0.04795233
0003b0 43 5e 91 bc 8a 20 bb 3c d0 7c d4 3c 50 4c 07 3e
       -0.017745143 0.022842664 0.025938421 0.13212705
0003c0 da a7 6f 3d d7 36 ba bd ae 42 0d bd c8 bd ab bd
       0.058509685 -0.09092491 -0.03448742 -0.08385807
0003d0 72 8a 6e bc 9f 36 bf bc 5b 1e a5 bd d9 cd 18 bc
       -0.014559375 -0.023341475 -0.080624305 -0.009326422
0003e0 48 b2 15 3e a1 27 2e 3c fa f5 bf 3d 64 51 06 3c
       0.1461879 0.010629565 0.09373088 0.008198116
0003f0 4f 8b 72 bd bf 41 39 bc d1 b7 13 bd f7 6e 8f bc
       -0.059214886 -0.011307179 -0.036063973 -0.017508967

bias f4 [16]
000000 49 8d c4 bc b3 7a 91 bc 44 e2 98 bd 79 74 b2 3c
       -0.023993151 -0.017758703 -0.07465032 0.021784054
000010 8a 36 10 3d 33 e0 94 3d e2 3e c1 3a 8f cb c9 3c
       0.035208263 0.07269325 0.0014743472 0.024633197
000020 81 1d 0a 3d 9d 95 83 bd 49 3d b1 3d f2 a5 94 3d
       0.033719543 -0.06425021 0.08654267 0.07258214
000030 d8 01 ff 3d 7b b0 c6 bc d9 9c 03 3e c4 ae de 3c
       0.124515235 -0.024254074 0.12852801 0.027182944

weight f4 [2, 16]
000000 ad 78 8f bd f2 26 9f 3d e6 7e 5d 3e a5 3e 2a 3e
       -0.07005439 0.077711 0.21630439 0.1662546
000010 e8 c0 5d be 03 f2 ab bd 6e d8 0c 3e 27 73 48 be
       -0.21655619 -0.083957694 0.13754436 -0.19575177
000020 69 a0 8e 3e 85 cd c6 bd 87 96 17 3d cc 9b 31 3e
       0.27856758 -0.097071685 0.03700879 0.17344588
000030 72 63 61 3e bc 33 e0 bd 35 27 14 3c ed 67 a3 bd
       0.22010592 -0.109473675 0.009042551 -0.07978807
000040 d9 40 a3 bd 71 36 41 3d 45 75 42 be 47 aa 4a b6
       -0.07971353 0.04717106 -0.18990047 -3.019946e-06
000050 49 4f 4e 3e ac 78 18 3e f9 52 ba 3d ae 35 8d be
       0.20147432 0.14889783 0.09097857 -0.27580017
000060 f8 a6 82 be 61 f6 9e bd 91 d9 9f bd aa 08 34 3d
       -0.25518012 -0.07761837 -0.078051694 0.043953575
000070 e9 86 d6 bd e9 82 74 bd a9 82 55 bd 00 91 41 3e
       -0.10474951 -0.05969516 -0.05212656 0.1890297

bias f4 [2]
000000 85 67 0d be 6b 3d ab 3d
       -0.13809021 0.08361324

weight f4 [2, 2]
000000 65 c3 3b bf 03 d5 1d 3d ed ab 2f be 89 f4 fb bd
       -0.73345023 0.038533222 -0.17155428 -0.12302501

bias f4 [2]
000000 65 da cc 3e fe 1a f0 bd
       0.40010372 -0.11723898
