Network2/params/cnn_nwParams0824103732.pth (torch_old, 190970 bytes, 26 tensors)

weight f4 [16, 3, 2]
0.065986104 -0.39943582 -0.123795666 -0.23920433 0.009219936 -0.0006331429 0.12251458 -0.34708977
-0.041765984 -0.189027 -0.3964882 -0.043927673 0.0022313884 0.102370694 0.17383623 -0.1314257
-0.2230144 -0.042819325 -0.29530793 -0.3694213 0.34253666 0.29098108 0.026249452 0.19007549
-0.21813399 0.3413711 -0.08334532 -0.11382796 -0.22320484 -0.22333995 -0.35461017 -0.20056768
-0.14058305 0.32671422 -0.245334 0.381998 0.31294176 -0.099670395 0.3509815 -0.3814067
-0.14090692 -0.18993635 0.114851 0.20154114 -0.16481777 -0.29212147 0.2687677 0.1980391
0.039404962 0.07052028 0.3430721 -0.12054138 -0.2832041 -0.3909304 0.014330848 0.080818236
0.34048426 0.1855527 -0.26670182 -0.23110643 0.12253675 -0.10698167 -0.33481917 0.3438644
-0.38209057 0.081064194 -0.24076474 -0.10376078 0.017320406 0.15695262 0.24696554 0.08125735
0.17898288 -0.17445225 0.36730894 0.08002241 0.13472795 0.40837836 -0.0538515 -0.059954334
0.36386502 0.33076513 -0.06890047 0.19520232 -0.21244583 0.22256531 -0.06171534 0.34684178
0.23311609 0.39833596 0.26134118 0.3946825 -0.33979866 0.24547817 -0.23404184 -0.35912508
00000000: b923 873d da82 ccbe 9588 fdbd fbf1 74be
00000010: 370f 173c 80f9 25ba ede8 fa3d c0b5 b1be
00000020: cf12 2bbd 4b90 41be 8000 cbbe 81ed 33bd
00000030: 7c3c 123b baa7 d13d 2002 323e 7594 06be
00000040: e35d 64be 5163 2fbd 9a32 97be ca24 bdbe
00000050: f760 af3e 79fb 943e 1709 d73c 26a3 423e
00000060: 845e 5fbe 31c8 ae3e f3b0 aabd a21e e9bd
00000070: cf8f 64be 3ab3 64be 778f b5be 9d61 4dbe
00000080: 01f5 0fbe 1647 a73e d638 7bbe 3e95 c33e
00000090: e739 a03e fe1f ccbd d9b3 b33e bd47 c3be
000000a0: e749 10be ad7e 42be 0037 eb3d cd60 4e3e
000000b0: fdc5 28be f290 95be ec9b 893e c3ca 4a3e
000000c0: 1967 213d f06c 903d 25a7 af3e 66de f6bd
000000d0: 2100 91be 0828 c8be efcb 6a3c 0884 a53d
000000e0: f453 ae3e 8701 3e3e 248d 88be 2aa7 6cbe
000000f0: 8cf4 fa3d 3519 dbbd 6b6d abbe ff0e b03e
00000100: 60a1 c3be fc04 a63d 088b 76be 8880 d4bd
00000110: 86e3 8d3c 30b8 203e 89e4 7c3e 416a a63d
00000120: 4a47 373e 9ca3 32be eb0f bc3e cae2 a33d
00000130: 20f6 093e f816 d13e 6493 5cbd ad92 75bd
00000140: 844c ba3e 0c5a a93e b11b 8dbd 1ee3 473e
00000150: 668b 59be 29e8 633e 39c9 7cbd 3f95 b13e
00000160: fcb5 6e3e b1f2 cb3e 83ce 853e d313 ca3e
00000170: 17fa adbe a15e 7b3e aaa8 6fbe 3edf b7be

bias f4 [16]
0.0072815334 -0.11435132 0.04301113 -0.39567837 0.29271635 0.16030173 -0.37048414 0.2186761
0.3523076 -0.27175137 -0.39419463 -0.2621502 -0.19971615 -0.25180516 0.12354479 -0.2197084
00000000: ee99 ee3b 0631 eabd 702c 303d 5b96 cabe
00000010: ebde 953e 2326 243e 19b0 bdbe a1ec 5f3e
00000020: a961 b43e ff22 8bbe e1d3 c9be 8d38 86be
00000030: 6482 4cbe 9bec 80be 0d05 fd3d 3dfb 60be

weight f4 [16]
0.25867546 0.3484612 0.80689806 0.2047407 0.21867171 0.22048 0.072135806 0.82542634
0.24916191 0.7284941 0.09447843 0.80501854 0.40527943 0.67055297 0.30501515 0.6911275
00000000: 1c71 843e 8269 b23e df90 4e3f 8ca7 513e
00000010: 7aeb 5f3e 82c5 613e f0bb 933d 244f 533f
00000020: 4d24 7f3e 977e 3a3f e87d c13d b215 4e3f
00000030: c980 cf3e 5ca9 2b3f f22a 9c3e bbed 303f

bias f4 [16]
0.009085788 0.006301865 0.00032087017 0.02025948 0.003315068 0.015083442 0.031654485 0.0312344
-0.004050907 0.02775489 0.020503255 -0.016402747 0.023096997 -0.04578345 -0.023483653 0.024160462
00000000: 8fdc 143c e07f ce3b 773a a839 36f7 a53c
00000010: 9d41 593b 8b20 773c 22a8 013d 49df ff3c
00000020: 79bd 84bb 395e e33c 71f6 a73c 0e5f 86bc
00000030: ea35 bd3c 6d87 3bbd ca60 c0bc 29ec c53c

running_mean f4 [16]
-0.21342021 -0.55964345 -0.086229995 -0.2737451 -0.020393884 0.104075514 -0.5202868 0.48020172
0.028639568 -0.39362139 -0.5994253 -0.101158425 0.2907528 0.008980966 0.6215053 -0.41731647
00000000: d48a 5abe cb44 0fbf 5a99 b0bd 5128 8cbe
00000010: 1311 a7bc 8b25 d53d 8431 05bf 00dd f53e
00000020: 879d ea3c be88 c9be f073 19bf 262c cfbd
00000030: 8ddd 943e e724 133c f91a 1f3f 81aa d5be

running_var f4 [16]
0.052153032 0.091752425 0.0139228925 0.05045867 0.06422844 0.16949753 0.100421876 0.04310371
0.08622321 0.035956226 0.086946055 0.033360608 0.079103 0.022684043 0.14937866 0.10225416
00000000: 6b9e 553d b2e8 bb3d d81c 643c c0ad 4e3d
00000010: 338a 833d c390 2d3e fca9 cd3d 848d 303d
00000020: cb95 b03d d646 133d c610 b23d 22a5 083d
00000030: c100 a23d e3d3 b93c b8f6 183e a16a d13d

weight f4 [32, 16, 1]
0.064480394 -0.0046456787 -0.041689556 0.11065534 0.09448246 -0.049504444 0.12164775 -0.06497236
0.23776647 0.03031478 0.2453211 -0.14776264 -0.2313593 0.084868334 0.013828006 -0.16692342
-0.19602613 0.23074822 0.19957931 0.021184174 -0.19945256 0.13338417 -0.06570016 0.13143294
0.04274466 -0.1188353 -0.0723779 -0.17113057 0.06545397 -0.11162548 -0.12152466 0.21652076
-0.07698322 -0.23066312 0.1305528 0.028506625 -0.18003239 -0.15180475 0.003441163 0.16336162
-0.051652513 -0.26226693 -0.040325597 0.16210778 -0.005819341 -0.05070953 0.03814089 -0.08953948
0.044426434 0.14457388 -0.17416732 -0.2533166 0.12959246 -0.16332819 -0.07311233 -0.16076638
-0.087841 0.22423244 0.22258306 0.11828266 -0.087037735 0.11728851 0.01124738 -0.007927834
-0.060146388 0.11242177 0.23351145 -0.21577738 -0.044122186 0.16830403 0.06405984 0.16416559
-0.2070675 -0.21735659 -0.21454102 -0.052255295 -0.19072801 -0.100093566 0.22348851 -0.22670367
0.10893073 0.0796766 0.17806314 -0.24420387 -0.03752134 0.1452602 0.14643854 0.043079752
0.02141248 0.007570352 0.14992042 0.2547624 0.046454646 -0.18207543 -0.08040585 -0.2334549
0.09172762 0.19948982 -0.058255065 0.053270318 -0.11063903 0.20811293 0.048858225 0.25397086
0.15110171 -0.11949698 -0.2606757 0.24406943 0.10696161 0.04703716 -0.14394833 0.21158044
-0.089291565 -0.0012350582 0.087098114 0.0063385945 -0.09699854 0.0522892 0.17967588 -0.042334188
0.1489113 -0.13021071 0.1528455 0.20579031 0.16379853 0.04068581 0.11036807 0.08917008
-0.2767553 -0.09711741 -0.14854226 0.19255425 -0.2037787 0.1917123 0.11142268 -0.17043254
0.06812152 -0.15494683 -0.01631604 0.109395124 -0.071324974 -0.15625574 -0.007519809 0.22718962
-0.19006747 -0.1999597 0.14981224 -0.23636928 0.20502074 -0.10999803 -0.146436 -0.06068244
0.20598783 -0.005996825 -0.23803718 0.23520194 0.23189661 0.15446767 0.13811326 -0.17318209
-0.016045399 0.07103821 0.101965636 0.0019812596 0.1031034 0.24530534 0.1384257 -0.2371487
-0.020873599 0.12762094 -0.040856745 -0.17917918 0.19619381 -0.048945945 0.05896064 -0.096373945
-0.00022922647 -0.013007444 -0.1250794 -0.0352025 -0.00076556863 0.14079456 0.06522972 0.14147171
0.16784032 0.13479693 -0.011927177 0.21183707 -0.09667548 -0.20666154 -0.24194548 -0.1428464
0.09381292 -0.09565019 0.09066935 -0.25352332 0.074221864 0.04701046 0.046457298 0.08770399
0.28524062 0.011721015 -0.09585727 0.19734752 -0.21471609 0.1435264 -0.07517305 0.12740085
-0.054604087 -0.18231168 -0.06241531 0.00613211 0.15007195 0.2418162 0.10144714 -0.17275228
-0.07237371 -0.12073495 -0.22654676 -0.026350548 0.11208091 0.116020106 0.17614295 -0.0673267
-0.007403637 -0.1761247 -0.1594345 0.20511383 0.17710708 0.16461414 0.02243346 0.13653131
-0.2568949 -0.0005503191 0.10893201 -0.12153242 -0.010779961 0.21510911 0.026531504 0.012327486
0.17287366 -0.0030334664 0.0794233 -0.0684163 -0.15642658 0.112817824 -0.13205971 -0.0076077627
0.24667619 -0.044943176 -0.19797817 0.10085254 -0.026513543 -0.034637045 -0.25219393 0.22935963
00000000: 4c0e 843d c73a 98bb abc2 2abd 449f e23d
00000010: 0580 c13d 2cc5 4abd 7522 f93d 3b10 85bd
00000020: 0e79 733e b456 f83c 7435 7b3e 174f 17be
00000030: 74e9 6cbe 73cf ad3d dc8e 623c f9ed 2abe
00000040: 13bb 48be 4349 6c3e 855e 4c3e 6f8a ad3c
00000050: 4b3d 4cbe dc95 083e ce8d 86bd 5b96 063e
00000060: 0615 2f3d ec5f f3bd dd3a 94bd da3c 2fbe
00000070: bb0c 863d e69b e4bd ece1 f8bd 9eb7 5d3e
00000080: 61a9 9dbd f432 6cbe a2af 053e ba86 e93c
00000090: 695a 38be b472 1bbe 2385 613b 4548 273e
000000a0: 9691 53bd da47 86be 742c 25bd 95ff 253e
000000b0: 2cb0 bebb ccb4 4fbd 9f39 1c3d 7a60 b7bd
000000c0: 7ef8 353d 2d0b 143e eb58 32be b7b2 81be
000000d0: e3b3 043e 813f 27be ebbb 95bd f19f 24be
000000e0: fbe5 b3bd 309d 653e d0ec 633e 2e3e f23d
000000f0: d740 b2bd f534 f03d ee46 383c bfe3 01bc
00000100: 0f5c 76bd 633d e63d a01d 6f3e bff4 5cbe
00000110: 77b9 34bd e457 2c3e ce31 833d 061b 283e
00000120: 8109 54be ba92 5ebe a4b0 5bbe a609 56bd
00000130: 344e 43be dbfd ccbd 2cda 643e 0225 68be
00000140: 1317 df3d 7c2d a33d 2f56 363e 9410 7abe
00000150: faaf 19bd 17bf 143e fcf3 153e 6574 303d
00000160: 3a69 af3c b710 f83b bd84 193e 3870 823e
00000170: 3a47 3e3d fb71 3abe d3ab a4bd cd0e 6fbe
00000180: b1db bb3d 0f47 4c3e dd9c 6ebd fa31 5a3d
00000190: b796 e2bd 8e1b 553e 901f 483d 7808 823e
000001a0: 68ba 1a3e d5ba f4bd 4977 85be 56ed 793e
000001b0: b00e db3d 09aa 403d 3167 13be 8ba8 583e
000001c0: 7fde b6bd ade1 a1ba 7f60 b23d fcb3 cf3b
000001d0: 2ca7 c6bd 332d 563d f4fc 373e 9d66 2dbd
000001e0: 347c 183e f555 05be 8883 1c3e b2ba 523e
000001f0: cdba 273e 2aa6 263d a808 e23d ce9e b63d
00000200: dfb2 8dbe 7ee5 c6bd 761b 18be f12c 453e
00000210: 5dab 50be 3b50 443e 9331 e43d de85 2ebe
00000220: 4c83 8b3d 62aa 1ebe 37a9 85bc 8d0a e03d
00000230: d412 92bd 8101 20be bb68 f6bb 65a4 683e
00000240: 0ca1 42be 3cc2 4cbe 6168 193e ca0a 72be
00000250: f5f0 513e a646 e1bd 52f3 15be 268e 78bd
00000260: 79ee 523e 0481 c4bb 05c0 73be c7d8 703e
00000270: 4e76 6d3e c62c 1e3e 906d 0d3e a556 31be
00000280: a471 83bc 7b7c 913d 5cd3 d03d 05d8 013b
00000290: e027 d33d 5331 7b3e 77bf 0d3e 1cd7 72be
000002a0: 1cff aabc 10af 023e 6759 27bd bf7a 37be
000002b0: 08e7 483e 8b7b 48bd b680 713d b45f c5bd
000002c0: 835c 70b9 2d1d 55bc d014 00be 7f30 10bd
000002d0: 71b0 48ba 732c 103e 2997 853d f6dd 103e
000002e0: 55de 2b3e 3508 0a3e 356a 43bc d1eb 583e
000002f0: cbfd c5bd 159f 53be 8ec0 77be 5446 12be
00000300: fd20 c03d 3fe4 c3bd dab0 b93d cfcd 81be
00000310: a201 983d 0a8e 403d 024a 3e3d 269e b33d
00000320: 0f0b 923e 8009 403c d150 c4bd 7815 4a3e
00000330: 89de 5bbe 96f8 123e 54f4 99bd 5e75 023e
00000340: 89a8 5fbd eaaf 3abe 32a7 7fbd deef c83b
00000350: 76ac 193e aa9e 773e 85c3 cf3d f9e5 30be
00000360: ab38 94bd e343 f7bd e0fb 67be 1bdd d7bc
00000370: ad8a e53d f39b ed3d d15e 343e 95e2 89bd
00000380: 359a f2bb 095a 34be cc42 23be 5c09 523e
00000390: 8f5b 353e 9c90 283e 60c6 b73c ddce 0b3e
000003a0: ba87 83be 4a43 10ba bf17 df3d fde5 f8bd
000003b0: 6f9e 30bc 9045 5c3e 9958 d93c 39f9 493c
000003c0: cb05 313e 1fcd 46bb afa8 a23d d81d 8cbd
000003d0: 4a2e 20be 080d e73d a93a 07be 8a4a f9bb
000003e0: af98 7c3e 5616 38bd caba 4abe c78b ce3d
000003f0: ee32 d9bc 93df 0dbd 901f 81be 40dd 6a3e

bias f4 [32]
0.13243608 -0.23476936 -0.13717254 -0.16203535 -0.03415187 0.0033322128 0.15368868 0.14323175
0.08169391 -0.030469943 0.12076914 0.14026605 0.16233097 0.11087381 -0.19018254 -0.11354313
0.24430294 0.20324565 -0.100315556 -0.11392786 -0.081080444 -0.046378586 -0.08406633 0.23157844
-0.15285963 -0.03567697 -0.06680377 0.17708188 0.18903926 0.10714803 -0.17173994 0.06734295
00000000: 539d 073e 6167 70be f576 0cbe 98ec 25be
00000010: d5e2 0bbd 4161 5a3b 9160 1d3e 58ab 123e
00000020: 234f a73d 1a9c f9bc d055 f73d e7a1 0f3e
00000030: 173a 263e cf11 e33d 36bf 42be 4d89 e8bd
00000040: 8d2a 7a3e a11f 503e 3e72 cdbd 0353 e9bd
00000050: 810d a6bd 79f7 3dbd f82a acbd e622 6d3e
00000060: 3c87 1cbe 0422 12bd 6ad0 88bd f454 353e
00000070: 8293 413e 6d70 db3d 98dc 2fbe 1aeb 893d

weight f4 [32]
0.90412515 0.83969826 0.7854212 0.49962884 0.44778702 0.30357996 0.596657 0.034659386
0.14018576 0.41264915 0.80176556 0.30467066 0.8339884 0.12590355 0.10483449 0.4306297
0.5177524 0.9249618 0.64227736 0.8906162 0.41471165 0.27502772 0.8420087 0.69023657
0.6439802 0.54400396 0.1307125 0.45331573 0.9668518 0.82376224 0.24809963 0.5081174
00000000: bf74 673f 77f6 563f 5d11 493f 5acf ff3e
00000010: 5744 e53e d56e 9b3e 83be 183f 00f7 0d3d
00000020: db8c 0f3e c046 d33e 8240 4d3f cbfd 9b3e
00000030: 4480 553f dcec 003e 77b3 d63d 7f7b dc3e
00000040: 6c8b 043f 4cca 6c3f 4a6c 243f 6cff 633f
00000050: 1655 d43e 6fd0 8c3e e28d 573f 58b3 303f
00000060: e3db 243f d843 0b3f 7fd9 053e 0019 e83e
00000070: 9983 773f 15e2 523f d40d 7e3e fb13 023f

bias f4 [32]
-0.0007801595 -0.008579918 -0.0015965999 0.0013379022 0.03268465 0.0037432888 -0.0014311302 0.013434215
0.020815162 -0.017318577 0.00011433909 -0.0070854765 0.006552257 0.020567076 -0.0007087389 -0.00034301114
0.023052942 0.026430788 0.011689178 0.028903494 -0.010192407 0.010033615 0.0414039 -0.007834792
0.010342805 -0.01567735 -0.014332662 -0.016462825 -0.0070900195 0.0145488735 0.01571825 -0.005650441
00000000: 9e83 4cba c992 0cbc 0145 d1ba 8c5c af3a
00000010: 57e0 053d f751 753b c394 bbba 2f1b 5c3c
00000020: 8f84 aa3c b0df 8dbc 55c9 ef38 492d e8bb
00000030: 51b4 d63b 497c a83c aaca 39ba 2dd6 b3b9
00000040: 86d9 bc3c 6185 d83c f783 3f3c 05c7 ec3c
00000050: 0efe 26bc 0864 243c 2397 293d 805d 00bc
00000060: de74 293c c96d 80bc 8bd3 6abc 0cdd 86bc
00000070: 6553 e8bb 665e 6e3c 8fc3 803c 5627 b9bb

running_mean f4 [32]
0.060608864 -0.18646596 -0.15569118 -0.17322005 -0.08833309 0.08558724 0.41298127 0.29135242
-0.064393274 0.07876687 0.0920651 0.1403628 0.32946697 0.038078018 -0.15634497 -0.04006532
0.33968353 0.31382045 0.007632725 0.11131861 -0.12361037 -0.21391717 0.07056376 0.28865042
-0.19033544 -0.2379789 -0.0818675 0.19374523 0.35276186 0.13782814 -0.16670464 0.06056758
00000000: 0041 783d eff0 3ebe 826d 1fbe 9960 31be
00000010: fbe7 b4bd 5d48 af3d 4872 d33e 252c 953e
00000020: 9fe0 83bd 8650 a13d a18c bc3d 44bb 0f3e
00000030: e5af a83e b2f7 1b3d e518 20be 881b 24bd
00000040: 00eb ad3e 13ad a03e f01b fa3b 03fb e33d
00000050: 6f27 fdbd 1a0d 5bbe bc83 903d fdc9 933e
00000060: 4be7 42be beb0 73be 26aa a7bd 2665 463e
00000070: 349d b43e d222 0d3e 9fb4 2abe b615 783d

running_var f4 [32]
0.015711145 0.038027685 0.05647938 0.0119248675 0.019796148 0.015896747 0.04305566 0.015976362
0.02577741 0.036617365 0.049885098 0.016500456 0.018031325 0.030386357 0.046979897 0.013376851
0.019679233 0.025935838 0.022513857 0.034796044 0.021277152 0.030333554 0.053163595 0.019934827
0.064697035 0.02834627 0.029525243 0.01390984 0.0249114 0.048849255 0.010681144 0.06357993
00000000: a9b4 803c ebc2 1b3d ec56 673d 8560 433c
00000010: 882b a23c e539 823c 225b 303d dce0 823c
00000020: 262b d33c 17fc 153d 5154 4c3d f72b 873c
00000030: 6eb6 933c cfec f83c fe6d 403d 942a 5b3c
00000040: 5836 a13c 6577 d43c fb6e b83c 4c86 0e3d
00000050: 6c4d ae3c 137e f83c 12c2 593d 5d4e a33c
00000060: e17f 843d 7036 e83c ecde f13c 19e6 633c
00000070: fe12 cc3c 2816 483d f7ff 2e3c 3236 823d

weight f4 [64, 32, 1]
0.16119863 0.16927563 0.082297474 0.11790101 0.07830133 -0.060152404 -0.15947895 0.11178178
0.12466245 0.04312174 -0.09078547 0.053887594 0.058352612 -0.16546775 0.111666836 -0.060155053
0.10735922 0.065301076 -0.0064195753 0.034419607 0.13782336 0.1581359 0.027975807 -0.035774045
-0.13365667 -0.08358424 -0.10681184 0.045609765 0.092661075 -0.021877032 0.029231884 0.08367139
-0.04957751 0.018087765 -0.017348364 -0.123568766 0.16046238 -0.14962013 -0.03403169 -0.003547401
0.12258832 -0.07668827 0.14769629 -0.113725245 0.03774435 0.04111779 -0.06731303 -0.16059124
-0.06202706 0.049701266 0.032394815 -0.04446609 -0.07342709 0.03837235 -0.026487479 -0.07146472
0.12253339 0.0049873306 0.1297546 -0.103997 -0.10970941 0.0142592285 -0.07191677 -0.008774352
0.10612622 0.051803198 0.10556308 -0.066254124 -0.046013374 -0.10057555 -0.058241457 -0.14866637
-0.00587293 0.012221909 -0.07755119 -0.08382526 0.09148345 0.02511946 0.1531699 0.015148897
0.100393325 0.1538981 0.020191219 -0.14715114 0.13330846 -0.06782579 -0.012273223 0.10594669
0.07762767 0.16288213 0.14265317 -0.14788958 0.09631549 0.0696119 -0.11875072 0.14342313
0.07641377 0.11652076 -0.022545805 -0.09875262 -0.010858318 -0.11240628 0.13084853 -0.044535335
-0.080489956 0.012393336 -0.041028224 0.117132634 0.06592216 0.109106235 -0.07155552 -0.011460345
0.14181897 0.08072524 0.024238292 -0.11448256 0.12166601 0.09280801 -0.119955994 -0.08798974
-0.06473667 -0.082205765 0.047615755 0.13038743 -0.075517684 0.04200998 0.14539506 0.09897417
0.046309993 -0.14905824 -0.0887451 0.08363448 0.1823382 0.16663226 -0.1353627 -0.14793918
-0.06354287 -0.15984952 -0.1595508 -0.10314731 0.09102341 0.020197244 0.03376594 -0.05993008
0.046310715 0.04753382 -0.16342777 -0.04130924 0.13426284 -0.042473808 -0.15524934 0.0833228
-0.017278403 -0.052865013 -0.029388249 0.16294211 0.008565944 -0.1672909 0.018568588 0.13690668
0.012910784 0.113901705 -0.18473682 0.15089217 -0.017463429 -0.024969606 0.13937062 -0.100501485
-0.1439593 -0.10857934 -0.00033213155 -0.11455857 0.09040603 -0.18807605 -0.07492796 -0.083282456
0.0557848 0.06542476 0.05045569 0.15973593 -0.06208183 -0.20168218 0.10867577 0.06925406
0.12632169 -0.02869945 0.062179282 -0.020509964 -0.07737229 -0.09925431 -0.06689092 0.12088984
0.05304148 -0.114090785 0.11026806 0.12507637 0.054227296 0.007859992 0.015346179 0.04030638
0.04748645 -0.0633297 0.080079466 -0.16394371 -0.014557384 0.0027055268 0.08948424 0.051172286
-0.020909261 0.186075 -0.11611938 0.13919853 -0.08936766 0.09141278 -0.0045092367 -0.1148214
0.0024817751 -0.027621152 0.117838174 -0.13882282 0.015501204 -0.11450366 0.1258025 -0.09286397
-0.057793632 -0.17147006 -0.15070677 0.1568935 0.0021755982 0.008308581 0.032542482 0.08837991
0.11097693 -0.0040613357 -0.04024793 0.07721867 -0.07684538 -0.16944477 -0.123398826 0.1043675
0.1585901 0.13577363 0.09509628 0.10246256 0.11251664 0.003879137 0.10762763 0.115941174
-0.050125662 0.054259896 0.07534734 0.040302727 0.036342204 0.0015528396 -0.080061555 0.16213566
00000000: 4111 253e 9756 2d3e 948b a83d 1676 f13d
00000010: 735c a03d 5e62 76bd 734e 23be d9ed e43d
00000020: 074f ff3d 6ca0 303d bced b9bd 3db9 5c3d
00000030: 2603 6f3d 6170 29be 95b1 e43d 2565 76bd
00000040: 27df db3d 92bc 853d 4d5b d2bb 93fb 0c3d
00000050: 9121 0d3e 61ee 213e 852d e53c ce87 12bd
00000060: 4bdd 08be 372e abbd 2ac0 dabd 4ed1 3a3d
00000070: 17c5 bd3d 7637 b3bc b477 ef3c e85b ab3d
00000080: ca11 4bbd cb2c 943c 281e 8ebc 9f11 fdbd
00000090: 4050 243e 0536 19be d064 0bbd 837b 68bb
000000a0: 960f fb3d bd0e 9dbd b23d 173e c8e8 e8bd
000000b0: d299 1a3d 216b 283d 6adb 89bd 0872 24be
000000c0: 1610 7ebd 8e93 4b3d 6db0 043d 1322 36bd
000000d0: f160 96bd 532c 1d3d 45fc d8bc 185c 92bd
000000e0: c9f2 fa3d c36c a33b 64de 043e 61fc d4bd
000000f0: 54af e0bd 8a9f 693c 1949 93bd 4dc2 0fbc
00000100: b458 d93d 972f 543d 7531 d83d 3eb0 87bd
00000110: 8578 3cbd 8efa cdbd 988e 6ebd ff3b 18be
00000120: b571 c0bb 673e 483c 29d3 9ebd 94ac abbd
00000130: ad5b bb3d 53c7 cd3c 92d8 1c3e 1433 783c
00000140: 049b cd3d 7797 1d3e 0e68 a53c caae 16be
00000150: 0382 083e 3fe8 8abd a115 49bc 94fa d83d
00000160: 41fb 9e3d 93ca 263e ac13 123e 5e70 17be
00000170: 0e41 c53d af90 8e3d 9433 f3bd 83dd 123e
00000180: d37e 9c3d 70a2 ee3d fbb1 b8bc d03e cabd
00000190: 16e7 31bc 4435 e6bd 28fd 053e af6a 36bd
000001a0: ebd7 a4bd 6b0d 4b3c 360d 28bd 3ce3 ef3d
000001b0: 3302 873d 1773 df3d b38b 92bd 2cc4 3bbc
000001c0: fe38 113e 4653 a53d 628f c63c d575 eabd
000001d0: 072c f93d 2012 be3d 7dab f5bd f733 b4bd
000001e0: a994 84bd 7f5b a8bd bd08 433d 4884 053e
000001f0: 04a9 9abd a812 2c3d 71e2 143e f8b2 ca3d
00000200: 8caf 3d3d b9a2 18be febf b5bd 8e48 ab3d
00000210: ddb6 3a3e a6a1 2a3e 859c 0abe 5e7d 17be
00000220: c422 82bd 98af 23be 4961 23be e63e d3bd
00000230: 7b6a ba3d b174 a53c 284e 0a3d 3e79 75bd
00000240: 4eb0 3d3d d3b2 423d 9c59 27be e133 29bd
00000250: 337c 093e 04f9 2dbd aff9 1ebe 25a5 aa3d
00000260: 708b 8dbc fc88 58bd a0bf f0bc 4cda 263e
00000270: 2c58 0c3c 4e4e 2bbe 271d 983c 4431 0c3e
00000280: c187 533c 4c45 e93d a62b 3dbe 7a83 1a3e
00000290: 770f 8fbc 0f8d ccbc 2cb7 0e3e b9d3 cdbd
000002a0: 116a 13be d85e debd f121 aeb9 af9d eabd
000002b0: cc26 b93d 0297 40be d573 99bd fe8f aabd
000002c0: 9a7e 643d 6bfd 853d a0aa 4e3d d191 233e
000002d0: 8449 7ebd c685 4ebe 6791 de3d 13d5 8d3d
000002e0: 795a 013e 1c1b ebbc b4af 7e3d 8304 a8bc
000002f0: 5d75 9ebd d845 cbbd 1bfe 88bd 1895 f73d
00000300: 0642 593d 6ea8 e9bd 38d4 e13d 0514 003e
00000310: 711d 5e3d 32c7 003c 8a6e 7b3c 4d18 253d
00000320: 2781 423d 00b3 81bd b400 a43d dce0 27be
00000330: 1882 6ebc 354f 313b 8343 b73d 089a 513d
00000340: e649 abbc 728a 3e3e ffcf edbd 0f8a 0e3e
00000350: 6406 b7bd a036 bb3d 38c2 93bb 7b27 ebbd
00000360: 47a5 223b c145 e2bc 2455 f13d 9227 0ebe
00000370: c3f8 7d3c e580 eabd 5fd2 003e 772f bebd
00000380: 04b9 6cbd d995 2fbe e052 1abe b1a8 203e
00000390: 7b94 0e3b b720 083c 444b 053d 8700 b53d
000003a0: df47 e33d f414 85bb 03db 24bd d224 9e3d
000003b0: 1c61 9dbd ee82 2dbe 86b8 fcbd a1be d53d
000003c0: 7165 223e 3e08 0b3e d7c1 c23d e4d7 d13d
000003d0: 206f e63d 1f39 7e3b e06b dc3d 9172 ed3d
000003e0: 9150 4dbd a03f 5e3d b54f 9a3d 7914 253d
000003f0: 90db 143d a788 cb3a 50f7 a3bd e406 263e

bias f4 [64]
-0.034587253 -0.027482068 0.0020779879 0.10859854 -0.05864159 0.15038548 -0.048297524 -0.09865772
-0.027755527 -0.1766214 -0.074253224 -0.17319053 -0.028814806 0.09325336 -0.074918695 0.023401584
-0.08585378 0.05079963 -0.15217486 -0.16648337 -0.02824205 -0.025892874 0.12612386 -0.10738853
-0.094792485 -0.0071677947 0.10960758 0.041633777 -0.06342844 -0.13979657 -0.07752095 0.082075775
0.03068159 -0.07043701 -0.1342593 -0.021233853 0.052847587 0.049760565 0.123359166 -0.16390203
0.0019824875 -0.099155284 -0.10786206 0.07759387 0.018788004 -0.0083392225 -0.09512206 -0.13930622
-0.04330748 0.16019452 0.11463653 -0.057332683 0.017359624 0.11348006 -0.1686494 0.029300857
0.031278737 -0.0014520895 0.01886355 0.057036515 0.05299425 0.09336742 -0.056087386 -0.052986987
00000000: 5dab 0dbd 1322 e1bc da2e 083b e968 de3d
00000010: 2a32 70bd a7fe 193e a0d3 45bd 0f0d cabd
00000020: 8f5f e3bc 3edc 34be 1312 98bd dc58 31be
00000030: 070d ecbc 9efb be3d f96e 99bd aeb4 bf3c
00000040: 1bd4 afbd 4613 503d bad3 1bbe 9e7a 2abe
00000050: df5b e7bc 4b1d d4bc 9d26 013e 85ee dbbd
00000060: 9022 c2bd d2df eabb f079 e03d 2e88 2a3d
00000070: c5e6 81bd d526 0fbe 4ec3 9ebd 5817 a83d
00000080: f557 fb3c 4741 90bd 457b 09be 9ef2 adbc
00000090: b676 583d bcd1 4b3d bba3 fc3d efd5 27be
000000a0: 9fec 013b ed11 cbbd c9e6 dcbd 89e9 9e3d
000000b0: 4de9 993c 3ca1 08bc 5bcf c2bd 4aa6 0ebe
000000c0: 2f63 31bd 080a 243e 8fc6 ea3d add5 6abd
000000d0: c535 8e3c 3c68 e83d 6eb2 2cbe 5a08 f03c
000000e0: 221e 003d 0a54 beba bb87 9a3c 1f9f 693d
000000f0: 8010 593d 6b37 bf3d e3bb 65bd e208 59bd

weight f4 [64]
0.27588445 0.35041258 0.5297891 0.7195928 1.061917 0.8777179 0.76568115 1.0067756
0.34029222 0.6110863 0.1726702 0.14071992 0.7768924 0.18718496 0.649158 0.18717732
0.10148966 0.9420294 0.5974721 0.9731394 0.8168051 0.7948708 0.58271545 0.22600617
0.8797026 0.68873584 0.6083265 0.7649882 0.5476742 0.1846279 0.35443422 0.72439235
0.9712156 0.3341409 0.68203795 0.93860286 0.5771511 0.8641519 0.5506088 0.933942
0.8810706 0.35691342 0.60648364 0.9756433 0.95775473 0.19207111 0.8076878 0.53638643
0.08494301 0.98744076 0.2523691 1.0559956 0.28994873 0.66254234 0.97969514 0.4490377
0.77012414 0.79458696 0.90828496 0.5932103 0.26993585 0.33820432 0.5946399 0.7926779
00000000: ba40 8d3e 4769 b33e 42a0 073f 3c37 383f
00000010: e5ec 873f 1fb2 603f ae03 443f 06de 803f
00000020: c83a ae3e 2770 1c3f 75d0 303e e218 103e
00000030: 6ce2 463f 6aad 3f3e 382f 263f 69ab 3f3e
00000040: d0d9 cf3d d728 713f eef3 183f aa1f 793f
00000050: 241a 513f a77c 4b3f d72c 153f 296e 673e
00000060: 3134 613f fe50 303f 49bb 1b3f 44d6 433f
00000070: 6034 0c3f 190f 3d3e 6778 b53e c771 393f
00000080: 96a1 783f 8414 ab3e 0a9a 2e3f 4748 703f
00000090: 2dc0 133f 0f39 5d3f b3f4 0c3f d316 6f3f
000000a0: d88d 613f 5bbd b63e 8342 1b3f c2c3 793f
000000b0: 6a2f 753f 4aae 443e a1c4 4e3f 9f50 093f
000000c0: 9af6 ad3d ebc8 7c3f 8636 813e dd2a 873f
000000d0: 2974 943e 609c 293f 4dcd 7a3f 45e8 e53e
000000e0: db26 453f 0d6a 4b3f 5d85 683f a1dc 173f
000000f0: 0835 8a3e 1e29 ad3e 523a 183f f0ec 4a3f

bias f4 [64]
0.0907861 0.09237576 0.08436641 0.08337226 0.07738186 0.08397761 0.07924867 0.0795108
0.0932143 0.06669704 0.09144673 0.108496666 0.08321084 0.08252793 0.093001716 0.09053178
0.10424263 0.08879216 0.08817306 0.0758448 0.09708544 0.08030366 0.09568441 0.10335593
0.07620857 0.095933035 0.09190798 0.092011034 0.08326174 0.08955391 0.101893194 0.09432572
0.092876315 0.097057685 0.075474605 0.08470993 0.07462738 0.08911312 0.061294906 0.0711036
0.08221198 0.08420089 0.086353414 0.085015744 0.081737995 0.0921252 0.083965875 0.07863709
0.10765652 0.0788246 0.07840181 0.09829175 0.11025517 0.103165686 0.09863837 0.09553367
0.09391053 0.08396626 0.08950798 0.08222194 0.08156378 0.108135164 0.0728582 0.07261233
00000000: 10ee b93d 812f bd3d 4cc8 ac3d 13bf aa3d
00000010: 617a 9e3d 74fc ab3d 204d a23d 8fd6 a23d
00000020: 24e7 be3d 7598 883d 6c48 bb3d 8033 de3d
00000030: 726a aa3d 6704 a93d af77 be3d ba68 b93d
00000040: 297d d53d aad8 b53d 1494 b43d 8554 9b3d
00000050: bbd4 c63d 3f76 a43d 30f6 c33d 46ac d33d
00000060: 3d13 9c3d 8a78 c43d 403a bc3d 4870 bc3d
00000070: 2285 aa3d 0a68 b73d 61ad d03d d82d c13d
00000080: f035 be3d 2ec6 c63d 6e92 9a3d 667c ad3d
00000090: 3dd6 983d f180 b63d 5e10 7b3d c49e 913d
000000a0: c15e a83d 8471 ac3d 0fda b03d bc1c ae3d
000000b0: 4066 a73d 23ac bc3d 4df6 ab3d 7c0c a13d
000000c0: 067b dc3d cb6e a13d 2191 a03d 2f4d c93d
000000d0: 76cd e13d 8848 d33d ea02 ca3d 28a7 c33d
000000e0: 2a54 c03d 81f6 ab3d f64f b73d fa63 a83d
000000f0: e90a a73d f875 dd3d ae36 953d c6b5 943d

running_mean f4 [64]
0.23921199 -0.14734949 0.23587674 0.15698025 -0.24719183 0.3358417 0.029545847 0.12361929
0.18929376 0.02345527 -0.030095864 -0.2078504 0.09659727 0.24637009 0.19678637 -0.09524641
-0.2370211 -0.034643553 -0.21599057 0.16689672 0.12454275 -0.16879296 -0.020156387 -0.3027321
-0.13357568 -0.3306525 0.06392572 -0.029290901 -0.13380028 -0.25457075 -0.09574241 0.04194856
-0.40306932 -0.30458045 -0.19127163 0.14228381 0.35706118 -0.21406849 0.057648793 -0.0845814
-0.067852676 -0.16607504 -0.15607311 -0.16162749 0.23901218 -0.01922343 -0.13296153 -0.25901225
-0.16817582 0.026952302 0.22554551 -0.2660212 -0.19955762 0.13778931 -0.2741247 -0.06922038
0.07909539 -0.1232503 -0.40412006 -0.10762391 -0.061738566 -0.13378909 -0.3168369 0.15094897
00000000: fdf3 743e c9e2 16be ac89 713e 6ebf 203e
00000010: db1f 7dbe 71f3 ab3e 220a f23c 1c2c fd3d
00000020: 39d6 413e 4425 c03c 9a8b f6bc bcd6 54be
00000030: cad4 c53d 7148 7c3e 5e82 493e 8d10 c3bd
00000040: a9b5 72be 66e6 0dbd a22c 5dbe f9e6 2a3e
00000050: 4510 ff3d 10d8 2cbe 021f a5bc b4ff 9abe
00000060: 10c8 08be 494b a9be 7deb 823d 79f3 efbc
00000070: f102 09be 1957 82be 9914 c4bd 41d2 2b3d
00000080: 1a5f cebe f8f1 9bbe b6dc 43be d9b2 113e
00000090: b9d0 b63e c534 5bbe 2421 6c3d 0339 adbd
000000a0: 58f6 8abd 930f 2abe a1d1 1fbe ad81 25be
000000b0: 9cbf 743e 747a 9dbc 1127 08be 419d 84be
000000c0: 4836 2cbe 13cb dc3c 67f5 663e ee33 88be
000000d0: d558 4cbe a418 0d3e 135a 8cbe 6ac3 8dbd
000000e0: c4fc a13d a76a fcbd d3e8 cebe ed69 dcbd
000000f0: 94e1 7cbd 0200 09be 7238 a2be 5e92 1a3e

running_var f4 [64]
0.03697498 0.01445336 0.02415466 0.037439466 0.05294147 0.12766439 0.033353288 0.06777866
0.119307876 0.041281115 0.05036074 0.026769709 0.0902206 0.083854415 0.105796926 0.045847192
0.06714428 0.04514262 0.052507654 0.14330386 0.061939303 0.06837747 0.0746545 0.10538891
0.024956528 0.15702239 0.06818999 0.035643216 0.084653296 0.024886793 0.03066273 0.09968846
0.1962881 0.16779967 0.04236104 0.09908861 0.09514179 0.06550419 0.017804682 0.07299189
0.17765129 0.046274245 0.037100483 0.03396131 0.098181985 0.0395515 0.046994172 0.053139832
0.03979541 0.032944005 0.056768276 0.0516093 0.10295054 0.029300336 0.062076133 0.045299586
0.03472164 0.025448672 0.09915932 0.07182224 0.03565411 0.14035873 0.057826217 0.16723545
00000000: 1473 173d c9cd 6c3c fedf c53c 205a 193d
00000010: 28d9 583d 74ba 023e 759d 083d 8acf 8a3d
00000020: b057 f43d 6316 293d 1047 4e3d 264c db3c
00000030: 94c5 b83d ddbb ab3d 0fac d83d 44ca 3b3d
00000040: f182 893d 78e7 383d 4412 573d 3fbe 123e
00000050: 11b4 7d3d 7d09 8c3d 75e4 983d 24d6 d73d
00000060: a271 cc3c 7aca 203e 32a7 8b3d 9ffe 113d
00000070: b55e ad3d 63df cb3c 6830 fb3c 7729 cc3d
00000080: bfff 483e add3 2b3e c582 2d3d f8ee ca3d
00000090: b3d9 c23d 1027 863d 20db 913c c67c 953d
000000a0: 38ea 353e 108a 3d3d adf6 173d 041b 0b3d
000000b0: a313 c93d c100 223d f67c 403d 27a9 593d
000000c0: 8300 233d 4bf0 063d da85 683d 4664 533d
000000d0: bcd7 d23d 4207 f03c 8b43 7e3d 0f8c 393d
000000e0: 4738 0e3d bc79 d03c 0b14 cb3d 8a17 933d
000000f0: 0b0a 123d 33ba 0f3e 2fdb 6c3d c53f 2b3e

weight f4 [128, 256]
0.03708768 0.039718963 -0.02385607 0.067986384 0.021673355 0.051961463 0.0845073 -0.03972831
0.007233124 -0.015394612 -0.01924038 0.07279887 0.07746949 0.06106627 -0.00478489 -0.04482257
0.0011076219 -0.021430176 0.005288339 -0.044366177 -0.018751353 0.026740028 -0.006236915 0.07716727
-0.006527676 0.04878817 -0.04434453 0.033597432 -0.044257425 0.072501354 0.0229432 0.04549693
0.0034193888 0.07473466 0.034740873 0.085709035 0.00828512 0.06766402 0.042333793 0.01897594
0.095140114 0.045783922 0.00471402 0.001371742 0.097435385 0.059806984 0.10299575 0.08169253
0.056139868 0.006766099 -0.0137469685 -0.0016021539 0.059621487 0.021188958 0.05320659 0.03495162
-0.007416401 0.021294579 0.0804405 0.051883284 0.0967734 0.052102752 0.08436753 0.045365885
0.1175806 0.049783554 0.09843263 0.038598694 0.021866443 0.068130575 0.071991146 -0.019302592
0.02728564 0.09144433 0.07410718 0.02518447 -0.014231768 -0.04010785 -0.017338749 0.07925222
0.044044144 -0.02761302 -0.01773901 0.09470542 0.037531063 0.1004798 0.033005543 0.041584194
0.042997323 0.012895188 -0.020374967 0.03776576 0.0947381 -0.014257091 0.051350944 -0.018905915
0.024722077 -0.026365437 0.07813592 0.021017585 0.029427879 0.06672631 -0.0024282534 0.027780127
0.051806312 0.05068993 -0.00168686 0.08098614 0.018577613 -0.046859752 0.03155816 0.08773512
-0.031970643 0.06990797 -0.016930768 -0.0119006345 0.02204661 0.06607249 0.010104625 -0.024557909
0.004990393 -9.8273296e-05 -0.032944333 0.083285436 -0.011101786 0.054839578 0.01884693 0.07278762
0.09830142 0.09172809 -0.0058245314 0.055898555 -0.00046736968 0.07708351 0.10337501 0.06653476
0.07329038 0.042456035 -0.0034975396 0.0024504007 0.05800945 0.030438382 -0.029946495 0.088557884
0.0709761 0.006772664 0.027266484 0.0063532577 -0.0024809572 0.018970307 0.07943775 0.0013906629
0.016422996 0.07842972 -0.0029293566 0.0307171 0.05168582 0.06582962 0.023322484 -0.013969909
0.069840625 0.088802926 0.029411558 0.04378126 0.037562884 -0.012587252 0.0250687 0.0024092605
0.035393253 0.012241562 0.09167418 0.03834908 0.061493278 0.0017328687 0.0031110127 -0.05087577
0.03699649 0.076244 -0.02008099 0.04491525 0.0520392 0.07353227 0.07367131 0.035798702
-0.029538179 0.093810916 0.011753463 0.07460242 0.033799224 0.07311114 0.018056855 -0.0096698925
0.12575512 0.08746636 0.09768149 0.041160386 0.007749672 0.07117461 0.05166475 -0.014368524
0.041517403 -0.0070578684 0.038765617 0.043807823 0.038412724 0.020261345 0.031593643 0.012656175
0.070282385 0.1014793 0.023877205 0.022466764 0.075215526 0.07863548 0.019314233 0.07180666
0.0011270772 -0.023307364 0.038103066 0.05227401 0.02183576 0.09615596 -0.019982224 -0.010235432
0.024343574 0.021533 -0.017908055 0.008142319 0.060899034 0.09001151 0.0642397 0.0620145
-0.01158547 0.076136194 0.07627643 0.018370846 -0.014614882 0.076460786 0.0751317 0.029835239
0.028480543 0.0074422476 -0.028063532 -0.02853271 0.084276386 0.0077706818 0.045213476 0.04765312
-0.02116539 -0.014120534 0.09732213 0.037147216 -0.010107398 0.028874269 -0.041576754 0.038342938
00000000: 40e9 173d 5ab0 223d ce6d c3bc 723c 8b3d
00000010: 528c b13c 8bd5 543d 2a12 ad3d 27ba 22bd
00000020: d803 ed3b af39 7cbc 009e 9dbc 9317 953d
00000030: 53a8 9e3d a020 7a3d 91ca 9cbb df97 37bd
00000040: a02d 913a 568e afbc ce49 ad3b 4fb9 35bd
00000050: 709c 99bc e70d db3c 095f ccbb e009 9e3d
00000060: 1de6 d5bb 1bd6 473d 9ca2 35bd 769d 093d
00000070: 4647 35bd 977b 943d 61f3 bb3c fd5a 3a3d
00000080: d317 603b 7c0e 993d 724c 0e3d 3888 af3d
00000090: 50be 073c 6f93 8a3d 3366 2d3d 6e73 9b3c
000000a0: d2d8 c23d ec87 3b3d 1178 9a3b 06cc b33a
000000b0: 348c c73d 2bf8 743d 70ef d23d 6a4e a73d
000000c0: ebf2 653d 27b6 dd3b f73a 61bc 5dff d1ba
000000d0: a935 743d 7794 ad3c 27ef 593d 6e29 0f3d
000000e0: 4805 f3bb f871 ae3c fdbd a43d 9183 543d
000000f0: 2231 c63d b269 553d e2c8 ac3d 94d1 393d
00000100: 19ce f03d d7e9 4b3d 0c97 c93d aa19 1e3d
00000110: 4121 b33c 0b88 8b3d 1870 933d 7820 9ebc
00000120: 2286 df3c 2a47 bb3d 81c5 973d a94f ce3c
00000130: 5d2c 69bc 2148 24bd fe09 8ebc fd4e a23d
00000140: a267 343d b334 e2bc 6651 91bc eaf4 c13d
00000150: 2cba 193d 5ac8 cd3d d230 073d 3054 2a3d
00000160: f61d 303d 5746 533c 67e9 a6bc 45b0 1a3d
00000170: 0d06 c23d 9396 69bc 5e55 523d 94e0 9abc
00000180: f485 ca3c 54fc d7bc ba05 a03d 122d ac3c
00000190: bc12 f13c cea7 883d 5523 1fbb 2693 e33c
000001a0: db32 543d 3ea0 4f3d a119 ddba 10dc a53d
000001b0: 1430 983c 03f0 3fbd 2143 013d 78ae b33d
000001c0: a6f3 02bd e92b 8f3d 65b2 8abc e1fa 42bc
000001d0: 189b b43c 0351 873d de8d 253c ab2d c9bc
000001e0: 7386 a33b 1318 ceb8 a3f0 06bd 8e91 aa3d
000001f0: 44e4 35bc 779f 603d e064 9a3c ad11 953d
00000200: 4152 c93d f0db bb3d b6db bebb e2f5 643d
00000210: 4c09 f5b9 f6dd 9d3d 47b6 d33d 6043 883d
00000220: 4419 963d 61e6 2d3d fa36 65bb e796 203b
00000230: 519b 6d3d ea59 f93c 5a52 f5bc d65d b53d
00000240: eb5b 913d 39ed dd3b f65d df3c fd2e d03b
00000250: 8e97 22bb 9e67 9b3c 42b0 a23d e746 b63a
00000260: 8589 863c c39f a03d 73fa 3fbb 6da2 fb3c
00000270: 83b4 533d aed1 863d cb0e bf3c 0ce2 64bc
00000280: 9a08 8f3d 4fde b53d 82f0 f03c fa53 333d
00000290: 8adb 193d c33a 4ebc e05c cd3c afe4 1d3b
000002a0: 84f8 103d d590 483c acbf bb3d ed13 1d3d
000002b0: 60e0 7b3d 6d21 e33a 22e2 4b3b 1d63 50bd
000002c0: a289 173d d025 9c3d e380 a4bc 0ef9 373d
000002d0: 0e27 553d 1698 963d fce0 963d a9a1 123d
000002e0: 0dfa f1bc f01f c03d 9991 403c 27c9 983d
000002f0: 0e71 0a3d 4bbb 953d f8eb 933c 786e 1ebc
00000300: f3c5 003e 9021 b33d 3c0d c83d cb97 283d
00000310: f6f0 fd3b fec3 913d 6b9e 533d f569 6bbc
00000320: 270e 2a3d b145 e7bb b2c8 1e3d d56f 333d
00000330: a956 1d3d 1ffb a53c 5668 013d d85b 4f3c
00000340: 36f0 8f3d 61d4 cf3d 219a c33c 380c b83c
00000350: 990a 9a3d a30b a13d e238 9e3c 5f0f 933d
00000360: 6fba 933a 16ef bebc f611 1c3d 461d 563d
00000370: e8e0 b23c 6aed c43d c3b1 a3bc 83b2 27bc
00000380: 2d6c c73c f965 b03c eab3 92bc 5c67 053c
00000390: 4471 793d f457 b83d 1b90 833d eb02 7e3d
000003a0: fcd0 3dbc 4bed 9b3d d136 9c3d 757e 963c
000003b0: 4273 6fbc 7997 9c3d a6de 993d 0869 f43c
000003c0: 0750 e93c 19de f33b 7ee5 e5bc 6ebd e9bc
000003d0: 1999 ac3d 34a1 fe3b c431 393d eb2f 433d
000003e0: 0a63 adbc d059 67bc d350 c73d ae27 183d
000003f0: 8099 25bc bb89 ec3c 634c 2abd 7c0d 1d3d

bias f4 [128]
0.086404726 -0.0014527912 -0.011945088 0.0612959 -0.034755472 -0.0047253715 0.038826887 0.06888336
-0.05130578 0.046368636 -0.00083253585 0.050309304 0.055762265 -0.047385473 -0.01780317 -0.0045687314
-0.028962038 0.014463105 0.021860627 -0.018173307 0.057781477 -0.073044196 -0.025881346 0.060271878
0.020892411 0.032495663 -0.0201858 -0.008173486 -0.0074130925 0.07614663 0.0013547108 0.018031843
-0.022543019 0.015482268 0.09850809 0.031809617 0.07425753 0.013364692 -0.02253548 -0.064223655
0.06689967 0.006719269 0.018890165 -0.047192 0.060713794 0.009319175 -0.0061731027 0.06706902
0.014622898 -0.03241975 -0.0011510741 0.03884494 0.057826415 0.03989465 0.09162824 0.0022283334
0.0534764 -0.0075270543 0.047742903 0.029454125 0.079981655 -0.060049556 0.043351088 -0.030914245
-0.06424852 0.032663047 0.010012152 0.055213008 0.047078628 -0.05223226 -0.038680624 0.02373559
0.022430202 -0.064241216 0.049759872 0.022093086 -0.04828651 0.025973106 0.06248956 0.026833931
0.01583793 -0.0459444 -0.051978942 -0.040093195 -0.002482269 0.08983994 -0.0016376115 0.059691954
-0.020087268 0.0026810113 0.06302273 0.025058845 -0.030141272 9.133474e-05 0.075837545 0.0087695895
0.08300799 0.034605663 0.060645025 0.040564157 0.0038942785 -0.067374155 0.074640006 -0.0045739464
0.07740785 -0.008816001 0.05525734 -0.07190708 0.055019733 0.06367862 0.06845181 -0.008814219
0.037867818 0.047421556 -0.001787502 -0.04706286 0.078826636 0.0069544725 -0.011409197 0.036085688
-0.02574199 0.028144365 0.03485423 0.048914194 0.08208169 0.037332203 0.05870007 -0.0054611815
00000000: f6f4 b03d 956b beba 55b5 43bc 6911 7b3d
00000010: c15b 0ebd 4ad7 9abb f108 1f3d b812 8d3d
00000020: 0226 52bd 0aed 3d3d 893e 5aba 2111 4e3d
00000030: f966 643d 4517 42bd f4d7 91bc 4cb5 95bb
00000040: cc41 edbc a9f6 6c3c 0f15 b33c 30e0 94bc
00000050: 45ac 6c3d 3298 95bd 1e05 d4bc a5df 763d
00000060: 9026 ab3c 2c1a 053d b15c a5bc 16ea 05bc
00000070: 87e9 f2bb c4f2 9b3d 8d90 b13a 84b7 933c
00000080: 23ac b8bc 57a9 7d3c 9cbe c93d cd4a 023d
00000090: 5514 983d 95f7 5a3c 549c b8bc b187 83bd
000000a0: b202 893d 502d dc3b 8cbf 9a3c 664c 41bd
000000b0: 07af 783d 74af 183c bd47 cabb 7b5b 893d
000000c0: e194 6f3c 92ca 04bd a3df 96ba df1b 1f3d
000000d0: 64db 6c3d 9368 233d 96a7 bb3d 3b09 123b
000000e0: 120a 5b3d 82a5 f6bb 108e 433d c749 f13c
000000f0: 6ccd a33d 86f6 75bd e990 313d df3f fdbc
00000100: ba94 83bd b0c9 053d 020a 243c 0927 623d
00000110: 85d5 403d 7ff1 55bd 936f 1ebd 2471 c23c
00000120: 8bbf b73c e690 83bd 02d1 4b3d 8ffc b43c
00000130: 13c8 45bd 8dc5 d43c 0ef5 7f3d d5d2 db3c
00000140: 8cbe 813c 3230 3cbd dfe7 54bd c338 24bd
00000150: 90ad 22bb 01fe b73d 20a5 d6ba 8d7f 743d
00000160: 0e8e a4bc e8b3 2f3b 1012 813d 3548 cd3c
00000170: d4ea f6bc f78a bf38 b750 9b3d 53ae 0f3c
00000180: 1800 aa3d abbe 0d3d eb66 783d 9a26 263d
00000190: 2737 7f3b 76fb 89bd dcdc 983d 0be1 95bb
000001a0: 0288 9e3d fd70 10bc 8555 623d 0544 93bd
000001b0: 5f5c 613d f069 823d 7630 8c3d 8469 10bc
000001c0: 491b 1b3d 1b3d 423d 9d4a eaba fcc4 40bd
000001d0: dc6f a13d 58e2 e33b a4ed 3abc 96ce 133d
000001e0: dee0 d2bc 038f e63c 4fc3 0e3d 405a 483d
000001f0: 721a a83d a7e9 183d 7c6f 703d b6f3 b2bb

weight f4 [32, 128]
0.04330091 0.04783244 -0.069256224 -0.08353191 0.06983061 0.04445085 0.009905195 -0.07112405
-0.01665029 -0.027225165 0.0607161 0.044647004 0.090260565 0.011501513 0.064099595 0.06253396
-0.03938721 0.066453926 0.039094772 0.0873804 0.04762087 -0.024439663 -0.04473615 0.054561142
-0.037539124 0.014955879 -0.0075306105 0.004347621 -0.029248748 0.025942221 -0.051822633 -0.04265658
-0.07683749 -0.07490893 0.04355755 -0.08142601 0.02624561 0.07248319 -0.07821448 -0.06611566
-0.06196463 -0.0018524467 0.04701528 0.014243189 0.03964817 -0.031822715 -0.04542984 -0.055394873
-0.07707617 0.030627418 0.07046907 -0.0230055 0.07125945 -0.037745025 0.04708351 0.024872638
-0.07876291 -0.036488943 -0.06986103 -0.085704565 -0.06023791 -0.024218569 -0.02681297 -0.04321201
-0.00086700305 -0.037827864 -0.027659616 0.018474776 -0.0048617 0.042758696 -0.012421337 -0.07470525
-0.017390264 -0.05519084 -0.07046268 0.044775885 -0.058432337 -0.08833202 -0.087985896 -0.020281242
-0.08351851 -0.0641194 -0.091329254 -0.019119957 0.024871659 -0.02716152 -0.06986504 -0.001598912
-0.026185695 -0.00060557784 -0.07191884 0.01913314 -8.943664e-06 0.0604644 -0.02982032 0.021015747
-0.01646238 0.02119047 -0.0608524 0.06759056 0.051486854 -0.08086666 -0.08809911 -0.08288063
0.09025144 0.080527715 0.07790309 -0.06043536 0.083084896 -0.06474592 -0.07676699 -0.052112196
0.06378358 0.0403139 -0.00087202777 -0.04711079 -0.022156209 0.045710944 0.02439042 -0.081143096
-0.05999426 0.03381401 0.00053365633 -0.04145526 -0.06377142 -0.08072112 -0.07100875 0.04859293
-0.0019491925 0.051413756 0.06975964 0.06261916 -0.021403031 0.009248541 0.07999153 0.11771938
-0.06868224 0.12585762 0.10109328 0.075164616 0.048442077 -0.06564195 -0.032708187 0.11061862
-0.021253863 0.08414502 0.008846842 0.05947289 0.06675309 -0.044765376 0.06401125 0.10033942
0.12713853 0.04115842 -0.053553775 0.015420317 -0.026931586 0.0035396086 -0.06968105 0.13344604
0.027099451 0.04220653 0.04176478 -0.002914613 0.04525465 -0.08059228 0.052137937 -0.005052074
-0.032746162 -0.05210584 0.07117977 -0.081517555 0.00473426 -0.044260994 0.05881587 0.09944463
-0.050081473 -0.061156776 -0.03740821 -0.02069136 -0.043145385 -0.0029947585 0.042964175 -0.08049263
0.07707261 -0.002066127 0.09276493 0.09064686 0.014626299 -0.0026879054 -0.05628654 -0.03734044
0.04502364 0.11346744 0.0148424795 -0.017905211 -0.083844796 0.00392399 0.05850459 0.09317681
0.06734533 0.004865754 -0.0066638095 0.1290704 -0.0716588 0.11595677 0.050743368 -0.009195207
0.055137422 -0.043942027 0.0065375287 -0.022340491 0.10857552 0.053408157 0.026261603 -0.027216336
0.10854197 -0.07733752 0.013698805 0.03045826 0.059991818 0.0146546 0.13169122 0.07859179
0.073495634 0.055644147 0.06697333 0.1295422 0.031907536 -0.119090974 0.14332707 -0.0475265
0.11896334 0.1262732 -0.08110973 0.07909057 0.0001622383 0.09024203 -0.04527563 0.10675268
0.030467741 0.111117885 0.07970938 0.013581213 0.05969023 0.028190285 0.0439611 0.09888284
0.08870965 0.073941834 -0.037130523 -0.01025873 0.12179765 -0.023824675 0.026486011 -0.0027385848
00000000: 4c5c 313d f3eb 433d 35d6 8dbd c712 abbd
00000010: 5a03 8f3d 1812 363d 6649 223c 7ca9 91bd
00000020: 3066 88bc 4f07 dfbc 72b1 783d c7df 363d
00000030: 88da b83d d870 3c3c a646 833d ce11 803d
00000040: 7c54 21bd ff18 883d d721 203d 7ff4 b23d
00000050: 1a0e 433d b035 c8bc 413d 37bd 817b 5f3d
00000060: a0c2 19bd 8109 753c 57c3 f6bb 7d76 8e3b
00000070: 129b efbc c884 d43c f843 54bd abb8 2ebd
00000080: f95c 9dbd da69 99bd 6769 323d aec2 a6bd
00000090: 0901 d73c 1172 943d ea2e a0bd a667 87bd
000000a0: a0ce 7dbd cccd f2ba 1893 403d 445c 693c
000000b0: 1f66 223d 8958 02bd a414 3abd bce5 62bd
000000c0: 1cda 9dbd 5ae6 fa3c 1652 903d 0876 bcbc
000000d0: 79f0 913d 879a 1abd a3da 403d b4c1 cb3c
000000e0: 734e a1bd 6e75 15bd 4d13 8fbd e085 afbd
000000f0: 07bc 76bd 0566 c6bc e0a6 dbbc 14ff 30bd
00000100: 9747 63ba 64f1 1abd 6b96 e2bc 6a58 973c
00000110: e54e 9fbb be23 2f3d dd82 4bbc 11ff 98bd
00000120: 0776 8ebc ca0f 62bd bd4e 90bd eb66 373d
00000130: bf56 6fbd 6be7 b4bd f331 b4bd d924 a6bc
00000140: c10b abbd 0851 83bd d50a bbbd 75a1 9cbc
00000150: a6bf cb3c d681 debc 6715 8fbd 9592 d1ba
00000160: 6283 d6bc a4bf 1eba 2f4a 93bd 1abd 9c3c
00000170: bf0c 16b7 85a9 773d be49 f4bc 3729 ac3c
00000180: 1ddc 86bc a397 ad3c 5e40 79bd eb6c 8a3d
00000190: e1e3 523d 6b9d a5bd 4e6d b4bd 52bd a9bd
000001a0: bfd5 b83d b7eb a43d a88b 9f3d 118b 77bd
000001b0: 6a28 aa3d 8299 84bd 0338 9dbd 9973 55bd
000001c0: f7a0 823d 3020 253d cb98 64ba 3ef7 40bd
000001d0: f080 b5bc 663b 3b3d 6bce c73c 5a2e a6bd
000001e0: 8bbc 75bd 8f80 0a3d 12e5 0b3a fecc 29bd
000001f0: 979a 82bd 1d51 a5bd 096d 91bd 6109 473d
00000200: 0c7c ffba 3b97 523d 24de 8e3d 793e 803d
00000210: 6955 afbc 3187 173c 99d2 a33d dc16 f13d
00000220: 46a9 8cbd d2e0 003e fe09 cf3d e8ef 993d
00000230: 336b 463d 496f 86bd 05f9 05bd 048c e23d
00000240: 951c aebc 3954 ac3d 58f2 103c d899 733d
00000250: d8b5 883d e65b 37bd 5518 833d c17e cd3d
00000260: 9a30 023e bb95 283d 345b 5bbd 7fa5 7c3c
00000270: a19f dcbc c7f8 673b f0b4 8ebd 14a6 083e
00000280: abff dd3c c1e0 2c3d 8c11 2b3d 1803 3fbb
00000290: f15c 393d 910d a5bd 978e 553d de8b a5bb
000002a0: d720 06bd ef6c 55bd b3c6 913d adf2 a6bd
000002b0: da21 9b3b 044b 35bd e9e8 703d a0a9 cb3d
000002c0: 3b22 4dbd 877f 7abd 5a39 19bd ed80 a9bc
000002d0: 37b9 30bd b643 44bb 34fb 2f3d 52d9 a4bd
000002e0: 3fd8 9d3d dc67 07bb 8afb bd3d 10a5 b93d
000002f0: 25a3 6f3c 9227 30bb b78c 66bd 4af2 18bd
00000300: b56a 383d 9e61 e83d df2d 733c f3ad 92bc
00000310: d2b6 abbd d094 803b 82a2 6f3d 7cd3 be3d
00000320: 59ec 893d e770 9f3b 165c dabb 082b 043e
00000330: d9c1 92bd be7a ed3d 47d8 4f3d 7ea7 16bc
00000340: c7d7 613d 8efc 33bd c438 d63b 6803 b7bc
00000350: d85c de3d 83c2 5a3d 9322 d73c cbf4 debc
00000360: 414b de3d 2263 9ebd f470 603c 9a83 f93c
00000370: fbb9 753d d919 703c 10da 063e bbf4 a03d
00000380: e184 963d 1eeb 633d 5029 893d b6a6 043e
00000390: 7ab1 023d f8e5 f3bd 55c4 123e 26ab 42bd
000003a0: 0da3 f33d c34d 013e dc1c a6bd 3dfa a13d
000003b0: 831e 2a39 d0d0 b83d f072 39bd 26a1 da3d
000003c0: 7c97 f93c c691 e33d ac3e a33d bc83 5e3c
000003d0: be7d 743d 50ef e63c 8e10 343d 1683 ca3d
000003e0: 68ad b53d d16e 973d 2d16 18bd 3b14 28bc
000003f0: 0c71 f93d f72b c3bc 31f9 d83c d479 33bb

bias f4 [32]
0.034802433 0.11722086 0.036311004 0.034373596 -0.05943674 0.031533934 0.00949962 0.011351101
-0.087841906 0.02457459 -0.026474576 0.015179903 0.09466024 0.08423814 -0.06020268 -0.06396587
-0.06273468 -0.037223544 0.009867838 0.11300297 0.0070771277 -0.060350142 -0.0067109033 -0.0304472
-0.045095645 0.010039115 0.11513825 0.007787527 0.008585241 -0.0037428073 0.005532434 -0.02875428
00000000: ff8c 0e3d 7e11 f03d d9ba 143d 54cb 0c3d
00000010: f073 73bd ba29 013d 4ba4 1b3c f8f9 393c
00000020: 75e6 b3bd a750 c93c 36e1 d8bc 21b5 783c
00000030: 3add c13d 0c85 ac3d 1697 76bd 8a00 83bd
00000040: 0a7b 80bd b777 18bd b6ac 213c 1a6e e73d
00000050: 40e7 e73b b631 77bd 23e7 dbbb 686c f9bc
00000060: 36b6 38bd 1a7b 243c 9acd eb3d 832e ff3b
00000070: 1ca9 0c3c e349 75bb 6c49 b53b 198e ebbc

weight f4 [4, 32]
-0.030765975 0.11294287 0.023495536 0.123313524 -0.070362866 -0.10225331 -0.06043879 0.12048928
-0.06601167 0.12965968 -0.08547161 0.0045158085 0.010997198 0.08896744 0.12051283 -0.082703784
-0.011819341 -0.05460437 -0.14738056 0.17687534 0.03324063 -0.0947294 0.10888513 -0.12577644
0.08251368 -0.0007800422 0.18665852 0.17768626 -0.104006656 -0.01742838 -0.026076742 0.11165741
0.04994291 -0.061192304 0.092825525 0.16757624 0.09416698 0.16045356 0.051315363 0.0005065425
0.0069581186 0.23913038 -0.099739775 -0.07064124 0.08781498 0.15223156 -0.02786081 -0.05056854
-0.1499453 0.031202743 -0.06793297 0.15984222 0.105507344 0.2502388 0.0768415 0.036458258
0.06236011 -0.085652575 0.21521118 0.1518671 0.07885523 0.010155315 0.25809208 0.15695937
0.01277247 0.108626395 -0.06410895 0.011689624 -0.02798818 -0.11165193 0.03361671 0.041629013
-0.17229782 -0.02093646 -0.073186986 -0.16416368 0.19585922 0.07452382 0.010965986 0.06716665
-0.060859587 0.14433098 -0.06853567 0.004813019 0.08692064 -0.0857996 0.008129734 0.0074424073
-0.13599427 -0.21684879 0.012037761 -0.0049310746 0.13659793 -0.10208928 0.04675454 0.22026667
-0.13223794 0.08891761 0.17497662 0.066962734 0.08127634 0.008739968 0.20979965 0.18337142
-0.15404987 0.08630767 -0.06066095 -0.09971058 -0.11512386 -0.06725793 0.058569882 -0.10284734
-0.058130484 0.06284012 0.1391793 0.07843408 0.16961406 0.2056883 0.10624544 -0.07888925
0.13269842 -0.081353955 -0.016581116 0.18895192 -0.13006003 -0.13967307 0.05890079 -0.018887017
00000000: ed08 fcbc 974e e73d b679 c03c cd8b fc3d
00000010: 681a 90bd 2f6a d1bd aa8e 77bd 15c3 f63d
00000020: 2031 87bd 82c5 043e bd0b afbd 59f9 933b
00000030: 972d 343c 9034 b63d 6ecf f63d 9a60 a9bd
00000040: e9a5 41bc d5a8 5fbd eeea 16be cf1e 353e
00000050: 5427 083d 7d01 c2bd 2bff de3d 8acb 00be
00000060: effc a83d bf7b 4cba 6923 3f3e 63f3 353e
00000070: 7101 d5bd f6c5 8ebc e49e d5bc a4ac e43d
00000080: f090 4c3d c8a4 7abd 4f1b be3d 1b99 2b3e
00000090: 9eda c03d f04d 243e 0f30 523d 7ec9 043a
000000a0: ee00 e43b 98de 743e 5e44 ccbd 5bac 90bd
000000b0: 57d8 b33d 97e2 1b3e 5a3c e4bc f520 4fbd
000000c0: 438b 19be e59c ff3c 7120 8bbd aead 233e
000000d0: 3c14 d83d 4d1f 803e 145f 9d3d 4155 153d
000000e0: 516d 7f3d 9e6a afbd 5260 5c3e 0d83 1b3e
000000f0: da7e a13d 7a62 263c a524 843e f5b9 203e
00000100: 9f43 513c 8477 de3d 8e4b 83bd d685 3f3c
00000110: 7847 e5bc c4a9 e4bd adb1 093d 2f83 2a3d
00000120: d76e 30be f082 abbc 0fe3 95bd 861a 28be
00000130: 528f 483e f29f 983d aeaa 333c ab8e 893d
00000140: e747 79bd 80cb 133e 6e5c 8cbd 88b6 9d3b
00000150: 7303 b23d b3b7 afbd 9332 053c 70df f33b
00000160: 1542 0bbe 9c0d 5ebe 073a 453c da94 a1bb
00000170: 54e0 0b3e 2f14 d1bd b081 3f3d 968d 613e
00000180: 6269 07be 701a b63d 122d 333e c223 893d
00000190: 3674 a63d 1532 0f3c b8d5 563e b8c5 3b3e
000001a0: 40bf 1dbe 13c2 b03d 9e77 78bd 1035 ccbd
000001b0: 0fc6 ebbd 87be 89bd f9e6 6f3d a0a1 d2bd
000001c0: 3b1a 6ebd 52b2 803d 0585 0e3e 0ca2 a03d
000001d0: 4faf 2d3e f49f 523e 3697 d93d b090 a1bd
000001e0: 18e2 073e e79c a6bd 1fd5 87bc 9d7c 413e
000001f0: 752e 05be 7506 0fbe f441 713d f2b8 9abc

bias f4 [4]
-0.002861965 0.01967985 -0.03715506 -0.037981655
00000000: ce8f 3bbb a337 a13c e72f 18bd a792 1bbd

weight f4 [2, 4]
-0.33904934 -0.46306092 -0.5397611 -0.54181933 0.20973752 -0.17663778 0.34355882 0.33662742
00000000: e097 adbe 5216 edbe c92d 0abf acb4 0abf
00000010: 6fc5 563e 89e0 34be f1e6 af3e 6e5a ac3e

bias f4 [2]
-0.04594374 0.22286098
00000000: 812f 3cbd ab35 643e
