Network2/params/mlp_nwParams0831190704.pth (torch_old, 89994 bytes, 12 tensors)

weight f4 [105]
0	0x3efa9eb5	0.4894921
1	0x3f65bc48	0.8974042
2	0x3f320c68	0.6955018
3	0x3f4df0fa	0.80445826
4	0x3f6d1257	0.9260611
5	0x3ee9fd42	0.45701033
6	0x3deca3e1	0.11554695
7	0x3efceeb6	0.49400872
8	0x3f151488	0.58234453
9	0x3ee1bfea	0.4409173
10	0x3d03dd65	0.03219356
11	0x3f29fe51	0.6640368
12	0x3e528303	0.2055779
13	0x3f47349b	0.77814645
14	0x3f51f483	0.8201372
15	0x3f74df2b	0.9565303
16	0x3e99faf4	0.30074275
17	0x3f2dba4d	0.678624
18	0x3ca1f2b5	0.019769052
19	0x3e5546d2	0.20827797
20	0x3e8d0dd6	0.27549618
21	0x3e252352	0.16126755
22	0x3e918186	0.2841913
23	0x3f3ac36b	0.72954434
24	0x3f26a310	0.65092564
25	0x3ee44f9d	0.4459199
26	0x3f3b8932	0.7325622
27	0x3e5f869e	0.21828696
28	0x3f6fad1a	0.9362351
29	0x3f64203e	0.891117
30	0x3f0f7501	0.5603791
31	0x3f156171	0.5835181
32	0x3e984391	0.2973905
33	0x3f1bd1b1	0.6086684
34	0x3d6391de	0.05555903
35	0x3f360ad7	0.7111029
36	0x3f198b01	0.5997773
37	0x3f393ea9	0.72361237
38	0x3f547c78	0.83002424
39	0x3e263138	0.16229713
40	0x3ee899bb	0.45429787
41	0x3eb7e243	0.35914811
42	0x3ee9ce2b	0.45665106
43	0x3d5a27f9	0.053260777
44	0x3f75aa97	0.95963424
45	0x3f65b7d3	0.8973362
46	0x3f065b14	0.52482724
47	0x3e41b631	0.18917157
48	0x3f11fb29	0.57023865
49	0x3ef27a8c	0.4735912
50	0x3f1fae4e	0.6237534
51	0x3ea07600	0.31340027
52	0x3ee74116	0.45166844
53	0x3f0e4cec	0.55586123
54	0x3f1aca10	0.6046457
55	0x3f6ee810	0.9332285
56	0x3ebcd49d	0.3688096
57	0x3f199f98	0.60009146
58	0x3f2957b7	0.6614947
59	0x3e537e94	0.20653754
60	0x3eda327c	0.42616642
61	0x3e341f53	0.17590074
62	0x3f17cf23	0.5930044
63	0x3e8b3d3c	0.27195156
64	0x3e33e398	0.17567289
65	0x3f46a906	0.7760166
66	0x3f568bc6	0.8380703
67	0x3f322412	0.6958629
68	0x3f4af250	0.7927599
69	0x3de17aab	0.11009725
70	0x3f642e0d	0.8913277
71	0x3f192a49	0.5983015
72	0x3f6ed77e	0.93297565
73	0x3eb65040	0.356081
74	0x3e6ff2bd	0.23432441
75	0x3f149600	0.5804138
76	0x3e4c9b11	0.19981028
77	0x3f3551e3	0.70828074
78	0x3f073f3c	0.52830863
79	0x3f08d56a	0.53450644
80	0x3ee06fbf	0.43835256
81	0x3e9ee9fc	0.3103789
82	0x3edb00ff	0.42774197
83	0x3ef21f26	0.4728939
84	0x3f14ae36	0.58078325
85	0x3d0fe7ef	0.0351333
86	0x3e3741a8	0.1789614
87	0x3f055d65	0.52095634
88	0x3e740053	0.23828249
89	0x3f636c1c	0.88836837
90	0x3e9ca399	0.30593565
91	0x3f801f63	1.0009578
92	0x3dccc144	0.099978
93	0x3e598c57	0.21244942
94	0x3f6fe1cc	0.93703914
95	0x3eabf331	0.33583978
96	0x3f138d0e	0.5763711
97	0x3f322c63	0.6959898
98	0x3dad3f8b	0.084593855
99	0x3f01118d	0.50417405
100	0x3f1449cd	0.5792511
101	0x3f12f33a	0.57402384
102	0x3f5b3838	0.8563266
103	0x3e8afc09	0.27145413
104	0x3e160d1c	0.14653438

bias f4 [105]
0	0xbd2cf96e	-0.042230062
1	0xbd0cdc15	-0.034389574
2	0xbb11e6c3	-0.002226279
3	0xbc16ce0e	-0.009204401
4	0xbd09e09f	-0.03366148
5	0x3c51fbda	0.012816394
6	0xbd21726b	-0.039415758
7	0x3d828046	0.063721225
8	0xbcc53569	-0.02407332
9	0x3ce42225	0.027848313
10	0xbdbb3d10	-0.09142506
11	0xbbf5991c	-0.0074950587
12	0x3d4a5c01	0.049404148
13	0xbcbb8a46	-0.022893082
14	0x3d5f2143	0.05447508
15	0xbb8bd8ee	-0.0042678034
16	0xbdb39e99	-0.087704845
17	0x3d450fc3	0.048110735
18	0xbdf908ab	-0.121598564
19	0xbd80a594	-0.062815815
20	0x3dda8053	0.10669007
21	0xbbd2fa3d	-0.006438522
22	0x3cc31a4d	0.023816252
23	0x3d6311d7	0.055436935
24	0x3cb48508	0.02203609
25	0x3d23fad6	0.040034138
26	0x3d38a6f3	0.04508109
27	0xbdac6034	-0.08416787
28	0x3c410bb4	0.011782575
29	0x3dbda0c2	0.09259178
30	0xbd22a5d0	-0.039708912
31	0xbcc98b3f	-0.02460253
32	0x3d3f402a	0.04669205
33	0x3c0f6e19	0.008754277
34	0xbb116aff	-0.0022189019
35	0xbd966d9b	-0.07345124
36	0x3d341dcd	0.043973733
37	0xbb37f69b	-0.0028070572
38	0xbd069f5f	-0.032866832
39	0xbbc6ab99	-0.0060629365
40	0xbd31e263	-0.04342879
41	0x3daaa696	0.08332555
42	0x3d143caf	0.036190685
43	0x3de62154	0.112368256
44	0x3cb6e9ad	0.022328222
45	0x3d88e0cf	0.06683504
46	0x3ddd2c4e	0.10799466
47	0xbd76d557	-0.06026205
48	0x3ca61899	0.020275401
49	0x3c82cd99	0.015967177
50	0x3c137992	0.009001153
51	0xbd121bd7	-0.03567108
52	0x3d06e66d	0.032934595
53	0x3d0f4bbf	0.034984346
54	0xbd41a883	-0.047279846
55	0x3d761861	0.060081843
56	0x3dc580ec	0.096437305
57	0xbbdeca60	-0.0067990273
58	0x3d073c75	0.03301664
59	0x3d93f2f6	0.072240755
60	0x3d1e8f87	0.038711097
61	0x3d9566c8	0.072949946
62	0x3ce75af6	0.028241616
63	0x3d841040	0.06448412
64	0x3b89498e	0.0041896766
65	0x3c1ddf32	0.009635733
66	0x3c16c46f	0.009202107
67	0xbccd5937	-0.025066955
68	0x3cc888b7	0.024479253
69	0xbcdf91be	-0.027291175
70	0xbd62c7e0	-0.055366397
71	0x3d19a3a7	0.037509587
72	0x3a3f4a7b	0.000729717
73	0xbd9c33cf	-0.07627069
74	0xbd25b711	-0.04045779
75	0x3e0575d6	0.13033232
76	0x3da32f93	0.079680584
77	0x3bd1a0cc	0.0063973423
78	0x3ca64892	0.020298276
79	0x3ce5940b	0.028024694
80	0x3c8687a4	0.0164221
81	0xbd5448aa	-0.05182711
82	0xbd4feaeb	-0.050761145
83	0xbce6cb5c	-0.028173141
84	0x3bff64b9	0.0077939895
85	0xbdc936d1	-0.098249085
86	0x3ccc8a38	0.024968252
87	0xbd42fef4	-0.047606423
88	0x3d1e5945	0.038659353
89	0xbc4ba0e1	-0.012428493
90	0x3c9b86c7	0.018985165
91	0xbc4eb94a	-0.012617419
92	0x3c677aa6	0.014128363
93	0x3d9be67a	0.07612319
94	0xbba30088	-0.0049744286
95	0xbb950f18	-0.0045489185
96	0xbd402a2f	-0.04691523
97	0xbd867fbf	-0.065673344
98	0x3d96155e	0.07328294
99	0x3d438bd4	0.047740772
100	0x3ca74c7d	0.020422215
101	0xbd70af85	-0.05876114
102	0xbb3588ae	-0.0027699876
103	0x3ce59a85	0.028027782
104	0x3d81abf9	0.06331629

running_mean f4 [105]
0	0x3e91cc4d	0.28476182
1	0x3e8a901a	0.27063066
2	0x3ead4a20	0.33845615
3	0x3e52ad76	0.20573983
4	0x3e607e6d	0.21923228
5	0x3eedb907	0.46430227
6	0x3f6664c4	0.89997506
7	0x3f5ba5cb	0.85799855
8	0x3f958a04	1.1682744
9	0x3eafffdf	0.34374902
10	0x3e91cc4d	0.28476182
11	0x3e8a901a	0.27063066
12	0x3e57ace6	0.2106205
13	0x3e584775	0.21121009
14	0x3ef1c0ef	0.4721751
15	0x3f71ecc6	0.9450191
16	0x3f5a2055	0.85205585
17	0x3f9d0ac7	1.2268914
18	0x3e8f6e09	0.28013638
19	0x3eafffdf	0.34374902
20	0x3e91cc4d	0.28476182
21	0x3e59644c	0.21229666
22	0x3e649b02	0.22324756
23	0x3eef9b90	0.46798372
24	0x3f7197e4	0.9437239
25	0x3f69e532	0.9136535
26	0x3f9f5c7c	1.2450099
27	0x3e972076	0.29516953
28	0x3e8f6e09	0.28013638
29	0x3eafffdf	0.34374902
30	0x3e58582e	0.21127388
31	0x3e6f274b	0.23354833
32	0x3ef06ab7	0.46956417
33	0x3f6ded40	0.9294014
34	0x3f6ed6ad	0.9329632
35	0x3f965c3f	1.1746901
36	0x3eb624f7	0.35575077
37	0x3e972076	0.29516953
38	0x3e8f6e09	0.28013638
39	0x3e62691e	0.22110412
40	0x3e685252	0.22687653
41	0x3ef4a067	0.47778627
42	0x3f79e8bd	0.97620755
43	0x3f6b20ef	0.9184713
44	0x3fa09a26	1.2547042
45	0x3e947a17	0.28999397
46	0x3eb624f7	0.35575077
47	0x3e972076	0.29516953
48	0x3e633690	0.22188783
49	0x3e6ad9fb	0.22934715
50	0x3ef81945	0.4845678
51	0x3f7fb361	0.99883085
52	0x3f6cbdea	0.92477286
53	0x3fa08e40	1.2543411
54	0x3e9b80a7	0.3037159
55	0x3e947a17	0.28999397
56	0x3eb624f7	0.35575077
57	0x3e604ccf	0.219043
58	0x3e805d27	0.2507107
59	0x3ef34268	0.475116
60	0x3f6c1565	0.92220145
61	0x3f74d155	0.95631915
62	0x3f9bd7a2	1.2175181
63	0x3eb63c85	0.35593048
64	0x3e9b80a7	0.3037159
65	0x3e947a17	0.28999397
66	0x3e69ac7e	0.22819707
67	0x3e743eb6	0.23852047
68	0x3ef44bc6	0.4771406
69	0x3f7ed670	0.99545956
70	0x3f7a083b	0.9766881
71	0x3fa29b91	1.2703725
72	0x3e9b6281	0.3034859
73	0x3eb63c85	0.35593048
74	0x3e9b80a7	0.3037159
75	0x3e712f8d	0.23553295
76	0x3e70e06a	0.23523107
77	0x3ef95191	0.48695043
78	0x3f83a14d	1.02836
79	0x3f731502	0.9495393
80	0x3fa5c48c	1.2950606
81	0x3e9d825b	0.30763516
82	0x3e9b6281	0.3034859
83	0x3eb63c85	0.35593048
84	0x3e650ffc	0.22369379
85	0x3e761eed	0.24035235
86	0x3eff20c4	0.49829686
87	0x3f6dc670	0.92880917
88	0x3f752828	0.957644
89	0x3fa038a3	1.2517284
90	0x3ec10513	0.37699184
91	0x3e9d825b	0.30763516
92	0x3e9b6281	0.3034859
93	0x3e7a3d90	0.24437547
94	0x3e6ef792	0.23336628
95	0x3f01369f	0.5047397
96	0x3f83e272	1.0303481
97	0x3f727cbd	0.94721586
98	0x3fa82451	1.3136083
99	0x3ea17894	0.31537306
100	0x3ec10513	0.37699184
101	0x3e9d825b	0.30763516
102	0x3e76193a	0.2403306
103	0x3e7b8796	0.2456344
104	0x3f024b11	0.5089579

running_var f4 [105]
0	0x3e551363	0.20808177
1	0x3e4bf17b	0.19916336
2	0x3e6b7b89	0.22996344
3	0x3d107f1d	0.035277475
4	0x3d40469c	0.04694234
5	0x3d9cf853	0.076645516
6	0x3f13abdb	0.57684106
7	0x3f13cf7b	0.57738465
8	0x3f10be79	0.5654064
9	0x3e6d6766	0.23183975
10	0x3e551363	0.20808177
11	0x3e4bf17b	0.19916336
12	0x3d09c8f1	0.0336389
13	0x3d24346d	0.04008906
14	0x3d880ef2	0.066434756
15	0x3f15b98c	0.5848625
16	0x3f0e80b3	0.5566513
17	0x3f0ed567	0.55794376
18	0x3e510885	0.20413406
19	0x3e6d6766	0.23183975
20	0x3e551363	0.20808177
21	0x3d15adf8	0.036542863
22	0x3d1cb5fb	0.038259488
23	0x3d88d919	0.06682033
24	0x3f1ad61a	0.60482943
25	0x3f0f7607	0.5603947
26	0x3f0be4de	0.546461
27	0x3e58a3ce	0.21156237
28	0x3e510885	0.20413406
29	0x3e6d6766	0.23183975
30	0x3d1141f2	0.03546328
31	0x3d375be9	0.044765387
32	0x3d91a7a2	0.071120515
33	0x3f119927	0.56874317
34	0x3f12ce03	0.573456
35	0x3f0b055d	0.5430506
36	0x3e6fe8a2	0.23428586
37	0x3e58a3ce	0.21156237
38	0x3e510885	0.20413406
39	0x3d0abc1f	0.033870813
40	0x3d27932d	0.040911842
41	0x3d86701d	0.06564353
42	0x3f0ba0d2	0.5454227
43	0x3f13fb4f	0.5780534
44	0x3f0bd502	0.546219
45	0x3e5621de	0.20911357
46	0x3e6fe8a2	0.23428586
47	0x3e58a3ce	0.21156237
48	0x3d12de02	0.035856254
49	0x3d161fd8	0.036651462
50	0x3d888f2b	0.06667932
51	0x3f1abe4c	0.6044662
52	0x3f0b2e8a	0.5436789
53	0x3f042189	0.5161367
54	0x3e5d1408	0.21589673
55	0x3e5621de	0.20911357
56	0x3e6fe8a2	0.23428586
57	0x3d175900	0.03695011
58	0x3d30871e	0.043097608
59	0x3d885270	0.06656349
60	0x3f05aa3d	0.5221289
61	0x3f08bf14	0.5341656
62	0x3f064584	0.5244982
63	0x3e6ffa42	0.2343531
64	0x3e5d1408	0.21589673
65	0x3e5621de	0.20911357
66	0x3d09c1c3	0.03363205
67	0x3d1855a9	0.037191067
68	0x3d824fd1	0.0636288
69	0x3f08a79e	0.53380764
70	0x3f056b16	0.52116525
71	0x3f0c74a5	0.54865485
72	0x3e5c3d5b	0.2150778
73	0x3e6ffa42	0.2343531
74	0x3e5d1408	0.21589673
75	0x3d10b9b0	0.035333335
76	0x3d1ca86c	0.038246557
77	0x3d7f8518	0.062382787
78	0x3f11b455	0.5691579
79	0x3f0ce206	0.55032384
80	0x3f020f7a	0.50804865
81	0x3e5e49ae	0.21707794
82	0x3e5c3d5b	0.2150778
83	0x3e6ffa42	0.2343531
84	0x3d136c5b	0.035992008
85	0x3d295597	0.04134139
86	0x3d81cb9d	0.06337664
87	0x3f0ae10a	0.5424963
88	0x3f083caa	0.53217566
89	0x3efc6523	0.4929591
90	0x3e7590cf	0.23981021
91	0x3e5e49ae	0.21707794
92	0x3e5c3d5b	0.2150778
93	0x3d15ce1f	0.036573526
94	0x3d18958e	0.037252
95	0x3d65ce54	0.056104973
96	0x3f01fd30	0.5077696
97	0x3f07ad37	0.5299868
98	0x3ef4f244	0.47841084
99	0x3e605f4c	0.21911353
100	0x3e7590cf	0.23981021
101	0x3e5e49ae	0.21707794
102	0x3d19a655	0.037512142
103	0x3d20bb83	0.039241325
104	0x3d702e20	0.05863774

weight f4 [105, 105]
0	0xbdc274e9	-0.09494955
1	0xbc12c2c2	-0.008957567
2	0xbd1d4f9d	-0.038406003
3	0xbcccc5aa	-0.024996597
4	0x3d48dbbc	0.04903768
5	0xbd2a20e1	-0.041535262
6	0xbcf76436	-0.030199151
7	0x3d1db18e	0.038499407
8	0x3dbaa377	0.0911321
9	0x3ca910ac	0.020637833
10	0x3d04b0c3	0.032395136
11	0xbd384860	-0.044990897
12	0x3c61c809	0.013780602
13	0xbd03c58b	-0.032170814
14	0xbd6d3647	-0.05791309
15	0x3d1c6100	0.038178444
16	0xbdcf5c91	-0.101250775
17	0x3d90245d	0.07038186
18	0xbdc1ae4f	-0.09457075
19	0xbcbb2228	-0.022843435
20	0xbd5f5343	-0.054522764
21	0xbd8f2073	-0.06988611
22	0x3d21d4e7	0.03950968
23	0x3b136ade	0.0022494118
24	0x3dab9c26	0.08379392
25	0x3e834527	0.25638697
26	0x3e205af8	0.15659702
27	0xbd9e851c	-0.07740232
28	0xbccb59db	-0.02482312
29	0xbdac55d4	-0.08414808
30	0xbd73b29e	-0.059496514
31	0xbd89645e	-0.06708597
32	0xbced8d17	-0.028997941
33	0x3cef82c1	0.029237153
34	0x3bbf2b45	0.0058340156
35	0x3c29f6a2	0.010373743
36	0x3a2f84db	0.0006695517
37	0x3d9057d3	0.07048001
38	0x3d8b14fd	0.067911126
39	0xbd70aa1b	-0.058755975
40	0x3d7febb4	0.062480643
41	0x3c067924	0.008207593
42	0x3d4d8bec	0.050182268
43	0x3d9a9309	0.07547576
44	0x3bc35754	0.005961338
45	0x3d6b5998	0.05745849
46	0x3d4a04e1	0.04932106
47	0x3d8c4254	0.068485886
48	0x3bfd896b	0.0077373288
49	0xbd903b62	-0.070425764
50	0x3cadd471	0.021219464
51	0x3d85768e	0.06516753
52	0x3e607ecc	0.21923369
53	0x3e8261d5	0.25465265
54	0x3d21038b	0.03931002
55	0x3d9487a0	0.07252431
56	0x3cfc75a8	0.030817822
57	0xbd0e4f88	-0.034743816
58	0x3c65acdd	0.014018265
59	0x3c205586	0.009786015
60	0x3daf9d97	0.0857498
61	0x3d2af0cf	0.04173356
62	0xbd31b7ca	-0.043388166
63	0xbd64f1a2	-0.0558945
64	0x3d8c86d9	0.06861658
65	0x3dd40cf0	0.1035403
66	0x3d2081fa	0.039186455
67	0xbc8b3c69	-0.01699658
68	0x3c29d1ac	0.010364931
69	0xb976c950	-0.00023535383
70	0x3d16b75a	0.03679595
71	0xbd70c29b	-0.05877934
72	0xbda54c0a	-0.08071144
73	0x3cca9a82	0.024731878
74	0xbdefd217	-0.11709993
75	0x3d948214	0.07251373
76	0xbd2cf9cd	-0.042230416
77	0x3c294fc0	0.010333955
78	0x3d585547	0.0528157
79	0x3dbf3e53	0.09338059
80	0x3e2a22f2	0.16614893
81	0xbb1d80f4	-0.002403316
82	0xbdbddc63	-0.09270551
83	0x3cfff579	0.03124498
84	0x3d12f1a3	0.035874974
85	0xbdfc97a3	-0.1233361
86	0x3d05e693	0.032690596
87	0xbd26f5e6	-0.04076185
88	0xbd018ac6	-0.031626485
89	0xbd035884	-0.032066837
90	0x3d1f10b3	0.038834285
91	0x3d543c66	0.051815413
92	0x3c88c5e7	0.01669593
93	0x3cced74c	0.025249146
94	0x3d8bf9b3	0.06834736
95	0x3db4102b	0.08792146
96	0x3bb30f4b	0.0054644695
97	0xbda6a9ab	-0.0813783
98	0x3d170312	0.036868162
99	0xbd2df2cf	-0.04246789
100	0x3c6ed278	0.014576547
101	0xbdb2b005	-0.08724979
102	0x3bf4abba	0.0074667605
103	0x3d1ea039	0.03872702
104	0x3cf5d2d3	0.030007755
105	0x3ca98fd6	0.02069847
106	0x3d9a5556	0.07535808
107	0xbdaaa35a	-0.08331938
108	0xbdb2aeb8	-0.08724731
109	0xbd6419ec	-0.055688784
110	0x3b70fc96	0.0036771647
111	0xbc3c3c26	-0.01148895
112	0xbc9ae9d9	-0.018910335
113	0x3d10b3bf	0.03532767
114	0x3de276b3	0.11057796
115	0xbbd081ce	-0.00636313
116	0x3dab59d6	0.08366744
117	0x3b4f9e33	0.0031679987
118	0xbd915597	-0.07096403
119	0xbcb2ec93	-0.021841323
120	0xbd7579fc	-0.059930786
121	0x3d6aa2c1	0.05728412
122	0x3c24d12a	0.010059634
123	0x3d570e4a	0.05250386
124	0xbd721a94	-0.059107378
125	0xbdb434c8	-0.0879913
126	0x3cea5993	0.028607165
127	0xbcae58b9	-0.02128254
128	0x3d70adeb	0.05875961
129	0x3ccc8a9e	0.024968442
130	0xbda6db35	-0.08147279
131	0xbd887b0a	-0.06664093
132	0x3d1159b5	0.035485942
133	0x3dccbeff	0.09997367
134	0x3d434fc5	0.047683496
135	0x3d941c87	0.07232004
136	0xbdc5e996	-0.096636936
137	0xbd1eafd1	-0.03874189
138	0x3d01599f	0.03157961
139	0x3d93e591	0.07221521
140	0xbceea01b	-0.029129079
141	0xbcb7da8b	-0.022443077
142	0xbd7da1d6	-0.061921917
143	0x3d3077ca	0.04308299
144	0x3d88e89b	0.06684991
145	0xbd4eb914	-0.050469473
146	0x3dfd62af	0.12372338
147	0x3d1c6dd9	0.038190696
148	0x3dc8266a	0.09772952
149	0xbd775c58	-0.0603908
150	0x3dee675c	0.11640808
151	0xbd9afa1b	-0.07567235
152	0x3c09dc79	0.008414381
153	0xbd69fa4e	-0.057123475
154	0x3d472859	0.048622463
155	0x3dcaabbe	0.098960385
156	0x3daf269c	0.08552286
157	0xbd202665	-0.039099116
158	0xbd933fb2	-0.07189883
159	0x3d69a73c	0.057044253
160	0x3deda669	0.11604006
161	0x3d7789a3	0.060433995
162	0xbc1d2040	-0.0095902085
163	0xbdbfe407	-0.09369665
164	0xbd718752	-0.058966942
165	0x3c9c2d40	0.019064546
166	0xbd0951d4	-0.033525303
167	0xbd6dcb4f	-0.05805522
168	0x3d137884	0.036003605
169	0x3d67017c	0.0563979
170	0xbd76ad60	-0.060223937
171	0xbd47261d	-0.048620332
172	0xbdd87a8f	-0.10570251
173	0x3de3b8ba	0.11119218
174	0xbcb0282a	-0.021503527
175	0xbcee0e5c	-0.029059581
176	0xbafe856d	-0.0019418426
177	0x3d8c1915	0.068407215
178	0x3d1fd2b5	0.039019305
179	0xbe045427	-0.12922727
180	0x3c09efdb	0.008419002
181	0x3dbf5c30	0.09343755
182	0x3beeb9fe	0.0072853556
183	0xbda04d0a	-0.07827194
184	0xbca36cfd	-0.01994943
185	0xbdf3a8c3	-0.11897423
186	0x3c33322a	0.010937253
187	0x3dd3f4a9	0.103493996
188	0x3da05dc7	0.078303866
189	0x3dbaae79	0.09115309
190	0xbdb9da8e	-0.09074889
191	0xbd8f1c47	-0.06987815
192	0x3d95850a	0.07300766
193	0xbac8f12f	-0.0015330667
194	0x3d66bc09	0.056331668
195	0x3d771307	0.06032088
196	0xbc41735e	-0.011807291
197	0xbca08c39	-0.019598113
198	0x3d9a43a6	0.07532434
199	0xbc905b5a	-0.017621685
200	0x3d8bd419	0.06827564
201	0x3d2a82e1	0.041628722
202	0xbd31fc6e	-0.043453626
203	0x3bbfa431	0.0058484306
204	0x3cba214f	0.02272096
205	0xbcf5b773	-0.029994702
206	0xbd6c0718	-0.057623953
207	0x3d6f6a57	0.058451023
208	0x3d537e21	0.051633958
209	0x3d8bb024	0.068207055
210	0xba861e50	-0.0010232423
211	0xbcb8538f	-0.022500781
212	0x3cdb29c2	0.02675331
213	0xbd7200cf	-0.059082802
214	0x3da9596c	0.08269009
215	0x3d213349	0.03935555
216	0x3d04063e	0.032232516
217	0x3d926969	0.07149012
218	0x3d2b5179	0.041825745
219	0xbd42c406	-0.047550224
220	0xbdd3471e	-0.10316299
221	0x3ca37eab	0.019957861
222	0xbcc2334c	-0.0237061
223	0xbd7d23f8	-0.06180188
224	0x3cde8746	0.027164113
225	0x3db61735	0.08891145
226	0x3d5142e5	0.051089186
227	0x3d27b86d	0.040947367
228	0xbdb8a56c	-0.09015927
229	0x3da9adf8	0.08285135
230	0xbdb25329	-0.08707268
231	0x3d096509	0.03354362
232	0xbd9c21e5	-0.07623652
233	0xbdd3c653	-0.10340562
234	0x3ddffe75	0.10937206
235	0x3e051359	0.12995662
236	0x3e436590	0.19081712
237	0xbcee64b1	-0.029100748
238	0xbd3f8bf4	-0.04676433
239	0x3cb6ebde	0.022329267
240	0x3d4178dc	0.0472344
241	0x3daab3ee	0.083351
242	0x3dbab9e5	0.09117488
243	0x3d7b3cc6	0.061337255
244	0xbcf29e0e	-0.029616382
245	0xbd15bf14	-0.03655918
246	0xbd483119	-0.04887495
247	0xbdc10567	-0.094248585
248	0x3c6a9b11	0.014319197
249	0xbbce59a2	-0.006297306
250	0x3b5f2d74	0.0034054192
251	0x3d458b96	0.048228823
252	0xbd433dec	-0.047666475
253	0x3d2af7b0	0.04174012
254	0xbd8a1a16	-0.06743257
255	0x3d80395b	0.0626094

bias f4 [105]
0	0x3e1a9cb7	0.15098844
1	0xbd931731	-0.07182158
2	0xbc950894	-0.018192567
3	0xbdacf573	-0.08445253
4	0x3dbb726e	0.09152685
5	0x3d2c3715	0.042044718
6	0x3d269cd6	0.040676914
7	0x3dff2fd0	0.124602914
8	0xbd23bff3	-0.03997798
9	0x3da2b230	0.07944143
10	0x3d9328eb	0.07185539
11	0x3cb86850	0.022510678
12	0xbc9bcd10	-0.01901868
13	0xbd0e7a8b	-0.034784835
14	0x3d9e4669	0.077282734
15	0x3c3778f3	0.01119827
16	0x3d7e6476	0.062107526
17	0x3ca940d0	0.020660788
18	0xbd2d14de	-0.04225623
19	0x3d8b8ff4	0.06814566
20	0xbd696c34	-0.056987956
21	0x3d4431fe	0.04789924
22	0xbd4869f3	-0.048929166
23	0xbd697b95	-0.057002623
24	0xbd218d98	-0.039441675
25	0x3dac1626	0.08402662
26	0x3d5817e9	0.052757178
27	0xbc0197dd	-0.007909742
28	0xbc72e3cc	-0.014824819
29	0x3d8cb09d	0.06869624
30	0x3c032c1e	0.008006124
31	0x3d139a51	0.03603584
32	0x3dd5af24	0.10433796
33	0x3d9c1c29	0.076225586
34	0x3dbc6e46	0.092007205
35	0xbc382e1c	-0.011241462
36	0x3dd835f5	0.105571665
37	0xbd06884c	-0.032844827
38	0xbd94edff	-0.07271957
39	0x3dd450f5	0.10367004
40	0x3da08eeb	0.078397594
41	0xbdb059eb	-0.086109005
42	0xbd7a9c03	-0.06118394
43	0x3dc1a242	0.09454776
44	0xbc03ae1b	-0.008037115
45	0xbca0d25b	-0.019631555
46	0x3da60f6f	0.081084125
47	0xbd8e8afb	-0.06960102
48	0xbc9a2b37	-0.018819435
49	0x3bda131a	0.006655109
50	0x3df8d0c3	0.12149193
51	0x3d2e1ff8	0.042510957
52	0x3dafd6e9	0.08585913
53	0x3ddb62fe	0.10712241
54	0x3ca65b22	0.020307127
55	0x3d5d9b89	0.054103408
56	0xbcea167a	-0.02857517
57	0x3d9aa353	0.07550683
58	0xbd8d25fa	-0.06892009
59	0x3dc3a288	0.09552485
60	0xbd0845a8	-0.033269554
61	0xbc9fa25c	-0.019486599
62	0x3dbade44	0.09124425
63	0xbd332928	-0.04374042
64	0xbd5db87c	-0.054131016
65	0x3cbd8707	0.023135675
66	0xbd5e8616	-0.054327093
67	0xbc571f04	-0.013129953
68	0xbd4859ec	-0.04891388
69	0xbcdef61b	-0.027216962
70	0x3e0e206c	0.13879555
71	0xbd382fb2	-0.04496736
72	0x3e1a2ac0	0.1505537
73	0xbcea7483	-0.02862001
74	0x3d7ce426	0.061741017
75	0x3cb725b0	0.022356838
76	0x3d0bc541	0.034123663
77	0x3d936ab1	0.07198084
78	0xbcca2837	-0.024677379
79	0x3db01a99	0.08598823
80	0x3d34d653	0.044149708
81	0x3d1f51db	0.038896423
82	0xbd1a6fda	-0.037704326
83	0xbdc34260	-0.095341444
84	0xbd085512	-0.033284254
85	0x3d287842	0.04113031
86	0x3d8b9794	0.068160206
87	0xbd464c8a	-0.048412837
88	0x3d97d3bb	0.07413431
89	0x3ded4fcc	0.11587486
90	0x3b971b29	0.004611392
91	0x3deb22bd	0.11481235
92	0xbccb7bf3	-0.024839377
93	0x3df3b2b7	0.118993215
94	0xbd744fdf	-0.059646484
95	0xbd617538	-0.05504343
96	0xbc95168c	-0.018199228
97	0xbd22465d	-0.039617885
98	0x3cc2ca6e	0.023778167
99	0x3db017d0	0.08598292
100	0x3b89c798	0.0042047016
101	0xbdab29ab	-0.08357557
102	0xbc0f68ba	-0.008752996
103	0x3e089e4c	0.13341635
104	0x3dd9583a	0.10612531

weight f4 [52, 105]
0	0x3db36a97	0.08760565
1	0x3c28a23c	0.010292586
2	0x3b35fdd5	0.0027769704
3	0x3cfd172c	0.030894838
4	0x3da4081c	0.08009359
5	0x3d8a3f39	0.0675034
6	0x3d63a7b2	0.05557985
7	0x3d2463ef	0.040134367
8	0x3d211f7f	0.039336678
9	0x3dba2d8e	0.0909072
10	0x3e361084	0.17779738
11	0x38d4baf7	0.00010143773
12	0x3da29580	0.07938671
13	0x3d91e52d	0.0712379
14	0x3cd9f756	0.026607197
15	0xbcd00599	-0.025393294
16	0x3cf4eabf	0.029897092
17	0x3cb7113b	0.022347083
18	0x3d930c24	0.0718005
19	0xbc100104	-0.008789305
20	0x3e1b44de	0.1516299
21	0x3e08891b	0.13333552
22	0x3bc97516	0.006147991
23	0x3c763ff3	0.015029895
24	0x3d67d685	0.056601066
25	0x3d947c8c	0.07250318
26	0x3d247913	0.040154528
27	0x3d9e7f9e	0.07739185
28	0x3e0b7f8b	0.13622873
29	0xbaa224e9	-0.0012370619
30	0x3ce1a47c	0.027544253
31	0x3db2dfe2	0.087341085
32	0xbb499e11	-0.003076438
33	0x3d83e94a	0.06440981
34	0x3daa95e2	0.08329369
35	0x3d3caef6	0.046065293
36	0x3e084075	0.13305838
37	0x3e305ecd	0.17223664
38	0xbd021e97	-0.031767454
39	0x3dc85dbf	0.09783506
40	0x3d8db23a	0.0691876
41	0x3d498dd2	0.049207516
42	0x3ce290dc	0.027656965
43	0x3dd18bea	0.102317646
44	0x3e3c64f9	0.18397893
45	0xbad985ae	-0.0016595626
46	0x3e21d078	0.15802181
47	0x3d5b8b3b	0.053599577
48	0xbd9b602c	-0.07586703
49	0x3dfe3fb2	0.12414493
50	0x3e005430	0.12532115
51	0xbd1af888	-0.037834674
52	0x3dc2a1d9	0.09503526
53	0x3cb19b30	0.021680444
54	0xbcd06746	-0.02543987
55	0xbd810a7e	-0.06300829
56	0x3d9fd3f5	0.078040995
57	0xbc7eb6e0	-0.0155465305
58	0x3d4afb71	0.0495562
59	0x3b1194f5	0.002221403
60	0x3cbf2c37	0.023336513
61	0x3df49198	0.11941832
62	0x3dc673c2	0.09690048
63	0x3e015b80	0.1263256
64	0x3d7ca4cf	0.06168061
65	0x3d633999	0.05547485
66	0x3d9f2e03	0.07772448
67	0x3d9ece9c	0.07754251
68	0xbd504b91	-0.050853316
69	0x3c87fd08	0.016600147
70	0xbd8eae5e	-0.06966852
71	0x3c855493	0.01627568
72	0x3d2d5fe8	0.04232779
73	0x3d881648	0.06644875
74	0x3db155f8	0.08658975
75	0x3da1d69d	0.07902262
76	0x3d893e58	0.06701344
77	0xbca20789	-0.019778984
78	0x3d407463	0.046985995
79	0x3e358535	0.17726596
80	0x3dc83a90	0.09776795
81	0x3d8a5272	0.067540064
82	0x3dfefce4	0.12450579
83	0x3c82de79	0.015975224
84	0x3e2b1dad	0.16710539
85	0x3d9a4f2a	0.075346306
86	0xbc844724	-0.016147204
87	0x3d9ee35d	0.0775821
88	0x3dcd96ba	0.100385144
89	0x3cf655be	0.030070182
90	0xbda58fff	-0.08084106
91	0x3d9adfcd	0.07562218
92	0x3afd228e	0.0019312666
93	0x3d1f9f28	0.038970143
94	0x3dd0a2c0	0.10187292
95	0x3c8a6d44	0.016897805
96	0x3c829da5	0.015944311
97	0x3df9dcc4	0.12200311
98	0xbc2ceaf3	-0.010554063
99	0x3dc4f5e3	0.09617212
100	0x3e1944ff	0.14967726
101	0x3cd2cd69	0.025732713
102	0x3e69caf1	0.22831322
103	0xbaacbefd	-0.0013179478
104	0xbbc05e92	-0.0058706487
105	0x3e062df3	0.13103466
106	0xba5cafe6	-0.0008418545
107	0x3d97426b	0.07385715
108	0x3c82e6ab	0.015979132
109	0x3e24e351	0.1610234
110	0xbc0593a4	-0.008152876
111	0x3e031c53	0.12803774
112	0xbbec75be	-0.0072161844
113	0xbdbaf81c	-0.09129354
114	0xbd28444f	-0.04108077
115	0x3d1c9e1d	0.038236726
116	0x3e0efa30	0.13962626
117	0x3db5abd5	0.08870665
118	0xbd5d23ec	-0.053989336
119	0x3df256c9	0.11832959
120	0xbded8ad4	-0.11598745
121	0x3d77b817	0.060478296
122	0xbaebb8e9	-0.0017984185
123	0x3b6ba084	0.003595383
124	0xbdd1261b	-0.10212346
125	0x3e073625	0.13204248
126	0x3e600bde	0.21879527
127	0x3c9e82fe	0.019349571
128	0x3e43046c	0.19044656
129	0x3ddf2dac	0.10897383
130	0xbc273749	-0.010206052
131	0x3e245adf	0.1605029
132	0x3e0773c5	0.13227756
133	0x3d4ce857	0.050026264
134	0xbd8de1dd	-0.069278456
135	0x3d24bb20	0.04021752
136	0xbc094f5e	-0.008380739
137	0x3bff8f6f	0.007799081
138	0x3bf75984	0.007548513
139	0x3dd373fa	0.10324855
140	0x3e36ef8d	0.17864819
141	0x3d571ada	0.052515842
142	0x3e2adcb9	0.16685762
143	0x3ce0a8b4	0.027424194
144	0x3dceae31	0.10091818
145	0xb8cdb7aa	-9.809372e-05
146	0x3dc19ae5	0.09453372
147	0x3da97909	0.08275039
148	0x3d1c68fc	0.03818606
149	0x3e0eb1e1	0.13935043
150	0x3cb732aa	0.022363026
151	0x3d93a3eb	0.07208999
152	0x3e210a3b	0.15726559
153	0xbd326df0	-0.043561876
154	0x3bda4772	0.006661349
155	0x3dce2dcb	0.10067328
156	0xbd1f38b5	-0.03887244
157	0xbd6b651e	-0.05746948
158	0x3d738a4b	0.05945806
159	0xbdc04e72	-0.09389962
160	0xbd9414c2	-0.07230522
161	0xbcde13f6	-0.027109127
162	0x3d06d7e7	0.032920744
163	0xbc49aad0	-0.012308791
164	0x3d82b673	0.06382456
165	0x3b6ab0a1	0.0035810845
166	0xbcdda579	-0.027056443
167	0x3d52acca	0.051434316
168	0x3e11307d	0.14178653
169	0xbdab255b	-0.08356734
170	0xbd4f66b9	-0.050635073
171	0x3cdfaf22	0.02730519
172	0xbd34513e	-0.04402279
173	0xbd542ebf	-0.051802393
174	0x3e22583d	0.15853973
175	0xbd2bf499	-0.041981313
176	0xbda69d1d	-0.08135436
177	0x3e387d11	0.18016459
178	0x3c0bb8c5	0.008527939
179	0x3cc15957	0.02360217
180	0xbdc3876e	-0.095473155
181	0x3ca6f308	0.020379558
182	0x3d960444	0.07325032
183	0xbc941b88	-0.018079534
184	0x3d037881	0.032097343
185	0x3d6a8d29	0.057263527
186	0x3de707d3	0.11280789
187	0x3d5ed2c2	0.054400213
188	0xbce8d71f	-0.02842289
189	0x3de427b4	0.11140385
190	0x3df7ecbb	0.121057
191	0x3c4d00b5	0.012512376
192	0xbca4ea4f	-0.020131258
193	0x3e3ffc7b	0.18748657
194	0x3e359f3b	0.17736523
195	0xbdb25b58	-0.08708829
196	0x3e3ccb05	0.18436821
197	0x3dd6c92d	0.1048759
198	0x3e337014	0.17523223
199	0x3dbe4d42	0.092920795
200	0xbc176422	-0.009240182
201	0x3e0cb8ec	0.13742417
202	0x3db3ace1	0.087732084
203	0x3b88eb42	0.0041784355
204	0x3e1988d5	0.14993604
205	0x3df8e0e4	0.121522695
206	0x3b012b15	0.0019709517
207	0x3dbff6d0	0.093732476
208	0x3dc470c5	0.095918216
209	0xbd56471f	-0.05231392
210	0x3dab701d	0.08370993
211	0xbd3ba50f	-0.04581171
212	0xbb8ec376	-0.004356797
213	0x3c9ade00	0.018904686
214	0x3e4a10c5	0.1973296
215	0xbcb45d5d	-0.022017175
216	0x3d12e942	0.035866983
217	0xbdeaff70	-0.11474502
218	0xbdbd1313	-0.09232154
219	0xbd9a712c	-0.07541117
220	0x3c535432	0.012898492
221	0x3e29c55c	0.16579193
222	0x3cfbbdf9	0.030730234
223	0x3d3a6d17	0.045514192
224	0x3df4b7bb	0.11949106
225	0xbd14859f	-0.036260244
226	0x3cc9ef7c	0.024650328
227	0x3df050e4	0.11734179
228	0x3c11f718	0.008909009
229	0xbc463412	-0.0120973755
230	0x3cde57e8	0.027141526
231	0x3e02aaf6	0.12760529
232	0x3df5ceb2	0.120023146
233	0x3d9bcdb6	0.076075956
234	0x3d809d09	0.06279952
235	0x3de331c8	0.110934794
236	0x3dd6c207	0.104862265
237	0x3d25bf3f	0.04046559
238	0x3dd478dd	0.10374615
239	0xbda89c70	-0.08232963
240	0xbd337df5	-0.043821294
241	0x3d894c77	0.06704038
242	0x3d4a164c	0.04933767
243	0x3ce28560	0.027651489
244	0x3d3aa2a4	0.045565262
245	0x3e038d5d	0.12846895
246	0x3d99587c	0.0748758
247	0x3d3cd3d3	0.04610045
248	0x3cd5a7b9	0.026080953
249	0x3de02e5c	0.10946342
250	0x3d71b1fb	0.059007626
251	0x3d7aa645	0.061193723
252	0x3e12d50d	0.14339085
253	0x3e264f8e	0.16241285
254	0x3e033408	0.12812817
255	0xbcf73311	-0.030175718

bias f4 [52]
0	0x3dff3fdd	0.12463353
1	0x3cbaa118	0.022781894
2	0xbdb135f6	-0.0865287
3	0x3d8247f2	0.06361379
4	0xbd5a2eb3	-0.053267192
5	0x3c299216	0.010349771
6	0x3c91dcb0	0.017805427
7	0x3dfe8830	0.124283195
8	0x3dcba893	0.09944262
9	0x3d90cf4d	0.070707895
10	0x3d217c98	0.039425462
11	0x3bbc346b	0.0057435534
12	0x3d971209	0.07376487
13	0x3d8fea9e	0.070271716
14	0xbd2c3fa5	-0.042052884
15	0x3e174cbb	0.14775364
16	0xbcac5b14	-0.021039523
17	0x3c3de89c	0.011591103
18	0xbcd2dec2	-0.025740985
19	0x3ce6ea86	0.028188001
20	0x3dca7db6	0.09887259
21	0x3d4c9dfe	0.04995536
22	0x3cd02087	0.025406135
23	0x3c93ae94	0.018027581
24	0xbcea9804	-0.02863694
25	0x3e2fbb46	0.17161283
26	0x3c883985	0.01662899
27	0x3ceaaeb8	0.028647766
28	0x3e1a5c26	0.15074214
29	0xbce5ce76	-0.02805255
30	0xbb5cb80d	-0.0033679039
31	0xbd05ea0c	-0.032693908
32	0x3d2450f1	0.040116254
33	0x3d2d9ddf	0.042386886
34	0x3d7069ed	0.05869477
35	0x3cbc540e	0.0229893
36	0x3d839a5c	0.06425926
37	0x3d035a6a	0.032068647
38	0xbc5f3ff1	-0.013626085
39	0x3da3413d	0.079714276
40	0xbd89523d	-0.06705139
41	0x3d4cb0bc	0.049973235
42	0x3acd02fc	0.0015641148
43	0x3df1bd97	0.118037395
44	0x3d55a60c	0.052160308
45	0xbd948fd0	-0.072539926
46	0x3da6a6f6	0.08137314
47	0x3c3103f6	0.010804167
48	0x3d9a70d9	0.07541055
49	0x3d1e8d46	0.038708948
50	0x3cbbf44e	0.022943642
51	0x3d8daacf	0.06917345

weight f4 [14, 52]
0	0x3e033cde	0.12816188
1	0x3c894334	0.016755678
2	0xbdd0a017	-0.10186785
3	0x3dd78100	0.10522652
4	0x3e092c35	0.1339577
5	0xbe59ec30	-0.21281505
6	0xbde65080	-0.11245823
7	0x3dd3d678	0.10343641
8	0x3db7d98c	0.08977041
9	0xbd310061	-0.043213252
10	0xbe28874a	-0.16457859
11	0xbd0ad89c	-0.03389798
12	0x3d2fbfb9	0.04290745
13	0x3d43e3d3	0.047824692
14	0x3e04d34a	0.12971225
15	0x3dd553d0	0.104163766
16	0xbca2dc98	-0.019880578
17	0x3d1e9d2b	0.038724106
18	0xbdea6a42	-0.11446048
19	0x3c14db7b	0.009085531
20	0xbe23064a	-0.15920368
21	0x3e2023c4	0.15638644
22	0x3dd0ae54	0.101895005
23	0x3e0d5e5b	0.13805525
24	0x3d81bcdc	0.0633485
25	0x3e5c790a	0.21530548
26	0xbe1e4503	-0.15456013
27	0x3cd55244	0.026040204
28	0x3de54c03	0.11196139
29	0xbd84aae5	-0.06477908
30	0x3e398c7d	0.18119998
31	0xbe47f305	-0.19526298
32	0x3d816249	0.063175745
33	0x3ca391fd	0.019967074
34	0x3e2441d9	0.16040744
35	0xbd2d8360	-0.042361617
36	0x3de241c5	0.11047701
37	0x3ba30ff0	0.004976265
38	0x3c542fc5	0.012950842
39	0x3b880dc2	0.0041520307
40	0xbe24cc2e	-0.16093513
41	0xbd3f2bf3	-0.046672773
42	0xbdb4ae5e	-0.088223204
43	0x3dbc2009	0.09185798
44	0xbcd777d4	-0.026302256
45	0xbde8b1e9	-0.11362059
46	0x3e2e1b16	0.1700252
47	0x3e0b9e9b	0.13634722
48	0x3c35ef0d	0.011104357
49	0xbc9514e8	-0.018198445
50	0xbd95741a	-0.07297535
51	0x3d9c61cb	0.0763584
52	0xbc0e2017	-0.008674643
53	0xbdf16f46	-0.11788802
54	0xbd1a6d97	-0.03770217
55	0x3dd5d76f	0.10441481
56	0xbd6dc56b	-0.0580496
57	0xbcbafb17	-0.022824807
58	0xbddc895d	-0.107683875
59	0x3c223f60	0.009902805
60	0x3ddb1135	0.10696641
61	0x3def7f43	0.11694195
62	0x3cc63bbc	0.024198405
63	0x3b928b40	0.0044721663
64	0x3d885366	0.06656532
65	0xbdf64cb0	-0.12026346
66	0x3e218f1c	0.15777248
67	0x3e30d200	0.17267609
68	0xbd4e192a	-0.050316967
69	0x3e862489	0.2619975
70	0xbde550b4	-0.111970335
71	0x3d41a374	0.04727502
72	0xbdfe3e8d	-0.12414274
73	0x3d880bac	0.06642851
74	0x3df41137	0.11917346
75	0x3d62d0ee	0.055375032
76	0xbdc3fdbd	-0.09569881
77	0x3d2733ef	0.040821012
78	0x3cfe5220	0.03104502
79	0x3c86a06d	0.016433919
80	0x3da388a7	0.07985049
81	0x3d3be0fa	0.04586885
82	0x3e663838	0.22482383
83	0xbd4e79e1	-0.0504092
84	0xbddede24	-0.10882214
85	0xbd88173c	-0.066450566
86	0x3e44a310	0.19202828
87	0xbd1a92b8	-0.03773758
88	0x3d3032a0	0.04301703
89	0x3d7bb57b	0.06145237
90	0xbddd1f88	-0.1079703
91	0xbdfe7e05	-0.1242638
92	0x3de77495	0.11301533
93	0x3d8ed8aa	0.06974919
94	0xbdf3db2d	-0.11907039
95	0xbccf3344	-0.025293
96	0xbbb7bf48	-0.0056075193
97	0xbda50e63	-0.08059385
98	0x3cf9399b	0.030422976
99	0x3e33df33	0.17565612
100	0x3d8e0b3d	0.06935737
101	0xbd55fb3c	-0.05224155
102	0xbd00d521	-0.031453256
103	0x3df26ae3	0.11836793
104	0x3e2897ad	0.1646411
105	0x3ec9bf29	0.39403656
106	0x3d7fad35	0.062421042
107	0x3d875504	0.06608012
108	0x3e275470	0.16340804
109	0x3e2e2182	0.1700497
110	0x3e8a2f97	0.26989433
111	0x3b280791	0.0025639276
112	0x3d1d39d0	0.038385212
113	0x3ea30153	0.31836948
114	0x3e75605c	0.2396254
115	0x3e58124b	0.21100728
116	0x3dee5d4c	0.11638889
117	0x3e8e44b2	0.27786785
118	0x3e2a8e8c	0.1665594
119	0xbe0e01c3	-0.1386786
120	0x3e4e8c0b	0.2017061
121	0xbb92003b	-0.004455594
122	0x3e5f1b1d	0.21787687
123	0xbd31eb1e	-0.043437116
124	0x3ea4883b	0.32135186
125	0xbd32d2eb	-0.04365818
126	0xbe2993f0	-0.1656034
127	0x3c731bea	0.014838198
128	0x3de54944	0.11195615
129	0xbe1ac15e	-0.15112826
130	0x3e922ced	0.285499
131	0x3e30bf9c	0.17260593
132	0xbe10d799	-0.14144744
133	0x3e81c4f8	0.25345588
134	0xbd086c61	-0.033306483
135	0x3e854423	0.26028547
136	0x3ea21838	0.31659102
137	0x3e8af9d0	0.27143717
138	0xbcfbb44b	-0.030725619
139	0x3e87a7d6	0.26495236
140	0xbda2c9fb	-0.07948681
141	0x3d9c56d2	0.07633747
142	0x3e3dd07b	0.1853656
143	0x3e510957	0.20413719
144	0x3e0bff95	0.13671716
145	0x3ea69314	0.32534087
146	0x3de5222b	0.11188158
147	0x3d8b8e09	0.068142004
148	0x3e8f9e83	0.28050622
149	0x3e7dbe28	0.2477957
150	0xbc6e4dbc	-0.0145449005
151	0xbe01cf12	-0.12676647
152	0xbd005933	-0.031335067
153	0x3e03c0d7	0.12866531
154	0x3e356683	0.17714886
155	0x3c718dfe	0.014743326
156	0x3c2f5a1e	0.010702638
157	0xbe1f38f0	-0.15549064
158	0xbdd34a75	-0.10316936
159	0xbd384a08	-0.044992477
160	0xbda8800e	-0.082275495
161	0xbdc7e223	-0.09759929
162	0xbd230bf3	-0.039806318
163	0x3e219751	0.15780379
164	0xbc965fea	-0.018356282
165	0x3d62ea41	0.055399183
166	0xbdc65b43	-0.096853755
167	0xbc11ee0d	-0.008906853
168	0x3c3d06a2	0.011537226
169	0xbd0cecfa	-0.034405686
170	0x3db57098	0.08859366
171	0x3e06107c	0.13092226
172	0x3de7777c	0.11302087
173	0x3dbc42c7	0.09192424
174	0xbd8b825a	-0.06811972
175	0x3ddbed26	0.10738592
176	0xba7e610c	-0.0009703792
177	0x3e04cb92	0.12968281
178	0x3cb4a287	0.022050155
179	0xbd986103	-0.074403785
180	0x3e107a43	0.14109139
181	0x3e6874b5	0.2270077
182	0xbdfc6d3a	-0.12325521
183	0xbd49a357	-0.04922804
184	0x3e6545ec	0.22389954
185	0xbe29087c	-0.16507143
186	0x3c90d049	0.017677443
187	0xbd7aa9c3	-0.061197054
188	0xbe290437	-0.16505514
189	0x3c54e864	0.012994859
190	0x3e81d71e	0.25359434
191	0x3ddefb4e	0.10887776
192	0x3e24b729	0.16085495
193	0xbdf76ab4	-0.12080899
194	0x3d74141e	0.059589498
195	0xbdf22f44	-0.118254215
196	0xbe3189a4	-0.17337662
197	0x3c5ef61f	0.0136084845
198	0x3cee238f	0.02906969
199	0x3e6537d7	0.22384582
200	0xbcfd2f02	-0.030906204
201	0xbda151cd	-0.078769304
202	0x3e3a4b5d	0.18192811
203	0x3ddab8ca	0.10679777
204	0x3d0cf56b	0.034413736
205	0x3e231296	0.15925059
206	0x3d83ae01	0.06429673
207	0xbb790d86	-0.0038002445
208	0x3da49805	0.08036808
209	0x3e963459	0.29336813
210	0x3e8ec071	0.27881196
211	0x3e8f22e2	0.279563
212	0x3ded2aef	0.115804546
213	0x3e8cdf6d	0.2751421
214	0x3eb879e0	0.36030483
215	0xbdee107c	-0.11624238
216	0xbca690a1	-0.020332636
217	0x3e8a550a	0.27018005
218	0x3e97929c	0.29604042
219	0x3eb775f7	0.35832188
220	0x3e3d0abf	0.1846113
221	0x3e89a83e	0.2688617
222	0x3e07ad26	0.13249645
223	0xbe02cc36	-0.12773213
224	0x3dd7d179	0.105380006
225	0x3d55696a	0.052102484
226	0x3ebafddd	0.36521807
227	0x3de1ad93	0.11019435
228	0x3ea55723	0.32293043
229	0xbdb19556	-0.08671062
230	0xbe138dfa	-0.14409629
231	0xbe00cb67	-0.12577592
232	0xbc88f8fc	-0.016720288
233	0xbe1fa1d6	-0.1558908
234	0x3eb1db42	0.34737593
235	0x3eb5c037	0.3549821
236	0xbe091a69	-0.13388981
237	0x3e2eec9c	0.17082447
238	0xbe310c77	-0.17289911
239	0x3ede2694	0.43388808
240	0x3ee82642	0.45341688
241	0x3e88e012	0.26733452
242	0xbe082b30	-0.13297725
243	0x3e5dbfa7	0.21655141
244	0x3e033743	0.1281405
245	0x3e9adb62	0.302455
246	0x3eb62fec	0.35583436
247	0x3e5d9180	0.21637535
248	0x3e9cecae	0.30649322
249	0x3e890662	0.26762682
250	0x3eca0cb3	0.39462814
251	0xbe043ec9	-0.12914576
252	0x3e9e44e6	0.3091194
253	0x3e983405	0.29727188
254	0xbd5676f2	-0.05235953
255	0xbcd8459d	-0.026400382

bias f4 [14]
0	0x3cdd6934	0.027027704
1	0x3d29b4c8	0.041432172
2	0xbd617b6b	-0.05504934
3	0x3e07e9af	0.13272737
4	0xb8b2b8cc	-8.5221225e-05
5	0x3e85a6b9	0.26103762
6	0x3e885d5e	0.26633734
7	0xbd84f588	-0.06492144
8	0xbe11dc66	-0.14244232
9	0x3d582767	0.052771952
10	0x3df1c196	0.11804502
11	0x3d8b6082	0.06805517
12	0x3cf71e9c	0.030165963
13	0x3d671225	0.05641379

weight f4 [2, 14]
0	0x3e9b281b	0.30304036
1	0x3e889425	0.26675525
2	0xbf1b4010	-0.60644627
3	0x3e6729c7	0.2257453
4	0xbf7d54e0	-0.98957634
5	0x3ec2bc48	0.38034272
6	0x3e943a37	0.28950664
7	0xbe98e42a	-0.29861575
8	0xbe40c39a	-0.18824616
9	0xbdd33db9	-0.10314507
10	0xbf209a0e	-0.6273507
11	0xbe31f55e	-0.17378756
12	0xbef2debf	-0.47435567
13	0xbf4eccb8	-0.80781126
14	0xbe2d80bc	-0.1694364
15	0x3c86c9b9	0.01645361
16	0x3e8d6c0f	0.27621505
17	0xbe3b1e27	-0.18273221
18	0x3e76eadd	0.2411303
19	0xbe2561ef	-0.1615064
20	0xbe10baa6	-0.141337
21	0x3eb3dbd3	0.3512865
22	0x3eb484f2	0.3525768
23	0x3ea56f9e	0.3231172
24	0x3cb77920	0.022396624
25	0x3ec6cf2a	0.3882993
26	0x3e77f927	0.24216138
27	0x3d932933	0.071855925

bias f4 [2]
0	0xbdffe712	-0.12495245
1	0xbdd9f241	-0.106419094
