Network2/params/mlp_wParams0831170422.pth (torch_old, 27555 bytes, 12 tensors)

weight f4 [36]
00000000: 8bd8 903e 5361 963e 19a0 683e 7980 bb3e
00000010: 6d8a a23d 4e6c 833c 725c 263f afa2 843f
00000020: c82f 903f 5cc3 4c3e 777a 5f3f da53 f63e
00000030: d57f 733f 6161 b73e 1332 ee3e 4081 893e
00000040: 902a a23d cbd4 323f 1bb4 4c3f c7d6 3a3f
00000050: 90d2 d73d 2570 533f 703e 143e 6faa 2a3f
00000060: 5422 083f 81e7 c03e 7b1a a23d 47bc 133f
00000070: 7ccb 2b3e c897 8e3e c5ed 473f 6884 fb3e
00000080: 9f1c 1f3f 09be 193f 2339 2f3f 470e 583f
0.2829021 0.29371127 0.22717322 0.36621454 0.07936559 0.016042855 0.6498481 1.0362147
1.1264582 0.19996399 0.8729624 0.4811085 0.9511693 0.35816482 0.4652258 0.26856422
0.079182744 0.69855946 0.7996232 0.72983974 0.105382085 0.82592994 0.14476943 0.6666631
0.5317738 0.37676623 0.07915207 0.57709163 0.16776842 0.27850175 0.7809718 0.49124455
0.6215305 0.60055596 0.6844656 0.84396785

bias f4 [36]
00000000: a7d2 e43d 0822 433d 956e f33d 6775 f33c
00000010: 80ae 2b3e 3fb1 003e a46a ca3d 60f4 bd3c
00000020: 286d d43d 04c3 a63c d502 81bd a194 6abd
00000030: d7e2 93bd f7b0 343e 1ac2 cc3c 43bc 7fbd
00000040: 5980 5f3d d0f8 98bd 17a2 7fbd 41e0 493d
00000050: a207 b43d dcb6 17bd 3245 d3bd fb15 0cbc
00000060: 6b88 da3c eb85 013e 0207 1dbe 2d09 ccbc
00000070: 17d3 20bc f272 2cbe be37 08bc 0606 a53d
00000080: 701f 113d 9d8e 083e 45d4 92bd 1e8f abbd
0.11172991 0.047639877 0.11886326 0.029719068 0.16765785 0.12567614 0.09883621 0.023187816
0.103723824 0.020356663 -0.06299368 -0.05727065 -0.07221001 0.17645632 0.024994899 -0.0624354
0.05456576 -0.07469332 -0.06241044 0.04928613 0.08790518 -0.037039623 -0.10315932 -0.008550162
0.026676377 0.12648742 -0.15334705 -0.02490672 -0.009815953 -0.16840723 -0.008314071 0.080577895
0.03543037 0.13335653 -0.071693935 -0.08376907

running_mean f4 [36]
00000000: 4700 be3e 0e25 a23e a6ae 993e ad1a 873e
00000010: d164 6b3e 9897 fa3e c5ed 883f 4095 603f
00000020: d9f0 ac3f 5ad3 993e 4700 be3e 0e25 a23e
00000030: 9b73 773e ebff 883e 728f f23e 3f76 8e3f
00000040: a1e8 833f 3166 a63f cc62 a23e 5ad3 993e
00000050: 4700 be3e 9d2b 773e 8b4b 693e 6dd0 033f
00000060: f87e 873f 4e0a 673f 31ef ad3f d9c9 c33e
00000070: cc62 a23e 5ad3 993e 1e14 8b3e db0f 7a3e
00000080: 6e7f f53e 2ada 0140 2502 1340 1572 4d40
0.37109587 0.31668895 0.3001606 0.2638754 0.22987677 0.48943782 1.0697562 0.8772774
1.3511001 0.3004406 0.37109587 0.31668895 0.24165194 0.2675775 0.47375065 1.1129836
1.0305368 1.2999936 0.31716 0.3004406 0.37109587 0.24137731 0.22782724 0.5148991
1.0585623 0.902501 1.358862 0.38239935 0.31716 0.3004406 0.27163786 0.24420111
0.47948784 2.0289407 2.297006 3.210088

running_var f4 [36]
00000000: 628c 5f3e 5196 643e 9072 4e3e 193c 133d
00000010: 5148 343d 1c41 6d3d c883 033f df45 033f
00000020: bc2a 043f 7d89 4e3e 628c 5f3e 5196 643e
00000030: 7e9d 0a3d 3af9 143d de99 813d 93ba 143f
00000040: 5e1f f53e 850b 0a3f aed2 643e 7d89 4e3e
00000050: 628c 5f3e 96c7 023d e5f5 3a3d 3775 423d
00000060: 9d56 113f acbe 1a3f 0273 d33e cf75 643e
00000070: aed2 643e 7d89 4e3e 21b6 263d 1f05 233d
00000080: 3929 6d3d fac3 813f 4fb1 853f 87ed e73f
0.21830896 0.22322966 0.2016089 0.035945985 0.04401428 0.05792342 0.5137296 0.5127849
0.5162771 0.20169635 0.21830896 0.22322966 0.033841603 0.036370493 0.06328176 0.5809719
0.47875494 0.5392383 0.22345993 0.20169635 0.21830896 0.03192862 0.04564466 0.047475066
0.56772786 0.6044719 0.41298681 0.22310565 0.22345993 0.20169635 0.040701035 0.039799806
0.05790064 1.0137932 1.0444735 1.8119363

weight f4 [36, 36]
00000000: 5393 203e 27a3 f03d e938 a9bd e405 1f3e
00000010: ea53 383d 8616 9e3d 8823 843e 0d90 b13e
00000020: 42fc 803e 858d 703d 2cfe 90bd f213 b83d
00000030: ffe8 503b 6919 1b3c 44b0 d6bd 69ad d63c
00000040: 3110 2f3d ddcf a73d 69c3 91bd 0eed 523b
00000050: 3377 1cbd d383 05bd 7a9b 5bbe 23b9 8cbd
00000060: e375 05bd 8c3f 37bd c041 a4bd 3286 003e
00000070: 9c9c 71bd a65b c83d e101 163b 2f16 82bd
00000080: 67ee c13d f11b 9c3d e172 0abc cc35 1abd
00000090: 8903 3dbe 7c68 403e ea82 32bd 85c3 db3d
000000a0: 75d2 043e 0036 acbd 8b32 eb3e 877f 0ebd
000000b0: 0a8d e5bd 5cee b23c 1915 07bd ed0e 3ebd
000000c0: 1501 9abd 651b b2bc adc6 063d 5c02 d9bd
000000d0: 5534 963c c355 c63d c827 00bc 3be0 223e
000000e0: ff04 1bbe 693c 053c 4c1f debd faf4 ddbc
000000f0: be2a 0d3d 9617 debd f8ef ecbb f654 67bd
00000100: aa2f 23bd 818d 2dbd 5a46 f1bd 78fb 3c3c
00000110: 55ad 9d3d a6e9 07be 7c6a 0fbe 2717 183e
00000120: 2088 37bc 6d3d 613c 243e 093e 6d92 edbd
00000130: 0efc 62bc 156f 543e ea9b cb3e 8fcc 39bd
00000140: 0175 823e 8267 0f3e 8890 b5bc 07d5 6a3d
00000150: de93 18be 06c0 b43d 38d6 0d3e 1fa5 f53d
00000160: 26b4 fcbd 2c1e 0a3e dcea db3d 2827 3bbd
00000170: d83a 373e 56a4 71bd b8a0 54bd 756c 5e3e
00000180: 4c44 1f3e 9f3a 2b3d 84c6 eb3c d83d 88bc
00000190: 2d70 91bd b2f5 c4bc e0f9 53bd e310 9c3c
000001a0: e9e7 ccbd 1964 aabc 407d 843c 7350 15be
000001b0: 82b7 1b3e a868 99bd a9d6 f73d 5e45 a2bc
000001c0: ce32 473e a7cd 673e 1454 6c3e d72c 973e
000001d0: dbd7 f63e f8ac 16be a20e db3c 205b a2bc
000001e0: 0353 b13d 83f4 4bbb 6f11 93bd 6089 87bd
000001f0: 0d77 8c3d 6b0e 8fbc 01ea bcbc dceb 07bd
00000200: 3d90 a2bc 2005 f93c 6535 8cbc 8b49 1c3c
00000210: 1c12 0ebd 75c5 803c 59dd f7bb 2ea8 00bd
00000220: 6d8c 4e3d a40a 2fbd 3cbd e03c 74ad 4cbd
00000230: a298 dd3d eef6 383d ef7c 77bd 8969 3b3c
00000240: 052c 293e 8640 123e 1e3b 4cbe 20cc 1abd
00000250: c0b4 e5bb 9cf0 1c3c 0988 8dbc c60c 20be
00000260: d97b b23e 7831 b43d 732c 353e 177b e43b
00000270: fec9 19be 957e e53d e8cb d63c a6ca 0f3e
00000280: 7b07 033d 33f6 db3a 4dba 9abd c54d 553d
00000290: edd9 ebbd bcd4 0f3d a33d 18bd fe7d ff3b
000002a0: 1a99 043d ea5b 1ebd 7166 1c3e 74cb 12be
000002b0: 89a1 433e d0ae 57bd 5e7b 0dbc a076 0cbd
000002c0: 52ee 1a3e 9e98 08bd e1c2 c43d b325 01be
000002d0: 7780 ca3d abee 063e 9db3 353e 389d c3bd
000002e0: c7ec 083e 2f86 dd3a cbc7 0ebe 8494 6fbe
000002f0: 0571 c4bd 5961 a73d 62d3 063e 4338 f8bd
00000300: 05cb e73c 9b53 49bd 3b82 9d3d 1e40 193e
00000310: 22e2 05bd b2f3 4a3c d6cf 843d f095 2d3e
00000320: 93c9 a8bd ba57 a03b a74a 0f3e 5f3c 1d3d
00000330: e7bf 87bd f1ca d73d a6ed 1bbe 13c8 d8bc
00000340: 0148 28bc 52e3 acbd ea70 e93d ea49 883d
00000350: 3257 15be b1c7 0d3e af55 ab3d b9f8 0c3e
00000360: b46f 483e a14a 373e 12c8 f73d ab6f c9bd
00000370: 3d00 033e 12fb 373d cc73 003f 1bb6 993e
00000380: 7ba7 003e 4ab9 17bd b41b fabd 4f25 a0bd
00000390: adcc 83bc e6a4 d7bd c6f0 4cbd adb2 5e3d
000003a0: 123b b83d 62c9 eabc e182 ca3c 1747 053d
000003b0: d19d 933d 6d50 58bd 1c9e 0bbd 3fb2 913d
000003c0: 70ea 8c3d d467 773d e02e 193d fc4c e63c
000003d0: 0fce 0f3d 0080 4c3d 7706 fd3d 552f 123e
000003e0: 1426 b43d 769b c93d 66d4 d6bb 7e50 30bd
000003f0: 37cf efbd b998 7dbc 7f7b 963d 137d 6fbd
0.156812 0.11749869 -0.08262808 0.15529591 0.0450019 0.0771914 0.25808358 0.34680215
0.25192457 0.058728714 -0.070797294 0.08988179 0.0031877158 0.0094665075 -0.10482839 0.026205735
0.04274005 0.08193944 -0.0711735 0.0032184753 -0.038199615 -0.03259642 -0.21446028 -0.068712495
-0.03258313 -0.044738337 -0.08020353 0.12551191 -0.058987245 0.097831056 0.0022889304 -0.063518874
0.094693 0.07622517 -0.008450241 -0.03764896 -0.1845838 0.18789858 -0.04358188 0.10730652
0.12970908 -0.08408737 0.45937 -0.03478959 -0.11208542 0.021842174 -0.032979105 -0.046400953
-0.07519738 -0.021741578 0.032904316 -0.10596153 0.0183355 0.096843265 -0.007821985 0.1590585
-0.15138625 0.008132079 -0.10845813 -0.027094353 0.03446459 -0.108443424 -0.007230755 -0.05647751
-0.039840378 -0.042371277 -0.117809966 0.011534564 0.07699076 -0.13272724 -0.14005464 0.14852582
-0.011201888 0.013747555 0.13402611 -0.11600194 -0.01385404 0.207455 0.3976739 -0.045361098
0.25479892 0.14004329 -0.022163644 0.057332065 -0.14900157 0.08825688 0.13851249 0.11994385
-0.12339048 0.13488072 0.10738155 -0.04569164 0.17893541 -0.058994614 -0.051911086 0.2172106
0.15553397 0.041803952 0.028781183 -0.016631052 -0.07101474 -0.024042938 -0.05175197 0.019051021
-0.10005171 -0.020799683 0.016173005 -0.1458147 0.15206721 -0.07490665 0.1210149 -0.019808467
0.19452974 0.22637044 0.23078948 0.29526398 0.4821156 -0.1471442 0.026740376 -0.019818842
0.08658411 -0.0031121082 -0.071810596 -0.06617999 0.06858645 -0.01746293 -0.0230608 -0.033183917
-0.019844169 0.030397952 -0.017115304 0.009539018 -0.03468524 0.015719155 -0.0075642285 -0.03141039
0.05042689 -0.042734757 0.027433984 -0.049970105 0.10820128 0.045157366 -0.06042188 0.011438736
0.16520698 0.14282426 -0.19944426 -0.037792325 -0.0070100725 0.00957885 -0.01727678 -0.15629873
0.34860113 0.08798498 0.17692737 0.0069726813 -0.1501846 0.11205784 0.026220277 0.14042148
0.031989556 0.0016781747 -0.07555065 0.05207612 -0.115161754 0.03511499 -0.037168156 0.007797002
0.03237257 -0.038661875 0.15273453 -0.14335424 0.1910459 -0.05265695 -0.00863537 -0.034292817
0.15129974 -0.033348672 0.09607483 -0.12612037 0.09887784 0.13176982 0.17744298 -0.095514715
0.13371573 0.0016900952 -0.13943402 -0.23396498 -0.09591869 0.081728645 0.13166574 -0.12120106
0.02829505 -0.049151998 0.07690855 0.14965865 -0.03268636 0.012387203 0.06484954 0.16951728
-0.08241572 0.0048932703 0.13993321 0.038387652 -0.06628399 0.10536755 -0.15227374 -0.02646259
-0.010271073 -0.084417954 0.1139849 0.06654723 -0.14584044 0.13845707 0.08365952 0.13766755
0.19573861 0.17899562 0.12098707 -0.09835752 0.1279306 0.044917174 0.5017669 0.30021748
0.12563889 -0.03704194 -0.12212315 -0.07819616 -0.016088808 -0.10529499 -0.050034307 0.054369617
0.08995642 -0.02866048 0.024720611 0.0325385 0.072078355 -0.052811075 -0.03408633 0.07114076
0.06880653 0.060401753 0.03739822 0.02811288 0.035108622 0.049926758 0.12354749 0.14275868
0.08796325 0.09844105 -0.0065560816 -0.043045513 -0.11709445 -0.015478306 0.07347774 -0.05846889

bias f4 [36]
00000000: 2da7 923e 3b91 c0bd af41 2e3d 48d8 623e
00000010: d6e9 ebbd 771a 893d 3fe0 6d3e 2339 16bd
00000020: 9a84 a6bd a1ab 723e 54e8 113e c21a 803d
00000030: d8e9 c33d 517a 473e eb2b 573e 0d86 243e
00000040: 5009 063e fb11 4b3e 6084 1e3d 2cde 88bd
00000050: 7afa 7a3e 3687 0a3e 56c9 d93c 5e9d afbd
00000060: 8f57 e03d 52bc ff3d b7cf 013e 3af3 753e
00000070: 5601 763e 4f91 283e 17e8 9f3d ab33 e83d
00000080: 776a 78bd 98df 063d cf9d 8d3c 1aff 83bd
0.2864317 -0.094027005 0.04254311 0.22152817 -0.1151921 0.06694501 0.23230074 -0.036675584
-0.081307605 0.23698284 0.14248782 0.06255104 0.095660865 0.19480254 0.21012847 0.16066761
0.1308949 0.19831078 0.03870046 -0.06683001 0.24509612 0.13528141 0.026585262 -0.08574937
0.109542005 0.12487091 0.12676893 0.24018565 0.24023947 0.16461681 0.078079395 0.1133798
-0.060648408 0.03292808 0.017287163 -0.06445141

weight f4 [18, 36]
00000000: df89 92be c58b f0bd 97c5 86be 9ec4 abbe
00000010: e63f 83bc 796b 66be be61 37be 0d6a 2ebd
00000020: d119 14bd e297 0fbe aca8 fcbd a9b0 aebd
00000030: baf6 26be cbdd 18be a5f3 e5bd 4178 60bd
00000040: 71b9 b2bd 030c 06be f8e5 97bd d990 8d3d
00000050: faf9 1cbc dac1 76be f7f1 53bc 7385 50be
00000060: f499 82be d543 1abe 2944 23be 08d0 993d
00000070: 4e94 9ebe 3cab 41be ea8d 9cbe e100 d53d
00000080: a29a 013d 45a0 54be 0ef1 a7bd 5a3e 22be
00000090: e5ad b23e 835b eeba db1a 5e3e f314 bd3e
000000a0: cfb0 c53d b4c1 46bd 3947 ac3e 06e4 303e
000000b0: 524e 743d b6bf ad3e b1a9 973e e2ad 543e
000000c0: dff9 0dbd 63fb c23c b000 a23e 52f8 11be
000000d0: c231 e6bd 8216 23be e2a3 9ebd 08a7 9abd
000000e0: 475a 043e ed2e b13d bb35 7fbd cf9f 90bd
000000f0: 8d85 5b3e e3fd cebd e7fa a2bd 7da2 aa3e
00000100: 2305 953e 91be c13e 1464 bc3d ef08 f23d
00000110: 666b c33c dfb0 dc3d 5315 02bd cfd5 9a3b
00000120: fc85 9e3e 9270 f43d 5f52 453d 0b28 8f3e
00000130: 712d 2dbd 9d5b 34bd 76d3 3d3e 55ac bf3d
00000140: b322 f03d 7a96 9b3e ca24 813e 5699 debc
00000150: 6cb8 263d aebe 12be 2425 0e3e fec8 ecbd
00000160: 7672 9f3c 98b6 62bd 6e07 253c 471f 59bd
00000170: 5a4d 803e 6507 653e 79cd 97bd 4a34 383d
00000180: b39e ac3d 1468 2a3d 6752 ccbd 0c38 923e
00000190: f93e ab3d 71f5 9c3d 645b 463e 8410 1f3e
000001a0: 5e00 463e ec84 0a3e b75a 0abd 53ff 26bd
000001b0: 6691 c2bd d95c aabd 753c 11bd 8a43 57be
000001c0: a5df edbd 164e e63d e802 003d 46be d43c
000001d0: 939f bebb 9fd4 43bd 4406 1bbd 5ae2 9e3d
000001e0: e0b0 8d3d b366 3b3e 6571 88bd 0bc5 533e
000001f0: 38d0 383e a15f a83d e152 763d 6ca7 d03d
00000200: b1d2 f93c 2c4e 963c e74e dfbd a88f 8b3d
00000210: 2310 753d 9016 513e fddf 663e 4dd5 18be
00000220: b33d 3dbe 1c5a c6bc 105c a7bd 293e dcbd
00000230: 29f1 98bd 4503 343d 9a06 e03d dfd6 993d
00000240: 19f1 663e 7efa 8d3d b822 7e3e e94b 303e
00000250: 8ba4 333e befc b13d b518 283d 383a 373e
00000260: 1f4d 093e 28d5 383e 0517 243d 7368 cebb
00000270: 5f58 3ebd 08aa bcbd 0c92 b93d 4fa2 dabc
00000280: ab4a e9bd 5757 7abd a618 00be 4b95 d5bd
00000290: 38dd f93d 7700 373e 8b59 c7bc df75 1bbe
000002a0: d526 703e a4ea 16be 298e 2abe 89af 863e
000002b0: de03 913e 4d7f a73e efc2 8e3d 8109 043e
000002c0: dec3 81bd 704e 8bbc 2306 303d 86b8 21be
000002d0: 466c b93e 73ad da3d 43ff 5d3e 11bf 963e
000002e0: 6821 ecba d91b b53d 2857 543e 8d09 153e
000002f0: 62ab 763d 8f02 953e 6189 373e a442 1b3c
00000300: 11dd 25bd be24 11be 88a3 cf3e b1e0 65be
00000310: df0e c8bd 9524 46be c386 d7bd c2e4 40bc
00000320: 5724 543e a772 753e fc16 773d 7486 1bbe
00000330: b3d9 833e 5c70 933c 1358 eebd c63d a13e
00000340: bd5e 973e e395 8a3e 8b30 2e3e bc8a 9a3e
00000350: 2fe5 403e c807 e03d 0b67 63bc 82c1 d2bb
00000360: 95f0 c83b 474e de3d 7434 8b3d 03e2 5dbb
00000370: e938 a4bc eb27 7b3e 85d8 d1bd 68ea 613c
00000380: bf4b 003d b026 47be b6f2 213d 0f00 8bbd
00000390: b8af 443e a3d4 bd3d b1cc 853d 5af2 9c3e
000003a0: f626 df3d ec80 9d3d 9fec 0c3e 6d96 893c
000003b0: 8a34 fe3c c37d a2bc 3288 903d c84c 1b3b
000003c0: 377f 5d3c 9afd 9c3d 8b6e 713c 33e0 f1bd
000003d0: 0311 a2bb d8a2 33be cf52 9ebd 8e84 863c
000003e0: b68a 92bd d303 b9bd d9b7 bb3b 866d 8b3e
000003f0: be30 803e a09d 063d 7207 6e3d 50bd b13e
-0.28620812 -0.11745409 -0.26322624 -0.33548445 -0.01602168 -0.22501935 -0.1790838 -0.042581607
-0.036157433 -0.14022782 -0.12336859 -0.08529789 -0.16305056 -0.14928357 -0.11228112 -0.054802183
-0.087267764 -0.1309052 -0.0741691 0.06912393 -0.009581083 -0.24097386 -0.012936107 -0.20363407
-0.25508082 -0.15064938 -0.1594397 0.07510382 -0.30972522 -0.18912977 -0.30577022 0.10400558
0.03164161 -0.20764263 -0.082002744 -0.15844098 0.34898296 -0.0018185232 0.21689932 0.36930045
0.09652864 -0.048524573 0.3364809 0.17274484 0.059645005 0.33935326 0.29621652 0.20769456
-0.034662124 0.023801511 0.3164115 -0.14254883 -0.11239959 -0.15926555 -0.07746102 -0.0755139
0.12925063 0.086515285 -0.0623071 -0.07061731 0.21437664 -0.10107019 -0.07958012 0.33327094
0.29105482 0.37840703 0.09198776 0.1181811 0.023854923 0.10775923 -0.031758618 0.004725195
0.30961597 0.119355336 0.04817426 0.27960238 -0.042279664 -0.04403268 0.18537697 0.093590416
0.11725368 0.30388242 0.2522338 -0.027172726 0.040703222 -0.14330551 0.13881356 -0.11561774
0.019463759 -0.055349916 0.010072572 -0.053008344 0.25059015 0.22366102 -0.07412238 0.04497174
0.08428707 0.041603163 -0.099766545 0.28558385 0.083616205 0.07664002 0.193708 0.15533644
0.19336078 0.13527268 -0.03377792 -0.04077084 -0.09500389 -0.083184905 -0.035458047 -0.21021858
-0.116149224 0.112453625 0.03125277 0.025969636 -0.0058173626 -0.047810193 -0.037847772 0.07758017
0.06918502 0.18300895 -0.06662253 0.20680635 0.18048179 0.08221365 0.060137633 0.10188183
0.030495973 0.018347822 -0.10903721 0.0681451 0.059829842 0.20418763 0.22546382 -0.14925118
-0.18480568 -0.02421289 -0.081718564 -0.107540436 -0.07467873 0.04394843 0.10938759 0.075116865
0.22552909 0.06932543 0.24817932 0.17216457 0.17543237 0.08690785 0.041039187 0.17893302
0.13408326 0.18050063 0.040061016 -0.0062990724 -0.046470996 -0.092121184 0.09061059 -0.026688723
-0.11391195 -0.06111845 -0.12509403 -0.10428866 0.12200397 0.17871271 -0.02433469 -0.15181683
0.23452313 -0.14737946 -0.16655792 0.26305798 0.28323263 0.3271431 0.069707744 0.1289425
-0.06336187 -0.017005175 0.042974602 -0.15793046 0.3621542 0.10677614 0.21679406 0.29442647
-0.0018015327 0.08843202 0.20736372 0.14554425 0.060222037 0.29103515 0.179235 0.009476338
-0.04049403 -0.14174172 0.40554452 -0.22448994 -0.097684614 -0.19349892 -0.10523751 -0.01177329
0.20716988 0.23969518 0.060324654 -0.15188009 0.2575203 0.017997913 -0.116378926 0.31492442
0.29564467 0.2706748 0.17010705 0.3018397 0.18837427 0.10938984 -0.013879548 -0.0064317593
0.0061321952 0.10854774 0.06797114 -0.0033856637 -0.020046668 0.24526946 -0.10246376 0.013788797
0.031322237 -0.19448352 0.039538108 -0.067871206 0.19207656 0.09269073 0.065331824 0.3065365
0.10896103 0.076906055 0.13762139 0.016795361 0.031030912 -0.019835358 0.07057227 0.0023696888
0.0135191 0.07665558 0.014735828 -0.11810341 -0.0049458756 -0.17542589 -0.07730638 0.016420629
-0.07155363 -0.090339325 0.0057287035 0.27231997 0.25037187 0.032865167 0.05811257 0.34714746

bias f4 [18]
00000000: f0e6 0bbe 945c 843d 8f1c 4abd 3e3c a63d
00000010: 0ee1 0c3e 0007 c83d dff9 3b3e 1e5e 5f3d
00000020: cc42 debc dea4 903d 54ba b0bd fc18 4c3e
00000030: 2f6f b63b 6309 28be 532e 083e 27d2 95bd
00000040: e236 493d 8c49 583c
-0.13662314 0.064629704 -0.04934364 0.08116959 0.13757727 0.0976696 0.18357037 0.054533117
-0.02713146 0.07062696 -0.08629289 0.19931406 0.0055674533 -0.16409831 0.13298921 -0.07315474
0.049124606 0.013201129

weight f4 [4, 18]
00000000: cbbb 5ebe 665a 29bf f128 acbe d3be 993d
00000010: eb83 00bf f7ee 1bbf 8685 b43e 5f4f c2be
00000020: bd38 e0be a0c3 c33e b3b0 71be 4ea0 923e
00000030: 0bf3 c13a 7a2f 33be a1ab 27be 9e5f 26be
00000040: 1a9f 473e d1a0 92be 6cf0 6dbe bcd9 b4be
00000050: 13fb 83be 5d8e 533e eedf 3bbe 98f5 2dbe
00000060: 23c9 6f3e 7c0a 77bd e22b c2bd 0bae 463e
00000070: cbc4 19be aa45 c73e 3320 5fbe 83fa 47be
00000080: ba82 d1be 1cef 06be 2039 ba3e 0900 45be
00000090: 247c 1fbe d576 233f bf4a ba3e c357 80be
000000a0: add9 163f 9ca0 ed3e 670c 12be 520b 193f
000000b0: ba15 0f3f 6cf7 6abe b525 58bd 08e4 0cbe
000000c0: a7d6 153f e16a 13bd 9e50 243f c19f de3e
000000d0: 61d6 8fbe 775a 0c3f a98f 7ebe c808 d43e
000000e0: d0e0 e43e 1434 82bc cf34 ac3d b742 713e
000000f0: 7e22 853d d05d d33e 5fcd 643e 9651 49be
00000100: a3bd c6bd 4013 51be af13 643e f037 a3bd
00000110: 8862 c03e e48f 183e 29c3 123d f7a0 963e
-0.21751325 -0.6615356 -0.33624986 0.075071 -0.5020129 -0.60911506 0.3525812 -0.3795118
-0.43793288 0.38235188 -0.23602562 0.28637928 0.0014797164 -0.1749858 -0.16374065 -0.16247413
0.19494286 -0.28638318 -0.23236245 -0.35322368 -0.25777492 0.20659776 -0.18347141 -0.16988218
0.23416571 -0.060312733 -0.09481026 0.1940233 -0.15016477 0.38920337 -0.21789627 -0.19529156
-0.4092005 -0.1317715 0.36371708 -0.19238295 -0.155747 0.638532 0.36385152 -0.25066957
0.58925897 0.46411598 -0.14262544 0.597829 0.5589253 -0.22945946 -0.052770335 -0.13758862
0.5853066 -0.0359906 0.6418551 0.43481258 -0.28093246 0.5482554 -0.2485949 0.4141295
0.44702768 -0.015893973 0.0840851 0.23560606 0.065007195 0.4128251 0.22343968 -0.19660029
-0.09704139 -0.204175 0.22273134 -0.079696536 0.37575173 0.1489864 0.03583065 0.2941968

bias f4 [4]
00000000: 9b78 af3c 0a2c 563e f3c3 4b3e cdec 29be
0.021419814 0.20915237 0.19898967 -0.16594239

weight f4 [2, 4]
00000000: aa87 443f a829 f83e f1c5 c5bf b874 bebe
00000010: e6ae 31bf 53aa d9be 7cb2 163f ff7c 523f
0.76769507 0.4846928 -1.5451032 -0.37198424 -0.694075 -0.4251276 0.58866096 0.8222198

bias f4 [2]
00000000: d64a e83c d7f3 0e3f
0.028355997 0.5584082
