Network2/params/mlp_wParams1008112243.pth (torch_old, 27555 bytes, 12 tensors)

weight f4 [36]
0	0x3dc25041	0.094879635
1	0x3da885bc	0.08228633
2	0x3f506d19	0.8141647
3	0x3e9f205f	0.31079385
4	0x3f31fc95	0.69526035
5	0x3f7643ab	0.96197003
6	0x3f6e72b3	0.9314377
7	0x3f54c07a	0.83106196
8	0x3f8673a8	1.0504045
9	0x3f50cc0a	0.8156134
10	0x3ed40ce2	0.4141608
11	0x3f49e2e6	0.78861845
12	0x3f44d178	0.76882124
13	0x3f3b7fd4	0.73241925
14	0x3f2f4469	0.6846376
15	0x3f209788	0.6273122
16	0x3ebcae0f	0.36851546
17	0x3e69cf84	0.22833067
18	0x3f3be6a9	0.73398834
19	0x3f33594b	0.70058125
20	0x3e8b4f24	0.27208817
21	0x3f1375db	0.5760171
22	0x3e075f95	0.13220055
23	0x3f34bb59	0.7059837
24	0x3e72357e	0.23653218
25	0x3e822c22	0.25424296
26	0x3ed693bc	0.41909587
27	0x3f180aa1	0.5939122
28	0x3e971dd8	0.29514956
29	0x3f66da1e	0.9017657
30	0x3f38ddeb	0.7221362
31	0x3ec2f82c	0.38079965
32	0x3f4c5f85	0.7983325
33	0x3dc9a7b7	0.09846442
34	0x3f07b002	0.5300294
35	0xbce33e4d	-0.027739668

bias f4 [36]
0	0xbd8dfac3	-0.069325946
1	0x3b9735cb	0.004614567
2	0xbd04236e	-0.03226035
3	0xbd92d732	-0.071699515
4	0xbd0d4e09	-0.03449825
5	0x3be77199	0.0070631024
6	0xbd21118b	-0.03932337
7	0x3d2d9528	0.042378575
8	0x3d2fd616	0.042928778
9	0x3c0fd864	0.008779619
10	0x3d5b642c	0.05356233
11	0x381cc0b4	3.7372767e-05
12	0xbd348760	-0.044074416
13	0xbdb89a0a	-0.090137556
14	0xbbb4722c	-0.0055067744
15	0x3d700f5e	0.058608405
16	0x3c9e75dc	0.01934331
17	0xbc678b4c	-0.014132332
18	0x3c9d3c86	0.019193899
19	0xbccaaa32	-0.024739359
20	0x3dc44a1a	0.09584446
21	0x3d131c20	0.035915494
22	0xbd462cb4	-0.048382476
23	0x3dec3165	0.11532859
24	0x3c73a604	0.014871124
25	0xbd571b51	-0.052516285
26	0x3dac6d5d	0.08419297
27	0x3d38c295	0.045107443
28	0xbc0d4af7	-0.00862383
29	0xbbef4571	-0.007301979
30	0x3cb50a7e	0.02209973
31	0x3c2bb3ca	0.010479877
32	0x3c24e886	0.0100652035
33	0xbd30100d	-0.042984057
34	0xbd5dbb26	-0.054133557
35	0x3bb6241d	0.0055585043

running_mean f4 [36]
0	0x3eab3e1d	0.33445826
1	0x3ebed5cd	0.37272492
2	0x3e913f3f	0.28368565
3	0x3e852f61	0.2601271
4	0x3e7d3aff	0.24729536
5	0x3ef4df3d	0.47826567
6	0x3f8b4df0	1.088316
7	0x3f6885e2	0.9082929
8	0x3fa8b90c	1.3181472
9	0x3e931d7e	0.28733438
10	0x3eab3e1d	0.33445826
11	0x3ebed5cd	0.37272492
12	0x3e6de320	0.23231173
13	0x3e74c275	0.23902304
14	0x3f04acd7	0.5182623
15	0x3f89b324	1.0757794
16	0x3f7ebf68	0.9951081
17	0x3fac9c34	1.348517
18	0x3ec0e6ba	0.3767603
19	0x3e931d7e	0.28733438
20	0x3eab3e1d	0.33445826
21	0x3e809597	0.25114128
22	0x3e66a7b7	0.22524916
23	0x3f046a6a	0.51724875
24	0x3f881dd7	1.0634106
25	0x3f747880	0.9549637
26	0x3fb6943c	1.4263988
27	0x3eabfbc7	0.33590528
28	0x3ec0e6ba	0.3767603
29	0x3e931d7e	0.28733438
30	0x3e8160cb	0.2526916
31	0x3e84257d	0.2580985
32	0x3ef7e2a2	0.48415095
33	0x3feea99e	1.8645513
34	0x40063dfc	2.0975332
35	0x403f3300	2.9874878

running_var f4 [36]
0	0x3e6ff653	0.23433809
1	0x3e6a0bdd	0.22856088
2	0x3e45a3ea	0.1930081
3	0x3d122f86	0.035689853
4	0x3d3e4853	0.046455692
5	0x3d8077b7	0.06272834
6	0x3f068f86	0.5256275
7	0x3f044868	0.51672983
8	0x3f0b9f2b	0.54539746
9	0x3e475ca7	0.19468938
10	0x3e6ff653	0.23433809
11	0x3e6a0bdd	0.22856088
12	0x3cffc65f	0.03122252
13	0x3d164499	0.036686514
14	0x3d5062a0	0.050875306
15	0x3f10e91a	0.56605685
16	0x3f037c50	0.5136156
17	0x3edda343	0.4328862
18	0x3e6b0ec4	0.22954851
19	0x3e475ca7	0.19468938
20	0x3e6ff653	0.23433809
21	0x3d0b7651	0.034048382
22	0x3d1ff177	0.03904864
23	0x3d409e38	0.04702589
24	0x3efe471d	0.4966363
25	0x3f14448f	0.5791711
26	0x3ed19a67	0.40938112
27	0x3e7028eb	0.23453109
28	0x3e6b0ec4	0.22954851
29	0x3e475ca7	0.19468938
30	0x3d074051	0.03302032
31	0x3d37c203	0.04486276
32	0x3d7913dc	0.060809955
33	0x3f71e8ac	0.94495654
34	0x3f86e1cf	1.0537661
35	0x3fea9dbe	1.8329389

weight f4 [36, 36]
0	0xbda9a264	-0.08282927
1	0x3d494f1d	0.049147714
2	0xbde9fe71	-0.11425484
3	0xbce8e2cf	-0.028428463
4	0xbde17a12	-0.11009611
5	0xbe37d908	-0.17953885
6	0x3caef9a6	0.021359276
7	0x3e358ac3	0.17728715
8	0x3e37eee2	0.1796222
9	0x3d7d1d30	0.061795413
10	0x3daf1b09	0.085500784
11	0x3d93687d	0.07197664
12	0xbe3a941b	-0.1822056
13	0xbcb272c0	-0.021783233
14	0xbe49567f	-0.19661902
15	0x3e2fc2f3	0.17164211
16	0xbd35b0f5	-0.044358213
17	0x3b5d05da	0.0033725412
18	0x3da1e251	0.079044946
19	0xbd7bb4a8	-0.061451584
20	0xbdeb840a	-0.11499794
21	0xbd045321	-0.03230584
22	0xbdcb340d	-0.09922037
23	0x3e0e633e	0.13905045
24	0x3e670a12	0.22562435
25	0xbe15e3aa	-0.14637628
26	0x3c40d870	0.011770353
27	0x3e45a7fe	0.19302365
28	0x3dc7dd89	0.09759051
29	0x3c96ec23	0.018423146
30	0x3cfe5cb0	0.031050056
31	0xbe2c8399	-0.16847076
32	0xbc6fb463	-0.01463041
33	0x3c6ed269	0.014576533
34	0xbe2a0f2b	-0.16607349
35	0xbe04e91e	-0.12979552
36	0x3e1e7959	0.15475978
37	0x3da680b9	0.08130021
38	0x3df45992	0.11931147
39	0x3da2babb	0.07945772
40	0xbd85384d	-0.06504879
41	0xbc2c59e1	-0.010519476
42	0xbe9f27cf	-0.3108506
43	0xbedc787d	-0.43060675
44	0xbe864c51	-0.262301
45	0x3cc16bc4	0.023610957
46	0x3dbc7e6c	0.092038006
47	0x3e20aa79	0.1569003
48	0xbd6cd430	-0.057819545
49	0x3d94dde1	0.072688825
50	0xbd7e4261	-0.062075023
51	0x3bc5e592	0.00603933
52	0xbe079283	-0.13239484
53	0xbe6a308f	-0.22870086
54	0x3dc0bddd	0.094112135
55	0xbd2c8d13	-0.042126726
56	0x3e0438a1	0.12912227
57	0x3be06d3c	0.0068489593
58	0xbe2bb247	-0.16767226
59	0x3c2c2c9f	0.010508685
60	0xbd45f5ab	-0.04832999
61	0xbdd3590c	-0.10319719
62	0xbd7c55c4	-0.06160523
63	0x3e55c6aa	0.20876566
64	0x3dd4e2b1	0.103948005
65	0x3ddcc26c	0.107792705
66	0xbd7e48c3	-0.06208111
67	0x3d69c366	0.057071112
68	0xbc8dae30	-0.017294973
69	0xbd78d19c	-0.060746774
70	0x3d52d920	0.051476598
71	0xbc89b39f	-0.016809283
72	0xbd536111	-0.05160624
73	0xbde55a69	-0.11198885
74	0x3d8f9c76	0.070122644
75	0xbddc61bd	-0.107608296
76	0xbd05752d	-0.03258245
77	0x3e22cc17	0.15898167
78	0xbcdf7bc8	-0.027280703
79	0x3e73717c	0.2377376
80	0x3ec9b7e3	0.39398107
81	0xbd9f9187	-0.07791429
82	0xbcab03c7	-0.020875825
83	0xbbe766cc	-0.007061815
84	0x3e27369f	0.1632943
85	0x3dc4063b	0.09571501
86	0x3e229737	0.15877996
87	0x3de38122	0.111086145
88	0xbdbc50b6	-0.09195082
89	0x3e8b4ab8	0.27205443
90	0xbda16be7	-0.07881909
91	0xbe2b3bbe	-0.16722009
92	0xbd008e72	-0.031385846
93	0xbd717a43	-0.05895449
94	0xbde60c3f	-0.112328045
95	0x3d1029de	0.035196178
96	0xbe08e72a	-0.13369432
97	0xbe5fbb22	-0.21848729
98	0x3e54dd92	0.20787647
99	0xbd42d5f1	-0.04756731
100	0x3de6bf80	0.112669945
101	0x3d8bde9d	0.068295695
102	0x3dfbe666	0.122998044
103	0xbe041223	-0.12897544
104	0x3dd25b1f	0.10271286
105	0x3d6ab4e2	0.05730141
106	0xbdc73df5	-0.09728614
107	0xbe023193	-0.12714224
108	0xbe34c86d	-0.17654581
109	0xbca0ea97	-0.019643111
110	0x3de20988	0.11036974
111	0xbd950b51	-0.07277549
112	0xbd8c9d95	-0.06865994
113	0xbc72713a	-0.014797503
114	0x3f1567af	0.58361334
115	0x3dc1272c	0.094312996
116	0xbdc85628	-0.09782058
117	0xbdbba74e	-0.0916277
118	0xbdba685b	-0.091019355
119	0xbdbc97c4	-0.092086345
120	0x3d91a080	0.07110691
121	0xbd07a429	-0.03311554
122	0x3da95c83	0.08269598
123	0xbd2b3ea3	-0.041807782
124	0xbdd1a6b2	-0.10236873
125	0x3e8bde97	0.2731826
126	0x3c6ed0f3	0.014576185
127	0x3d0fd4c8	0.035115033
128	0xbe5b309a	-0.21405259
129	0x3d3f68e1	0.04673088
130	0x3d1bdb64	0.038051024
131	0x3dd250b7	0.102693014
132	0x3da4d3b0	0.08048189
133	0x3c9bfe82	0.019042257
134	0xbc7a6aa7	-0.015284217
135	0xbe03fd09	-0.12889494
136	0x3dbf5840	0.09343004
137	0xbda04cbc	-0.07827136
138	0xbd8e6f47	-0.06954818
139	0x3da088a0	0.07838559
140	0x3d242781	0.040076736
141	0x3df2d771	0.118574984
142	0xbda2d968	-0.07951623
143	0xbdbb8d8d	-0.09157858
144	0x3d0b9257	0.034075107
145	0x3c9729ed	0.018452609
146	0x3d117a43	0.03551699
147	0xbd408b85	-0.047008056
148	0xbd93ea61	-0.072224386
149	0x3db86f08	0.090055525
150	0x3de6b5e8	0.112651646
151	0x3ededc2f	0.43527362
152	0x3c8bdc31	0.017072769
153	0xba7c188f	-0.00096166966
154	0x3df3c622	0.11903025
155	0xbd6059b0	-0.054773033
156	0x3ddbf781	0.10740567
157	0x3d08d4d5	0.033406097
158	0xbd027470	-0.031849325
159	0xbe2beb5d	-0.16789003
160	0xbe0c3868	-0.13693392
161	0x3ddb9f2c	0.10723719
162	0xbcd4ec33	-0.025991535
163	0x3e0b8068	0.13623202
164	0x3df13c1b	0.11779042
165	0xbdbded70	-0.09273803
166	0x3e3488d1	0.17630316
167	0xbd343225	-0.043993134
168	0x3e4aa417	0.19789158
169	0x3d577b4e	0.052607827
170	0xbda3feb5	-0.08007566
171	0x3d94bafb	0.07262226
172	0x3de0658d	0.10956869
173	0xbd4549f4	-0.04816623
174	0x3d982a83	0.074299835
175	0xbe0c5ed4	-0.13708049
176	0x3d878bce	0.066184625
177	0x3e2c355b	0.16817228
178	0xbdfda1cb	-0.12384375
179	0xbde53edf	-0.11193632
180	0xbd892acc	-0.06697616
181	0x3d2e3220	0.04252827
182	0x3de3ac88	0.11116892
183	0x3d1610ef	0.036637243
184	0xbe3b0f57	-0.1826757
185	0x3e0603a7	0.13087331
186	0x3e46eae5	0.19425543
187	0x3ec6cdd5	0.38828912
188	0x3bc7ce1e	0.006097569
189	0x3dd14623	0.10218456
190	0x3d6931cf	0.056932267
191	0xbe448978	-0.19193065
192	0xbd759427	-0.059955742
193	0xbbcc5ab1	-0.006236397
194	0xbe7b764f	-0.2455685
195	0xbe13ff30	-0.14452815
196	0xbda09a0b	-0.07841881
197	0x3ea28428	0.31741452
198	0xbc643c8d	-0.013930452
199	0xbe22a475	-0.15883048
200	0x3e4cd54e	0.20003244
201	0xbdef65e9	-0.1168936
202	0x3df3b14f	0.11899053
203	0xbd839d9a	-0.064265445
204	0x3e77ff53	0.24218492
205	0x3e58bba9	0.21165337
206	0xbda89d3a	-0.082331136
207	0x3d8f3e1e	0.0699427
208	0x3dac1a3e	0.08403443
209	0x3cc6e6c4	0.02427996
210	0xbd131513	-0.03590877
211	0xbde1203b	-0.109924756
212	0x3e353f7e	0.17700002
213	0xbca9ce74	-0.020728327
214	0xbd85d5bc	-0.06534907
215	0x3e26adbb	0.1627721
216	0x3d8a9230	0.06766164
217	0x3bb17a37	0.0054161805
218	0xbd167079	-0.036728356
219	0xbcc8f14c	-0.024529122
220	0x3d01861d	0.03162204
221	0xbd73d7be	-0.05953192
222	0xbd8b1a1e	-0.06792091
223	0x3e5c8e8a	0.2153875
224	0x3f1fe416	0.62457407
225	0x3ce82d7b	0.028342
226	0x3c1f780f	0.009733214
227	0xbd9d1e62	-0.07671811
228	0xbe052904	-0.13003927
229	0xbe2f4fe7	-0.17120324
230	0xbdc8705b	-0.09787055
231	0x3d964eca	0.073392466
232	0x3e289d24	0.16466194
233	0xbe18778d	-0.14889355
234	0xbdff3a26	-0.12462263
235	0xbd985223	-0.07437541
236	0x3e5c919e	0.21539924
237	0x3d88bde4	0.06676844
238	0xbe28ba46	-0.16477308
239	0xbda91d40	-0.08257532
240	0xbd0acfae	-0.033889465
241	0xbe15bb1c	-0.14622158
242	0x3db7f53b	0.08982321
243	0xbda1fad2	-0.07909168
244	0xbdb38939	-0.087664075
245	0xbdf62286	-0.120183036
246	0xbd6084fd	-0.054814328
247	0xbdde61c0	-0.10858488
248	0xbd2ea7e9	-0.0426406
249	0xbe0ab788	-0.13546574
250	0xbc17b9ed	-0.009260637
251	0xbd56a56b	-0.05240385
252	0xbce9aac6	-0.028523814
253	0x3bead036	0.007165934
254	0xbdd2b02d	-0.10287509
255	0x3c6390ac	0.013889473

bias f4 [36]
0	0xbdced724	-0.100996286
1	0xbcd9487a	-0.026523817
2	0xbddd9417	-0.108192615
3	0xbcc0b521	-0.023523869
4	0x3d84cd4b	0.06484469
5	0xbd4e9fed	-0.050445486
6	0x3ae3310a	0.001733334
7	0xbc9734a5	-0.01845772
8	0xbdbbdd22	-0.09173037
9	0x3c8a2191	0.016861709
10	0x3d5d1d70	0.053983152
11	0xbdf59450	-0.11991179
12	0x3d6db3bf	0.058032747
13	0x3dcb2098	0.09918326
14	0xbd66dc97	-0.056362715
15	0xbc0c8779	-0.008577221
16	0x3e61b343	0.22041039
17	0xbd7d78ec	-0.0618829
18	0x3dd3903a	0.103302434
19	0x3cd13c84	0.025541551
20	0x3e0ff18c	0.14056987
21	0x3e008c1c	0.12553447
22	0xbdb928a4	-0.09040955
23	0x3e1c8c61	0.15287925
24	0x3d97f54e	0.07419835
25	0x3c692d90	0.014232054
26	0xbda63aef	-0.081167094
27	0xbd837d76	-0.06420414
28	0x3d94b4b3	0.07261028
29	0xbdca6e23	-0.09884288
30	0xbd016e94	-0.031599596
31	0xbcc260d7	-0.023727817
32	0xbd6b51b9	-0.057450984
33	0xbd714b08	-0.058909446
34	0xbda36d7d	-0.079798676
35	0xbc750933	-0.014955807

weight f4 [18, 36]
0	0x3e673621	0.22579242
1	0xbd8eb1e4	-0.06967524
2	0x3e9cdb01	0.30635837
3	0x3e2048b3	0.15652733
4	0x3e746988	0.23868382
5	0x3e022bcf	0.12712024
6	0x3ed955f3	0.42448387
7	0x3debb8f3	0.11509886
8	0x3e8ce83e	0.27520937
9	0x3d96f5a5	0.07371072
10	0x3e6dabd5	0.2321008
11	0xbd9fc7a8	-0.07801753
12	0x3e77dd36	0.24205479
13	0x3f2097db	0.62731713
14	0x3e085202	0.13312533
15	0xbe1280e8	-0.14306986
16	0x3ee4e942	0.44709212
17	0xbe1a1c87	-0.15049945
18	0x3ea3caf6	0.31990784
19	0x3e13892e	0.14407799
20	0x3e8f72eb	0.28017363
21	0x3f0cb00f	0.54956144
22	0xbccdae38	-0.025107488
23	0x3f2b0d38	0.66817045
24	0x3ee4b946	0.44672602
25	0x3e82894c	0.25495374
26	0xbd6a9289	-0.057268653
27	0x3c8a6c5d	0.016897375
28	0xbd969b03	-0.07353785
29	0xbdb7c293	-0.08972659
30	0x3e5f6729	0.21816696
31	0xbe007ab7	-0.12546812
32	0xbe158fd9	-0.14605655
33	0x3e6cb38a	0.23115364
34	0xbdafa65c	-0.085766524
35	0x3e56f181	0.20990564
36	0x3cc8733f	0.024469016
37	0x3e68e28e	0.22742674
38	0x3c91a7d0	0.017780215
39	0xbe71dbbf	-0.23618983
40	0xbd9a97b9	-0.0754847
41	0xbd9faa59	-0.07796163
42	0xbe240761	-0.1601844
43	0x3e32330b	0.17402284
44	0xbe3b298d	-0.18277569
45	0x3e573e0d	0.21019764
46	0xbe3eca89	-0.18631949
47	0x3e29633e	0.16541764
48	0xbe7aa253	-0.24475984
49	0xbdcd39e2	-0.10020806
50	0xbe480be8	-0.19535792
51	0x3e0cd5a4	0.13753372
52	0xbe7dafcf	-0.24774097
53	0x3e977d5c	0.2958783
54	0xbd8ba309	-0.06818206
55	0xbda96bdb	-0.08272525
56	0xbe145287	-0.14484607
57	0xbe06a279	-0.13147916
58	0x3e867e72	0.26268345
59	0xbe8d3a49	-0.2758353
60	0xbe6bc6c6	-0.23025045
61	0xbe852847	-0.26007292
62	0x3eb8bfac	0.36083734
63	0x3e6182cd	0.22022553
64	0x3e8b9e8c	0.272694
65	0x3e30b54b	0.17256658
66	0xbbe01d05	-0.006839397
67	0xbd4cf0a4	-0.05003418
68	0x3e78aad3	0.24283914
69	0xbe1a0222	-0.15039876
70	0x3e831181	0.25599292
71	0xbe6ae8fb	-0.22940437
72	0x3e20e515	0.15712388
73	0xbdb4b86d	-0.08824239
74	0x3de0677c	0.10957238
75	0x3e78be40	0.24291325
76	0x3e736d01	0.2377205
77	0x3e383353	0.17988329
78	0x3eba1d82	0.36350638
79	0x3b97deca	0.004634713
80	0x3e9787f7	0.2959592
81	0xbddefdc1	-0.108882435
82	0x3e94b435	0.29043737
83	0xbdec3d8a	-0.11535175
84	0x3e967a7d	0.29390326
85	0x3f1b5e4b	0.60690755
86	0x3e31c103	0.17358784
87	0xbdc00d3e	-0.09377526
88	0x3ed45c62	0.41476732
89	0xbd9115e7	-0.07084256
90	0x3eb46f9c	0.352414
91	0x3d663986	0.056207202
92	0x3ddf7354	0.10910669
93	0x3e5af35f	0.21381901
94	0xbd92885f	-0.07154917
95	0x3ee7e34f	0.4529061
96	0x3eba94d7	0.3644168
97	0x3e3709b5	0.17874797
98	0xbe06d203	-0.1316605
99	0xbdfda7f3	-0.123855494
100	0xbd00219c	-0.031282052
101	0xbdbd96cc	-0.09257278
102	0x3e9b6411	0.30349782
103	0xbda7cf8a	-0.08193882
104	0xbdf4806e	-0.119385585
105	0x3ea3397f	0.31879804
106	0xbd8e7323	-0.06955554
107	0x3e3e8fde	0.18609568
108	0x3d8699ea	0.065723255
109	0xbe4ec583	-0.20192532
110	0x3de9bf3c	0.11413428
111	0x3e700238	0.23438346
112	0x3dbb1107	0.09134107
113	0x3e580c97	0.21098553
114	0x3ed507f8	0.41607642
115	0xbd89c7fa	-0.067275956
116	0x3e9bf9ab	0.3046392
117	0xbe3f69d1	-0.1869271
118	0x3ea1b320	0.31581974
119	0x3bd9ea05	0.0066502118
120	0x3eee55d5	0.4654986
121	0x3f3e9ede	0.7446116
122	0x3cbc7153	0.023003256
123	0xbdf0dcb4	-0.11760846
124	0x3efb400f	0.4907231
125	0xbc7ae321	-0.015312941
126	0x3ef17826	0.47161978
127	0x3e87b352	0.26503998
128	0x3e93e459	0.28885153
129	0x3ed34f9b	0.41271672
130	0xbd9099d3	-0.0706059
131	0x3f2dec0d	0.6793831
132	0x3e974b78	0.29549766
133	0x3e8e2838	0.2776506
134	0xbe1c4ab5	-0.15262873
135	0xbe07fe0f	-0.1328051
136	0xbe1798ac	-0.14804333
137	0xba096ee2	-0.0005242658
138	0x3e03cc38	0.12870872
139	0xbcf47b07	-0.02984382
140	0xbda5d1fc	-0.08096692
141	0x3e2b55e9	0.16731991
142	0xbba41a55	-0.005008022
143	0x3e55ea3d	0.20890136
144	0x3d7c7408	0.061634094
145	0xbdaa86b9	-0.083264776
146	0x3e862559	0.2620037
147	0x3e816a9b	0.25276646
148	0x3e73ce21	0.238091
149	0x3e88442c	0.2661451
150	0x3e9d5c76	0.30734605
151	0xbd94287b	-0.072342835
152	0x3e963052	0.2933374
153	0x3d00c4cc	0.03143768
154	0x3e96acfa	0.29428846
155	0xbde6b22d	-0.11264453
156	0x3ecfc835	0.40582433
157	0x3edf6845	0.4363424
158	0x3daa9dc6	0.08330874
159	0xbe321f87	-0.17394839
160	0x3e944651	0.28959897
161	0xbd145c17	-0.036220636
162	0x3eacdbf9	0.33761576
163	0x3e6bea37	0.23038565
164	0x3e812961	0.25226882
165	0x3ec58a29	0.3858197
166	0xbddf01e1	-0.1088903
167	0x3eccd3f9	0.40005472
168	0x3ebb2742	0.3655339
169	0x3ec582e5	0.38576427
170	0xbdd05106	-0.10171704
171	0xbdf055e0	-0.11735129
172	0x3c766cd4	0.015040595
173	0xbdf9092e	-0.12159954
174	0x3ea764c4	0.32694066
175	0xbced1b66	-0.028943729
176	0xbe42a2c9	-0.1900741
177	0x3e6efc96	0.23338541
178	0xbe2e0dba	-0.16997424
179	0x3e8ffcbe	0.28122514
180	0xbd103044	-0.03520228
181	0xbd77e922	-0.060525067
182	0x3e40f460	0.18843222
183	0x3dfb534a	0.122717455
184	0x3e2edd0b	0.17076509
185	0x3e74cc63	0.23906092
186	0x3e2f37b7	0.17111097
187	0xbd8c87c6	-0.06861834
188	0x3e56f2fd	0.2099113
189	0x3ced8b7d	0.028997177
190	0x3ea80ffa	0.3282469
191	0xbd0fd9b9	-0.035119746
192	0x3ed141da	0.40870553
193	0x3f0fd13a	0.5617863
194	0x3e208b4c	0.15678138
195	0xbce22f20	-0.027610362
196	0x3ee04200	0.43800354
197	0xbd298628	-0.041387707
198	0x3e93b181	0.28846362
199	0x3db20148	0.08691651
200	0x3e6ea3e7	0.23304711
201	0x3e9a704f	0.3016381
202	0xbd9a9944	-0.07548764
203	0x3ea84cd6	0.3287112
204	0x3ed6b212	0.41932732
205	0x3eaf7812	0.34271294
206	0xbdd53353	-0.1041018
207	0xbe01ee29	-0.12688507
208	0xbcf10ba0	-0.029424489
209	0xbd97e8e7	-0.074174695
210	0x3e217391	0.15766741
211	0x3c22770e	0.00991608
212	0xbe11c7e0	-0.14236403
213	0x3da45c28	0.0802539
214	0xbb0d3c33	-0.0021550774
215	0x3e4aa707	0.19790278
216	0x3e818df7	0.25303623
217	0xbdc838fd	-0.09776495
218	0x3e0de662	0.13857415
219	0x3e7d5f84	0.24743468
220	0x3e3ab0cd	0.18231507
221	0x3e6253a5	0.2210222
222	0x3e8ca34b	0.27468333
223	0xbb902082	-0.0043984065
224	0x3dc449f6	0.095844194
225	0xbdb94461	-0.09046245
226	0x3ed91fb9	0.42407015
227	0xbd2ddbfb	-0.042446118
228	0x3eb2e049	0.3493674
229	0x3efd7987	0.4950678
230	0x3e4cdcb3	0.20006065
231	0xbdc540a8	-0.09631473
232	0x3eeb313b	0.45935997
233	0x3d148dff	0.03626823
234	0x3ec8f1a1	0.39246848
235	0x3e85c27a	0.26124936
236	0x3ed1dd0d	0.4098896
237	0x3eed8470	0.46390104
238	0xbdd25bf7	-0.10271447
239	0x3f1027a7	0.56310505
240	0x3e8a3a8b	0.2699779
241	0x3ecec2f7	0.4038312
242	0xbda9c28b	-0.08289059
243	0xbd9dd95f	-0.07707476
244	0x3d826eb9	0.06368775
245	0xbdf5e0b1	-0.12005747
246	0x3e345763	0.1761146
247	0x3d39ae05	0.045331974
248	0xbe17f79a	-0.14840546
249	0x3eb5239e	0.35378736
250	0xbdfd0ccc	-0.123559564
251	0x3dc0f578	0.094218194
252	0x3d93d99b	0.07219239
253	0xbe133089	-0.14373983
254	0x3d629fb7	0.055328097
255	0x3de1c8b6	0.11024611

bias f4 [18]
0	0x3cf81ef6	0.0302882
1	0x3e33c630	0.17556071
2	0x3dcc908e	0.09988509
3	0x3e1870ab	0.1488673
4	0x3e1d878a	0.15383735
5	0x3d62b76a	0.0553507
6	0xbacb96f9	-0.0015532664
7	0x3dd7e768	0.10542184
8	0xbc825ea3	-0.015914267
9	0xbd4c8185	-0.049928207
10	0x3e2af9f7	0.16696917
11	0x3ca407ca	0.020023245
12	0x3d14a0a6	0.03628602
13	0x3e017c22	0.12645009
14	0x3dc347aa	0.09535153
15	0x3e50aacb	0.20377652
16	0xbd859a23	-0.0652354
17	0x3dabfd0f	0.083978765

weight f4 [4, 18]
0	0x3f94f9e5	1.1638762
1	0xbe869d4e	-0.2629189
2	0x3f8802ae	1.0625818
3	0x3f8a1ce5	1.0790068
4	0x3f58350a	0.8445593
5	0x3f694c62	0.91132176
6	0x3f9a40ca	1.2051022
7	0x3f9b29e2	1.2122157
8	0x3fa9f1a5	1.3276869
9	0x3f8b68fc	1.0891414
10	0xbeb47fdb	-0.35253796
11	0x3f56b3b5	0.8386796
12	0xbdcceef8	-0.10006517
13	0x3f5c37fa	0.86022913
14	0xbe8212e0	-0.25405025
15	0xbe25b200	-0.16181183
16	0xbe199d3e	-0.1500139
17	0xbdda66b2	-0.10664119
18	0xbe74bdf6	-0.2390059
19	0x3ef4e314	0.47829497
20	0xbec0e7e0	-0.37676907
21	0xbea903e1	-0.33010772
22	0xbdaa4188	-0.0831328
23	0xbea99011	-0.33117726
24	0xbec721d6	-0.38893002
25	0xbdd687f5	-0.104751505
26	0xbeb1c68f	-0.347218
27	0xbeb021b7	-0.34400722
28	0x3e37d344	0.17951685
29	0xbec15537	-0.37760326
30	0x3f05731d	0.52128774
31	0xbea86f2c	-0.32897317
32	0x3e96ee9b	0.29478917
33	0x3f05a767	0.5220856
34	0xbe9bffab	-0.30468497
35	0x3e9613a9	0.29311875
36	0xbeb06d82	-0.34458548
37	0x3e85df98	0.2614715
38	0xbedd0bf3	-0.4317318
39	0xbe47f040	-0.19525242
40	0xbeaf9c1b	-0.34298787
41	0xbed04f9a	-0.4068573
42	0xbe8be569	-0.27323464
43	0xbf01b587	-0.50667614
44	0xbe971f57	-0.29516098
45	0xbec19062	-0.37805468
46	0x3e941f84	0.28930295
47	0xbe72ad9c	-0.23699039
48	0x3e9e9b6f	0.3097796
49	0xbe9c0b03	-0.3047715
50	0x3eb7d649	0.35905674
51	0x3ee20be1	0.44149688
52	0x3d9645a2	0.073375
53	0x3edb0bdf	0.42782494
54	0xbe5e4ee2	-0.21709779
55	0x3e99022a	0.29884464
56	0xbef12ff9	-0.47106913
57	0xbdd5a3d6	-0.1043164
58	0xbe753154	-0.23944598
59	0xbec7fbc3	-0.39059266
60	0xbefd48c8	-0.4946959
61	0xbebf0f46	-0.3731634
62	0xbe797db5	-0.2436436
63	0xbecac00e	-0.3959965
64	0x3eca5c64	0.39523613
65	0xbe806166	-0.2507431
66	0x3ec68618	0.3877418
67	0xbeb9ff81	-0.36327747
68	0x3ead9f24	0.33910477
69	0x3e95ecaa	0.29282123
70	0xbdc0ae3f	-0.09408235
71	0x3ec5579e	0.3854341

bias f4 [4]
0	0x3dfaa7e0	0.12239051
1	0x3f047b0f	0.5175027
2	0x3ecfb0b3	0.40564498
3	0x3eab2a9d	0.3343095

weight f4 [2, 4]
0	0xbfdf99ef	-1.7468852
1	0x3f22b6ad	0.6355999
2	0x3f4a72e4	0.7908156
3	0x3f559c0d	0.8344124
4	0x3f13b343	0.57695407
5	0xbf1eba3f	-0.6200294
6	0xbf8be4f8	-1.0929251
7	0xbfa20f76	-1.2660968

bias f4 [2]
0	0xba20bcf0	-0.00061316695
1	0x3ff9ad34	1.9505982
