Network2/params/mlp_nwParams10.pth (torch_old, 51122 bytes, 8 tensors)

weight f4 [72, 60]
0	0xbdd81317	-0.10550516
1	0xbcf8c82c	-0.030368887
2	0xbda37cc2	-0.0798278
3	0xbebe59b7	-0.37177822
4	0xbe410e6e	-0.1885316
5	0xc02d1002	-2.704102
6	0xbe25eb16	-0.1620296
7	0xbe089245	-0.13337047
8	0x3dc4b981	0.096056946
9	0xbf6b8282	-0.91996014
10	0x3e81c938	0.2534883
11	0xbfe08d4e	-1.7543123
12	0xbc6cde84	-0.014457349
13	0xbe89747c	-0.26846683
14	0x3d3d1485	0.046162147
15	0xbe80f106	-0.25183886
16	0xbfba6036	-1.4560611
17	0xbf901177	-1.125533
18	0xbdcf44d1	-0.101205476
19	0x3c8de22e	0.017319765
20	0xbe09bec4	-0.13451678
21	0xbfa958b7	-1.3230199
22	0xbebf4ea3	-0.37364683
23	0xbfb901c3	-1.4453663
24	0xbd8a59f8	-0.067554414
25	0xbc4a82d1	-0.012360291
26	0x3bdd5429	0.0067544174
27	0xbf8d58d6	-1.1042736
28	0x3f871c0a	1.0555432
29	0xc039092f	-2.8911855
30	0x3e1cf1d7	0.1532663
31	0xbe66a22a	-0.22522798
32	0xbe0be793	-0.13662557
33	0x3f06a7f5	0.5260003
34	0x3e993d0a	0.29929382
35	0xc0807291	-4.013985
36	0x3d96bb8b	0.0735999
37	0x3dc8e2d3	0.09808888
38	0xbdcf2d0e	-0.101160154
39	0xbf93a897	-1.1535825
40	0xbd7bf80e	-0.06151586
41	0xc0045857	-2.0678918
42	0xbe4417b2	-0.19149664
43	0x3d978364	0.07398108
44	0x3de6cdf4	0.11269751
45	0xbeecc774	-0.4624592
46	0x3f2f9d55	0.68599445
47	0xc01e70f5	-2.4756444
48	0x3dc2e59d	0.095164515
49	0xbe674084	-0.22583205
50	0x3cbd308a	0.023094434
51	0x3f62c185	0.8857654
52	0x3dda55df	0.1066091
53	0xc04ee72d	-3.2328598
54	0xbdb82bf1	-0.08992756
55	0x3de3635a	0.11102934
56	0xbde01d10	-0.10943043
57	0xc0116468	-2.2717533
58	0x3d8f22b5	0.06989042
59	0xbead2cad	-0.33823147
60	0x3fa8b34e	1.317972
61	0x3f3ea464	0.7446959
62	0x3f53d512	0.82746994
63	0xc0204958	-2.5044765
64	0x3f78578e	0.970086
65	0xc055cd4c	-3.3406553
66	0x3f498300	0.78715515
67	0x3fb67898	1.4255552
68	0x3f484444	0.78229165
69	0xbead8e9e	-0.3389787
70	0xbea664a2	-0.32498652
71	0xbfd37da9	-1.6522723
72	0x3f57b904	0.84266686
73	0x3f484e4a	0.7824446
74	0x3fa535ae	1.2907007
75	0x3fe261a0	1.7686043
76	0x3f404348	0.75102663
77	0xc0a20acf	-5.0638194
78	0x3faadbe4	1.3348355
79	0x3f455522	0.7708303
80	0x3f4feefa	0.81224024
81	0xc02b713e	-2.6787868
82	0x3fbfdda4	1.4989514
83	0xc066aab8	-3.6041698
84	0x3f77584f	0.96619123
85	0x3fb327e0	1.3996544
86	0x3f5ac8de	0.8546275
87	0x3ec700f1	0.38867906
88	0xbdfa8359	-0.12232084
89	0xbfb71429	-1.4303027
90	0x3f7ac4bc	0.9795644
91	0x3f59f056	0.8513235
92	0x3fa625bc	1.2980266
93	0x3fccb570	1.599287
94	0x3ead63fb	0.33865342
95	0xc0b3331c	-5.599989
96	0x3fb954be	1.4478986
97	0x3f5fd67c	0.8743665
98	0x3f6a40d3	0.91505164
99	0xc01b30d3	-2.424855
100	0x3e9cc14f	0.30616233
101	0xbfb883ce	-1.4415224
102	0x3f805881	1.0027009
103	0x3fbb1c24	1.4617963
104	0x3f570b1a	0.84001315
105	0xbed913f3	-0.42398033
106	0xbe847d0b	-0.2587665
107	0xbfb09203	-1.3794559
108	0x3f524a60	0.8214474
109	0x3f6ca768	0.9244294
110	0x3fc17556	1.5113933
111	0x3fbeb931	1.4900266
112	0x3eae43f9	0.34036234
113	0xc0a1a738	-5.0516624
114	0x3fb6443c	1.4239573
115	0x3f3d73d6	0.74004877
116	0x3f5f262d	0.87167627
117	0xc074af18	-3.8231869
118	0x40a4c7e2	5.1493998
119	0xc123f676	-10.247671
120	0xbfc6f42e	-1.5543268
121	0x3e986549	0.29764774
122	0xbf0e4f17	-0.5558943
123	0xc03f0664	-2.984765
124	0xbfa4435b	-1.2833055
125	0x3fe0be35	1.7558047
126	0xbf27e839	-0.6558872
127	0xbfcd780c	-1.605226
128	0x3ebaa3d3	0.36453113
129	0xbf71aeb3	-0.94407195
130	0xc071b21b	-3.7764957
131	0x3f81ee93	1.0150932
132	0x3e45a9ef	0.19303106
133	0xbee01dfb	-0.43772873
134	0xbfbf3c0e	-1.4940202
135	0xc0b68f5b	-5.7049994
136	0xc024b9f5	-2.57385
137	0x3ffe1703	1.9850773
138	0xbfc3891e	-1.527622
139	0x3eade9d5	0.33967462
140	0xbeed28af	-0.46320102
141	0xc00fdd7d	-2.2478936
142	0xbfa7dc56	-1.3114116
143	0x40098f69	2.149378
144	0xbece28b7	-0.40265438
145	0xbfc8233c	-1.5635753
146	0x3e463d91	0.19359423
147	0xbf95915f	-1.1684989
148	0xc0812187	-4.0353427
149	0x3f26c67f	0.6514663
150	0x3e32b688	0.17452443
151	0xbee3ac7f	-0.44467542
152	0xbfcf601c	-1.6201205
153	0xc0cd0684	-6.4070454
154	0xc033a859	-2.8071501
155	0x40263ba0	2.5973892
156	0xbfdcc7a6	-1.7248428
157	0x3e8ddafb	0.2770613
158	0xbef146c5	-0.47124305
159	0x3e82a519	0.25516585
160	0xc0afefbe	-5.4980154
161	0x3ffffd73	1.9999222
162	0xbf26baaf	-0.65128607
163	0xbfc9b3a6	-1.5757949
164	0x3e5557c1	0.20834257
165	0xbf8e0af5	-1.1097094
166	0xc08d0ae7	-4.407581
167	0x3fc0960f	1.5045794
168	0x3e478d31	0.19487454
169	0xbf060f98	-0.52367544
170	0xbfc43d42	-1.5331194
171	0xc0cf8c5c	-6.4858837
172	0xbf816399	-1.010852
173	0x3fd8fc64	1.6952024
174	0xbfd8bf86	-1.6933448
175	0x3e457e31	0.1928642
176	0xbf07a63d	-0.52988034
177	0x3f4ca18c	0.79934
178	0x409bd37d	4.8695664
179	0xbec42879	-0.38312128
180	0xbfaac9a1	-1.3342782
181	0xbfcf04a3	-1.617329
182	0xc02492e4	-2.5714655
183	0xc043b6bb	-3.058028
184	0xc01f9b3a	-2.4938493
185	0xbed6fc54	-0.41989386
186	0xc0256b82	-2.5846868
187	0xbfbf2ee5	-1.4936186
188	0xbfc13005	-1.5092779
189	0xc0870786	-4.2196684
190	0xc0bbc323	-5.8675704
191	0xbf290ce7	-0.6603531
192	0xbfda09f7	-1.7034291
193	0xc021b26a	-2.5265145
194	0xbfbb87ef	-1.4650859
195	0xc0a86c1b	-5.2631965
196	0xc033e113	-2.8106124
197	0xbf4b23a8	-0.7935128
198	0xbfc5bec3	-1.5448841
199	0xbfd546bf	-1.6662215
200	0xc02925c2	-2.6429296
201	0xc058ea59	-3.3893034
202	0xc06aee0e	-3.6707797
203	0x3efc1ddb	0.49241528
204	0xc02062be	-2.5060267
205	0xbfbde1f3	-1.4834579
206	0xbfc849c9	-1.5647517
207	0xc0b4b805	-5.6474633
208	0xc0ad66ad	-5.4187837
209	0xbf61f2c1	-0.8826104
210	0xbfd18acf	-1.6370486
211	0xc01f7578	-2.4915447
212	0xbfb942db	-1.4473528
213	0xc08861e9	-4.261952
214	0xc04197ec	-3.0248976
215	0xbfe1fe2c	-1.7655692
216	0xbfbf28bb	-1.4934305
217	0xbfd9bec1	-1.7011338
218	0xc0244612	-2.5667768
219	0xc048d490	-3.1379738
220	0xc0988d2a	-4.767232
221	0xbf05a5a0	-0.5220585
222	0xc0293f66	-2.6444945
223	0xbfa8de4b	-1.3192838
224	0xbfc0e2c5	-1.5069205
225	0xc09cb90b	-4.8975883
226	0xc0a85bda	-5.2612123
227	0x3e2a63c7	0.16639625
228	0xbfc809d5	-1.5628
229	0xc02773cc	-2.6164427
230	0xbfae00db	-1.3594011
231	0xc08fbea1	-4.49202
232	0xc02e2adc	-2.721366
233	0xbfc89a8c	-1.5672164
234	0xbfc4fcb9	-1.5389625
235	0xbfd1acbd	-1.638084
236	0xc026e708	-2.607851
237	0xc015385c	-2.331565
238	0xbf9e8f60	-1.2387505
239	0xbf71edfe	-0.9450377
240	0x3e9d236b	0.30691084
241	0xbfc610fb	-1.5473932
242	0xc00996f8	-2.1498394
243	0xbfacfc21	-1.3514444
244	0x3f75244d	0.95758516
245	0xbfa3865e	-1.2775381
246	0xc008cd94	-2.1375475
247	0x3e73f02a	0.23822084
248	0xbfce09a5	-1.6096693
249	0x405a28df	3.4087446
250	0xc095b8d8	-4.678814
251	0x3fcce2f6	1.6006763
252	0xbfb9d5ef	-1.4518412
253	0xbffeee34	-1.9916444
254	0x3eb52379	0.35378626
255	0xbfedb168	-1.8569765

bias f4 [72]
0	0xbf8a9c16	-1.0828884
1	0xbf4ae135	-0.7924989
2	0xbf00dbed	-0.5033558
3	0xc02d5bfc	-2.7087393
4	0x3e3a03c4	0.18165499
5	0xbfe15f84	-1.7607274
6	0xc054319f	-3.3155286
7	0xbf32e6a7	-0.698832
8	0xbf381d58	-0.71919775
9	0xbe88682b	-0.26641974
10	0xbde10eba	-0.10989137
11	0xbedcb223	-0.43104658
12	0xbfba848c	-1.45717
13	0xc044bc57	-3.0739954
14	0xbed5cbe1	-0.4175711
15	0xbe442a17	-0.19156681
16	0xbfb766c3	-1.4328235
17	0xbe6c527a	-0.23078337
18	0xbfbba99a	-1.4661133
19	0xbea9e416	-0.33181828
20	0xbf8285aa	-1.0197041
21	0xc073ac09	-3.8073752
22	0xbee7c1bd	-0.45264998
23	0xbece1b77	-0.4025533
24	0xbf0d5241	-0.55203635
25	0xbf5d869e	-0.86533535
26	0xbf9400c1	-1.156273
27	0xbfe572b4	-1.792563
28	0x3e11c8cb	0.14236753
29	0xbf9da2c6	-1.23153
30	0xbf58ed9c	-0.84737563
31	0xc0207050	-2.506855
32	0xbf895e47	-1.0731896
33	0xbf33ba23	-0.702059
34	0xbea4f1f2	-0.3221584
35	0xbf1e7106	-0.6189121
36	0xbf755588	-0.95833635
37	0xbf33fd94	-0.70308805
38	0xbf59ae71	-0.850318
39	0xbf472070	-0.7778387
40	0xbfb01405	-1.375611
41	0xc034c142	-2.8242955
42	0xc065c117	-3.5899103
43	0xbf23a665	-0.6392577
44	0xc065ab12	-3.5885663
45	0xbe8abd59	-0.27097586
46	0xc017f0e7	-2.3740785
47	0xbfe6767d	-1.800491
48	0xbf5f5704	-0.8724215
49	0xbfbd08c6	-1.4768302
50	0xbf01f7b7	-0.5076861
51	0xbf4e1163	-0.8049528
52	0xbf8c9d75	-1.0985552
53	0xbee5dd96	-0.4489562
54	0xbf3cd3f5	-0.7376092
55	0xc03a50ea	-2.9111886
56	0xbf9ad4a4	-1.2096143
57	0xbea0eb4d	-0.3142952
58	0xbf751cb9	-0.9574695
59	0xc01cb56c	-2.448573
60	0xbf9bf11b	-1.2182955
61	0xbee96204	-0.45582592
62	0x3e008067	0.12548982
63	0xbf1566c8	-0.58359957
64	0xbfd1d19a	-1.639209
65	0xbf77349c	-0.9656465
66	0xbf7730ab	-0.96558636
67	0xbf996642	-1.1984332
68	0xc01ffa75	-2.4996617
69	0xbfb33ee5	-1.4003569
70	0xc040573d	-3.0053246
71	0xbf3acdc1	-0.72970206

weight f4 [60, 72]
0	0xc01d5b97	-2.4587152
1	0x3e993b0b	0.2992786
2	0x3fe832b2	1.8140471
3	0x3db7719d	0.08957217
4	0xbdfb7e03	-0.12279894
5	0x408a8f73	4.330011
6	0x408d2302	4.4105234
7	0x40844f7a	4.1347017
8	0xc01fb6d8	-2.495535
9	0xbf3d6ef5	-0.7399743
10	0xc0319bc3	-2.775132
11	0x3f69619f	0.9116458
12	0x405e9fe5	3.4785092
13	0x40165c71	2.3493922
14	0xbe68edb4	-0.22746927
15	0xbffa45a5	-1.9552504
16	0xbf6eae4f	-0.93234724
17	0xc01e7534	-2.4759035
18	0xbf0e7e22	-0.55661213
19	0xc02ffdef	-2.7498739
20	0x3ebe0627	0.3711407
21	0x404bb34a	3.182818
22	0xbeafa123	-0.34302625
23	0xbfac88bc	-1.3479228
24	0xbe8fe4a9	-0.2810414
25	0xc0134655	-2.3011677
26	0xc03312e6	-2.7980285
27	0xbf8f1cb5	-1.1180636
28	0xc03a0ae5	-2.906915
29	0xc01b5418	-2.4270077
30	0x4024e51e	2.5764842
31	0x40867ddd	4.202864
32	0xbfdbcf06	-1.7172554
33	0xbf87a90a	-1.0598462
34	0x40182af7	2.3776224
35	0xc0add90b	-5.4327445
36	0x3f32be8e	0.69822013
37	0x3f8a80a8	1.0820513
38	0x3ec04a84	0.3755685
39	0x3f8d1ef4	1.1025071
40	0x3ecbd229	0.39808777
41	0x3f6f3f8f	0.9345636
42	0x404baf9b	3.182593
43	0x3eb61486	0.35562533
44	0x40078db5	2.118024
45	0xc00c903b	-2.1963031
46	0xc04a0659	-3.1566374
47	0x403b3563	2.9251335
48	0x40438da5	3.0555203
49	0x3f8f626f	1.1201915
50	0xbfaf1c13	-1.3680443
51	0xc010e910	-2.264225
52	0x3ef4403a	0.4770525
53	0xc012fa10	-2.2965126
54	0x3fdc58eb	1.7214636
55	0x408e5d22	4.4488688
56	0xbfacdcf0	-1.3504925
57	0xbef17b74	-0.471645
58	0x406af27f	3.6710508
59	0x409bbb81	4.8666387
60	0xbfaa2832	-1.3293517
61	0x3fcbaebc	1.59127
62	0xbf224922	-0.6339284
63	0x3fe6d42e	1.8033502
64	0xbf22f3d7	-0.6365332
65	0xbef32006	-0.4748537
66	0x3f55e20d	0.8354805
67	0x408496cf	4.1434093
68	0x40772770	3.861782
69	0x4086f378	4.2172203
70	0x404a048f	3.1565282
71	0xc03c2910	-2.9400063
72	0x3f16bdf2	0.58883584
73	0x400d64f0	2.2092857
74	0x4005b608	2.0892353
75	0x4000a7de	2.0102458
76	0x407bc094	3.933629
77	0xc02ed17f	-2.7315366
78	0x3ed81041	0.421999
79	0x3f8e99fa	1.114074
80	0x3f391a4b	0.72305745
81	0xbf20b231	-0.627719
82	0xbf5c4f40	-0.86058426
83	0xbfa802cc	-1.3125854
84	0x405d3489	3.4563315
85	0xc02d447c	-2.707305
86	0xc01ffbac	-2.4997358
87	0x4078c08b	3.886752
88	0xc07be1f0	-3.9356651
89	0x3e03b6b5	0.12862666
90	0x408293c7	4.080539
91	0x3e48b46b	0.19600074
92	0x3f441b26	0.76603925
93	0x3f695c11	0.9115611
94	0x40585622	3.3802571
95	0x3feb3643	1.8375934
96	0xbf8ed9e2	-1.1160243
97	0x3fe13d25	1.7596785
98	0xbf4c3ba5	-0.7977851
99	0xbec32f88	-0.381222
100	0x3f3cd595	0.737634
101	0x3f604645	0.8760722
102	0xc01092c3	-2.2589576
103	0x4044e3ed	3.0764115
104	0xc088860a	-4.266362
105	0xc08782a0	-4.2346954
106	0x3f83b9c0	1.0291061
107	0xbe56a979	-0.20963086
108	0x40609847	3.5092943
109	0x3ffc80e0	1.972683
110	0xc006623b	-2.0997455
111	0x3f7d1538	0.988605
112	0x4058f2bb	3.389815
113	0x40397424	2.8977137
114	0xbe8648b4	-0.26227343
115	0xbfa27beb	-1.2694067
116	0x4023b136	2.557691
117	0xbef83a80	-0.48482132
118	0x40e0f277	7.0295978
119	0x3d313628	0.043264538
120	0xbec4989d	-0.38397685
121	0xbeaeb783	-0.34124383
122	0x40376e52	2.8661084
123	0xbe3fa65d	-0.18715806
124	0x3f25c4a4	0.64753175
125	0xbfbce943	-1.4758686
126	0x3f59bb6b	0.850516
127	0x3d615cdb	0.055020195
128	0x40170dbd	2.3602135
129	0x3ef2dec0	0.4743557
130	0x4079c350	3.902546
131	0xbfb5a65e	-1.4191396
132	0x3d9281dd	0.07153676
133	0x409433f7	4.6313434
134	0x3e4c0dda	0.19927159
135	0x3fe0066d	1.7501961
136	0x40573c1c	3.3630438
137	0x40220fe5	2.5322201
138	0x3fbff207	1.4995736
139	0x3f0a1f98	0.5395446
140	0x3ec86d97	0.3914611
141	0x3f5218a8	0.8206887
142	0x3f4343d5	0.7627538
143	0x3eece391	0.4626737
144	0x3ede7e5a	0.43455774
145	0xc0a6d237	-5.213161
146	0xbdf3575a	-0.11881895
147	0x3fd432f7	1.6578053
148	0xbfeedabe	-1.8660505
149	0x40af856c	5.485037
150	0x3fd9c282	1.7012484
151	0xc0918e83	-4.5486465
152	0x3f913d19	1.134677
153	0x40cb02b2	6.344079
154	0x4079d9cf	3.903919
155	0x3f6076a4	0.8768103
156	0x40d06df9	6.5134244
157	0x3ca3e7f5	0.020008067
158	0xbe941195	-0.28919664
159	0xc01ab6a2	-2.417397
160	0xc04d8e94	-3.2118273
161	0xbf2748df	-0.6534557
162	0xbfd2ec9b	-1.6478456
163	0x402f7781	2.741669
164	0x40bd593c	5.917143
165	0x3f404fed	0.7512196
166	0xc0befd03	-5.968385
167	0xc0985568	-4.7604256
168	0xc03557f7	-2.833494
169	0xc022b1e5	-2.5421078
170	0xbf9c4d21	-1.2211038
171	0xbf8de727	-1.1086167
172	0x4041f08b	3.0303066
173	0xc0740899	-3.8130248
174	0x3fa791f4	1.3091416
175	0x401160d7	2.2715356
176	0xbfb76715	-1.4328333
177	0xc0216d42	-2.5222936
178	0xbef5e1ee	-0.48023933
179	0x408a840f	4.3286204
180	0x4071b621	3.7767413
181	0x404e97b8	3.2280102
182	0x3f03adfc	0.51437354
183	0xc001c3cd	-2.0275757
184	0xc04f789f	-3.2417371
185	0xbf821b93	-1.0164665
186	0xbf3c4ecd	-0.7355774
187	0xc085a125	-4.175921
188	0x4031bed2	2.7772717
189	0x3fae6fff	1.3627928
190	0xc0aac7f0	-5.3369064
191	0x40760d08	3.8445454
192	0xbee1565b	-0.44011196
193	0x4031358f	2.768894
194	0x40bedbe9	5.9643445
195	0x3f04337e	0.5164107
196	0x3f8d3bbb	1.1033853
197	0xc0500b89	-3.250704
198	0xc067ced1	-3.621998
199	0x3ec7629c	0.3894242
200	0x3f3912b0	0.7229414
201	0x403030ef	2.7529867
202	0x408014e0	4.002548
203	0x40aad3c7	5.3383517
204	0x40f42dfb	7.630613
205	0xbfffab83	-1.9974216
206	0x4016aefc	2.3544302
207	0x409ad3e6	4.8383665
208	0x41113649	9.075753
209	0x3f58f254	0.84744763
210	0xc00e49cc	-2.2232542
211	0x4092f0d2	4.591897
212	0x40962214	4.69166
213	0xbe6b4e84	-0.2297917
214	0x3fc7875b	1.5588182
215	0xbfb4fd86	-1.4139869
216	0xbfa86921	-1.3157083
217	0xc09e6cd4	-4.9507847
218	0xbf4d8212	-0.80276597
219	0x3fef4f7c	1.8696132
220	0xbfd98fbd	-1.699699
221	0xbf5c2949	-0.86000496
222	0xbef96c8b	-0.48715624
223	0x408fa36d	4.4886994
224	0xbfebc273	-1.8418716
225	0xbf8a1e9e	-1.0790594
226	0xbec0b964	-0.37641442
227	0x3fd035b8	1.6266394
228	0xbfc1af2b	-1.5131582
229	0x3fe778ff	1.80838
230	0x408fcf0a	4.4940233
231	0xbeb69de3	-0.35667333
232	0x3f08d347	0.53447384
233	0xbf98a09b	-1.1924013
234	0x40da6210	6.8244705
235	0xbf9e27fd	-1.2355953
236	0x3fb14007	1.3847665
237	0x405c969b	3.4466922
238	0xc0806285	-4.0120263
239	0xc0650beb	-3.5788524
240	0xbef63d90	-0.48093843
241	0x40901390	4.502388
242	0xbf05da40	-0.5228615
243	0x40c5c7fc	6.180662
244	0xbef28225	-0.47364917
245	0xc04c00cd	-3.1875489
246	0xbf5550e7	-0.8332657
247	0xbe8bfeaa	-0.2734273
248	0xbe032d62	-0.12810281
249	0xbfeff11d	-1.8745457
250	0xbeed9586	-0.4640314
251	0xbfa06def	-1.2533549
252	0xbfb89a42	-1.4422076
253	0xbf6690f5	-0.90064937
254	0x3f6a719e	0.91579616
255	0x3f940f4b	1.1567167

bias f4 [60]
0	0xc0cc7e92	-6.3904505
1	0x3f9ad018	1.2094755
2	0x3ebd2fa1	0.369504
3	0xbfa7df82	-1.3115084
4	0x403bf040	2.9365387
5	0x3fa9e006	1.3271492
6	0x3f7a4ca7	0.9777321
7	0xbfc45477	-1.5338277
8	0xbf58a5d5	-0.8462804
9	0x3faaf1c4	1.3355031
10	0x3f95736b	1.1675848
11	0xc0d966ef	-6.793815
12	0xc0095f54	-2.1464434
13	0xbef197db	-0.4718617
14	0xbee93dbd	-0.45554915
15	0xc10de7a1	-8.86905
16	0xbfaedc4d	-1.366098
17	0x3dd634f8	0.10459322
18	0xc00fc119	-2.2461607
19	0x3f4d9dcc	0.80318904
20	0x3f019de7	0.50631565
21	0x3eebabb1	0.46029428
22	0x3e53f980	0.20700645
23	0xc020d82c	-2.513194
24	0xbf0b922a	-0.54519904
25	0x3fcf0827	1.6174363
26	0x3f180157	0.59377044
27	0xc0df668b	-6.9812675
28	0xbe551206	-0.20807657
29	0x3d2cfbcf	0.04223233
30	0x3f5eef8d	0.87084275
31	0xbfbf4ea3	-1.4945873
32	0xbf56178e	-0.8362969
33	0x40342ab2	2.815106
34	0xc09b0022	-4.843766
35	0x3e54a7fa	0.20767203
36	0x400fb6c8	2.245531
37	0xc07871bc	-3.8819418
38	0x3f6a3644	0.9148905
39	0xbf25de7e	-0.6479262
40	0x403afec2	2.9217992
41	0xbd692f28	-0.056929737
42	0x4010d136	2.2627692
43	0xc082c239	-4.086209
44	0xbee37ddc	-0.4443196
45	0xc10a9c77	-8.663199
46	0xbff18857	-1.8869733
47	0x3feae202	1.8350222
48	0x3fe8e0ef	1.8193644
49	0x3ca4604d	0.020065451
50	0xbe2b8192	-0.16748646
51	0x3f874e16	1.0570705
52	0xc01383d0	-2.3049202
53	0xbeff1991	-0.49824193
54	0xc118b11b	-9.543239
55	0xbfc3e9e8	-1.5305758
56	0xc0506c35	-3.2566044
57	0xc009c8ea	-2.1528878
58	0xbfa3c543	-1.2794574
59	0x3e6f10de	0.23346278

weight f4 [8, 60]
0	0x4014b982	2.3238225
1	0xc05e8ddf	-3.4774091
2	0x404c3373	3.1906402
3	0xc006b18e	-2.104587
4	0x3f4498cc	0.7679565
5	0xbf00d9ea	-0.5033251
6	0x3f145bac	0.5795238
7	0xc029f785	-2.6557324
8	0xc01b1438	-2.423109
9	0x3fef62b5	1.8701998
10	0x3ef258d4	0.47333395
11	0xbf4953c9	-0.7864347
12	0xc00b8088	-2.17972
13	0x3fa545a7	1.2911881
14	0x3f99c7a0	1.2014046
15	0x3fc18fa1	1.5121957
16	0xc01019a8	-2.251566
17	0xbd85f471	-0.06540764
18	0xc041a56e	-3.025722
19	0x3dc9b354	0.09848657
20	0xbea72585	-0.32645813
21	0x3f8e14e2	1.1100123
22	0x3ff3e649	1.9054652
23	0x3f97e2b3	1.1866058
24	0x400c27fc	2.1899405
25	0x3fd4b0e9	1.6616489
26	0x3e4ed4b2	0.20198324
27	0xbf28d3b5	-0.6594804
28	0x3fe99932	1.8249876
29	0x3fc6e11b	1.5537447
30	0x3fb3b8a0	1.4040718
31	0x3fd46ffb	1.6596674
32	0xc0199500	-2.3997192
33	0xc005052d	-2.078441
34	0x405d55c6	3.4583602
35	0xbf86fcb6	-1.0545871
36	0xbfb152af	-1.3853358
37	0xc017720e	-2.3663363
38	0x3feb983c	1.8405833
39	0x405386b8	3.3050976
40	0xbed5c439	-0.41751269
41	0x3ff897aa	1.9421284
42	0x3fe53536	1.7906864
43	0xbff23494	-1.8922296
44	0x4021de1a	2.529181
45	0x40370cc7	2.8601549
46	0xc0536ae5	-3.3033993
47	0x3f148fc0	0.58031845
48	0xbf3faea0	-0.7487583
49	0x400389fa	2.0552964
50	0x4004ff0a	2.0780663
51	0xc06e41a9	-3.7227576
52	0x3ed0eef3	0.40807304
53	0xbed3ae01	-0.41343692
54	0x405176d8	3.2728786
55	0xbfb727b0	-1.4308987
56	0xc0212322	-2.5177693
57	0x4050a490	3.260044
58	0xbdb3c1a2	-0.08777167
59	0x3fc4c947	1.5373925
60	0x3eb5adfa	0.35484296
61	0x402f4c0b	2.7390163
62	0xc095050a	-4.656865
63	0x402af56f	2.67123
64	0xbefa7deb	-0.48924193
65	0xc07a4c2e	-3.9108996
66	0xc08fe3c9	-4.496556
67	0x4012df6b	2.2948864
68	0x401a264b	2.4085872
69	0xbef782d0	-0.4834199
70	0xc068fa18	-3.6402645
71	0x4029fbd9	2.6559966
72	0x3fa2e7c2	1.2726977
73	0xc03b80cb	-2.929736
74	0xbfb6ec96	-1.429095
75	0x3fd80906	1.6877754
76	0x3fe9ac7d	1.8255764
77	0xc0706ec7	-3.7567613
78	0x3fb4b25e	1.4116933
79	0x3fde2cfc	1.7357478
80	0xc08692b1	-4.2054067
81	0xc0ca7ec2	-6.3279734
82	0xc0b5e464	-5.6841297
83	0x3f2facdd	0.68623143
84	0xc06b8b58	-3.6803799
85	0xc098a261	-4.7698216
86	0xc051c193	-3.2774398
87	0x3f9df3fc	1.2340083
88	0xc06fd859	-3.7475798
89	0xc0931bfb	-4.5971656
90	0xc074b94c	-3.8238096
91	0xc0fda178	-7.9259605
92	0xbcb5141a	-0.022104312
93	0x40585505	3.3801892
94	0x3fc227b2	1.5168364
95	0x400f5341	2.2394564
96	0x3ffbd335	1.967383
97	0x405f849e	3.4924693
98	0xc0cfc0c6	-6.492282
99	0xc05790d0	-3.3682137
100	0xbf7e73ee	-0.99395645
101	0xc058e1b5	-3.388776
102	0xbffa5604	-1.95575
103	0x40325c3c	2.7868795
104	0xc060e6e9	-3.5140936
105	0x3fb8a720	1.4426003
106	0x4036f88f	2.8589208
107	0xbf37cc14	-0.71795774
108	0x3fcac4c0	1.5841293
109	0xc0a3b438	-5.1157494
110	0xc06d0792	-3.703587
111	0x40352253	2.83022
112	0x3fb257a5	1.3932997
113	0xc086e434	-4.215357
114	0xbecfa67c	-0.40556705
115	0x4058c12b	3.38679
116	0x4004d0b2	2.0752378
117	0xbfc49fe4	-1.5361295
118	0xc09fe91e	-4.9972067
119	0xbfbbcad7	-1.4671277
120	0xbf092638	-0.5357394
121	0x3ff74e90	1.932085
122	0xc01c414c	-2.4414854
123	0x409d65a9	4.9186597
124	0xbfe5932c	-1.7935538
125	0xc0bc7f46	-5.8905363
126	0xc10643e1	-8.391572
127	0x4050ec6d	3.2644303
128	0x3f891eea	1.0712559
129	0xc022be59	-2.542868
130	0xc077e1b3	-3.8731506
131	0x3fd431c7	1.6577691
132	0x4056700a	3.3505883
133	0xc0d53dd4	-6.6637974
134	0xbfeee461	-1.8663446
135	0x3f94111d	1.1567723
136	0x4004bcc7	2.074022
137	0xc0af5abd	-5.4798265
138	0x4003ff9f	2.0624769
139	0x3f89f8af	1.0779017
140	0xc07d2828	-3.955576
141	0xc0ffc79d	-7.993117
142	0xc0af23a9	-5.473103
143	0xbf0efc01	-0.5585328
144	0xc08ac348	-4.336338
145	0xc0b41f5b	-5.6288276
146	0xc0b46f15	-5.63856
147	0x3fadfa05	1.3591925
148	0xc07e932f	-3.9777334
149	0xc0c52646	-6.160922
150	0xc06d117f	-3.7041929
151	0xc0db5e4e	-6.855262
152	0x3ea3bfbb	0.31982216
153	0x402ad050	2.6689644
154	0x3d14004a	0.03613309
155	0x402531a3	2.5811546
156	0x40415c48	3.0212574
157	0x4030c082	2.7617497
158	0xc0f4d4ce	-7.650977
159	0xc0cfa380	-6.4887085
160	0xc041ddeb	-3.0291698
161	0xc10890df	-8.535369
162	0xbffceb2d	-1.975927
163	0x3fe77c35	1.808478
164	0xc099f3c6	-4.8110075
165	0x4017dffe	2.3730464
166	0x407b7a68	3.929346
167	0xbff04493	-1.8770927
168	0x3f548275	0.8301156
169	0xc0b40793	-5.6259246
170	0xc0b76091	-5.730538
171	0x3e91b802	0.284607
172	0x4073cc9c	3.8093634
173	0xc102e638	-8.181206
174	0x3f7ed3c9	0.9954191
175	0x4040ea64	3.014306
176	0x401ca228	2.4473972
177	0x400aafce	2.1669803
178	0xc0be1922	-5.940568
179	0xbf880b46	-1.062844
180	0xbe3cf04d	-0.18451042
181	0x3fe5aae4	1.7942777
182	0xc07f5c62	-3.9900136
183	0x406cf113	3.702214
184	0xbfab270f	-1.3371295
185	0xc0f19aee	-7.5501623
186	0xc0c4638b	-6.1371512
187	0x40135604	2.302125
188	0x401f0295	2.4845326
189	0xc0450a19	-3.0787413
190	0xc082c92c	-4.087057
191	0x40171316	2.36054
192	0x40358d20	2.8367386
193	0xc0c94022	-6.2890787
194	0xbfdeedcb	-1.7416319
195	0x4032928a	2.790194
196	0x3f894389	1.0723735
197	0xc09ebe47	-4.960727
198	0x3fc9b2a9	1.5757648
199	0x3fc0675d	1.5031544
200	0xc02d3552	-2.7063794
201	0xc08e2ade	-4.442733
202	0xc09d2b5d	-4.9115434
203	0xc03e3a7f	-2.9723203
204	0xc02e1934	-2.7202883
205	0xc0cc3e17	-6.3825793
206	0xc093c958	-4.618328
207	0x3f136f20	0.5759144
208	0xc050c592	-3.2620587
209	0xc0c90b51	-6.2826314
210	0xbfa2df2a	-1.2724354
211	0xc0919b68	-4.5502205
212	0x3f8e31dd	1.1108967
213	0x4023aae7	2.557306
214	0xbff43a7d	-1.9080349
215	0x3fd116df	1.6335105
216	0x407038e9	3.7534735
217	0x40436648	3.0531178
218	0xc0f443b3	-7.633264
219	0xc04dbae5	-3.2145321
220	0xbec7a3e9	-0.3899224
221	0xc09de599	-4.934277
222	0xc03e1831	-2.9702265
223	0x3feef696	1.8669002
224	0xc05ef801	-3.483887
225	0x3eb763c3	0.358183
226	0x404e136a	3.219935
227	0xbed3c110	-0.41358232
228	0x404d457e	3.2073665
229	0xc075b92e	-3.8394275
230	0xc0df90dd	-6.9864335
231	0x3f220771	0.63292605
232	0x4006729a	2.1007447
233	0xc0d18126	-6.547015
234	0x403ee20a	2.9825463
235	0x3eadc790	0.33941317
236	0x4007bd36	2.1209235
237	0xc0617f83	-3.5234077
238	0xc06630e8	-3.596735
239	0xbe9ffcf1	-0.31247666
240	0x3fb986d6	1.4494274
241	0x4041bf1d	3.0272896
242	0xc0a3db88	-5.1205482
243	0x40322ee5	2.7841122
244	0xbf9531f4	-1.165587
245	0xc0aee78e	-5.465766
246	0xc0aa876f	-5.3290324
247	0x3f09efee	0.5388173
248	0x3f8b38ed	1.0876747
249	0xbfd75e24	-1.6825604
250	0xc06c45ff	-3.6917722
251	0x3fe9f51c	1.8277926
252	0x3ffeea88	1.9915323
253	0xc09a5a77	-4.823543
254	0xbfec9323	-1.8482403
255	0x4018b317	2.3859308

bias f4 [8]
0	0xc0894a3a	-4.290311
1	0xc016ed45	-2.3582318
2	0xbfbcb01c	-1.4741244
3	0xbfcbc670	-1.5919933
4	0xbff5a252	-1.9190161
5	0xc001e5cd	-2.029651
6	0xc0fb346d	-7.8501496
7	0xc0408e1c	-3.0086737

weight f4 [2, 8]
0	0xbdb660d0	-0.08905184
1	0x402d9b1b	2.712592
2	0x3fbdc9fd	1.4827267
3	0x4023cf9a	2.559546
4	0x402dfe38	2.7186413
5	0x40095d47	2.1463182
6	0xbda0aa90	-0.07845032
7	0x3f9cc379	1.2247154
8	0x3f8fdd6d	1.1239449
9	0xbdf73c9f	-0.120721094
10	0xbe112e3a	-0.1417779
11	0xbe1f82b4	-0.15577203
12	0xbd1ced2a	-0.038312115
13	0xbdf635e5	-0.12021998
14	0x3dfe6958	0.124224365
15	0xbe055941	-0.13022329

bias f4 [2]
0	0xbe9c204d	-0.30493394
1	0xc0d0c3a6	-6.523883
