Network2/params/mlp_nwParams0820174726.pth (torch_old, 14292 bytes, 7 tensors)

weight f4 [6, 6]
000000 68 51 d8 3d c6 c3 42 3f 86 71 ad 3e 64 7e 20 3f
       0.10562402 0.76079977 0.33875674 0.62692857
000010 e0 e6 18 3f 58 f6 bc 3e 2a 81 bb 3e a5 6a 0c 3f
       0.5972729 0.36906695 0.36621982 0.54850227
000020 39 ec 76 3a fb 9a 3c 3f ab 0b 2e 3f 68 a1 77 3f
       0.0009419355 0.7367398 0.67986554 0.9673066
000030 7e 15 34 3f 7d 4c 10 3f 55 63 4e 3e 95 7d 69 3e
       0.70345294 0.5636671 0.2015508 0.22801812
000040 d1 91 6b 3e fd e1 d4 3e e0 fb 4a 3f 00 6d e3 3d
       0.23004843 0.41578665 0.7929058 0.111047745
000050 ea e9 f0 3e fa e3 0d 3f 20 e9 09 3e 3f 31 fd 3e
       0.47053462 0.5542599 0.13467836 0.49451634
000060 75 47 9d 3d 28 b4 9d 3e 9e 62 80 3d 23 71 36 3f
       0.07679645 0.3080151 0.0626881 0.7126638
000070 a6 32 16 3f 96 f8 9a 3e 46 0b 36 3d 2c 63 fc 3e
       0.58671033 0.3026778 0.044444345 0.49294412
000080 2d 34 1d 3f 74 4b 0d 3e 7a fd 39 3e 29 69 26 3e
       0.6140774 0.13798314 0.181631 0.16251053

bias f4 [6]
000000 c6 6c 1f 3f 0f d4 d1 3e 54 94 68 3f a3 61 c5 3e
       0.6227535 0.409821 0.9085133 0.38551053
000010 46 31 16 3f 01 4a 46 3f
       0.58668935 0.7745667

weight f4 [3, 6]
000000 50 00 f9 3e 46 62 a3 3e b1 be 09 3f 20 66 85 3e
       0.4863305 0.31910914 0.53806597 0.26054478
000010 77 6b e3 bd 46 f2 61 bd 49 71 be 3e bf e7 10 3f
       -0.11104482 -0.05516269 0.37195805 0.56603616
000020 a4 ff 2d 3f 0c 2a 6c 3f b8 3a 8d 3e 70 73 16 3f
       0.679682 0.9225166 0.2758386 0.58769894
000030 e9 13 31 3f b2 2b 1e 3f 41 5c 5a 3f 2c d6 1b 3f
       0.69171005 0.61785424 0.8529702 0.60873675
000040 7e 7a 15 3f d6 03 68 3f
       0.58390033 0.90630853

bias f4 [3]
000000 6c 0d 11 3f 20 cc 02 3f b0 18 9e 3e
       0.56661105 0.5109272 0.3087821

weight f4 [1, 3]
000000 06 0c eb 3e b9 79 61 3f 5f 1a 99 3f
       0.4590761 0.8807636 1.1961173

weight f4 [2, 1]
000000 5b bc 02 c0 d7 59 a6 3f
       -2.0427463 1.2996167

bias f4 [2]
000000 bf 01 15 c0 f6 5a 62 3f
       -2.3282316 0.88420045
