Network2/params/mlp_wParams0821012638.pth (torch_old, 179161 bytes, 8 tensors)

weight f4 [162, 162]
0	0xbe182b8b	-0.1486036
1	0xbd85847d	-0.06519411
2	0x3b761a96	0.0037552468
3	0xbcb7bbb9	-0.02242838
4	0xbe1ecf48	-0.15508759
5	0x3d383793	0.044974875
6	0x3e32287c	0.17398256
7	0xbd191147	-0.037369993
8	0xbc058fbe	-0.008151947
9	0x3ce923b2	0.028459404
10	0xbd8a2af4	-0.06746474
11	0xbdb2ee3e	-0.08736847
12	0xbcc852a4	-0.024453469
13	0xbf10dd59	-0.5658775
14	0xbe3dd4a6	-0.1853815
15	0xbc19afa1	-0.009380252
16	0xbebd8525	-0.37015644
17	0xbcee0fc8	-0.02906026
18	0xbe2ca8cd	-0.16861267
19	0xbcf80514	-0.030275859
20	0xbda95e1d	-0.08269904
21	0xbf1ef011	-0.6208506
22	0x3e62303d	0.22088714
23	0xbed18367	-0.40920565
24	0xbbf96985	-0.007611456
25	0x3f2b3fc1	0.66894156
26	0x3e155a4b	0.14585225
27	0xbe83fc4e	-0.2577843
28	0xbe0f3963	-0.13986735
29	0x3c9933c1	0.018701436
30	0xbde5f0b4	-0.11227551
31	0xbe983e8e	-0.29735225
32	0xbd784886	-0.06061604
33	0x3e169e18	0.14708745
34	0x3d691950	0.056908906
35	0x3c969fcd	0.018386746
36	0xbd35f0d1	-0.044419114
37	0xbe952e60	-0.29136944
38	0xbdc440c1	-0.09582663
39	0xbd8b87ac	-0.06812987
40	0xbeed50bf	-0.46350667
41	0xbea91bc3	-0.33028993
42	0x3d552178	0.05203387
43	0x3c084374	0.008316863
44	0xbe0171bb	-0.12641041
45	0xbeb53f16	-0.35399693
46	0xbe39e500	-0.18153763
47	0xbeb02204	-0.34400952
48	0xbec0d0e0	-0.3765936
49	0xbf1fb7f1	-0.6239005
50	0xbef47c6f	-0.47751185
51	0x3f5ecbd5	0.87029773
52	0x3f254e88	0.64572954
53	0x3f137092	0.57593644
54	0xbe53140f	-0.2061312
55	0xbe667142	-0.22504142
56	0xbdec4fd6	-0.11538665
57	0xbe87ca11	-0.26521352
58	0xbe95203d	-0.29126158
59	0xbc93154c	-0.017954491
60	0xbdc63111	-0.096773274
61	0x3dac5fc7	0.084167056
62	0x3e38c005	0.18042
63	0xbe30c225	-0.1726156
64	0xbe4b43a3	-0.1985002
65	0xbeab795a	-0.3349102
66	0xbebd9741	-0.3702946
67	0xbed265a3	-0.41093168
68	0xbdd5eb04	-0.10445216
69	0xbc1c246b	-0.009530167
70	0xbd9edef4	-0.07757369
71	0x3e223b28	0.15842879
72	0xbe8829e9	-0.26594475
73	0xbe01b369	-0.12666096
74	0xbdfaa34e	-0.12238179
75	0xbdc774ab	-0.097390495
76	0xbf0c5daf	-0.5483045
77	0xbe141622	-0.14461568
78	0x3f2a2251	0.6645861
79	0x3e4597aa	0.19296136
80	0x3ed163f0	0.4089656
81	0xbea7a369	-0.3274186
82	0xbe9f45dc	-0.31107986
83	0xbe7c474b	-0.24636571
84	0xbe62de77	-0.22155176
85	0xbe5a77b6	-0.21334729
86	0xbe1c8dae	-0.15288422
87	0x3c0b6b70	0.008509502
88	0x3caa48a4	0.02078659
89	0x3cf31cbc	0.029676788
90	0xbebf1d9e	-0.37327284
91	0xbe9e4153	-0.30909213
92	0xbe955cdc	-0.2917241
93	0xbf0c0be2	-0.5470563
94	0xbeea8f24	-0.45812333
95	0xbe827a93	-0.25484142
96	0xbe458ccf	-0.19291995
97	0xbdeb70c3	-0.11496117
98	0x3da163ba	0.078803495
99	0xbe9206de	-0.28520864
100	0xbe9792c6	-0.29604167
101	0xbeca15f1	-0.39469865
102	0xbf03ec33	-0.51532286
103	0xbeec9465	-0.46206966
104	0xbe7c3fc0	-0.24633694
105	0x3f50563e	0.81381595
106	0x3f9dd692	1.2331107
107	0x3f89e051	1.0771581
108	0xbd4e005b	-0.050293308
109	0xbed72736	-0.42022103
110	0xbebaff42	-0.3652287
111	0xbde5e218	-0.112247646
112	0xbf06ca2a	-0.5265223
113	0xbeb2d5cf	-0.34928748
114	0xbdb7aac9	-0.089681216
115	0xbe1cd9e8	-0.153175
116	0x3c2044ec	0.009782057
117	0xbe24efbd	-0.16107078
118	0xbe2c3f2e	-0.16820976
119	0xbea0aba3	-0.31380948
120	0xbeb96d49	-0.3621619
121	0xbf280830	-0.65637493
122	0xbe796a61	-0.24356987
123	0xbdd3ad4d	-0.10335789
124	0xbecd79be	-0.40131944
125	0x3e0683da	0.13136235
126	0xbee591fd	-0.44837943
127	0xbd8745ad	-0.066050865
128	0xbdbccc41	-0.09218646
129	0xbe9f2084	-0.31079495
130	0xbe14a038	-0.14514244
131	0xbedb3732	-0.42815548
132	0x3f06f7b9	0.52721745
133	0x3ec53802	0.38519293
134	0x3f005857	0.50134796
135	0x3db3bb1a	0.08775921
136	0xbedf7d8d	-0.43650475
137	0xbe40178f	-0.18758987
138	0xbe1d7d6e	-0.15379879
139	0xbe2d674e	-0.16933939
140	0xbac4be95	-0.0015010411
141	0x3e2d8c9b	0.16948168
142	0x3c2fcaa2	0.010729464
143	0x3ebe421e	0.37159818
144	0xbdc8d44e	-0.09806119
145	0x3e053034	0.1300667
146	0xbece3c0f	-0.40280196
147	0xbe8d138f	-0.27553985
148	0xbe9cf863	-0.30658254
149	0xbe62ce84	-0.22149092
150	0x3d8db2c4	0.069188625
151	0x3d8744ac	0.06604895
152	0xbc4e2355	-0.012581666
153	0xbd9f6bc4	-0.077842265
154	0x3c9acfc2	0.018897895
155	0x3d04021c	0.032228574
156	0x3e92556b	0.28580794
157	0xbe394a0d	-0.18094654
158	0xbe12fee2	-0.14355043
159	0xbd0b1148	-0.033952028
160	0xbc9294ce	-0.017893221
161	0xbd95f242	-0.07321598
162	0x3e5998e4	0.2124973
163	0x3e754281	0.2395115
164	0x3eb20461	0.34768966
165	0x3d340eca	0.043959416
166	0x3d14fc95	0.036373693
167	0x3e02bca3	0.12767272
168	0x3d85fd7e	0.065424904
169	0xbe8a895e	-0.27057928
170	0x3e0ca485	0.13734634
171	0x3f0214dd	0.50813085
172	0x3e306b17	0.17228352
173	0x3e82c3d6	0.25540036
174	0x3e2b455b	0.16725676
175	0x3d80b8f5	0.06285278
176	0x3ed92b11	0.4241567
177	0x3c8e9817	0.017406506
178	0xbe08cdd7	-0.13359772
179	0x3e26cb53	0.162885
180	0x3eb87e8e	0.36034054
181	0x3f058161	0.5215054
182	0x3e9c1f87	0.30492803
183	0x3eb4aec1	0.35289577
184	0x3d7818e8	0.060570627
185	0x3ed2375f	0.4105787
186	0xbe44b9c3	-0.19211487
187	0xbe5a7012	-0.21331814
188	0xbeda4810	-0.42633104
189	0x3ede2641	0.4338856
190	0x3e5a14d7	0.21297012
191	0x3f0faa48	0.56119204
192	0x3e702d43	0.23454766
193	0x3e4d1b80	0.20030022
194	0x3eb6bf1a	0.35692674
195	0x3d6f072e	0.058356456
196	0xbccd79d4	-0.025082506
197	0x3dd41ca6	0.10357027
198	0x3f02f696	0.5115751
199	0x3ee47dd3	0.44627246
200	0x3e93fbd0	0.28903055
201	0x3ef31d2f	0.47483203
202	0x3e75be17	0.23998295
203	0x3e9dc404	0.3081361
204	0x3e080afb	0.13285439
205	0xbdfc6496	-0.12323873
206	0x3e00f6e9	0.12594189
207	0x3eba1a5e	0.36348242
208	0x3f1bc651	0.6084948
209	0x3ef7117f	0.48255536
210	0x3f19e4b3	0.6011459
211	0x3eaef40c	0.34170568
212	0x3f03d75a	0.51500475
213	0xbf844927	-1.0334824
214	0xbf824038	-1.0175848
215	0xbf8a4a73	-1.080397
216	0x3eb55a4e	0.3542046
217	0x3ead7ffc	0.33886707
218	0x3f05625d	0.52103215
219	0x3ec41aee	0.38301796
220	0x3e9d456e	0.30717033
221	0x3e8b15a2	0.27164942
222	0x3dce49cb	0.10072669
223	0x3d9f4727	0.07777243
224	0x3df52384	0.11969665
225	0x3efd758b	0.4950374
226	0x3eb89c62	0.3605681
227	0x3ec03c2c	0.37545907
228	0x3ed6c615	0.41948
229	0x3ea32095	0.31860796
230	0x3e4ab45c	0.19795364
231	0xbd8295b8	-0.06376213
232	0xbdddac18	-0.1082384
233	0xbd8e2b5a	-0.069418624
234	0x3ed7df51	0.42162564
235	0x3f04daf3	0.5189659
236	0x3ea9541e	0.3307199
237	0xbc28ed81	-0.010310532
238	0x3e462d6c	0.19353265
239	0x3ecddf65	0.402095
240	0xbef13a81	-0.47114947
241	0xbef5979a	-0.47967225
242	0xbe1eb497	-0.15498577
243	0x3f0989a3	0.5372564
244	0x3e908b9d	0.28231516
245	0x3efafd8d	0.4902157
246	0x3ee843c0	0.4536419
247	0x3ee92063	0.45532522
248	0x3e5c6840	0.21524143
249	0x3de8b1c0	0.11362028
250	0x3b59ba98	0.003322279
251	0xbdf22585	-0.118235625
252	0x3f203e29	0.6259485
253	0x3f0390f2	0.51393044
254	0x3e96b7d9	0.2943714
255	0x3f411368	0.75420237

bias f4 [162]
0	0x3dce05cb	0.10059699
1	0xbd8dba79	-0.069203325
2	0xbdf17066	-0.117890164
3	0xbee67ad8	-0.45015597
4	0x3d5cb3a1	0.053882245
5	0x3d476ee6	0.048689745
6	0xbf224ae8	-0.6339555
7	0xbf355549	-0.7083326
8	0xbd330c08	-0.043712646
9	0x3a98f6b3	0.0011670202
10	0x3e277f42	0.16357139
11	0xbd06688a	-0.03281454
12	0xbdf626f6	-0.1201915
13	0xbf2e4e32	-0.68088067
14	0xbf51b47c	-0.8191602
15	0xbd9961cc	-0.074893564
16	0xbf0cbba4	-0.54973817
17	0xbe30966f	-0.17244886
18	0x3ddfa01a	0.10919209
19	0x3e11b0a8	0.14227545
20	0xbe850032	-0.25976712
21	0xbf82f33d	-1.023048
22	0x3eea3068	0.45740056
23	0xbda1f90b	-0.07908829
24	0xbe33279e	-0.17495582
25	0x3de42b22	0.111410394
26	0xbda05f8c	-0.07830724
27	0x3e450156	0.19238791
28	0xbc484286	-0.012222892
29	0xbe4595be	-0.19295403
30	0xbe51cac0	-0.20487499
31	0x3e3bcedb	0.18340628
32	0xbe6d35cd	-0.23165055
33	0x3e130453	0.14357118
34	0xbca3207e	-0.019912954
35	0xbdbcfeb5	-0.09228269
36	0x3e8c052a	0.2734769
37	0xbd2eafc1	-0.04264808
38	0xbed74614	-0.42045653
39	0x3ea8629e	0.3288774
40	0xbe8f5ca8	-0.2800038
41	0x3e3d6655	0.18496068
42	0xbda7a27d	-0.08185289
43	0x3dc120ae	0.09430061
44	0xbee11eb6	-0.43968743
45	0x3d4433ac	0.04790084
46	0x3d314aa3	0.04328407
47	0xbd58eb86	-0.052958988
48	0xbeeda584	-0.4641534
49	0xbe11e2ff	-0.14246748
50	0xbe14b079	-0.14520444
51	0x3d9d6d18	0.076868236
52	0xbf1797c5	-0.59215957
53	0xbebe4cd4	-0.3716799
54	0xbf255e9e	-0.645975
55	0xbdd8c816	-0.10585038
56	0x3e90bb40	0.2826786
57	0x3d878537	0.066172056
58	0xbe5172b8	-0.20453918
59	0xbae91ea0	-0.0017785616
60	0x3ce6cb88	0.028173223
61	0xbd34ccda	-0.044140674
62	0x3e05523e	0.13019654
63	0xbd96dc1f	-0.073662035
64	0xbe297ef2	-0.16552332
65	0x3c843724	0.016139574
66	0xbdaae2ae	-0.08344017
67	0x3e3bec60	0.18351889
68	0x3e001e81	0.12511636
69	0x3e400653	0.18752412
70	0x3afd16c7	0.0019309156
71	0xbdda4b0e	-0.10658847
72	0xbd5d79f3	-0.054071378
73	0xbd38cfc6	-0.045120023
74	0xbe189767	-0.14901505
75	0x3e50bd3e	0.2038469
76	0x3f076abf	0.52897257
77	0xbd70a64c	-0.058752343
78	0xbded21c9	-0.1157871
79	0xbefb5ae0	-0.4909277
80	0x3e076272	0.13221148
81	0xbd5044f1	-0.050846998
82	0x3e3fd49e	0.18733451
83	0xbf4eb5d2	-0.80746186
84	0xbd6f3a0e	-0.058404975
85	0x3eeb8422	0.45999247
86	0xbdb2691e	-0.08711456
87	0x3e6c7ef5	0.23095305
88	0xbd037a98	-0.032099336
89	0x3c359216	0.011082193
90	0xbe744a34	-0.23856431
91	0x3e030839	0.12796105
92	0x3dcf9339	0.10135502
93	0xbe2896bd	-0.16463752
94	0x3e4503d7	0.19239746
95	0x3d7592ae	0.059954338
96	0xbf37ee72	-0.71848214
97	0x3d7ff937	0.06249353
98	0xbf3e62d8	-0.74369574
99	0xbf51d9b3	-0.8197281
100	0x3da98bc7	0.082786135
101	0x3e8e7f0b	0.278313
102	0x3e124270	0.14283156
103	0xbd599917	-0.053124513
104	0xbf0d6b19	-0.55241543
105	0x3ed914a1	0.4239855
106	0xbee13d98	-0.43992305
107	0xbf40974b	-0.75230855
108	0xbe13e466	-0.14442596
109	0xbf1832ef	-0.5945272
110	0xbe3bb17c	-0.18329424
111	0xbe51600f	-0.204468
112	0x3d1c0bda	0.03809724
113	0xbdcb3352	-0.09921898
114	0x3e7376dc	0.2377581
115	0x3e05d6b6	0.13070187
116	0x3d3a15d2	0.045430966
117	0xbf4693e1	-0.77569395
118	0x3d101714	0.03517826
119	0xbdcf07b8	-0.10108894
120	0x3e9a1191	0.30091527
121	0x3e2685ef	0.16262029
122	0xbf6c4500	-0.92292786
123	0xbd397dcf	-0.045285996
124	0xbee49830	-0.4464736
125	0xbc2b803b	-0.010467584
126	0xbd6cdb31	-0.057826225
127	0x3e1c4c2f	0.15263437
128	0xbdc3661d	-0.09540961
129	0xbd854a14	-0.0650827
130	0x3c1a4f08	0.009418257
131	0xbe09789e	-0.13424918
132	0xbad04af1	-0.0015891475
133	0xbe419f4d	-0.18908425
134	0xbd8d8095	-0.06909291
135	0x3e011c13	0.12608366
136	0x3f03583e	0.5130652
137	0xbba975cb	-0.0051715127
138	0xbe9153a4	-0.28384125
139	0xbe72af08	-0.23699582
140	0xbe0e1747	-0.13876067
141	0x3e60d95a	0.21957913
142	0xbe938bef	-0.28817698
143	0x3db6ff84	0.089354545
144	0xbc4fd42c	-0.012684863
145	0xbf324078	-0.6962962
146	0xbe1a6a95	-0.1507972
147	0x3e6d8d54	0.23198444
148	0xbf45ad89	-0.7721792
149	0xbebf6c21	-0.37387183
150	0xbece9fc9	-0.4035628
151	0xbce40d24	-0.027838297
152	0x3d7225ce	0.059118085
153	0x3f282d85	0.6569446
154	0xbe004d3c	-0.12529463
155	0xbe8937a1	-0.26800254
156	0x3ecba015	0.3977057
157	0xbe40064a	-0.18752399
158	0x3dd5d448	0.1044088
159	0xbee606a1	-0.44926932
160	0xbdacf3ac	-0.08444914
161	0xbc9127db	-0.0177192

weight f4 [81, 162]
0	0x3f23e1fa	0.6401669
1	0xbf258e16	-0.6466993
2	0xbe65b666	-0.2243286
3	0x3e9dc8e3	0.30817327
4	0xbed5490d	-0.41657296
5	0x3f524e97	0.8215117
6	0x3f06520c	0.52468944
7	0x3daa2c8a	0.083092764
8	0x3fb7abb3	1.4349273
9	0x3f9204cb	1.1407713
10	0x3e9b4983	0.30329522
11	0x3f09c8f8	0.5382228
12	0x3d1de571	0.03854889
13	0x3e5bf948	0.21481812
14	0x3eee6134	0.46558535
15	0x3f702aad	0.9381512
16	0x3e9257fc	0.28582752
17	0x3ef2a5aa	0.47392017
18	0x3f7403b0	0.95318127
19	0x3f03bdd6	0.5146154
20	0x3f4112fa	0.7541958
21	0x3e85a20c	0.26100194
22	0x3f377e71	0.7167731
23	0xbe8286fb	-0.25493607
24	0x3f8f7f29	1.1210681
25	0xbe94f991	-0.29096654
26	0x3fc84cb3	1.5648407
27	0x3e689736	0.22713932
28	0xbe634b70	-0.22196746
29	0x3edaf3e7	0.42764208
30	0x3f48f014	0.7849133
31	0x3f2e3007	0.68042034
32	0x3f8553f2	1.0416243
33	0x3e98e6fd	0.2986373
34	0xbdce287f	-0.10066318
35	0xbe50eb11	-0.2040217
36	0x3f5d7f1a	0.86522067
37	0xbe773904	-0.24142843
38	0x3eb86ca1	0.36020377
39	0x3f361973	0.7113258
40	0x3ef0c213	0.47023067
41	0x3f1c118e	0.60964286
42	0xbd31a693	-0.04337175
43	0x3f9195fc	1.1373897
44	0x3eb24a4b	0.34822306
45	0x3f912c0c	1.1341567
46	0xbd827b75	-0.06371204
47	0xbbaa803e	-0.005203276
48	0x3ee4ee00	0.4471283
49	0x3f8f09d0	1.117487
50	0x3eff5626	0.49870414
51	0x3bce53a4	0.006296592
52	0x3dde9d00	0.10869789
53	0x3d5ea335	0.054354865
54	0x3f50f103	0.81617755
55	0x3fc58117	1.543002
56	0x3e0f8be2	0.14018205
57	0x3e35095b	0.1767935
58	0x3fc55f1c	1.541965
59	0xbdae871b	-0.08521863
60	0xbef10bd1	-0.47079328
61	0x3ef36027	0.47534296
62	0xbe20ffd3	-0.15722589
63	0x3f8318c1	1.0241929
64	0x3f1589db	0.58413476
65	0x3f9020de	1.126003
66	0xbe33c532	-0.17555693
67	0xbc34dcd7	-0.01103898
68	0x3f04909d	0.5178316
69	0x3f413bec	0.7548206
70	0x3f9d2bef	1.2279032
71	0x3f87d872	1.0612929
72	0xbeba9987	-0.36445257
73	0x3e1a5946	0.15073118
74	0x3fa9e8a0	1.3274117
75	0xbe8d4803	-0.27594003
76	0x3ed32386	0.4123804
77	0x3ebb3d67	0.36570284
78	0x3f4c6b81	0.7985154
79	0x3e6cdef4	0.23131925
80	0xbe2afa75	-0.16697104
81	0xbe76cfaf	-0.24102663
82	0xbe94efd0	-0.29089212
83	0x3f13b84a	0.5770308
84	0x3f20f4b4	0.6287339
85	0x3f67271c	0.9029405
86	0x3f45fe02	0.7734071
87	0x3f397ce3	0.72456187
88	0xbdf55e35	-0.11980859
89	0x3f42258d	0.7583855
90	0x3e0296ee	0.12752888
91	0xbe94d1db	-0.29066357
92	0x3e3e8063	0.18603663
93	0x3f8f356f	1.1188182
94	0x3f4a3455	0.789861
95	0xbeca5d5d	-0.39524356
96	0x3e739924	0.23788887
97	0x3f6c3043	0.9226114
98	0x3eb61b8c	0.35567892
99	0x3f290112	0.6601726
100	0x3daf5071	0.08560265
101	0x3f082a4b	0.53189534
102	0x3f597f45	0.8495982
103	0x3fa5fd96	1.2968013
104	0x3e1da599	0.15395202
105	0x3f1e1a2b	0.6175868
106	0x3e8099e8	0.2511742
107	0x3e5f2ebd	0.21795173
108	0xbef89253	-0.48549137
109	0x3e99a622	0.30009562
110	0xbde63de0	-0.112422705
111	0x3f75ca77	0.9601206
112	0x3d74198b	0.059594672
113	0x3f326d9e	0.6969851
114	0x3efd50e5	0.4947578
115	0xbddd7d7b	-0.10814949
116	0x3fb077be	1.3786542
117	0x3eef24e7	0.46707842
118	0xbf09e642	-0.5386697
119	0x3fa2c87c	1.2717433
120	0x3e0921fb	0.13391869
121	0x3f1ea426	0.6196922
122	0x3e675f4e	0.2259495
123	0xbd8d3af5	-0.06896011
124	0x3f5b31ad	0.85622674
125	0x3f4482fa	0.76762354
126	0x3fad96a2	1.3561594
127	0x3f832f42	1.0248797
128	0x3fa0e32c	1.2569327
129	0x3ed4917e	0.41517252
130	0x3f336aeb	0.7008502
131	0x3f536d18	0.8258834
132	0x3fa8bf8e	1.3183458
133	0xbec4ec60	-0.3846159
134	0x3fa31103	1.2739567
135	0x3f46add2	0.7760898
136	0x3f122f20	0.5710316
137	0x3f04569a	0.51694643
138	0x3f97d8e3	1.1863064
139	0x3f7ad297	0.97977585
140	0x3f0eaa26	0.55728376
141	0x3d72adf7	0.059247937
142	0x3f0546ce	0.52061164
143	0xbe580cec	-0.2109868
144	0x3f8f640f	1.120241
145	0x3f0a8dfc	0.541229
146	0xbf07f811	-0.53112894
147	0xbf054878	-0.52063704
148	0x3f2223a6	0.63335645
149	0xbe854ab2	-0.2603355
150	0x3f3183be	0.6934165
151	0x3f9314d4	1.1490731
152	0x3ef36c14	0.47543395
153	0x3f54757b	0.8299176
154	0x3f94d66d	1.1627938
155	0x3f4daaa6	0.80338514
156	0x3f417a97	0.7557768
157	0x3f1a2148	0.60207033
158	0x3f23129b	0.63700265
159	0x3f27f1bb	0.65603226
160	0xbed68021	-0.4189463
161	0xbe1bb9b1	-0.15207554
162	0x3f188c97	0.59589523
163	0xbf4ca13b	-0.7993352
164	0xbec1cf24	-0.37853348
165	0x3ef9564e	0.48698658
166	0xbeda9ff5	-0.42700163
167	0x3f913bab	1.1346334
168	0x3f5d391d	0.8641527
169	0x3f404c11	0.7511607
170	0x3f77f877	0.968635
171	0x3f2c8c1e	0.674013
172	0x3f03ad16	0.51435983
173	0x3f203852	0.6258594
174	0x3f0e077f	0.5548019
175	0x3f3c2729	0.73497254
176	0x3e43a4c5	0.19105823
177	0x3f715e3c	0.94284415
178	0x3ee8019f	0.45313737
179	0x3f2c4267	0.6728882
180	0x3f47bbdb	0.7802102
181	0x3f7f0313	0.99614066
182	0x3fd38b58	1.6526899
183	0x3f014a57	0.5050406
184	0x3f2db901	0.6786042
185	0xbe4663bf	-0.19373988
186	0x3fb108d6	1.3830822
187	0xbebb968f	-0.36638305
188	0x3f97bad1	1.1853887
189	0x3f4bc601	0.79599005
190	0xbe896d3a	-0.26841146
191	0x3f2f10ac	0.68384814
192	0x3f27d12e	0.6555356
193	0x3f539965	0.82655936
194	0x3f8afac1	1.0857774
195	0x3eb12c4a	0.34604102
196	0xbe092f0b	-0.13396852
197	0x3da084f9	0.078378625
198	0x3f9a330e	1.2046831
199	0xbe8fe441	-0.2810383
200	0x3f08ba21	0.5340901
201	0x3f020df2	0.5080253
202	0x3f31db09	0.69474846
203	0x3f4021f8	0.7505183
204	0xbf06a47a	-0.5259472
205	0x3f835122	1.0259135
206	0x3f60bcf2	0.8778831
207	0x3fa98c74	1.3245988
208	0xbe88d028	-0.2672131
209	0x3d628dee	0.055311136
210	0x3e5dd0c4	0.21661669
211	0x3f09a796	0.5377134
212	0x3f336c2a	0.7008692
213	0xbd4bd046	-0.049759172
214	0x3f260b88	0.64861345
215	0x3f7ccd15	0.9875043
216	0x3f363f84	0.7119067
217	0x3f91999b	1.1375002
218	0x3ebee27b	0.37282166
219	0x3e9d657e	0.30741495
220	0x3f82ff54	1.023417
221	0xbe202616	-0.15639529
222	0xbe7da0df	-0.24768399
223	0x3f6af4cf	0.917798
224	0xbdc070a7	-0.09396487
225	0x3f409a72	0.75235665
226	0x3f016404	0.50543237
227	0x3f950da3	1.1644787
228	0xbda9560c	-0.08268365
229	0xbedc6be3	-0.4305106
230	0x3f9f72c3	1.2456897
231	0x3fa01cab	1.2508749
232	0x3f5be04c	0.85889125
233	0x3fd71f79	1.680648
234	0xbe081eff	-0.13293074
235	0x3edd39c9	0.4320815
236	0x3fc67af1	1.5506269
237	0xbe688e41	-0.22710516
238	0x3ed882ce	0.42287296
239	0x3f53ea2a	0.8277918
240	0x3fcf3283	1.618729
241	0x3e12095d	0.14261384
242	0xbe7962ac	-0.24354047
243	0x3d858454	0.0651938
244	0xbea24f45	-0.31701103
245	0x3eddaade	0.43294424
246	0x3f918754	1.1369424
247	0x3f7bb438	0.98321867
248	0x3f482369	0.7817903
249	0x3ef6dd1f	0.48215577
250	0xbf0bf814	-0.5467541
251	0x3f2cb128	0.6745782
252	0x3ea9571f	0.3307428
253	0xbeee7656	-0.46574658
254	0xbeb3c7a4	-0.3511325
255	0x3f93106d	1.1489388

bias f4 [81]
0	0xbd803723	-0.062605165
1	0xbf13f685	-0.57798034
2	0xbea5f3a7	-0.32412454
3	0x3e976296	0.29567403
4	0xbef242fb	-0.47316727
5	0xbe875cae	-0.26437896
6	0xbe2217db	-0.15829413
7	0x3f2630a1	0.6491795
8	0xbf2454d5	-0.64191943
9	0xbe91b12f	-0.28455493
10	0xbf0a15f9	-0.5393978
11	0x3f297f3c	0.6620977
12	0xbf31290a	-0.69203246
13	0xbda35ad3	-0.07976308
14	0xbe59da0f	-0.21274589
15	0x3f2e54ee	0.6809834
16	0x3dc22c0a	0.09481056
17	0x3f5d53a9	0.8645578
18	0x3ef801bc	0.48438823
19	0xbf400245	-0.75003463
20	0x3f05ab0d	0.5221413
21	0xbeb6ca4c	-0.35701215
22	0xbefd546e	-0.49478477
23	0xbe7e430e	-0.24830267
24	0xbeed07b9	-0.46294954
25	0x3f5d2f5b	0.86400384
26	0x3f199ea8	0.60007715
27	0xbebdf50d	-0.3710102
28	0xbe84c79a	-0.25933534
29	0xbf1b9726	-0.6077751
30	0xbf05c8de	-0.52259624
31	0x3eb54338	0.35402846
32	0x3e804bc5	0.25057808
33	0xbebdfbf5	-0.3710629
34	0x3f737e9f	0.95115083
35	0x3eda303c	0.42614925
36	0xbf185a0d	-0.59512407
37	0xbf15aec4	-0.58469796
38	0xbf13113d	-0.5744818
39	0xbf1f9cf5	-0.6234887
40	0x3ecb5abc	0.39717662
41	0xbeb9ff6e	-0.3632769
42	0xbf18a714	-0.5962994
43	0x3e2ef8e1	0.17087127
44	0xbf237151	-0.6384478
45	0x3e512dba	0.204276
46	0x3ed665bc	0.41874492
47	0xbe47997a	-0.1949214
48	0xbe547d03	-0.20750813
49	0xbe83c660	-0.25737286
50	0x3ea8ac6c	0.32944047
51	0xbcb947a8	-0.022617176
52	0xbec356dd	-0.3815221
53	0xbf435932	-0.76307976
54	0xbf6020d4	-0.8755009
55	0xbef09a3f	-0.4699268
56	0x3d7708af	0.060311016
57	0x3f00e2f8	0.50346327
58	0x3d43d37b	0.047809105
59	0xbea7e9f1	-0.3279567
60	0xbedfd02b	-0.43713507
61	0xbdd83bb0	-0.105582595
62	0x3d9796c5	0.07401804
63	0x3ea6c28b	0.325703
64	0xbe907340	-0.2821293
65	0x3b1b22eb	0.0023671936
66	0x3da70e17	0.08156984
67	0xbef98b68	-0.4873917
68	0xbdedca2f	-0.11610829
69	0x3eef53c2	0.4674359
70	0xbf38d382	-0.72197735
71	0xbf2ec9b7	-0.6827654
72	0xbf0d584d	-0.5521286
73	0xbef91e36	-0.48655862
74	0x3f340ca0	0.70331764
75	0x3e7a9b0f	0.24473213
76	0xbe820f9d	-0.25402537
77	0x3f98a029	1.1923877
78	0x3f065168	0.52467966
79	0xbea964e5	-0.3308479
80	0xbc1d8084	-0.00961316

weight f4 [20, 81]
0	0xbf4f1dd0	-0.80904865
1	0xbf163bf8	-0.58685255
2	0xbf299b37	-0.66252464
3	0x3f45784d	0.7713669
4	0xbf97218d	-1.1807114
5	0xbeaa5c44	-0.33273518
6	0xbe29bf7d	-0.16576953
7	0x3ea12740	0.31475258
8	0xbf58465d	-0.84482366
9	0xbea9d07d	-0.33166876
10	0xbf4bf9a5	-0.796778
11	0x3f1c3c65	0.61029655
12	0xbfaf7c9c	-1.3709903
13	0xbf1a87fb	-0.6036374
14	0xbdcf532a	-0.10123284
15	0x3edfc3af	0.43703982
16	0xbfa4ac1f	-1.2865027
17	0x3f03acbd	0.5143545
18	0x3eb6afa8	0.3568089
19	0xbfaa9573	-1.3326858
20	0x3f3fc739	0.74913365
21	0xbec84821	-0.3911753
22	0xbfa799d5	-1.3093821
23	0xbd571b78	-0.05251643
24	0xbf50b42c	-0.8152492
25	0x3ef386e3	0.47563848
26	0x3f7d3e2a	0.9892298
27	0xbea06870	-0.3132968
28	0xbf020412	-0.5078746
29	0xbf302273	-0.68802565
30	0xbf073180	-0.52809906
31	0x3f7966c4	0.9742243
32	0xbee69f48	-0.45043397
33	0xbfac8839	-1.3479072
34	0x3f09472e	0.53624237
35	0x3f432658	0.7623038
36	0xbf5242b0	-0.8213301
37	0xbf4a0a65	-0.7892211
38	0xbf4fc0d9	-0.8115364
39	0xbf8495f9	-1.0358268
40	0x3efba2e5	0.49147716
41	0xbedeb94c	-0.43500745
42	0xbf7bdf33	-0.9838745
43	0x3f4aedd4	0.79269147
44	0xbf231fd6	-0.6372045
45	0x3faecf7d	1.365707
46	0x3f3d26e7	0.73887485
47	0xbe407ce7	-0.18797646
48	0xbd4ea965	-0.050454516
49	0xbf2d653c	-0.67732596
50	0x3f3acf08	0.72972155
51	0xbf024e4f	-0.5090074
52	0xbe4a28dc	-0.19742149
53	0xbf1fa1b3	-0.6235611
54	0xbf28d178	-0.65944624
55	0xbf8114eb	-1.0084509
56	0xbf81fcd0	-1.0155277
57	0x3f3ef063	0.7458555
58	0xbdf9c08e	-0.1219493
59	0xbea4ca64	-0.32185662
60	0xbefda06a	-0.4953645
61	0xbf17ee8b	-0.5934836
62	0xbd3ab7fd	-0.04558562
63	0xbdeca91a	-0.11555691
64	0xbebd9b8c	-0.37032735
65	0xbf2ee661	-0.6832028
66	0xbdcea3e3	-0.10089853
67	0xbf546af8	-0.8297572
68	0xbe85166e	-0.25993675
69	0x3f76f973	0.9647438
70	0xbf3105d0	-0.69149494
71	0xbf38f66c	-0.7225101
72	0xbf9cb30b	-1.224214
73	0xbf23c281	-0.63968664
74	0x3f6a8a6b	0.9161746
75	0x3f6d5332	0.9270507
76	0xbe10d626	-0.14144191
77	0xbe346adf	-0.17618893
78	0x3f22cd7d	0.635948
79	0xbf5cd53b	-0.86262864
80	0xbe7a61af	-0.24451326
81	0xbf1266f8	-0.5718837
82	0xbe8d5497	-0.276036
83	0xbdc1b3cd	-0.094581224
84	0x3f101a47	0.56290096
85	0xbef45231	-0.47718957
86	0xbed2397f	-0.4105949
87	0xbd628ff6	-0.055313073
88	0x3f284b70	0.6574011
89	0xbf3104f5	-0.6914819
90	0xbf3a5b71	-0.7279578
91	0xbf882dff	-1.0639037
92	0x3ea61ed5	0.32445398
93	0xbf9d5fe6	-1.2294891
94	0xbef003fc	-0.4687804
95	0xbeb62acc	-0.35579526
96	0x3ecab8cf	0.39594123
97	0xbf870964	-1.0549741
98	0x3f10abe6	0.56512296
99	0x3f03fd6c	0.51558566
100	0xbf49c483	-0.7881548
101	0x3eb1993c	0.3468722
102	0xbd40ada6	-0.047040604
103	0xbeff669c	-0.49882972
104	0x3e2c20c7	0.16809379
105	0xbe82e828	-0.25567746
106	0x3f0bab3e	0.5455817
107	0x3e83820f	0.25685164
108	0xbf141529	-0.5784479
109	0x3d9ed5b5	0.07755605
110	0xbf21c0c6	-0.63184774
111	0xbf03a480	-0.5142288
112	0x3e2491d8	0.1607126
113	0xbeeb213c	-0.45923793
114	0xbeac53af	-0.33657596
115	0x3e21d4b3	0.15803795
116	0x3f1a9876	0.60388887
117	0xbe96f832	-0.29486233
118	0xbf886542	-1.0655901
119	0xbf29a849	-0.6627241
120	0xbf56d0a6	-0.8391212
121	0x3f0cc5c8	0.5498929
122	0xbf1a102d	-0.6018093
123	0xbf39a4af	-0.7251691
124	0x3f44b226	0.7683433
125	0xbf358142	-0.70900357
126	0x3f59b269	0.8503786
127	0x3f3070a0	0.6892185
128	0xbefe48ae	-0.49664825
129	0x3e9a0fa1	0.3009005
130	0xbcfd4645	-0.030917296
131	0x3f5c2949	0.86000496
132	0xbed5f0db	-0.4178532
133	0xbf13bfe1	-0.5771466
134	0xbe35e4d3	-0.17763071
135	0x3b9995f4	0.0046870653
136	0xbf335010	-0.7004404
137	0xbf9c7640	-1.2223587
138	0x3ebc2637	0.36747906
139	0xbe88f965	-0.26752773
140	0xbf334488	-0.70026445
141	0xbf5ca402	-0.86187756
142	0xbee73565	-0.45157924
143	0xbf041a40	-0.51602554
144	0xbeecdd9d	-0.46262828
145	0xbf1b4a3c	-0.6066015
146	0xbf16a1b2	-0.5884048
147	0xbf24b88f	-0.64344114
148	0xbf0f06a7	-0.55869526
149	0xbea8a4e1	-0.32938293
150	0x3f51c073	0.8193428
151	0xbf1f3e8a	-0.622048
152	0xbf56d4fe	-0.8391875
153	0xbdb152a5	-0.08658341
154	0xbf351834	-0.70740056
155	0x3f7ed96e	0.9955052
156	0xbe67a723	-0.22622351
157	0xbf5765f5	-0.8413995
158	0x3ec5c729	0.3862851
159	0x3f35bbb4	0.7098954
160	0xbeb5b57a	-0.35490018
161	0xbf89ff75	-1.0781084
162	0xbf8a7a76	-1.0818622
163	0x3e8913a2	0.2677279
164	0xbea70b8f	-0.32626006
165	0x3ef2894a	0.47370368
166	0xbf82380b	-1.0173353
167	0xbf16d39c	-0.5891664
168	0xbcc09bf4	-0.023511864
169	0x3e4e9325	0.20173319
170	0xbf93753c	-1.1520152
171	0xbed518b5	-0.41620412
172	0xbf1b2248	-0.60599184
173	0x3f1959aa	0.5990244
174	0xbfba758a	-1.456712
175	0xbf32a26f	-0.69779104
176	0xbea00148	-0.31250978
177	0x3ee2e05e	0.44311804
178	0xbfa2ecaa	-1.2728474
179	0x3f07da66	0.53067625
180	0x3f13e638	0.5777316
181	0xbfa7eeaf	-1.3119715
182	0x3f387d32	0.7206603
183	0xbd9a34c2	-0.07529594
184	0xbf8306d1	-1.0236455
185	0x3ca003b8	0.019533023
186	0xbf5f45ca	-0.87215865
187	0x3e2f6932	0.17129973
188	0x3f339d4b	0.70161885
189	0x3ef04322	0.46926218
190	0xbe10c37d	-0.14137073
191	0xbf36cb6a	-0.71404135
192	0xbf004404	-0.50103784
193	0x3f767590	0.96273136
194	0xbdc85ecf	-0.09783708
195	0xbf760710	-0.96104527
196	0x3ed0b60b	0.40763888
197	0x3f2fed99	0.6872192
198	0xbce28800	-0.02765274
199	0xbf924213	-1.1426414
200	0xbf182d72	-0.59444344
201	0xbedc7089	-0.43054608
202	0x3f4d51c4	0.8020289
203	0xbf34a8a4	-0.70569825
204	0xbf6fc7c3	-0.9366419
205	0x3f2c1a84	0.6722796
206	0xbeb6dc04	-0.35714734
207	0x3f22cb4f	0.63591474
208	0x3f1b31ae	0.6062268
209	0xbf04b682	-0.51840985
210	0x3eb174ea	0.3465951
211	0xbf0ac817	-0.5421156
212	0x3f34842f	0.70514196
213	0xbe82724d	-0.2547783
214	0x3d391833	0.045189094
215	0xbe451401	-0.19245912
216	0xbf412a6a	-0.75455344
217	0xbf0ce7b6	-0.5504106
218	0xbf9764f7	-1.1827687
219	0x3ed4f99e	0.41596693
220	0xbcd59664	-0.026072688
221	0xbf3b5f39	-0.73192173
222	0xbf32adfe	-0.6979674
223	0xbf2ac526	-0.66707075
224	0x3cf11116	0.029427093
225	0x3cded467	0.02720089
226	0xbf276945	-0.65395004
227	0xbee82492	-0.453404
228	0xbecabd2e	-0.39597458
229	0xbf0d4eba	-0.5519825
230	0xbefb0281	-0.49025348
231	0x3f406e81	0.75168616
232	0xbf17540b	-0.59112614
233	0xbf2dcaa6	-0.6788734
234	0xbf12d50c	-0.57356334
235	0xbe95d010	-0.29260302
236	0x3f3edb96	0.7455381
237	0x3f1ca708	0.6119237
238	0xbef3f43d	-0.47647277
239	0xbd01076c	-0.03150122
240	0x3f20c506	0.62800634
241	0xbe446c84	-0.1918202
242	0xbe70d1b4	-0.23517495
243	0x3e4ce819	0.20010413
244	0x3dc15562	0.094401136
245	0x3f684bcf	0.90740675
246	0xbf390020	-0.72265816
247	0x3ea7a251	0.32741025
248	0x3f53fb8b	0.828057
249	0xbda994ae	-0.082803115
250	0xbf694b98	-0.9113097
251	0x3ea3dd57	0.32004806
252	0x3e99c499	0.30032805
253	0x3eebe23c	0.4607104
254	0xbf5080ce	-0.8144654
255	0x3f4aee0e	0.7926949

bias f4 [20]
0	0x3f2d0840	0.67590714
1	0x3f4285b1	0.75985247
2	0x3f193cc0	0.5985832
3	0xbffb9aa0	-1.9656563
4	0xbf4186a4	-0.7559607
5	0x3eda7076	0.42663926
6	0x3f0148e3	0.5050184
7	0x3f6efdb6	0.9335588
8	0xbfe19884	-1.7624669
9	0xbfa58267	-1.2930421
10	0xbea6970d	-0.32537118
11	0xbfdda9f7	-1.7317494
12	0xbf655e8b	-0.89597386
13	0x3f07e8ec	0.53089786
14	0x3f63b546	0.88948476
15	0xbf9a5eee	-1.206022
16	0x3e979536	0.29606026
17	0xbf2a66e0	-0.66563225
18	0x3f3aa8b8	0.72913694
19	0xbfcb3bdd	-1.5877644

weight f4 [2, 20]
0	0x3f67f088	0.90601397
1	0x3f69593a	0.91151774
2	0x3f3989bb	0.72475785
3	0xbe21a285	-0.15784653
4	0xbcbcc61c	-0.023043685
5	0x3ef6d784	0.482113
6	0x3ef1ab0f	0.4720082
7	0x3eb2fef2	0.34960133
8	0xbd46fdba	-0.048581816
9	0xbcaeae9d	-0.021323496
10	0xbe3d35d6	-0.18477568
11	0xbd6ab9a9	-0.057305966
12	0xbcb5ec3e	-0.022207376
13	0x3f015222	0.5051595
14	0x3f2c4684	0.672951
15	0xbae32225	-0.0017328901
16	0x3f6c038a	0.921929
17	0xbc0141ba	-0.007889206
18	0x3ea6ece3	0.32602605
19	0xbd543def	-0.051816877
20	0xbe174333	-0.14771728
21	0xbe6db62a	-0.23214021
22	0xbe1af78f	-0.15133499
23	0x3f19890a	0.5997473
24	0x3ded1aef	0.11577403
25	0xbdec3401	-0.115333565
26	0xbe0dd722	-0.13851598
27	0xbd8c8fb4	-0.06863347
28	0x3f22ab0f	0.63542265
29	0x3ef0a31d	0.46999446
30	0xbc91afc2	-0.017784003
31	0x3f138346	0.5762218
32	0x3f046e5e	0.51730907
33	0xbe95d371	-0.2926288
34	0xbe40eeb9	-0.18841065
35	0x3f0e8332	0.5566894
36	0xbdb032b4	-0.08603421
37	0x3e95f162	0.29285723
38	0x3d162be6	0.03666296
39	0x3f3c9620	0.7366657

bias f4 [2]
0	0xbefc8591	-0.49320653
1	0xc0258115	-2.5860035
