Network2/params/mlp_wParams0831175835.pth (torch_old, 204908 bytes, 12 tensors)

weight f4 [171]
0	0x3f5d6a78	0.86490583
1	0x3f39c78c	0.7257011
2	0x3df64d35	0.12026445
3	0x3e3b979b	0.18319552
4	0x3ee11d7f	0.43967816
5	0x3eaea472	0.34109837
6	0x3f6a3d41	0.91499716
7	0x3f4a28b1	0.7896834
8	0x3f312fc1	0.6921349
9	0x3e90a57b	0.28251252
10	0x3f7a5b3d	0.9779547
11	0x3f4361ff	0.76321405
12	0x3f562bc9	0.8366056
13	0x3eee944d	0.4659752
14	0x3e0c652d	0.1371047
15	0x3df370ef	0.11886775
16	0x3f21b785	0.63170654
17	0x3d68de0e	0.056852393
18	0x3f4a42b7	0.7900805
19	0x3f701afa	0.9379116
20	0x3f79d435	0.9758943
21	0x3e5e87dc	0.21731514
22	0x3e364d47	0.17802916
23	0x3f0ccbe6	0.54998624
24	0x3ebe96cb	0.3722442
25	0x3e7f561d	0.24935193
26	0x3f5e0003	0.8671877
27	0x3f697481	0.91193396
28	0x3e443504	0.19160849
29	0x3dc8c621	0.09803415
30	0x3f667212	0.9001781
31	0x3e2ec8d5	0.17068799
32	0x3e397a14	0.18112975
33	0x3f4b1321	0.79326063
34	0x3ee5174f	0.44744346
35	0x3ea2d439	0.31802538
36	0x3f2f7e0c	0.6855171
37	0x3f3df53d	0.7420233
38	0x3f26924f	0.65067
39	0x3ebbdb7f	0.366909
40	0x3dd8da46	0.10588507
41	0x3e4a4389	0.19752325
42	0x3ebce054	0.368899
43	0x3f3e495e	0.743307
44	0x3e3b1c4c	0.18272513
45	0x3d882e3b	0.06649443
46	0x3f1ca58d	0.6119011
47	0x3f3e3214	0.74295163
48	0x3f6d9128	0.92799616
49	0x3eba3880	0.3637123
50	0x3f406c9e	0.75165737
51	0x3f28bae4	0.6591017
52	0x3f0cfa8e	0.55069816
53	0x3f3253c8	0.6965909
54	0x3f1f7cd4	0.6229985
55	0x3e49dc56	0.19712958
56	0x3f3a44ce	0.7276124
57	0x3ed1ad9a	0.4095276
58	0x3f066f68	0.5251374
59	0x3f5031f7	0.8132624
60	0x3e958db1	0.29209664
61	0x3f46f004	0.77709985
62	0x3f884f49	1.0649196
63	0x3dde3441	0.108498104
64	0x3ea79818	0.32733226
65	0x3f5d2b72	0.8639442
66	0x3f668ab8	0.9005542
67	0x3e355189	0.17706884
68	0x3f64ed4e	0.894246
69	0x3f12a626	0.5728477
70	0x3d9adea5	0.07561997
71	0x3f569291	0.8381739
72	0x3f7ad68b	0.97983617
73	0x3e4a6424	0.19764763
74	0x3f7c74b4	0.98615575
75	0x3f4f0769	0.8087068
76	0xbcd954b7	-0.026529653
77	0x3f056750	0.5211077
78	0x3eadd458	0.33951068
79	0x3f63e111	0.890153
80	0x3f4b3c8d	0.7938927
81	0x3ed751e1	0.42054656
82	0x3f184a8b	0.59488744
83	0x3f4b4c18	0.79412985
84	0x3f6bd574	0.9212258
85	0x3f5841b3	0.8447525
86	0x3f0383e5	0.5137313
87	0x3f7831ea	0.9695116
88	0x3e6da1ea	0.23206297
89	0x3e580871	0.2109697
90	0x3e9705b3	0.29496536
91	0x3f76e963	0.9644987
92	0x3f4a851c	0.7910936
93	0x3f5c1b16	0.8597883
94	0x3eaf9383	0.3429223
95	0x3f187e2a	0.5956751
96	0x3f027c8d	0.509713
97	0x3ec2dd0b	0.38059267
98	0x3e34886e	0.17630169
99	0x3f3a4736	0.7276491
100	0x3e32890d	0.17435093
101	0x3f027a91	0.5096827
102	0x3f627d75	0.8847268
103	0x3f2b17c9	0.6683317
104	0x3f584c4d	0.84491426
105	0x3de93877	0.11387723
106	0x3e1eab29	0.1549498
107	0x3e515c82	0.20445445
108	0x3f5a1d35	0.85200816
109	0x3f604f23	0.87620753
110	0x3e33ec84	0.17570692
111	0x3f4dfd6a	0.80464804
112	0x3f2004ad	0.62507135
113	0x3f44e37b	0.7690961
114	0x3ee0d3b2	0.4391151
115	0x3e3e301f	0.18573044
116	0x3e87ddb9	0.26536348
117	0x3ed06c9e	0.40707868
118	0x3f0bd510	0.5462198
119	0x3f66287c	0.89905524
120	0x3e38765b	0.18013899
121	0x3f41953c	0.7561834
122	0x3eada47f	0.33914563
123	0x3f3182a0	0.6933994
124	0x3f1548b2	0.5831405
125	0x3d6712d6	0.056414448
126	0x3f63a5ff	0.88925165
127	0x3f239d1a	0.6391159
128	0x3f59ed08	0.85127306
129	0x3f5553fb	0.8333127
130	0x3f76a842	0.9635049
131	0x3f34cf0e	0.7062844
132	0x3ea045bb	0.313032
133	0x3f463086	0.7741779
134	0x3ed36931	0.41291192
135	0x3f61380f	0.87976164
136	0x3f064ae8	0.5245805
137	0x3e0d61a2	0.13806775
138	0x3e51c23d	0.20484252
139	0x3f63c5a5	0.88973457
140	0x3f09ec01	0.5387574
141	0x3f5dc81b	0.8663346
142	0x3f3ea4f5	0.74470454
143	0x3f349eb0	0.7055464
144	0x3d9f4875	0.07777492
145	0x3f1f3dc0	0.622036
146	0x3e15fb86	0.1464673
147	0x3f2aeca1	0.6676732
148	0x3e4f41e0	0.20239973
149	0x3d46534d	0.048419286
150	0x3f00ad6d	0.50264627
151	0x3f5ccee7	0.8625321
152	0x3f752317	0.9575667
153	0x3f1e828e	0.6191796
154	0x3f7582e7	0.95902866
155	0x3f29cd46	0.6632885
156	0x3ecedeba	0.40404302
157	0x3f424afe	0.7589568
158	0x3e0b40dc	0.1359896
159	0xbc86f9cc	-0.016476534
160	0x3f2a3c44	0.6649821
161	0x3f703de4	0.9384444
162	0x3ef0ee97	0.4705703
163	0x3f7451cf	0.9543733
164	0x3f5185c8	0.8184476
165	0x3e7fea09	0.24991621
166	0x3f2b150d	0.66828996
167	0x3f819106	1.0122383
168	0x3f632581	0.887291
169	0x3f51cf48	0.8195691
170	0x3f0a82a0	0.5410557

bias f4 [171]
0	0xba5b6c0f	-0.0008370289
1	0xbc46f738	-0.0121439025
2	0xbd9422e8	-0.0723322
3	0x3d52eaa9	0.05149332
4	0x3a380c49	0.00070208736
5	0x3cca8273	0.024720406
6	0x3c410f47	0.011783428
7	0xbc26f71a	-0.01019075
8	0x3ce7f625	0.028315613
9	0x3c8a2b6f	0.016866414
10	0x3d0890b2	0.033341117
11	0x3beadb30	0.0071672425
12	0xbca2dc3b	-0.019880405
13	0x3d2db899	0.042412374
14	0xbc733220	-0.014843494
15	0x3d4e5bb7	0.050380435
16	0x399ebcc9	0.00030276764
17	0x3d90a934	0.07063523
18	0xbc32970b	-0.010900269
19	0x3ca86bce	0.020559218
20	0x3c60355d	0.013684598
21	0xbc8d7308	-0.017266765
22	0xbcb5cf1b	-0.022193482
23	0x3d0e6baa	0.034770645
24	0xbca8dd1b	-0.020613244
25	0x3c248bf1	0.01004313
26	0x3d5ab136	0.053391658
27	0x3a485a4b	0.0007642849
28	0xbd51c110	-0.05120951
29	0xb9f9eba9	-0.00047668561
30	0x3c3fe913	0.011713284
31	0x3cc56ecd	0.024100685
32	0x3c87f52f	0.016596405
33	0x3c3b5a00	0.011435032
34	0x3c3d0c58	0.0115385875
35	0x3bc7a552	0.0060927058
36	0xbc0e1a04	-0.008673195
37	0xbb8ceac6	-0.004300448
38	0x3b856ef4	0.0040720645
39	0xbcab60ca	-0.020920176
40	0x3d429bf9	0.04751203
41	0x3c37f761	0.011228413
42	0xbb39f60e	-0.002837542
43	0x3d26ce00	0.0407238
44	0x3c9f4b94	0.019445218
45	0x3cccb4c9	0.024988549
46	0x3cec4597	0.028841777
47	0x3cc6dd67	0.024275495
48	0x3d274575	0.040837724
49	0x3c95e1f4	0.01829622
50	0x3d3bf505	0.045887966
51	0x3d2284ec	0.039677545
52	0x3cdbf5b5	0.02685056
53	0x3cc05917	0.023479981
54	0x3bffb610	0.007803686
55	0x3bf269e8	0.007397879
56	0xbc47efd6	-0.012203177
57	0x3d49a5d2	0.049230404
58	0xbc9de25f	-0.019272981
59	0xbd197983	-0.0374694
60	0xb88534e7	-6.351788e-05
61	0xbb80b3d6	-0.003927688
62	0x3cc305d9	0.0238065
63	0x3c100ec8	0.008792587
64	0x3cf10dfd	0.029425615
65	0x3c8f4377	0.017488224
66	0xbcffcb81	-0.031224968
67	0xbcef6d20	-0.02922684
68	0x3c36e988	0.011164077
69	0x3c466e65	0.012111281
70	0xbd284f7d	-0.04109143
71	0x3ce19db9	0.027541028
72	0xbb18080d	-0.0023198158
73	0x3cfd6fdc	0.030937128
74	0x3b0abf21	0.002117105
75	0x3c2d0f47	0.010562724
76	0x3cdca1a2	0.026932541
77	0x3d1556c7	0.03645971
78	0x3c17abfa	0.009257311
79	0x3d86b216	0.06576936
80	0x3c8ce81f	0.017200528
81	0x3c80b472	0.015711043
82	0xbd37b610	-0.044851363
83	0x3c444e26	0.011981523
84	0x3bda9b3e	0.0066713383
85	0x3c105204	0.008808617
86	0xbc6b6349	-0.014366933
87	0x3caf559c	0.021403126
88	0x3cfc96ad	0.030833567
89	0x3cebb0e0	0.028770864
90	0xbc0c5634	-0.008565474
91	0xbcafb2d1	-0.021447571
92	0x3d8303a2	0.06397177
93	0x3be261ae	0.006908617
94	0xbc725bd6	-0.014792403
95	0x3c9da5d5	0.019244114
96	0x3d364c58	0.0445064
97	0x3c3489a9	0.011019149
98	0x3a5d3823	0.0008438846
99	0x3c8ebacc	0.017423056
100	0xbc6c66fb	-0.014428849
101	0xbc4c1fe9	-0.01245878
102	0x3c5c256b	0.0134366555
103	0x3d196541	0.03745008
104	0xbcd40bd5	-0.025884548
105	0xbd5498ec	-0.05190365
106	0x3d52c36f	0.05145591
107	0x3c88f4e0	0.016718328
108	0x3b897de0	0.0041959137
109	0xbc017ea4	-0.007903729
110	0x3d204d79	0.039136384
111	0xbadef995	-0.0017011637
112	0xbd98c011	-0.07458509
113	0xbb525313	-0.0032092973
114	0x3c89be52	0.016814385
115	0x3d077806	0.033073448
116	0xbc592f6b	-0.013255934
117	0xbcb8e59c	-0.022570424
118	0x3c84a6e2	0.016192857
119	0xbcc1c703	-0.023654466
120	0xbb46e521	-0.0030348974
121	0x3cd9f13b	0.026604285
122	0x3ca584e2	0.020204965
123	0x3abad238	0.0014253324
124	0x3d111959	0.035424564
125	0xbcf6bbd8	-0.030118868
126	0xbd0c2cc0	-0.034222364
127	0x3cf2210d	0.029556775
128	0x3c41eba2	0.011835964
129	0xbc5ed969	-0.013601639
130	0x3cfc04c6	0.030763995
131	0x3d103c6e	0.03521388
132	0xba83585c	-0.001002084
133	0x3c99f2a3	0.018792456
134	0x3c8f256b	0.017473897
135	0x3ce1f568	0.02758284
136	0xbba294b9	-0.004961577
137	0xbc89669d	-0.016772563
138	0xbc088d18	-0.008334421
139	0xbc7c4a4d	-0.015398574
140	0xbc28bfe2	-0.010299655
141	0x3c8267ab	0.015918573
142	0x3c95481a	0.018222857
143	0x3cc3d451	0.023904951
144	0x3d4ed23a	0.050493456
145	0x3bddd4fd	0.006769775
146	0xbd4bcb3d	-0.04975437
147	0x3c1353a3	0.0089921085
148	0xbcda4841	-0.026645781
149	0x3da99cb7	0.08281844
150	0xbd61ad2c	-0.05509679
151	0x3ccf38dc	0.025295667
152	0x3a95c474	0.0011426345
153	0x3d13563a	0.035970904
154	0xbcb1613e	-0.021652814
155	0x3cbe0fe0	0.02320093
156	0xbb140968	-0.0022588614
157	0x3c8ddd6a	0.017317493
158	0xbd60654c	-0.054784104
159	0xbd90579c	-0.0704796
160	0x3cf323b6	0.029680114
161	0x3c642937	0.013925842
162	0x3d4330ee	0.047654085
163	0xbc67b305	-0.014141803
164	0xbb859102	-0.004076124
165	0x3d0bc178	0.034120053
166	0xbd14245f	-0.0361675
167	0xbcd70eb8	-0.026252136
168	0xbcc9e18b	-0.02464368
169	0xbcd9b028	-0.026573256
170	0xbc03a927	-0.0080359345

running_mean f4 [171]
0	0x3e9ee493	0.31033763
1	0x3e994418	0.29934764
2	0x3e94da50	0.2907281
3	0x3e5c3eba	0.21508303
4	0x3e5ff9f1	0.21872689
5	0x3eec4a9d	0.46150675
6	0x3f8181c3	1.0117725
7	0x3f5a236e	0.8521031
8	0x3fa2bc2a	1.2713673
9	0x3e9524f6	0.2912976
10	0x3e9ee493	0.31033763
11	0x3e994418	0.29934764
12	0x3e5198ed	0.20468493
13	0x3e52cc35	0.20585711
14	0x3ef8fa38	0.48628402
15	0x3f5e7187	0.8689198
16	0x3f5666a0	0.83750343
17	0x3f9e970d	1.2389847
18	0x3e9b2c37	0.3030717
19	0x3e9524f6	0.2912976
20	0x3e9ee493	0.31033763
21	0x3e4a257d	0.19740863
22	0x3e5b614d	0.21423836
23	0x3ef9f907	0.48822805
24	0x3f69418d	0.9111565
25	0x3f66187a	0.898811
26	0x3fa12854	1.2590432
27	0x3ea01edd	0.31273547
28	0x3e9b2c37	0.3030717
29	0x3e9524f6	0.2912976
30	0x3e6124b9	0.21986665
31	0x3e597717	0.21236835
32	0x3ef09deb	0.46995482
33	0x3f7b0578	0.9805522
34	0x3f5d1b77	0.86370033
35	0x3fa49e8b	1.2860883
36	0x3e954e00	0.29161072
37	0x3ea01edd	0.31273547
38	0x3e9b2c37	0.3030717
39	0x3e50bdc5	0.20384891
40	0x3e537e77	0.20653711
41	0x3efc4e89	0.49278668
42	0x3f635a41	0.8880959
43	0x3f50af92	0.815179
44	0x3f9c4b50	1.2210484
45	0x3ea1dc2b	0.31613287
46	0x3e954e00	0.29161072
47	0x3ea01edd	0.31273547
48	0x3e5a16c0	0.21297741
49	0x3e5be66a	0.21474615
50	0x3ef9de75	0.48802534
51	0x3f6faac8	0.93619967
52	0x3f6b6387	0.9194874
53	0x3fa41444	1.2818685
54	0x3ea4441c	0.32083213
55	0x3ea1dc2b	0.31613287
56	0x3e954e00	0.29161072
57	0x3e6d7ecc	0.231929
58	0x3e5e08fe	0.21683118
59	0x3ef3061b	0.47465596
60	0x3f8461aa	1.0342305
61	0x3f609fa1	0.87743574
62	0x3fa6be1b	1.3026766
63	0x3e9813e8	0.29702687
64	0x3ea4441c	0.32083213
65	0x3ea1dc2b	0.31613287
66	0x3e58e216	0.21179995
67	0x3e625b00	0.22105026
68	0x3efe6a9f	0.4969072
69	0x3f6e0d98	0.9298949
70	0x3f5e8ec0	0.8693657
71	0x3f9cd0f6	1.225127
72	0x3ea4990f	0.32148024
73	0x3e9813e8	0.29702687
74	0x3ea4441c	0.32083213
75	0x3e5d4766	0.21609268
76	0x3e5a2dbf	0.21306513
77	0x3f016340	0.5054207
78	0x3f755778	0.9583659
79	0x3f66fe8f	0.90232176
80	0x3fa8fe09	1.3202525
81	0x3ea8fe1f	0.3300638
82	0x3ea4990f	0.32148024
83	0x3e9813e8	0.29702687
84	0x3e75f5c9	0.24019541
85	0x3e6da50a	0.23207489
86	0x3ef1336c	0.47109544
87	0x3f881c53	1.0633644
88	0x3f6fd7fa	0.9368893
89	0x3fa64af9	1.299163
90	0x3e9f76a7	0.31145212
91	0x3ea8fe1f	0.3300638
92	0x3ea4990f	0.32148024
93	0x3e61718d	0.22015972
94	0x3e6c89ac	0.23099393
95	0x3f01e5b8	0.5074115
96	0x3f76de0f	0.96432585
97	0x3f66d749	0.9017225
98	0x3fa239fe	1.2673948
99	0x3ea59b7a	0.32345182
100	0x3e9f76a7	0.31145212
101	0x3ea8fe1f	0.3300638
102	0x3e5eeb04	0.21769339
103	0x3e70da91	0.23520876
104	0x3f01e6f0	0.5074301
105	0x3f76ca12	0.96402085
106	0x3f6ff663	0.9373533
107	0x3fa9bd58	1.3260908
108	0x3ea9099a	0.33015138
109	0x3ea59b7a	0.32345182
110	0x3e9f76a7	0.31145212
111	0x3e799ec6	0.24376974
112	0x3e5fdf43	0.21862511
113	0x3efebab0	0.49751806
114	0x3f861b8c	1.0477157
115	0x3f67939f	0.90459627
116	0x3fadeff0	1.3588848
117	0x3ea0a435	0.3137528
118	0x3ea9099a	0.33015138
119	0x3ea59b7a	0.32345182
120	0x3e608572	0.21925905
121	0x3e7237f4	0.23654157
122	0x3f01ea6a	0.5074831
123	0x3f740457	0.9531912
124	0x3f6b2361	0.9185086
125	0x3fa45730	1.2839108
126	0x3ea61bcb	0.3244308
127	0x3ea0a435	0.3137528
128	0x3ea9099a	0.33015138
129	0x3e621dc2	0.22081664
130	0x3e754fab	0.23956172
131	0x3f00d07c	0.5031812
132	0x3f7c45b4	0.9854386
133	0x3f75d354	0.96025586
134	0x3fa8e1ec	1.3193946
135	0x3ea9ba79	0.3315008
136	0x3ea61bcb	0.3244308
137	0x3ea0a435	0.3137528
138	0x3e7592de	0.23981807
139	0x3e6a6ae2	0.22892335
140	0x3efdd043	0.49572954
141	0x3f883c5f	1.0643424
142	0x3f6ac007	0.9169926
143	0x3faf6d41	1.3705217
144	0x3ea34d6a	0.31895
145	0x3ea9ba79	0.3315008
146	0x3ea61bcb	0.3244308
147	0x3e6208c5	0.22073658
148	0x3e7306e7	0.23733102
149	0x3f0332af	0.5124921
150	0x3f6c2068	0.9223695
151	0x3f6c5422	0.92315876
152	0x3fa07fce	1.2539003
153	0x3ea87a2f	0.3290572
154	0x3ea34d6a	0.31895
155	0x3ea9ba79	0.3315008
156	0x3e6b3e5a	0.22973004
157	0x3e6ec75e	0.2331824
158	0x3f02fb4a	0.51164687
159	0x3f82528e	1.0181444
160	0x3f72d50f	0.9485635
161	0x3faa5115	1.3305994
162	0x3eb43867	0.35199282
163	0x3ea87a2f	0.3290572
164	0x3ea34d6a	0.31895
165	0x3e8280f1	0.25489
166	0x3e6a43b4	0.22877389
167	0x3f02d214	0.51101804
168	0x4002a379	2.0412276
169	0x40116686	2.2718825
170	0x404f16f4	3.235776

running_var f4 [171]
0	0x3e617d15	0.22020371
1	0x3e58ffc8	0.21191323
2	0x3e555b5f	0.20835637
3	0x3d0ac657	0.033880558
4	0x3d2e760e	0.042593054
5	0x3d8ddde9	0.06927092
6	0x3f218a0b	0.6310126
7	0x3f0b8953	0.54506415
8	0x3f165a66	0.5873169
9	0x3e559471	0.20857407
10	0x3e617d15	0.22020371
11	0x3e58ffc8	0.21191323
12	0x3d1ef64f	0.038809117
13	0x3d18fcbe	0.03735041
14	0x3d905404	0.07047275
15	0x3f1a8bd1	0.6036959
16	0x3f126673	0.57187575
17	0x3f0793de	0.5296
18	0x3e594357	0.21217094
19	0x3e559471	0.20857407
20	0x3e617d15	0.22020371
21	0x3d02db81	0.031947616
22	0x3d2509ba	0.04029248
23	0x3d88b988	0.06676012
24	0x3f1d3ea6	0.6142372
25	0x3f1d7107	0.6150059
26	0x3f036d32	0.51338494
27	0x3e62bbef	0.22142003
28	0x3e594357	0.21217094
29	0x3e559471	0.20857407
30	0x3d0f34a5	0.034962315
31	0x3d2a7e27	0.041624215
32	0x3d8694dd	0.06571362
33	0x3f1b9925	0.60780555
34	0x3f14ecf6	0.58174074
35	0x3f0fcc7a	0.5617138
36	0x3e55a289	0.20862783
37	0x3e62bbef	0.22142003
38	0x3e594357	0.21217094
39	0x3d1b435e	0.037906043
40	0x3d247131	0.04014701
41	0x3d927fe6	0.07153301
42	0x3f195da9	0.5990854
43	0x3f0d545f	0.55206865
44	0x3f05bb5d	0.5223902
45	0x3e5e6bdc	0.21720833
46	0x3e55a289	0.20862783
47	0x3e62bbef	0.22142003
48	0x3d0c97bc	0.034324393
49	0x3d1b9102	0.037980087
50	0x3d814c07	0.06313329
51	0x3f120aa0	0.5704746
52	0x3f20d249	0.6282087
53	0x3f01427d	0.5049208
54	0x3e6555b5	0.22395976
55	0x3e5e6bdc	0.21720833
56	0x3e55a289	0.20862783
57	0x3d1c01af	0.038087543
58	0x3d2a8544	0.041631
59	0x3d7a38e5	0.061089415
60	0x3f1b95b4	0.60775304
61	0x3f10d11e	0.5656909
62	0x3f0ae0e2	0.54249394
63	0x3e58eb17	0.2118343
64	0x3e6555b5	0.22395976
65	0x3e5e6bdc	0.21720833
66	0x3d107ccb	0.03527526
67	0x3d2b6f60	0.041854262
68	0x3d888ec9	0.06667859
69	0x3f1fc852	0.6241504
70	0x3f1056eb	0.56382626
71	0x3f006d00	0.5016632
72	0x3e5fbe9a	0.21850052
73	0x3e58eb17	0.2118343
74	0x3e6555b5	0.22395976
75	0x3d08aba6	0.03336682
76	0x3d17be2e	0.037046604
77	0x3d647272	0.055773206
78	0x3f166162	0.58742344
79	0x3f1dc1cc	0.61623836
80	0x3ee8c5d4	0.4546343
81	0x3e68b229	0.22724213
82	0x3e5fbe9a	0.21850052
83	0x3e58eb17	0.2118343
84	0x3d182f2a	0.037154354
85	0x3d2993ca	0.04140071
86	0x3d80c699	0.062878795
87	0x3f16c863	0.58899516
88	0x3f0fb5f2	0.56137
89	0x3f0f9335	0.56083995
90	0x3e5e99c2	0.21738341
91	0x3e68b229	0.22724213
92	0x3e5fbe9a	0.21850052
93	0x3d10f0b1	0.03538579
94	0x3d2fb8b2	0.04290075
95	0x3d6e339c	0.058154687
96	0x3f1533d9	0.5828224
97	0x3f0f78b5	0.5604356
98	0x3eee1257	0.46498367
99	0x3e60ea2b	0.21964328
100	0x3e5e99c2	0.21738341
101	0x3e68b229	0.22724213
102	0x3d0bba82	0.034113415
103	0x3d2396d6	0.03993877
104	0x3d5ad75c	0.05342804
105	0x3f131dac	0.5746715
106	0x3f13c0cd	0.57716066
107	0x3ee511cf	0.4474015
108	0x3e68ba82	0.22727397
109	0x3e60ea2b	0.21964328
110	0x3e5e99c2	0.21738341
111	0x3d13f774	0.03612466
112	0x3d1e2eb7	0.03861877
113	0x3d57eaae	0.052714042
114	0x3f104b1b	0.563646
115	0x3f0f28d5	0.5592168
116	0x3ef3bbbc	0.47604167
117	0x3e5ff034	0.21868974
118	0x3e68ba82	0.22727397
119	0x3e60ea2b	0.21964328
120	0x3d06c1b8	0.03289959
121	0x3d2854df	0.041096564
122	0x3d69346c	0.05693476
123	0x3f151043	0.5822794
124	0x3f0a9580	0.5413437
125	0x3ef28a70	0.47371244
126	0x3e613f7b	0.21996872
127	0x3e5ff034	0.21868974
128	0x3e68ba82	0.22727397
129	0x3d0c970a	0.03432373
130	0x3d240e1f	0.04005253
131	0x3d69ca79	0.05707786
132	0x3f143c5e	0.57904613
133	0x3f15a084	0.5844805
134	0x3eef4faf	0.4674048
135	0x3e6905c5	0.22756107
136	0x3e613f7b	0.21996872
137	0x3e5ff034	0.21868974
138	0x3d17ca98	0.037058443
139	0x3d223170	0.03959793
140	0x3d5d7a01	0.05407143
141	0x3f18c959	0.5968223
142	0x3f08804e	0.5332078
143	0x3ef5ca6c	0.48005998
144	0x3e617bd3	0.22019891
145	0x3e6905c5	0.22756107
146	0x3e613f7b	0.21996872
147	0x3d1f38f2	0.038872667
148	0x3d265f8c	0.040618464
149	0x3d7caf6d	0.061690737
150	0x3f134822	0.5753194
151	0x3f08db29	0.5345941
152	0x3eed2fac	0.46325433
153	0x3e62a2e2	0.22132447
154	0x3e617bd3	0.22019891
155	0x3e6905c5	0.22756107
156	0x3d0b6f20	0.034041524
157	0x3d22bd4c	0.03973131
158	0x3d665e7b	0.056242447
159	0x3f11d994	0.5697262
160	0x3f165ff0	0.5874014
161	0x3ee7e064	0.45288384
162	0x3e6c6c8b	0.23088281
163	0x3e62a2e2	0.22132447
164	0x3e617bd3	0.22019891
165	0x3d161154	0.03663762
166	0x3d1cf5a7	0.03832021
167	0x3d432b58	0.047648758
168	0x3f5e7fd6	0.8691381
169	0x3f75804e	0.958989
170	0x3fd9dded	1.7020851

weight f4 [171, 171]
0	0x3d8bd852	0.06828369
1	0x3cc0c892	0.02353314
2	0xbd2802db	-0.04101835
3	0xbd7ec96b	-0.062203806
4	0x3d901c7c	0.07036683
5	0xbd0b81a2	-0.034059174
6	0x3d4350ab	0.047684353
7	0xbd9c5557	-0.07633465
8	0xbcf020c8	-0.029312506
9	0x3dc70c63	0.097191595
10	0x3ca267c6	0.019824874
11	0xbd0a09f6	-0.033700906
12	0xbce2cd4c	-0.027685784
13	0xbd2948d2	-0.041329212
14	0x3d554a8d	0.05207305
15	0x3c7222b0	0.014778778
16	0x3b3133bf	0.00270389
17	0x3dbac17c	0.091189355
18	0x3bfd3006	0.007726672
19	0x3d39b412	0.045337744
20	0x3bb6ac1c	0.0055747163
21	0xbc862fd3	-0.016380226
22	0x3d615e06	0.05502131
23	0x3ce934e3	0.028467601
24	0xbd965b11	-0.07341588
25	0x3d13cad8	0.03608212
26	0x3d690344	0.05688788
27	0xbd0bad41	-0.034100775
28	0xbde24afa	-0.11049457
29	0x3cc75c52	0.024336014
30	0x3cb8d4de	0.02256244
31	0xbd121771	-0.035666887
32	0xbc912d95	-0.01772193
33	0xbd8e7cd4	-0.06957403
34	0xbdb8193c	-0.08989188
35	0x3c02a0cb	0.007972906
36	0xbd31759c	-0.04332505
37	0x3da4e5a4	0.08051613
38	0xbcdb7505	-0.026789198
39	0x3d700e87	0.058607604
40	0x3db1bd7c	0.086787194
41	0x3dbdaace	0.09261094
42	0xbcd4eef1	-0.025992842
43	0x3d0803b2	0.03320665
44	0x3d6927cb	0.056922715
45	0xbd18e3de	-0.037326686
46	0xbb09d6e1	-0.0021032619
47	0x3d6c07e4	0.057624713
48	0x3d1d2c43	0.03837229
49	0x3ccee50f	0.025255708
50	0x3d8e029d	0.06934092
51	0x3d72dc96	0.0592924
52	0xbc849108	-0.016182438
53	0x3d91b175	0.07113925
54	0xbd72e6ea	-0.059302248
55	0xbd83ff90	-0.06445229
56	0x3d69507c	0.05696152
57	0x3c326661	0.010888667
58	0x3c722f90	0.014781848
59	0x3a71468f	0.00092039345
60	0xbc892446	-0.01674093
61	0xbda9ae92	-0.0828525
62	0xbd0142fe	-0.03155803
63	0x3c244aa8	0.010027565
64	0x3d821736	0.063520834
65	0xbc4fc568	-0.012681343
66	0xbd70e525	-0.05881228
67	0xbd3396d5	-0.043845017
68	0x3d13473b	0.035956603
69	0x3c49c826	0.0123157855
70	0xbd44722f	-0.047960456
71	0xbd1163e2	-0.035495646
72	0xbdd1d76f	-0.10246169
73	0x3d065d51	0.032803837
74	0x3daa08ed	0.08302484
75	0xbcd1d75d	-0.025615389
76	0x3d4f45c1	0.050603632
77	0xbbb6ac7b	-0.0055747605
78	0x3d35b33c	0.044360384
79	0x3d2ef814	0.042717054
80	0xbd0c431e	-0.034243695
81	0x3c8c38b9	0.017116891
82	0xbdb9057c	-0.09034249
83	0x3be9bd68	0.0071331747
84	0xbc0d25b9	-0.008614951
85	0x3cdcdfc3	0.026962167
86	0xbd86870e	-0.065687284
87	0xbd056dd3	-0.03257544
88	0xbd0d745e	-0.034534805
89	0xbd654e34	-0.055982783
90	0xbbfa35c7	-0.0076358053
91	0x3cead5e5	0.028666446
92	0xbd54098b	-0.051766913
93	0x3d4ec400	0.05047989
94	0x3bcf8057	0.006332438
95	0xbd372259	-0.04471049
96	0xbce73e2c	-0.028227888
97	0x3d4b898d	0.049691726
98	0x3ce0c3df	0.027437149
99	0xbdbf1142	-0.093294635
100	0x3ccbf178	0.024895415
101	0xbcae2b32	-0.021260832
102	0x3d20934e	0.03920298
103	0xbc38b338	-0.011273198
104	0x3cb4cef0	0.022071332
105	0xbd6f0b77	-0.058360543
106	0xbc5a3ba1	-0.013319881
107	0x3d59d5ee	0.053182535
108	0x3bcd98e3	0.006274329
109	0x3ba1c3b0	0.004936658
110	0x3d66d31c	0.056353673
111	0x3d578c56	0.05262407
112	0x3a5fb5df	0.0008533876
113	0xbd090a6d	-0.03345721
114	0xbd863f17	-0.06555002
115	0xbd3eec9c	-0.046612367
116	0xbdac1c7c	-0.084038705
117	0x3d15aa70	0.036539495
118	0xbd60f923	-0.054925095
119	0xbd9759d0	-0.07390177
120	0x3d55fe70	0.052244604
121	0xbd18721b	-0.037218194
122	0xbd0730a5	-0.033005375
123	0x3ce21fd1	0.027603062
124	0xbbfb50e6	-0.007669556
125	0xbd307309	-0.043078456
126	0xbd4d779e	-0.050162904
127	0x3d41ee7a	0.04734657
128	0x3c8b1b1c	0.0169807
129	0x3cef4f1b	0.029212525
130	0x3d67a9a3	0.056558263
131	0xbc8b486a	-0.017002303
132	0x3d5f4aa3	0.05451454
133	0x3c6cd596	0.01445522
134	0x3d82263b	0.06354948
135	0x3d87c8ad	0.06630073
136	0xbda1a0a8	-0.07891971
137	0x3dad943e	0.084755406
138	0x3d9152fc	0.07095906
139	0x3d848de0	0.06472373
140	0x3d3aa7cb	0.045570176
141	0x3cebd84f	0.028789667
142	0xbdb7cd84	-0.08974746
143	0xbda7803a	-0.08178754
144	0x3d83c963	0.06434896
145	0xbd193fca	-0.03741435
146	0xbd953b31	-0.072866805
147	0x3d2fe61e	0.042944066
148	0xbd4c349a	-0.049854852
149	0x3c89dd3e	0.01682913
150	0x3cd71620	0.026255667
151	0xbcc2f6c2	-0.023799304
152	0x3d0cb0a8	0.03434816
153	0xbd9316bf	-0.07182073
154	0x3d9cad7d	0.07650278
155	0x3da0bfd5	0.07849089
156	0x3d41aebb	0.047285777
157	0xbd5df218	-0.054185957
158	0x3a63d4e4	0.0008691086
159	0xbdcaa585	-0.098948516
160	0x3d9c7e07	0.07641225
161	0xbd39e9b2	-0.045388885
162	0x3cf2097d	0.02954554
163	0xbd96e25d	-0.07367394
164	0x3d603b09	0.0547438
165	0x3d65ba0f	0.056085642
166	0xbd358a51	-0.044321362
167	0x3c59dc2d	0.013297123
168	0xbd3e5921	-0.04647172
169	0x3d8a2a80	0.067463875
170	0x3d9075fa	0.07053752
171	0x3d4b68bd	0.049660433
172	0x3c5866dc	0.013208117
173	0xbd962804	-0.07331851
174	0x3d1b3dcc	0.03790073
175	0xbd20fd99	-0.03930435
176	0x3d666d79	0.056256745
177	0x3d6162e4	0.05502595
178	0xbcad18e3	-0.021130031
179	0xbbd5ae4d	-0.0065210224
180	0x3d26a863	0.04068793
181	0x3d2d15f5	0.042257268
182	0xbd403204	-0.0469227
183	0xbc905dce	-0.017622855
184	0x3bee07c9	0.0072641117
185	0xbc691a2e	-0.014227433
186	0xbd3ce488	-0.046116382
187	0x3d4bc0fe	0.0497446
188	0x3d085220	0.033281446
189	0x3d62d3f2	0.055377908
190	0x3cd92334	0.026506044
191	0xbc3cba6c	-0.011519056
192	0x3abf7338	0.0014606481
193	0xbd6fbe84	-0.0585313
194	0x3d848f9b	0.06472703
195	0xbbd7e3db	-0.006588442
196	0x3d94c4bd	0.07264087
197	0xbd20f3e2	-0.039295085
198	0x3c6a52c0	0.014301956
199	0xbd870c7c	-0.06594178
200	0x3cb1d1fa	0.02170657
201	0xbd511e72	-0.051054426
202	0x3c91c15d	0.017792398
203	0x3d9d4cd3	0.07680669
204	0xbd08af0b	-0.03337006
205	0xbd9c46bd	-0.0763068
206	0xbd3ca7e0	-0.046058536
207	0xbd567466	-0.0523571
208	0xbc43c17c	-0.011947986
209	0xbd93a891	-0.07209886
210	0x3d51fdcf	0.05126744
211	0x3a71d952	0.00092258037
212	0x3d11f4a5	0.0356337
213	0xbc0f7c5a	-0.008757675
214	0xbc93d4ac	-0.018045746
215	0x3d657f0d	0.05602937
216	0xbd82b567	-0.06382256
217	0x3d615798	0.055015177
218	0x3c82df1e	0.015975531
219	0x3c92c359	0.017915415
220	0x3ce63ccf	0.028105168
221	0x3c94392d	0.01809367
222	0xbd5b1a4a	-0.053491868
223	0x3d627ff2	0.0552978
224	0xba5894ab	-0.00082618993
225	0x3c50550f	0.012715592
226	0xbd52f0e4	-0.051499262
227	0xbd8fa694	-0.07014194
228	0x3d3f805e	0.04675328
229	0xbce346ab	-0.027743658
230	0xbd4bb3c7	-0.049731996
231	0xbd620ecc	-0.055189893
232	0x3d6254dd	0.055256713
233	0x3c2ce859	0.010553443
234	0x3d4bcc80	0.049755573
235	0x3db0540b	0.0860978
236	0xbd82d882	-0.06388952
237	0x3d41d60a	0.047323264
238	0xbc375da9	-0.011191764
239	0xbd1c465a	-0.03815303
240	0xbcb36450	-0.021898419
241	0xbca04bba	-0.01956736
242	0x3d84d0f9	0.06485171
243	0xbc013305	-0.007885699
244	0xbcc93bec	-0.024564706
245	0xbc7c75a0	-0.015408903
246	0xbd640a90	-0.055674136
247	0x3d7cfc3a	0.06176398
248	0x3d158049	0.036499295
249	0xbd5a3a51	-0.05327827
250	0xbd828892	-0.06373705
251	0x3d093f89	0.033507857
252	0x3d8de1fd	0.069278695
253	0xbd8025d4	-0.06257215
254	0xbd8d0bf4	-0.068870455
255	0xbd68d0ed	-0.056839872

bias f4 [171]
0	0xbc44690e	-0.011987938
1	0x3d90e223	0.07074382
2	0x3d0d8681	0.0345521
3	0x3c2ca04e	0.0105362665
4	0xbd32e3d3	-0.0436743
5	0x3d7d016c	0.061768934
6	0xbbc97f6d	-0.0061492235
7	0x3ce274dc	0.027643614
8	0xbcc4f833	-0.024044132
9	0x3dcaebca	0.099082544
10	0x3da81c18	0.082084835
11	0xbcf43f74	-0.029815413
12	0x3b7e3816	0.0038790754
13	0x3dc246c8	0.09486157
14	0x3d10f04f	0.035385426
15	0x3d1e29c4	0.03861405
16	0x3cd2f204	0.025750168
17	0xbd85497e	-0.06508158
18	0x3bcd9d1b	0.006274832
19	0xbcc89fe2	-0.0244903
20	0x3d968b0c	0.0735074
21	0x3d74c956	0.05976232
22	0x3dd495e9	0.103801556
23	0xbd31c5e2	-0.043401606
24	0x3d59dafc	0.053187355
25	0xbd2d1379	-0.0422549
26	0x3d4fef4b	0.050765317
27	0x3c5d0bb7	0.013491563
28	0xbc9bd899	-0.01902418
29	0x3d7b6d10	0.061383307
30	0x3d196697	0.037451353
31	0x3ca52cd4	0.020162977
32	0x3d7f0468	0.06226006
33	0x3dd3ba9d	0.10338328
34	0xbd0ba173	-0.034089517
35	0x3cf54925	0.029942105
36	0x3d2b0c0f	0.041759547
37	0x3a877d3c	0.0010337005
38	0xbce7ed59	-0.028311418
39	0xbc467901	-0.0121138105
40	0x3d9adfcb	0.07562216
41	0xbd88adf1	-0.06673802
42	0xbd32b6c3	-0.043631326
43	0xbbeb5a3b	-0.007182387
44	0x3cb263df	0.021776138
45	0x3d8ae2ca	0.06781538
46	0xbd304487	-0.043034103
47	0x3bbf08f7	0.005829926
48	0xbc6745c8	-0.014115758
49	0xba9910e6	-0.001167801
50	0x3d4b310c	0.04960732
51	0xbd31d4f5	-0.043415982
52	0x3d8984fb	0.06714817
53	0xbda1d56e	-0.079020366
54	0x3d270cc1	0.040783647
55	0x3d2a608e	0.041595988
56	0x3bd88ccb	0.0066085807
57	0xbc199b5d	-0.00937542
58	0x393be25f	0.0001791804
59	0xbcc83d2d	-0.024443233
60	0xbcc1b0cc	-0.023643874
61	0xbd024a26	-0.031808995
62	0x3da791f4	0.08182135
63	0x3c3e1df7	0.011603824
64	0x3cf08dbc	0.02936446
65	0xbb82ecc9	-0.003995512
66	0x3d4539f0	0.048150957
67	0x3d81b4c7	0.06333309
68	0xbd63a672	-0.055578656
69	0x3d27bb9e	0.04095041
70	0x3e0f880b	0.1401674
71	0x3dc4517c	0.095858544
72	0x3ac68ea8	0.0015148716
73	0x3dc61c73	0.09673395
74	0xbd4a0a47	-0.049326207
75	0x3ca41b85	0.020032654
76	0x3b413531	0.0029481167
77	0xbcf02790	-0.02931574
78	0x3cc52e80	0.024070024
79	0x3b8f6963	0.0043765767
80	0x3daaaf25	0.083341874
81	0xbbb64435	-0.00556233
82	0xbd196af6	-0.03745552
83	0xbb091743	-0.0020918406
84	0xbcf6a58a	-0.030108232
85	0x3db4bafc	0.08824727
86	0x3d9c5e31	0.07635153
87	0xbcfd215d	-0.030899698
88	0x3ba2962d	0.00496175
89	0xbcfe452d	-0.031038845
90	0x3d83c6fa	0.06434436
91	0x3d80b515	0.06284539
92	0xbcecf926	-0.028927397
93	0x3c993439	0.01870166
94	0x3da1d8cf	0.07902681
95	0x3c8cd74f	0.01719251
96	0x3c927d33	0.017881965
97	0x3d9a0bcc	0.07521781
98	0x3d19d685	0.037558097
99	0x3d983c53	0.07433381
100	0x3d31e525	0.04343142
101	0x3cc6d6ee	0.024272408
102	0xbc1b4475	-0.009476771
103	0x3d8b9c54	0.068169266
104	0x3db3aabd	0.087728
105	0xbd698ef7	-0.057021108
106	0xbd5d0863	-0.053963076
107	0xbd17917e	-0.037003987
108	0x3d3eb32e	0.046557598
109	0x3d5fcb04	0.05463697
110	0x3d110bd6	0.03541168
111	0x3cdce042	0.026962403
112	0x3ad4a7ae	0.0016224289
113	0x3dad1a1c	0.084522456
114	0xbc793b0e	-0.015211834
115	0x3d31c160	0.043397307
116	0x3d9e72cc	0.077367395
117	0xbc865aa1	-0.016400637
118	0x3d88b1d8	0.06674546
119	0xbc176587	-0.009240515
120	0x3d66b1c1	0.056321863
121	0xbd685a6c	-0.056726858
122	0x3d88d333	0.06680908
123	0x3d12e77b	0.03586529
124	0x3d1a731a	0.037707426
125	0xbd11463e	-0.03546738
126	0x3dca8de4	0.09890345
127	0xbd48cdb6	-0.049024306
128	0x3bb48471	0.0055089523
129	0x3dd4b4ea	0.10386069
130	0x3d2e4149	0.04254273
131	0x3c8a403a	0.016876329
132	0x3daaab05	0.08333401
133	0xbca43380	-0.020044088
134	0x3d4d6642	0.05014635
135	0x3d4d4c54	0.05012162
136	0x3d860504	0.065439254
137	0x3cd1ba58	0.025601551
138	0x3d9fd390	0.07804024
139	0x3dbcf1a8	0.0922578
140	0x3da54152	0.080690995
141	0xbcaa6ac0	-0.020802855
142	0xbcc93ea3	-0.024566
143	0x3c67a129	0.014137545
144	0x3d89516b	0.06704982
145	0x3bcd0bc4	0.006257506
146	0x3bb00e4d	0.0053727985
147	0x3c368c61	0.011141867
148	0x3d11de33	0.035612296
149	0x3ccdc66b	0.025119027
150	0x3dcabea9	0.09899647
151	0xbcdd9434	-0.027048208
152	0x3d2ad0ca	0.041703023
153	0xbc2db7d6	-0.010602912
154	0x3dda02b0	0.10645044
155	0x3d92e9c6	0.07173495
156	0x3d21e8db	0.03952871
157	0x3d4e1849	0.05031613
158	0x3d3f8ab4	0.046763137
159	0x3d096a44	0.03354861
160	0xbcbab0bc	-0.022789352
161	0x3cbc46aa	0.022982914
162	0x3c13677a	0.008996839
163	0x3d8757ed	0.066085674
164	0xbd5a9520	-0.053364873
165	0x3d56d785	0.05245163
166	0x3da524a2	0.08063628
167	0x3d1679ce	0.036737256
168	0x3d8d9d1f	0.06914734
169	0x3a9a9bf7	0.0011795749
170	0x3d9f33e6	0.07773571

weight f4 [85, 171]
0	0xbda939d7	-0.08262985
1	0x3d6564f3	0.056004476
2	0x3e012d6e	0.12614986
3	0x3e2fc66b	0.17165534
4	0xbc862c87	-0.016378654
5	0x3cc369eb	0.023854217
6	0x3bf89b52	0.007586875
7	0x3cd319af	0.025769083
8	0xba08aff5	-0.0005214208
9	0x3e250514	0.16115218
10	0x3db016e9	0.0859812
11	0x3d315271	0.043291513
12	0xbc2f2445	-0.0106898
13	0xbd59a3c6	-0.053134702
14	0x3bb4e0b8	0.0055199526
15	0x3d5a2300	0.053256035
16	0x3e34444e	0.17604181
17	0x3db2b572	0.08726014
18	0x3de1a718	0.11018199
19	0x3d8fcb25	0.070211686
20	0xbd93771c	-0.07200453
21	0x3d2a4efc	0.04157923
22	0x3de2e7bc	0.11079356
23	0x3e0e554d	0.13899727
24	0xbd873db2	-0.06603564
25	0xbc98249e	-0.018572148
26	0x3b6d2226	0.0036183684
27	0xbd980c73	-0.074242495
28	0x3c900e47	0.017584933
29	0x3db1a307	0.08673673
30	0xba845cc5	-0.0010098448
31	0x3da36d66	0.079798505
32	0xbce09a82	-0.027417425
33	0x3dfd7fe3	0.12377908
34	0x3dac6e4a	0.084194735
35	0x3c67f23c	0.014156874
36	0xbbdb6723	-0.0066956445
37	0xbd689358	-0.056781143
38	0x3d6b11b6	0.057389937
39	0x3dc25893	0.094895504
40	0x3dd28e5a	0.10281058
41	0xbcd1af04	-0.02559615
42	0xbc281431	-0.01025872
43	0x3d429555	0.047505695
44	0x3d4aa3b3	0.049472522
45	0x3dc484d5	0.09595648
46	0x3ccf5cf2	0.025312874
47	0x3ddd445e	0.10804056
48	0x3d96cd92	0.07363428
49	0x3de9d945	0.11418394
50	0xbbb866a9	-0.0056274724
51	0x3b80f11a	0.0039349915
52	0xbbfb8730	-0.0076760277
53	0x3d95f48a	0.07322033
54	0x3ce6362b	0.028102001
55	0xbdc9ec3a	-0.0985951
56	0x3dfbffdf	0.12304663
57	0x3e1ce203	0.15320592
58	0x3c7deec6	0.015498823
59	0x3d66158a	0.056172885
60	0xbd226eeb	-0.03965656
61	0xb8e6f0f1	-0.000110121335
62	0xbaed0c04	-0.0018085246
63	0x3d578eba	0.05262635
64	0xbd6deee0	-0.058089137
65	0x3d1f965b	0.03896175
66	0x3d8cb3b7	0.068702154
67	0xbca1168d	-0.019664073
68	0x3dea1d5c	0.11431381
69	0x3d8d2066	0.06890945
70	0x3e2acb92	0.16679218
71	0x3c4b5236	0.012409737
72	0x3da9f566	0.08298759
73	0xbd51481b	-0.051094156
74	0xbd0e39fc	-0.034723267
75	0xbc97492b	-0.018467506
76	0x3ca77834	0.02044306
77	0x3c552756	0.013009867
78	0x3d9ce26c	0.07660374
79	0x3db81b68	0.08989602
80	0x3e336089	0.17517294
81	0xbc82b9ac	-0.015957676
82	0x3d7a21e9	0.061067495
83	0xbd93cdd8	-0.07216996
84	0xbbc5fc84	-0.006042065
85	0x3e21d785	0.1580487
86	0x3cb8a7f6	0.022541028
87	0x3e054405	0.13014229
88	0x3dd282f5	0.10278884
89	0x3dcb9542	0.09940578
90	0x3d97f471	0.074196704
91	0x3da7d8c8	0.081956446
92	0x3c656a7a	0.014002437
93	0x3dd4025a	0.10352011
94	0x3dd1258a	0.10212238
95	0x3d2411a9	0.040055905
96	0x3d7eabb5	0.06217547
97	0x3dfb4747	0.122694544
98	0xbc45e53b	-0.012078579
99	0xbd96ad81	-0.07357312
100	0x3ddab56e	0.10679136
101	0x3d6d0fde	0.05787646
102	0x3dc607fa	0.0966949
103	0x3dad3d17	0.084589176
104	0x3de76687	0.112988524
105	0x3cb51c3f	0.022108195
106	0xbcf6d7cd	-0.030132199
107	0x3e3de651	0.1854489
108	0x3dacbd6b	0.08434566
109	0x3e488148	0.19580567
110	0x3d210fdf	0.039321776
111	0x3df192e7	0.117955975
112	0x3df4d562	0.11954762
113	0xbce84d70	-0.028357238
114	0x3be0d6ad	0.006861529
115	0x3dbce4ae	0.09223305
116	0x3dff297b	0.12459084
117	0xbb977e0b	-0.00462318
118	0x3d23d9ab	0.040002506
119	0x3d91d337	0.07120364
120	0xbd9032e7	-0.07040959
121	0x3d4987f2	0.049201913
122	0x3ca2268b	0.01979377
123	0x3d4072c3	0.046984445
124	0x3cf07c58	0.029356167
125	0xbca81936	-0.020519834
126	0x3e666606	0.22499856
127	0x3dbc7fdc	0.09204075
128	0x3d84ca18	0.06483859
129	0x3d96c785	0.07362274
130	0xbb5665dc	-0.0032714522
131	0xbc4e8d7a	-0.012606973
132	0x3e1d203f	0.15344332
133	0x3c73374e	0.014844729
134	0xbac8bbf8	-0.0015314808
135	0x3df9ffeb	0.122070156
136	0x3d180912	0.037118025
137	0x3d47c777	0.04877421
138	0xbda98877	-0.08277982
139	0x3d3f2e20	0.046674848
140	0x3ca8ef06	0.020621788
141	0xbc7130ba	-0.01472109
142	0xbbc6bc9c	-0.0060649645
143	0x3df3f778	0.11912435
144	0x3e09f94d	0.13474007
145	0x3c9c29b5	0.019062856
146	0x3d322d32	0.043500133
147	0x3cca9dae	0.02473339
148	0x3d505eda	0.050871707
149	0x3d9163e4	0.07099131
150	0x3e53b40b	0.2067415
151	0x3c32dff0	0.010917649
152	0x3d96480a	0.07337959
153	0xbd806403	-0.06269076
154	0x3d19dc0c	0.03756337
155	0x3d35d309	0.044390712
156	0x3d4c4ab5	0.049875934
157	0x3e2ea736	0.17055973
158	0x3c4eb45c	0.012616243
159	0x3df5ba1d	0.11998389
160	0x3d1f99f4	0.03896518
161	0xbd9b7883	-0.07591345
162	0xba34b1f3	-0.00068929716
163	0x3e28602c	0.16442937
164	0x3e047412	0.12934902
165	0x3dc134c8	0.09433895
166	0x3d18a502	0.03726674
167	0xbbad553c	-0.0052897017
168	0xbc30e88e	-0.010797633
169	0x3e0ca69f	0.13735436
170	0x3d67a283	0.056551468
171	0x3db99fa4	0.09063652
172	0x3d87554c	0.06608066
173	0xbc9d0163	-0.0191657
174	0x3d53e679	0.051733468
175	0x3cfc5fef	0.030807463
176	0xbd8ddd99	-0.06927032
177	0xbcbd6d8d	-0.023123527
178	0xbd3e9cd6	-0.04653629
179	0xbd072611	-0.032995287
180	0xbd3c2947	-0.045937803
181	0xbd935155	-0.07193247
182	0x3d74e995	0.059793074
183	0x3d2c9893	0.042137694
184	0x3de2bf59	0.11071653
185	0xbadf3bb6	-0.0017031345
186	0xbcff7a35	-0.031186203
187	0xbd6e9c15	-0.05825432
188	0xbd8f352b	-0.06992563
189	0xbcd53ebc	-0.02603089
190	0x3d9955d0	0.074870706
191	0x3db538e9	0.088487454
192	0x3cd90816	0.026493113
193	0xbd158aa8	-0.036509186
194	0xbd286aa9	-0.041117344
195	0x3d334659	0.04376826
196	0xbadf4f4b	-0.0017037181
197	0x3db0ea1a	0.08638401
198	0x3d95c93e	0.073137745
199	0x3c45f2c1	0.012081803
200	0x3d1f41e9	0.038881216
201	0xbd051486	-0.032490276
202	0xbd9e3608	-0.077251494
203	0xbc207c63	-0.009795281
204	0x3c77a712	0.015115516
205	0x3ccd2e60	0.025046527
206	0xbd5c61f2	-0.053804345
207	0xbd1378fd	-0.036004055
208	0x3d2ed1c7	0.042680528
209	0xbd264b2a	-0.040599026
210	0xbceabd89	-0.02865483
211	0x3cca1734	0.024669267
212	0xbd7796de	-0.060446613
213	0xbd550323	-0.052004945
214	0x3c631d88	0.013862021
215	0x3d8000c9	0.0625015
216	0xbc8d9916	-0.017284911
217	0x3c8de6d6	0.017321985
218	0x3d7044fd	0.058659542
219	0xbd677232	-0.05650539
220	0xba7482f5	-0.00093273754
221	0x3d67b553	0.05656941
222	0x3c5ccd2f	0.013476654
223	0xbd182360	-0.03714311
224	0x3d8688da	0.06569071
225	0x3d3be39f	0.045871373
226	0x3d15a528	0.03653446
227	0x3d16a177	0.03677508
228	0x3cc14ca9	0.023596125
229	0x3de2b286	0.11069207
230	0xbca31b86	-0.019910585
231	0x3b0647ac	0.0020489497
232	0xbc388681	-0.011262537
233	0x3d8b8b27	0.068136506
234	0x3dd15355	0.102209724
235	0x3d89855b	0.06714889
236	0x3c4ce9ef	0.012506946
237	0x3dab67f2	0.08369435
238	0x3d0272ab	0.031847637
239	0x3c50056f	0.012696608
240	0xbd9aa73a	-0.07551427
241	0x3be5c1cd	0.0070116282
242	0x3cfa60bd	0.030563707
243	0xbd9d8174	-0.07690707
244	0x3c222b0b	0.009897958
245	0x3da9260a	0.082592085
246	0x3d85a700	0.06525993
247	0x3d4bbffd	0.04974364
248	0x3ca27cf0	0.019834965
249	0x3bdd644a	0.00675634
250	0xbc63a144	-0.013893429
251	0x3d218e1b	0.039442163
252	0x3ad1290b	0.0015957666
253	0xbd57a5fc	-0.05264853
254	0x3d34f0ba	0.044174887
255	0xbcd13970	-0.025540084

bias f4 [85]
0	0xbd939208	-0.072055876
1	0x3c6aefca	0.014339397
2	0x3d8dd78d	0.06925879
3	0x3d08a399	0.033359144
4	0xbca3ddc6	-0.02000321
5	0x3d2cbe8b	0.042173903
6	0xbd825ea4	-0.063657075
7	0xbd5ba1d2	-0.05362112
8	0x3c05f0ed	0.008175117
9	0xbd93d6cd	-0.072187044
10	0xbd444028	-0.047912747
11	0xbd8d24d1	-0.06891788
12	0x3bc0fbd5	0.0058893957
13	0x3cdfe9d5	0.02733318
14	0x3d1481b9	0.036256526
15	0x3c7591a9	0.014988341
16	0x3d92fc2b	0.071770035
17	0x3c3b2733	0.01142292
18	0x3d653eca	0.055968083
19	0xbd7ffd48	-0.062497407
20	0x3c85d46d	0.016336644
21	0x3e06ef25	0.13177164
22	0x3d678bb9	0.056529734
23	0x3dac039e	0.083991274
24	0x3d0e97a9	0.034812603
25	0x3ccdedbc	0.025137775
26	0x3c48ecc4	0.012263481
27	0xbd897909	-0.06712539
28	0x3d3e9c59	0.046535823
29	0x3d1ced1b	0.03831206
30	0xbd82b820	-0.06382775
31	0x3dcc513a	0.0997643
32	0xbd3a83fa	-0.04553602
33	0xbd66126b	-0.05616991
34	0x3d70775f	0.05870759
35	0xbd0dad6e	-0.034589224
36	0x3d50ac1f	0.050945397
37	0xbac59670	-0.0015074741
38	0xbd163a20	-0.036676526
39	0x3b176d91	0.0023106078
40	0xbd58a734	-0.052893832
41	0x3c9c6a0c	0.019093536
42	0x3d6ff192	0.05857999
43	0x3dff32a5	0.124608316
44	0x3b026943	0.0019899167
45	0x3df2021f	0.11816811
46	0x3d1b6d90	0.037946284
47	0xbcb156bc	-0.021647803
48	0x3cced46d	0.025247777
49	0x3c97ceba	0.018531192
50	0x3d908213	0.0705606
51	0xbd0f98ac	-0.03505771
52	0xbd7227a8	-0.05911985
53	0xbc36d25f	-0.011158555
54	0xbc98b0b7	-0.018638952
55	0xbd4e9aa6	-0.050440453
56	0x3d4f3d39	0.050595496
57	0xbd55d205	-0.052202243
58	0x3c41aa6d	0.011820418
59	0x3b87288e	0.0041247075
60	0x3b472e0f	0.0030392443
61	0xbb326091	-0.0027218203
62	0x3d37da21	0.04488576
63	0xbb80e5eb	-0.0039336584
64	0xbcab27ca	-0.020892996
65	0xbccc1851	-0.024913939
66	0x3d0a364e	0.033743195
67	0x3bedf4af	0.0072618346
68	0x3dbdf990	0.09276116
69	0xbcf0ad04	-0.029379375
70	0x3cee7f47	0.029113425
71	0x3bcd06fd	0.0062569366
72	0x3da705ff	0.081554405
73	0xbd5fa1cc	-0.05459766
74	0x3e1b6af6	0.15177521
75	0xbcd80236	-0.026368242
76	0xbd9a6b81	-0.07540036
77	0xbd6f1ff1	-0.05838007
78	0xbd794af8	-0.06086251
79	0xbc845c4b	-0.01615729
80	0x3ca6eb9f	0.020376025
81	0xbd51a558	-0.051183075
82	0xbd3109aa	-0.043222107
83	0xbd8f05e3	-0.06983545
84	0xbe1390f5	-0.14410765

weight f4 [21, 85]
0	0x3dd84628	0.10560256
1	0xbd42b90f	-0.047539767
2	0xbdd52e3c	-0.10409209
3	0xbc13a719	-0.009012007
4	0x3e60b396	0.21943507
5	0x3d91ee24	0.071255
6	0x3decd778	0.11564535
7	0x3e4a1612	0.19734982
8	0x3e696924	0.22794014
9	0x3e5c78dd	0.2153048
10	0x3dc6e74a	0.09712084
11	0x3dc9164d	0.09818707
12	0x3e0092a9	0.12555946
13	0x3c0a8b89	0.008456119
14	0x3e2b7610	0.16744256
15	0x3dd9d7c3	0.106368564
16	0xbe1259c1	-0.14292051
17	0xbd06b4e3	-0.03288735
18	0xbbd74a3f	-0.00657013
19	0x3c902061	0.017593564
20	0x3dc66b4d	0.09688435
21	0xbc8fe39e	-0.017564591
22	0xbd233652	-0.039846726
23	0x3dc5dc18	0.0966112
24	0xbc967ee6	-0.018371057
25	0x3dfb5bd6	0.12273376
26	0x3c18b034	0.009319354
27	0x3e035e5c	0.12828964
28	0xbd437be9	-0.04772559
29	0x3e1d9272	0.15387896
30	0x3daedb23	0.08537891
31	0x3d4beb8b	0.04978518
32	0x3df206ec	0.118177265
33	0x3e68ca77	0.22733484
34	0x3d3a9c22	0.045559056
35	0x3e0c57d6	0.13705382
36	0x3cdf7962	0.02727956
37	0x3e63062a	0.2217032
38	0xbd842d27	-0.064539246
39	0x3c3689a2	0.011141213
40	0x3dec4bfe	0.11537932
41	0x3d8f758d	0.07004843
42	0x3ded8fb8	0.11599678
43	0xbd91a814	-0.071121365
44	0xbe11631e	-0.14197966
45	0x3cca9a0f	0.024731664
46	0x3d7f91f6	0.06239506
47	0x3e280904	0.16409689
48	0x3e157690	0.14596009
49	0x3e234929	0.15945877
50	0xbe18e620	-0.14931536
51	0x3d0b626d	0.034029413
52	0x3e3c2771	0.1837442
53	0xbba6e6b5	-0.0050934204
54	0x3dad4981	0.084612854
55	0x3e43331f	0.1906247
56	0x3e3efbca	0.18650737
57	0x3dfdeabc	0.12398288
58	0x3e0ef939	0.13962258
59	0x3dd48883	0.103776
60	0x3e1e51ed	0.1546094
61	0x3da252fa	0.07925983
62	0x3dc9c812	0.098526135
63	0x3de82d62	0.11336781
64	0x3e523f41	0.20531942
65	0x3e14dcbc	0.14537328
66	0xbd3e6d66	-0.04649105
67	0x3e2171f8	0.15766132
68	0xbdd4a7ab	-0.103835426
69	0x3d9eb6c6	0.07749705
70	0xbd2f3ca2	-0.042782433
71	0x3d9fe41f	0.078071825
72	0xbd8e93b8	-0.06961769
73	0x3e07fe96	0.1328071
74	0x3b06d655	0.002057453
75	0x3dbb6db9	0.09151787
76	0x3cdd1c19	0.026990937
77	0x3ad84e14	0.0016502761
78	0x3e0b7469	0.13618626
79	0xbc49a4c6	-0.012307351
80	0xbdfd5a46	-0.12370734
81	0x3e5b165d	0.2139525
82	0x3e3440dd	0.17602868
83	0x3d3f2c29	0.046672974
84	0xbd8ca448	-0.06867272
85	0xbd845350	-0.06461203
86	0x3d9ed0b5	0.077546515
87	0x3cd4a3cb	0.025957009
88	0x3d4703ee	0.048587732
89	0x3d80f6de	0.06297086
90	0xbdc1f540	-0.09470606
91	0x3dcdc785	0.10047821
92	0x3d9243e5	0.07141856
93	0x3dd03353	0.10166039
94	0x3db1de86	0.08685021
95	0xba7176a7	-0.0009211101
96	0xbd14b95f	-0.036309596
97	0xbd83e7d1	-0.064407
98	0xbb819b20	-0.00395526
99	0xbc4f8acd	-0.01266737
100	0x3d8eef93	0.06979289
101	0x3d09fe37	0.033689704
102	0xbd302f92	-0.043014117
103	0xbdc62cf3	-0.09676542
104	0x3cb3222c	0.02186688
105	0x3da49386	0.0803595
106	0x3d5e8bff	0.05433273
107	0x3d856347	0.06513076
108	0xbdc84c01	-0.097801216
109	0x3da0ce0a	0.07851799
110	0x3b7f7b42	0.003898338
111	0xbd8c1a96	-0.06841008
112	0x3c291fad	0.0103224935
113	0x3d2cd982	0.04219962
114	0x3db88bd9	0.09011049
115	0x3c1fedd2	0.009761291
116	0x3dba65a2	0.09101416
117	0xbd70652a	-0.058690228
118	0x3db3c685	0.08778099
119	0xbda92edd	-0.082608916
120	0x3d524538	0.051335543
121	0x3b469fdc	0.0030307686
122	0x3d2fb963	0.042901408
123	0xbda19c73	-0.078911684
124	0x3d3811b3	0.044938754
125	0x3de07564	0.109598905
126	0xbc811478	-0.01575683
127	0xbd88290a	-0.066484526
128	0xbd8a6754	-0.067579895
129	0xbd7ac723	-0.061225068
130	0xbd816675	-0.0631837
131	0x3db58e19	0.088649936
132	0x3dedaa69	0.11604769
133	0x3d274752	0.0408395
134	0x3d994ad9	0.07484979
135	0xbcdc61b3	-0.026902055
136	0xbd56c45c	-0.052433357
137	0x3c4ff68b	0.012693058
138	0xbd0a15db	-0.03371225
139	0xbce5bcd0	-0.028044134
140	0xbd94d290	-0.07266724
141	0x3daf9f37	0.0857529
142	0x3c57224d	0.013130737
143	0xbd3662ff	-0.044528004
144	0xbd32ce76	-0.043653928
145	0xbdab6026	-0.08367948
146	0x3d540a4e	0.05176764
147	0xbd885371	-0.0665654
148	0xb9fe475c	-0.00048499822
149	0x3d2d8d7c	0.04237126
150	0x3db7c894	0.08973804
151	0x3cfaf64a	0.030635018
152	0xbd420fd6	-0.047378384
153	0xbdaf0a11	-0.08546842
154	0xbd3f7ee9	-0.04675189
155	0xbdbfdff8	-0.093688905
156	0x3ba99849	0.0051756245
157	0x3c59e93a	0.013300234
158	0x3cd5709c	0.026054673
159	0xbcc5c09c	-0.024139695
160	0xbaa700d2	-0.0012741333
161	0x3d4d8c20	0.05018246
162	0xbc3803a1	-0.011231334
163	0x3da33d2a	0.079706505
164	0x3db72790	0.08943093
165	0xbd6522e8	-0.055941492
166	0x3d7878ed	0.0606622
167	0x3dc1ebf2	0.09468831
168	0xbd76a6da	-0.060217716
169	0xbd1b5790	-0.037925303
170	0x3e68c5cc	0.22731704
171	0xbd3c5720	-0.045981526
172	0x3d06e2b4	0.032931045
173	0xbcda0253	-0.026612436
174	0x3e83a610	0.25712633
175	0x3e79365a	0.2433714
176	0x3e41ac52	0.18913391
177	0x3e76d9da	0.24106541
178	0x3ea5b4d4	0.32364523
179	0x3e4acba3	0.19804244
180	0x3e48efcd	0.19622727
181	0x3da0b3f4	0.07846823
182	0x3e8c5a8d	0.27412835
183	0x3e34109f	0.17584465
184	0x3e05e750	0.1307652
185	0x3e65cd5e	0.22441623
186	0xbdb29624	-0.08720043
187	0xbd9b151a	-0.07572384
188	0x3e0e191d	0.13876767
189	0x3ea5bc3b	0.3237017
190	0x3e93abf7	0.28842136
191	0xbe0c0c76	-0.13676628
192	0xbdb754d5	-0.08951727
193	0x3da0f474	0.07859126
194	0xbd62c4c7	-0.055363443
195	0x3e70386e	0.23459026
196	0x3e484dae	0.19560882
197	0x3e1bb87d	0.15207095
198	0xbbd66837	-0.006543185
199	0x3e0e1721	0.1387601
200	0x3e8dcead	0.27696744
201	0xbd2affb7	-0.041747775
202	0x3e00c9f1	0.12577035
203	0x3e2bcb2d	0.16776724
204	0xbd576cba	-0.052593924
205	0x3e5079e9	0.20359005
206	0xbc81a51c	-0.0158258
207	0x3e283f58	0.16430414
208	0x3cf09297	0.029366774
209	0xbdd0312d	-0.101656295
210	0x3e9331f9	0.28749064
211	0x3e8ae877	0.27130482
212	0x3e275179	0.16339673
213	0xbd45794c	-0.04821138
214	0xbdf5b955	-0.1199824
215	0xbc5c0f49	-0.013431379
216	0x3dceb6e5	0.10093478
217	0x3e68d194	0.22736198
218	0x3e20ab3b	0.15690319
219	0x3e0c65af	0.13710664
220	0xbdddc90c	-0.10829362
221	0xbda330a7	-0.07968264
222	0x3de6d365	0.11270789
223	0x3e7798d5	0.24179395
224	0x3e852d38	0.26011062
225	0x3e58572a	0.21127
226	0x3e21b92b	0.15793292
227	0x3e93f6e0	0.28899288
228	0x3e6056fa	0.21908179
229	0x3e886d84	0.26646054
230	0x3e5eace9	0.21745647
231	0x3ea957e5	0.3307487
232	0x3e7c36ec	0.24630326
233	0x3e3dd4e9	0.1853825
234	0x3e182505	0.14857872
235	0x3d20c49b	0.039249998
236	0xbdb12c12	-0.08650984
237	0x3e4ed0f4	0.20196897
238	0x3d7f50fd	0.062333096
239	0x3e9e2566	0.30887908
240	0x3d8d2766	0.0689228
241	0x3e17534a	0.14777866
242	0xbd62db7f	-0.05538511
243	0x3e97d456	0.29654187
244	0xbc52a4b5	-0.012856652
245	0x3e4d8ae5	0.20072515
246	0x3e861252	0.26185852
247	0x3e943b26	0.28951377
248	0x3e413b74	0.18870336
249	0x3e97e149	0.29664066
250	0xbd75669c	-0.05991231
251	0x3e934657	0.28764603
252	0x3ea7426a	0.32667857
253	0x3eb014f5	0.3439099
254	0xbd8d9897	-0.0691387
255	0x3d5329a8	0.0515534

bias f4 [21]
0	0x3c81e82a	0.015857775
1	0xbd88b300	-0.066747665
2	0xbd9cc6bd	-0.07655094
3	0x3e409275	0.18805869
4	0x3e2404c2	0.1601744
5	0x3d766c30	0.06016177
6	0xbd39c5c2	-0.045354612
7	0xbc5556c5	-0.013021176
8	0x3c91d655	0.017802397
9	0x3daa97c7	0.083297305
10	0xbd5c310f	-0.053757723
11	0x3da5a553	0.08088174
12	0x3dcff3fc	0.10153958
13	0x3ddfbf37	0.10925143
14	0x3a2aaa3e	0.00065103534
15	0xbb102cf5	-0.0021999453
16	0xbc8631f0	-0.016381234
17	0xbda0b556	-0.07847087
18	0x3e2a8a3f	0.16654299
19	0x3cfad3c0	0.030618548
20	0xbba84ec9	-0.005136345

weight f4 [2, 21]
0	0xbed2a144	-0.4113866
1	0xbd4108ae	-0.04712742
2	0xbf09a8a4	-0.5377295
3	0x3e6d57ec	0.23178071
4	0x3e916062	0.28393847
5	0x3e599f68	0.21252215
6	0xbec0263a	-0.37529165
7	0xbf02551c	-0.50911117
8	0xbf1a0c9d	-0.60175496
9	0x3e93082d	0.28717175
10	0xbf4cfa3d	-0.80069333
11	0x3e795921	0.24350406
12	0x3e48958c	0.19588298
13	0x3e964121	0.29346564
14	0x3df5821b	0.11987706
15	0xbf343bb2	-0.7040359
16	0x3e1fe16b	0.15613334
17	0xbf13b2b5	-0.5769456
18	0x3e8ef084	0.27917874
19	0xbf166f91	-0.58763987
20	0xbf21b3bd	-0.63164884
21	0x3e6d980c	0.23202533
22	0x3e90f066	0.2830841
23	0x3dfa2208	0.12213522
24	0xbdb6e432	-0.089302436
25	0xbdc906ed	-0.09815774
26	0xbd6f40a3	-0.05841125
27	0xbdda1eb1	-0.10650385
28	0x3dafa23f	0.08575868
29	0x3e09767a	0.13424101
30	0xbd9980ce	-0.07495271
31	0x3e42b0ab	0.19012706
32	0xbdbe5684	-0.09293845
33	0xbe6e3b3f	-0.23264788
34	0xbddfd9e7	-0.109302334
35	0xbe760bcc	-0.24027938
36	0x3d009bc9	0.03139857
37	0xbe376f6e	-0.17913601
38	0x3dfaa403	0.12238314
39	0xbce535ea	-0.02797981
40	0x3db3c71c	0.087782115
41	0x3e1711a5	0.14752825

bias f4 [2]
0	0x3e8a36e5	0.26995006
1	0xbe2629e8	-0.16226923
