Network2/params/mlp_nwParams0820190713.pth (torch_old, 25430 bytes, 8 tensors)

weight f4 [42, 42]
0.026906813 0.11298478 0.12607124 -0.039789267 0.12078275 0.0099408915 -0.023253014 -0.0020552485
0.15131478 0.030644031 0.03184769 0.10439946 -0.0799574 0.043118723 -0.08156869 -0.20156315
-0.24888736 -0.24550466 -0.030147389 0.08422241 0.06411636 0.021178812 -0.019681487 -0.12314824
0.04349359 -0.015242532 -0.08119396 -0.05405493 -0.10968541 0.08886372 0.11606334 0.042125653
0.13847895 0.0034673293 -0.14980799 -0.12087668 0.1510564 -0.20276928 0.04742417 -0.022678908
0.13913143 -0.056889433 0.010989583 -0.15050033 0.0245624 0.01422805 -0.13636452 0.050064433
0.07642713 -0.054813337 -0.062341932 0.106172025 -0.029408092 0.011774006 -0.10596182 0.03086126
-0.054980785 0.011777545 -0.20355144 -0.2553453 0.05861184 0.0662114 -0.2361704 0.12104709
0.015019916 -0.19554605 -0.15596347 0.036361042 -0.104858525 -0.19376847 -0.090243675 0.16513926
0.095792435 -0.111937426 0.057472374 0.097653165 -0.05360705 0.031182496 -0.05520774 -0.24898721
-0.15862776 -0.0849003 -0.047749814 0.0013404981 0.49228823 0.26251897 0.094977625 0.38257143
0.18432114 0.48188585 0.33733273 0.448084 0.567277 0.19762383 0.35270563 0.18309572
0.08908071 0.36926404 0.5714468 0.59920186 0.700729 0.9117112 0.15207535 0.23282777
0.5158925 0.31279916 0.20751195 0.45306215 0.25588822 0.22609602 0.40659183 0.26734355
0.11793939 0.056333404 0.04051404 0.21888565 0.30682197 0.16918296 0.33904135 0.43537316
-0.103864245 0.3172752 0.18168722 0.0409636 0.05081211 0.41384858 -0.114064 0.036127128
-0.16611111 0.09973057 -0.02874068 -0.03566717 -0.027954008 0.05335415 -0.122726224 -0.0994753
-0.14176112 -0.079634294 -0.05498672 -0.17962997 -0.099418655 -0.31400546 -0.23752877 -0.23839259
-0.12945671 -0.025605915 -0.12096702 0.13709608 0.062149458 -0.04901624 -0.17664938 0.023346646
-0.2024653 -0.03712833 -0.024472494 -0.04304378 0.09426389 -0.12846167 0.041703887 -0.18599965
0.04574383 -0.15943925 -0.0041414206 -0.080166526 0.018378954 -0.11897227 0.018738026 0.06819482
0.45802203 0.22735325 0.18813126 0.24161416 0.29060963 0.665291 0.4369546 0.5931655
0.8192538 0.37443715 0.50907075 0.36460522 0.19925466 0.49377808 0.8451813 0.7323738
0.86197567 0.89273274 0.3307955 0.34420696 0.48077706 0.12763166 0.27811098 0.54529905
0.23625927 0.53390306 0.5012327 0.17143504 0.38954625 0.38919273 0.3194731 0.17239308
0.48706648 0.42037496 0.4027901 0.7232678 0.057696655 0.32504833 0.33372852 0.27780575
0.20879322 0.37215477 0.29965183 0.22229263 0.09803564 0.03293092 0.012678209 0.4712816
0.4485635 0.3755058 0.49408582 0.12028857 0.31745437 0.14708091 0.18474394 0.18264136
0.43285432 0.32389817 0.3383893 0.62973464 0.10864907 0.11436843 0.10284783 0.06753544
0.19725904 0.22982621 0.36118722 0.30283833 0.3465581 -0.10080772 0.07921807 0.07970676
-0.08788861 0.092227265 0.41002384 0.06804342 0.25009292 0.51004016 0.088479064 0.033006717
0.08282206 -0.005102768 0.17711009 0.06438638 0.42736888 0.35704926 0.22208817 0.3731108
00000000: ad6b dc3c 9064 e73d d218 013e 12fa 22bd
00000010: f25c f73d 1fdf 223c 1b7d bebc 59b1 06bb
00000020: 43f2 1a3e 3109 fb3c b972 023d 62cf d53d
00000030: b5c0 a3bd 429d 303d 7c0d a7bd 9266 4ebe
00000040: 54dc 7ebe 9365 7bbe a8f7 f6bc cd7c ac3d
00000050: 704f 833d 307f ad3c 123b a1bc 2535 fcbd
00000060: 5626 323d d0bb 79bc 0549 a6bd b468 5dbd
00000070: bfa2 e0bd 2ffe b53d 9eb2 ed3d f38b 2c3d
00000080: 6dcd 0d3e 223c 633b 4467 19be 318e f7bd
00000090: 87ae 1a3e c0a2 4fbe d93f 423d 1ec9 b9bc
000000a0: 7878 0e3e e504 69bd a70d 343c c21c 1abe
000000b0: 1637 c93c c41c 693c 24a3 0bbe 5d10 4d3d
000000c0: d485 9c3d f383 60bd 415a 7fbd b870 d93d
000000d0: 3de9 f0bc c3e7 403c 8302 d9bd c1d0 fc3c
000000e0: 8833 61bd 9bf6 403c ca6f 50be 9fbc 82be
000000f0: f812 703d d899 873d a7d6 71be 89e7 f73d
00000100: 1816 763c 393d 48be e3b4 1fbe 51ef 143d
00000110: 11c0 d6bd 3e6b 46be add1 b8bd 441a 293e
00000120: d32e c43d 733f e5bd 2768 6b3d 62fe c73d
00000130: 1193 5bbd 6f72 ff3c 8321 62bd 81f6 7ebe
00000140: 516f 22be 35e0 adbd 4f95 43bd a7b3 af3a
00000150: 340d fc3e e368 863e a183 c23d 67e0 c33e
00000160: aebe 3c3e beb9 f63e e0b6 ac3e 446b e53e
00000170: 1139 113f e75d 4a3e d595 b43e 727d 3b3e
00000180: f36f b63d 2d10 bd3e 564a 123f 4b65 193f
00000190: fa62 333f e865 693f a4b9 1b3e 676a 6e3e
000001a0: 8811 043f 3627 a03e 037e 543e c3f7 e73e
000001b0: c803 833e b785 673e ce2c d03e 41e1 883e
000001c0: 358a f13d dbbd 663d 0df2 253d 8f23 603e
000001d0: c517 9d3e 4c3e 2d3e d496 ad3e 3be9 de3e
000001e0: c7b6 d4bd e571 a23e 370c 3a3e 73c9 273d
000001f0: 5c20 503d f6e3 d33e 639a e9bd 0afa 133d
00000200: 0819 2abe 8b3f cc3d 9371 ebbc bd17 12bd
00000210: ceff e4bc e289 5a3d e357 fbbd b5b9 cbbd
00000220: d429 11be 4e17 a3bd c139 61bd ebf0 37be
00000230: 029c cbbd 53c5 a0be be3a 73be 301d 74be
00000240: 4d90 04be 7fc3 d1bc 8fbd f7bd ea62 0c3e
00000250: 6e90 7e3d 41c5 48bd 93e3 34be 7741 bf3c
00000260: 1053 4fbe e013 18bd 8a7a c8bc ad4e 30bd
00000270: 6d0d c13d 758b 03be b2d1 2a3d b176 3ebe
00000280: e25d 3b3d 0b44 23be c1b4 87bb 592e a4bd
00000290: 768f 963c bca7 f3bd 7d80 993c baa9 8b3d
000002a0: dd81 ea3e 4acf 683e 7ba5 403e b469 773e
000002b0: c9ca 943e 8350 2a3f 83b8 df3e b2d9 173f
000002c0: 9eba 513f 3ab6 bf3e 7652 023f 89ad ba3e
000002d0: 6a09 4c3e 7bd0 fc3e cd5d 583f d97c 3b3f
000002e0: 70aa 5c3f 228a 643f 075e a93e e53b b03e
000002f0: 6928 f63e e0b1 023e 9064 8e3e b898 0b3f
00000300: f3ed 713e dfad 083f c950 003f ab8c 2f3e
00000310: 9b72 c73e 4544 c73e fa91 a33e d087 303e
00000320: c760 f93e 633b d73e 813a ce3e 1428 393f
00000330: 5453 6c3d bc6c a63e 77de aa3e 8e3c 8e3e
00000340: e4cd 553e 128b be3e f76b 993e aea0 633e
00000350: e9c6 c83d 93e2 063d 43b8 4f3c d24b f13e
00000360: 1daa e53e 4c42 c03e d1f8 fc3e db59 f63d
00000370: 6189 a23e 619c 163e 842d 3d3e 5606 3b3e
00000380: 159f dd3e fbd5 a53e 5d41 ad3e 4a36 213f
00000390: 6783 de3d ff39 ea3d e2a1 d23d 0550 8a3d
000003a0: 46fe 493e 9057 6b3e 88ed b83e a00d 9b3e
000003b0: 1070 b13e 4774 cebd 153d a23d 4c3d a33d
000003c0: f2fe b3bd a6e1 bc3d a5ee d13e 595a 8b3d
000003d0: 2e0c 803e fe91 023f 8334 b53d 0d32 073d
000003e0: 9d9e a93d 1f35 a7bb 595c 353e 02dd 833d
000003f0: 18d0 da3e 29cf b63e 156b 633e 6108 bf3e

bias f4 [42]
0.15191934 0.0013688303 0.12688282 -0.038950454 0.29010373 0.020077804 0.11706678 0.28333014
0.086591095 0.21884808 -0.025393799 0.068722606 0.31463444 0.01856606 0.087440744 0.1729107
-0.12439601 0.12778892 0.12857027 0.34199312 -0.09481753 0.14158206 0.08231953 0.33938026
0.08380242 -0.273419 0.056348413 0.48451355 0.38909224 0.06688436 0.29446036 0.033531163
0.08826729 0.09208837 0.2757721 -0.3536202 0.11451346 -0.15528123 -0.019031042 0.32855895
0.16270854 0.25592574
00000000: be90 1b3e 536a b33a 92ed 013e 838a 1fbd
00000010: 7a88 943e 357a a43c b5c0 ef3d a610 913e
00000020: ac56 b13d b619 603e a806 d0bc 70be 8c3d
00000030: c417 a13e da17 983c 2214 b33d 810f 313e
00000040: 56c3 febd 19db 023e eda7 033e b919 af3e
00000050: b12f c2bd e3fa 103e 2497 a83d 40c3 ad3e
00000060: 9aa0 ab3d 93fd 8bbe 98cd 663d 2912 f83e
00000070: 1937 c73e abfa 883d 82c3 963e f957 093d
00000080: 7bc5 b43d d498 bc3d 0032 8d3e b50d b5be
00000090: 0886 ea3d 0b02 1fbe fde6 9bbc e138 a83e
000000a0: 119d 263e b308 833e

weight f4 [21, 42]
-0.19694528 0.02603508 0.464741 -0.15539227 0.70267034 0.42697033 0.5075924 0.6470927
0.46431518 0.61616933 0.4549131 0.4417512 0.5471165 -0.09975947 0.3277398 0.62265635
-0.016544508 -0.19973285 0.52572817 0.30409124 -0.21545568 -0.20336132 0.19772245 0.75195736
0.19734098 -0.53444934 -0.095354415 0.74757785 0.4009481 0.435032 0.55234975 -0.37442717
0.43340915 0.36083296 0.38985527 -0.36689603 0.45283753 -0.4699247 -0.1958401 0.5404802
0.42094195 0.42900646 0.028819857 -0.14151448 0.37977275 -0.073636204 0.5936334 0.1221233
0.4178226 0.3030734 0.4220969 0.49084437 0.41845727 0.56459355 0.3088283 -0.12100819
0.20505443 0.65510756 -0.2761102 -0.040499855 0.1877869 0.33876356 -0.14641248 -0.009834002
0.17061397 0.7128071 -0.12245985 -0.3722029 -0.23681201 0.66569054 0.46553934 0.46332967
0.45589146 -0.42314515 0.38925982 0.3005001 0.4357817 -0.29233488 0.44932732 -0.47840708
-0.023207264 0.5624998 0.49558246 0.52393824 -0.117322445 -0.07003844 0.3631588 -0.1299081
0.5227474 0.2239531 0.5155192 0.28707793 0.12556753 0.49780694 0.11833486 0.4113729
0.45206222 0.03771333 0.42557025 0.49971193 -0.3017666 -0.031761423 0.24482818 0.43090454
-0.22702163 -0.012579403 0.05948544 0.4554673 0.18410692 -0.4079364 0.07681402 0.6413455
0.41268355 0.25451553 0.56182235 -0.34698963 0.24218768 0.20328864 0.32976162 -0.28408733
0.3520178 -0.2915495 -0.11882454 0.46549025 0.2078193 0.29176894 0.0013789854 0.13550562
0.39541385 -0.1639331 0.49161828 0.31092834 0.39702344 0.3908801 0.28389236 0.34786844
0.32048836 0.46290755 0.4161568 -0.26239365 0.20773731 0.7530278 -0.020914327 0.06312908
0.24734868 0.24713634 -0.33639488 -0.048588667 0.03856735 0.7709942 -0.046964437 -0.4612073
-0.06755379 0.5338963 0.307537 0.3519619 0.36001936 -0.19103885 0.43738636 0.15007856
0.34485626 -0.30836028 0.35544026 -0.41439748 -0.063498005 0.44452754 0.28960067 0.34565178
0.109238915 -0.0065712123 -0.18026868 0.03246829 -0.08109008 -0.11343281 -0.15395933 -0.204039
-0.20107993 -0.3295595 -0.17806801 -0.20668057 -0.11300347 -0.045560583 -0.24200216 -0.07302877
-0.026590256 -0.005980912 -0.081096575 -0.022245271 0.1185097 0.07484338 0.0019506675 -0.2348428
0.15327649 0.23649918 -0.17848857 -0.17129906 -0.15216704 0.033207316 0.027268318 -0.09053154
-0.2828196 0.032438096 -0.06975719 0.05022485 -0.3198691 0.10623056 0.07644613 -0.20392263
-0.14409043 -0.13687368 -0.062253732 -0.1883538 0.10098878 -0.14488396 0.31821176 0.16127224
0.28472808 0.15638931 0.290937 0.38729173 0.28615808 0.2527396 0.39033437 0.14687777
0.44307023 0.29487154 -0.07073632 -0.12757772 0.20050232 0.1740036 -0.3270065 0.087451614
0.25365293 0.5564175 -0.008436691 -0.29851106 -0.022850655 0.14186376 0.34825015 0.30077586
0.37464306 -0.17170368 0.14092132 0.17467093 0.28067824 -0.19682105 0.36154258 -0.18909435
0.07723702 0.45232514 0.20979 0.39291406 -0.009792648 -0.07177062 0.47849876 0.08479414
00000000: 06ac 49be 8547 d53c 88f2 ed3e 271f 1fbe
00000010: 34e2 333f db9b da3e 93f1 013f dea7 253f
00000020: b8ba ed3e 46bd 1d3f 5fea e83e 372d e23e
00000030: d40f 0c3f b14e ccbd 83cd a73e 6866 1f3f
00000040: 5988 87bc c586 4cbe 1f96 063f d9b1 9b3e
00000050: 6aa0 5cbe f33d 50be c177 4a3e 4780 403f
00000060: c113 4a3e acd1 08bf 2d49 c3bd 4361 3f3f
00000070: 1249 cd3e 84bc de3e cb66 0d3f ebb4 bfbe
00000080: cee7 dd3e 19bf b83e 1c9b c73e ccd9 bbbe
00000090: 52da e73e f899 f0be 4f8a 48be e95c 0a3f
000000a0: b485 d73e bca6 db3e 9f17 ec3c 2ce9 10be
000000b0: 9371 c23e 94ce 96bd 5cf8 173f c81b fa3d
000000c0: d8ec d53e 702c 9b3e 161d d83e f44f fb3e
000000d0: 0840 d63e 3489 103f be1e 9e3e 24d3 f7bd
000000e0: caf9 513e 21b5 273f 515e 8dbe 2de3 25bd
000000f0: 364b 403e 6b72 ad3e 27ed 15be cb1e 21bc
00000100: 6eb5 2e3e 877a 363f 3bcc fabd 6191 bebe
00000110: d97e 72be b26a 2a3f 2c5b ee3e 8c39 ed3e
00000120: 9b6a e93e 7ba6 d8be 104d c73e 26db 993e
00000130: c71e df3e ebac 95be 3b0e e63e c6f1 f4be
00000140: 291d bebc fdff 0f3f fcbc fd3e d120 063f
00000150: c046 f0bd 5070 8fbd f3ef b93e a106 05be
00000160: c6d2 053f f653 653e 11f9 033f e1fb 923e
00000170: c694 003e 8de0 fe3e 8c59 f23d 789f d23e
00000180: b374 e73e 4b79 1a3d 58e4 d93e 3eda ff3e
00000190: 2781 9abe 4418 02bd 3db4 7a3e 859f dc3e
000001a0: 5c78 68be d719 4ebc 01a7 733d 0333 e93e
000001b0: 8686 3c3e 0add d0be ab50 9d3d 382f 243f
000001c0: 424b d33e dc4f 823e 97d3 0f3f a0a8 b1be
000001d0: 0c00 783e e62a 503e 84d6 a83e e573 91be
000001e0: ad3b b43e fa45 95be 485a f3bd bd54 ee3e
000001f0: 95ce 543e bd62 953e 12bf b43a fcc1 0a3e
00000200: af73 ca3e 14de 27be 64b5 fb3e 0032 9f3e
00000210: a846 cb3e 7021 c83e 575a 913e d01b b23e
00000220: 0d17 a43e 3802 ed3e 8112 d53e 7658 86be
00000230: 17b9 543e 6ec6 403f 8654 abbc d249 813d
00000240: f948 7d3e 4f11 7d3e f33b acbe e904 47bd
00000250: ccf8 1d3d e05f 453f c85d 40bd 5d23 ecbe
00000260: a459 8abd 6ead 083f 7d75 9d3e 5a34 b43e
00000270: 7554 b83e b09f 43be 1bf1 df3e 32ae 193e
00000280: 0091 b03e 66e1 9dbe 44fc b53e e82b d4be
00000290: 3e0b 82bd 1d99 e33e 8a46 943e 45f9 b03e
000002a0: a7b8 df3d 5353 d7bb 5a98 38be 78fd 043d
000002b0: 8e12 a6bd 764f e8bd 84a7 1dbe 9aef 50be
000002c0: e6e7 4dbe 06bc a8be 7657 36be 12a4 53be
000002d0: 5d6e e7bd bc9d 3abd 6acf 77be 1c90 95bd
000002e0: cfd3 d9bc 87fb c3bb f615 a6bd b73b b6bc
000002f0: 37b5 f23d 7c47 993d 8aad ff3a a27a 70be
00000300: 83f4 1c3e d72c 723e b5c5 36be 0569 2fbe
00000310: add1 1bbe 6504 083d cf61 df3c 9a68 b9bd
00000320: bbcd 90be cfdd 043d dcdc 8ebd 93b8 4d3d
00000330: e2c5 a3be 688f d93d ca8f 9c3d 18d1 50be
00000340: 718c 13be 9d28 0cbe c5fd 7ebd d2df 40be
00000350: 35d3 ce3d 765c 14be a7ec a23e 8d24 253e
00000360: e1c7 913e 8524 203e b2f5 943e 1a4b c63e
00000370: 5083 923e 1667 813e e8d9 c73e 2067 163e
00000380: 1ada e23e 67f9 963e 34de 90bd bca3 02be
00000390: 7b50 4d3e 002e 323e 656d a7be d519 b33d
000003a0: ccde 813e 6171 0e3f 0c3a 0abc 71d6 98be
000003b0: 4c31 bbbc bc44 113e d84d b23e 4bff 993e
000003c0: 37d1 bf3e 17d3 2fbe ae4d 103e f0dc 323e
000003d0: 0fb5 8f3e 758b 49be 1c1c b93e f3a1 41be
000003e0: 712e 9e3d 2997 e73e 31d3 563e 082c c93e
000003f0: 5871 20bc 7afc 92bd cafd f43e 8da8 ad3d

bias f4 [21]
0.08924714 0.12241299 0.25365728 0.13053185 -0.08285623 0.091309756 0.027359085 0.14798588
0.2193114 0.0036451735 0.30654252 0.11421992 -0.013011543 0.08273136 -0.0019413918 0.09082791
0.08738209 0.11888888 0.12668486 0.07575114 0.1186226
00000000: 34c7 b63d a9b3 fa3d 5edf 813e 24aa 053e
00000010: 87b0 a9bd 9c00 bb3d 2920 e03c 9c89 173e
00000020: 2b93 603e dde3 6e3b 24f3 9c3e 22ec e93d
00000030: 5e2e 55bc 0f6f a93d 4d76 feba fc03 ba3d
00000040: 62f5 b23d 037c f33d adb9 013e 6a23 9b3d
00000050: 68f0 f23d

weight f4 [6, 21]
0.36241335 0.32973397 0.1763047 0.19786431 -0.09152019 0.25936663 0.3796743 0.19498567
0.11922531 0.2345238 0.31639996 0.3077845 -0.2709016 -0.19816215 0.44941753 0.16455424
0.36054406 0.15799995 0.079390824 0.29926255 0.22952533 0.3518985 0.4172927 0.38394952
0.60525316 -0.12793167 -0.00018739121 0.40092826 0.5179637 0.6201531 0.21151847 0.30808118
0.07770165 -0.06826856 -0.119648375 0.24465294 0.28880593 0.008679205 0.5767617 0.44782153
-0.12364257 0.44795138 -0.36702257 -0.67223716 -0.3067542 -0.45000407 0.25044423 -0.594492
-0.581478 -0.35963243 -0.40953964 -0.38496992 -0.33845815 -0.5307021 0.078578874 0.2772166
-0.39237675 -0.40769565 -0.30495927 -0.5098522 -0.08548619 -0.2198369 -0.23968327 0.46497443
0.2832522 0.46846846 0.38965827 -0.025240991 -0.0451005 0.50661814 0.22817829 0.33890885
0.3440212 0.28072524 0.12540531 0.11133502 0.08807507 0.31702742 0.359732 0.27275273
0.62484556 0.4839395 0.16638573 0.19513802 0.5285544 0.4082558 0.5978025 0.41589785
-0.080865845 0.08585014 0.37964812 0.7030323 0.34170964 0.4919167 0.34888 0.23035526
0.022216555 -0.1974256 0.3650983 0.5387932 0.31419176 0.2764976 0.2513906 -0.05229054
0.6005289 0.38294122 0.3698207 0.15358633 0.4487715 -0.34524316 0.44092944 0.47620633
0.34561303 0.44685894 0.12475449 0.30676398 0.10624121 -0.07455541 -0.22015898 0.54103357
0.29221457 0.47386083 0.360649 0.21306686 0.32205424 0.38634577
00000000: 3e8e b93e e4d2 a83e 3889 343e f19c 4a3e
00000010: f06e bbbd b4cb 843e ab64 c23e 53aa 473e
00000020: 662c f43d 0227 703e 2dff a13e ee95 9d3e
00000030: 9db3 8abe 05eb 4abe 0e1a e63e e880 283e
00000040: 3b99 b83e bdca 213e a897 a23d f138 993e
00000050: b008 6b3e 0a2c b43e 64a7 d53e 0895 c43e
00000060: dff1 1a3f 8500 03be 727e 44b9 7846 cd3e
00000070: 4599 043f 5bc2 1e3f 4c98 583e d1bc 9d3e
00000080: 0b22 9f3d 63d0 8bbd 350a f5bd 4d86 7a3e
00000090: 5fde 933e 3933 0e3c a8a6 133f dd48 e53e
000000a0: 5138 fdbd e259 e53e 62ea bbbe bc17 2cbf
000000b0: e30e 9dbe ef66 e6be 3a3a 803e a130 18bf
000000c0: bedb 14bf be21 b8be 2eaf d1be c71a c5be
000000d0: 634a adbe 18dc 07bf f6ed a03d 56ef 8d3e
000000e0: 9be5 c8be 7cbd d0be 9f23 9cbe ac85 02bf
000000f0: 6213 afbd ed1c 61be 886f 75be 2111 ee3e
00000100: 6f06 913e 19db ef3e 4a81 c73e 32c6 cebc
00000110: 4dbb 38bd bab1 013f 92a7 693e 7685 ad3e
00000120: 8c23 b03e 38bb 8f3e 406a 003e 9d03 e43d
00000130: b460 b43d 6b51 a23e cb2e b83e 3fa6 8b3e
00000140: e1f5 1f3f ebc6 f73e 0561 2a3e 43d2 473e
00000150: 574f 073f e706 d13e 9609 193f 90f0 d43e
00000160: fe9c a5bd 33d2 af3d 3d61 c23e edf9 333f
00000170: 91f4 ae3e 81dc fb3e 66a0 b23e 40e2 6b3e
00000180: 7eff b53c f029 4abe 2aee ba3e 5aee 093f
00000190: bedd a03e 1891 8d3e 45b6 803e 9b2e 56bd
000001a0: 43bc 193f df10 c43e 2459 bd3e bc45 1d3e
000001b0: 61c5 e53e b6c3 b0be 81c1 e13e 51d1 f33e
000001c0: 31f4 b03e b2ca e43e 487f ff3d 2b10 9d3e
000001d0: fe94 d93d 82b0 98bd 5b71 61be 2d81 0a3f
000001e0: 269d 953e e39d f23e fca6 b83e 332e 5a3e
000001f0: 4be4 a43e 1dcf c53e

bias f4 [6]
0.29758742 0.10253318 -0.4906047 -0.096139915 0.33077252 -0.021637425
00000000: 615d 983e eafc d13d 8a30 fbbe 01e5 c4bd
00000010: 045b a93e f840 b1bc

weight f4 [2, 6]
-0.8064026 -1.0834903 1.0041589 -0.8943315 -0.6815416 -0.41332275 0.05357148 0.16558303
-0.38555205 0.019549273 0.2304557 0.44710833
00000000: 6770 4ebf cfaf 8abf 4788 803f e9f2 64bf
00000010: 8379 2ebf 0a9f d3be c56d 5b3d 998e 293e
00000020: 1467 c5be cc25 a03c 94fc 6b3e 62eb e43e

bias f4 [2]
-1.1952556 0.70072865
00000000: 23fe 98bf f462 333f
