Network2/params/mlp_wParams0827123747.pth (torch_old, 93976 bytes, 12 tensors)

weight f4 [108]
000000 7c ef c9 3d 5e 00 6b 3f a3 cf 04 3f 43 10 22 3f
       0.09860131 0.91797435 0.5187933 0.63306063
000010 07 ad a2 3e 74 6f 23 3e da b5 ab 3e ba 5a 79 3f
       0.31772634 0.15960485 0.3353718 0.9740406
000020 49 3d 70 3e d2 2a 5d 3f 90 26 86 3e 6f 06 0e 3e
       0.23460878 0.86393464 0.26201296 0.13869642
000030 73 fe 3c 3e d8 44 10 3f 75 fd 18 3f c4 bf c7 3c
       0.1845644 0.5635505 0.59761745 0.024383433
000040 d7 68 60 3f c3 7e 90 3d ce 45 81 3f c6 14 60 3f
       0.8765997 0.07055428 1.0099428 0.875317
000050 01 43 83 3e 3e 43 78 3f 3f 07 5e 3f 35 93 4a 3d
       0.25637057 0.96977603 0.86729807 0.049456794
000060 30 5f 2c 3f ff 6e 27 3e 75 ed 4b 3f 20 28 a2 3e
       0.67332745 0.16350935 0.79659206 0.31671238
000070 46 77 d9 3e 15 90 6f 3f 14 8e 5d 3f 80 2d 16 3d
       0.4247381 0.93579227 0.8654492 0.036664486
000080 93 1c f4 3d a3 e8 7d 3e ef 99 57 3f 48 b5 04 3d
       0.119195126 0.24795775 0.8421926 0.032399446
000090 63 5f 83 3f 08 f3 b3 3e a0 96 88 3d 19 9c 72 3f
       1.0263485 0.35146356 0.066693544 0.94769436
0000a0 9f 2d 7f 3f 93 12 b0 3e d1 21 00 3e 3f 20 19 3e
       0.9967899 0.3438917 0.125129 0.14953707
0000b0 11 44 09 3d da 5f 7c 3f ba ce 6a 3f 90 09 ba 3e
       0.03351218 0.9858376 0.9172169 0.3633542
0000c0 5c 95 09 3e c0 f8 3a 3f 4f e3 ec 3d b8 08 50 3e
       0.13435882 0.7303581 0.11566793 0.20315826
0000d0 39 b4 38 3f 0f bf 1c 3f 84 6a 4f 3e 52 2c 0d 3f
       0.7215 0.6122903 0.20255476 0.5514575
0000e0 ea b7 80 3f 6b 1c 31 3f 58 fc 46 3e 05 c7 03 3f
       1.0056126 0.6918399 0.19432199 0.51475555
0000f0 ba 82 f5 3e 73 ea 18 3f 4e 04 53 3f 22 55 3f 3e
       0.479513 0.5973274 0.82428443 0.1868482
000100 e4 ba 23 3f cc 45 68 3f 72 72 cb 3c ba a8 43 3f
       0.6395705 0.907315 0.024834845 0.7642933
000110 d7 fe 4e 3f 33 87 43 3e 49 c0 37 3f 8c fe 25 3f
       0.80857605 0.19094543 0.7177778 0.6484153
000120 d8 80 86 3f 58 67 77 3f 26 d5 df 3c bb 5b 0e 3e
       1.050807 0.96642065 0.027323317 0.1390218
000130 b7 dc 3d 3e d1 93 28 3e 90 06 03 3e ea b2 cf 3e
       0.18541227 0.16462637 0.12795472 0.40566188
000140 8b 41 0b 3f 41 a5 d5 3e 1b da 11 3f 06 ea 0e 3f
       0.54396886 0.4172764 0.5697343 0.5582584
000150 70 22 49 3f 5f 14 3e 3f ce 93 19 3e 45 1e 8c 3c
       0.7856817 0.74249834 0.1499779 0.017104277
000160 4a 11 c9 3e 2e 7a 3f 3e b4 af 22 3f 6d d8 31 3f
       0.39271003 0.18698952 0.6354935 0.69470865
000170 3a ea 8b 3d c4 6b 6e 3f 75 8e 00 3f 6f aa 07 3f
       0.068317845 0.9313319 0.5021737 0.52994436
000180 91 0b 0c 3f 2d 61 39 3e eb a9 52 3f 44 dd 48 3f
       0.5470515 0.18103476 0.82290524 0.78462625
000190 08 93 c8 3e b1 33 5a 3f 57 2b 71 3f 27 24 35 3f
       0.39174676 0.85235125 0.94206756 0.7075829
0001a0 9e 90 57 3f 9f 40 21 3f 28 b5 7d 3f 07 f7 e7 3e
       0.84205043 0.6298923 0.9910455 0.45305654

bias f4 [108]
000000 a1 a0 6d 3d fe cc fa 3b 15 94 75 bd 79 e9 37 bd
       0.058014516 0.0076538315 -0.059955675 -0.04490039
000010 23 60 9b bc 8e 98 25 3c 24 1a 36 3d 43 87 35 bd
       -0.01896674 0.010107173 0.044458523 -0.04431845
000020 a4 95 5e bb 3d e7 01 bd 69 55 1f bd 74 83 dc 3c
       -0.0033963704 -0.031714667 -0.038899813 0.02691815
000030 0b 21 1e bd da de 45 bd d4 a5 77 3d 72 d4 79 bd
       -0.03860573 -0.04830823 0.06046088 -0.06099362
000040 9f 6f 1f bd 17 ee 65 3d 5f 7d a2 3c 8e 29 29 bc
       -0.03892481 0.056135263 0.019835172 -0.010324849
000050 8e 13 c7 bb cc ca ce bc b7 b1 3f 3d 3c 9a 67 3d
       -0.006075329 -0.025243185 0.04680034 0.056543574
000060 ac 0d 3c 3b 4d 6f 23 ba 63 83 56 3c e4 94 00 bd
       0.0028694673 -0.00062345417 0.0130928485 -0.031391993
000070 93 ce 04 3d 14 df d3 bc ac 80 1a bd 72 e0 95 bd
       0.032423567 -0.025863208 -0.037720367 -0.073182
000080 22 41 2b bd b3 04 66 bd 46 d0 07 bd 57 93 89 3d
       -0.041810162 -0.056156825 -0.03315761 0.06717556
000090 81 c9 7a bd 93 2a 76 3d 1b f0 85 bc 37 d7 58 bd
       -0.061227325 0.060099196 -0.016349843 -0.05293962
0000a0 1e 5c 69 bd 18 86 2d bd ce 02 70 bd a9 c3 39 bb
       -0.056972615 -0.04236421 -0.058596425 -0.0028345382
0000b0 c7 6d 8d bb 7d aa 4c bd 20 50 fc 3b eb 61 65 bd
       -0.004316065 -0.049967278 0.0076999813 -0.056001585
0000c0 ba 04 4f bd 24 10 9e bc 1b ee 95 3c 69 99 1e 3d
       -0.050541617 -0.019294806 0.018302014 0.038720522
0000d0 d2 88 80 3d 54 da 8f 3d 37 00 b5 3c 0f 5a 12 3c
       0.062760964 0.07024065 0.022094829 0.008932604
0000e0 0a 25 11 bd 30 44 e9 bc c2 ec 76 3d ba e1 f6 3c
       -0.035435714 -0.028474897 0.060284384 0.030136932
0000f0 53 fa 30 3d 52 4d 37 bd 24 42 4c 3d 21 c7 35 3d
       0.043207478 -0.044751473 0.049867764 0.044379357
000100 24 02 0a bd 9d 77 f9 bb ca 11 8d bd f2 0a 54 bd
       -0.033693448 -0.007613136 -0.068881586 -0.05176825
000110 3c 73 20 3d ac c7 80 bd 6a 82 51 bc 34 0e e3 bc
       0.039172396 -0.062880844 -0.012787441 -0.027716734
000120 94 92 5b bd 40 0c 0e bd b2 2e 62 3d 22 59 5b bd
       -0.053606585 -0.03467965 0.055220313 -0.0535518
000130 4f d3 5e 3d 3b e8 d2 bc 3c 90 3d bd ff 4f 63 3d
       0.05440074 -0.025745502 -0.04628013 0.055496212
000140 e0 72 62 3d 78 90 1b 3d ea 63 43 bc 89 8a 9b bc
       0.055285335 0.037979573 -0.011925677 -0.018986957
000150 a5 07 21 bd 9a 35 bc 3c 57 68 f7 ba f2 ec 6c 3d
       -0.03931393 0.022974778 -0.00188757 0.057843156
000160 69 fc 1f 3c dc 74 16 3d 4f e8 36 3d 21 f0 02 bd
       0.009764769 0.03673254 0.04465514 -0.031967286
000170 17 95 91 bd 8f c5 d3 bb 35 07 37 bd 3f 95 f6 3c
       -0.07108515 -0.00646276 -0.044684608 0.030100463
000180 f7 a1 3b 3d a7 1e 25 bd df 04 73 3c 2c 67 3e 3d
       0.04580876 -0.040312435 0.014832704 0.04648511
000190 ca 65 08 bd c3 41 68 3c 63 05 6b bd 6a 15 91 3a
       -0.0333002 0.014175835 -0.057378184 0.0011069004
0001a0 39 fa 6d 3d 6d 72 c0 3b e4 c7 21 bd ec 63 3c 3d
       0.05809996 0.0058730156 -0.03949727 0.04599373

running_mean f4 [108]
000000 b9 02 a1 3e ec f6 93 3e 18 4d be 3e 42 76 82 3e
       0.3144739 0.28899324 0.37168193 0.2548085
000010 38 4d 83 3e bc b5 eb 3e 5a b0 87 3f 1a 0e 84 3f
       0.2564485 0.4603709 1.0600693 1.0316803
000020 f7 15 9f 3f ab 7b be 3e b9 02 a1 3e ec f6 93 3e
       1.2428578 0.37203726 0.3144739 0.28899324
000030 a7 a3 90 3e 19 bf 87 3e 9f da d8 3e 44 00 93 3f
       0.28249857 0.26512983 0.42354295 1.1484456
000040 5c 70 92 3f 20 d2 a4 3f 0c 58 95 3e ab 7b be 3e
       1.1440539 1.2876625 0.29168737 0.37203726
000050 b9 02 a1 3e 02 22 8c 3e 35 87 87 3e fc 0c df 3e
       0.3144739 0.27369696 0.26470342 0.43564594
000060 51 23 90 3f 3d 2b 86 3f 2e dc a0 3f 01 75 a2 3e
       1.1260778 1.0481945 1.2567194 0.31729892
000070 0c 58 95 3e ab 7b be 3e b4 d1 84 3e 2c 69 84 3e
       0.29168737 0.37203726 0.2594124 0.2586149
000080 35 51 eb 3e 77 4a 8c 3f 05 04 8b 3f 3a ca 9c 3f
       0.45960394 1.0960225 1.0860602 1.2249215
000090 a6 f5 bf 3e 01 75 a2 3e 0c 58 95 3e 8e e6 8f 3e
       0.37492102 0.31729892 0.29168737 0.28105587
0000a0 8c 67 85 3e 09 61 e0 3e ae b3 8a 3f 12 65 8b 3f
       0.26055562 0.43824032 1.0836084 1.0890219
0000b0 42 be ac 3f cb d1 96 3e a6 f5 bf 3e 01 75 a2 3e
       1.3495562 0.29456934 0.37492102 0.31729892
0000c0 60 aa 83 3e 97 60 8e 3e 71 24 e5 3e 18 2d 8c 3f
       0.25715923 0.27808067 0.44754365 1.0951262
0000d0 f1 5f 87 3f d8 bc a4 3f af 62 a4 3e cb d1 96 3e
       1.0576154 1.287013 0.3210654 0.29456934
0000e0 a6 f5 bf 3e 5f 1d 90 3e 94 5b 77 3e 2f b5 ed 3e
       0.37492102 0.28147408 0.24156028 0.46427295
0000f0 82 18 91 3f 45 ca 81 3f e7 91 a1 3f 52 22 c0 3e
       1.1335604 1.0139853 1.2622651 0.37526184
000100 af 62 a4 3e cb d1 96 3e ee be 95 3e 17 2f 88 3e
       0.3210654 0.29456934 0.2924723 0.26598427
000110 5b b1 db 3e 0a c7 94 3f 6f d7 8b 3f d1 50 a8 3f
       0.4290875 1.1623242 1.092512 1.3149663
000120 d6 e6 96 3e 52 22 c0 3e af 62 a4 3e 1b 8e 86 3e
       0.2947299 0.37526184 0.3210654 0.26280293
000130 49 74 93 3e 8d 32 df 3e 44 c9 8f 3f 2f ea 8b 3f
       0.28799656 0.43593255 1.1233296 1.0930842
000140 a7 2a 9f 3f 51 47 a6 3e d6 e6 96 3e 52 22 c0 3e
       1.2434891 0.32476285 0.2947299 0.37526184
000150 2c 45 7b 3e c0 ac 88 3e c4 65 f5 3e 14 00 86 3f
       0.24538106 0.26694298 0.47929204 1.0468774
000160 95 9f 8c 3f 0e 76 a1 3f 23 cd c2 3e 51 47 a6 3e
       1.09862 1.2614152 0.38047132 0.32476285
000170 d6 e6 96 3e 06 81 95 3e 92 74 89 3e 14 1d df 3e
       0.2947299 0.292 0.2684675 0.43576872
000180 b8 05 98 3f 6b 1d 8c 3f 3d eb a7 3f 8d eb 96 3e
       1.1876745 1.0946478 1.3118664 0.29476586
000190 23 cd c2 3e 51 47 a6 3e fb 75 7f 3e a4 53 8f 3e
       0.38047132 0.32476285 0.2494735 0.279935
0001a0 33 a7 ee 3e 18 05 0e 40 60 ed 1d 40 9c d4 58 40
       0.46611938 2.219061 2.4676132 3.3879766

running_var f4 [108]
000000 9d 9a 5e 3e cf 04 56 3e 6c f6 71 3e 24 5d 37 3d
       0.21738668 0.20900272 0.23629159 0.04476656
000010 6e 4c 3b 3d 1d f7 8f 3d 74 3a 1a 3f 9b 6d 20 3f
       0.045727186 0.07029555 0.6024544 0.62667245
000020 e3 86 03 3f 4b 1e 72 3e 9d 9a 5e 3e cf 04 56 3e
       0.51377696 0.23644368 0.21738668 0.20900272
000030 b2 93 3a 3d dc 8a 36 3d 2a 70 92 3d 1c 5e 12 3f
       0.04555101 0.04456602 0.071503 0.5717485
000040 84 30 1c 3f 15 84 1d 3f 6c 4e 57 3e 4b 1e 72 3e
       0.6101153 0.61529666 0.2102601 0.23644368
000050 9d 9a 5e 3e 51 5d 35 3d 3a 8b 46 3d 59 a7 8f 3d
       0.21738668 0.044278447 0.04847262 0.07014341
000060 98 34 1c 3f 75 80 1b 3f 02 16 15 3f dc e6 5f 3e
       0.6101775 0.60742885 0.58236706 0.2186541
000070 6c 4e 57 3e 4b 1e 72 3e 19 89 31 3d ba 24 3f 3d
       0.2102601 0.23644368 0.043343637 0.046665885
000080 66 14 8e 3d ba 84 1d 3f 3c a4 23 3f 4c 65 09 3f
       0.069374844 0.6153065 0.63922477 0.5367019
000090 f7 64 72 3e dc e6 5f 3e 6c 4e 57 3e fc 5c 39 3d
       0.23671328 0.2186541 0.2102601 0.045254692
0000a0 d2 ba 33 3d ef 32 82 3d 45 8b 10 3f 40 cb 1f 3f
       0.043879338 0.06357371 0.5646251 0.6241951
0000b0 3e bb 0e 3f 5d 1b 58 3e f7 64 72 3e dc e6 5f 3e
       0.5575446 0.21104188 0.23671328 0.2186541
0000c0 5f 75 38 3d 85 1a 49 3d 01 9c 88 3d 3f 94 21 3f
       0.04503381 0.049097557 0.066703804 0.6311683
0000d0 c4 1e 15 3f 05 82 0e 3f c5 b1 61 3e 5d 1b 58 3e
       0.5825007 0.55667144 0.2204047 0.21104188
0000e0 f7 64 72 3e 79 67 31 3d 43 b9 43 3d 90 41 81 3d
       0.23671328 0.04331157 0.0477841 0.06311333
0000f0 79 7f 18 3f d4 bc 15 3f aa 92 03 3f 88 8b 72 3e
       0.5956951 0.58491254 0.51395667 0.2368604
000100 c5 b1 61 3e 5d 1b 58 3e d0 b2 3a 3d 37 bc 43 3d
       0.2204047 0.21104188 0.045580685 0.047786918
000110 82 d4 86 3d 43 84 0b 3f e1 dc 21 3f 62 08 1a 3f
       0.065835014 0.5449869 0.6322766 0.6016904
000120 d5 13 58 3e 88 8b 72 3e c5 b1 61 3e 65 83 3f 3d
       0.21101315 0.2368604 0.2204047 0.046756167
000130 51 6d 57 3d d5 d3 91 3d 6b eb 22 3f 05 d2 16 3f
       0.052594487 0.07120482 0.6364047 0.58914214
000140 46 28 11 3f e2 18 62 3e d5 13 58 3e 88 8b 72 3e
       0.5670208 0.22079805 0.21101315 0.2368604
000150 21 5d 2f 3d b2 ed 4a 3d 13 78 7f 3d 11 50 23 3f
       0.042813424 0.04954309 0.06237037 0.63794047
000160 c9 16 20 3f d8 e2 fa 3e 12 ae 72 3e e2 18 62 3e
       0.6253477 0.49001193 0.23699215 0.22079805
000170 d5 13 58 3e cc 81 2e 3d f5 4e 40 3d 91 a1 88 3d
       0.21101315 0.042604253 0.0469503 0.06671441
000180 4c aa 06 3f 3e bc 1a 3f 40 d9 10 3f 96 16 58 3e
       0.526036 0.60443485 0.565815 0.21102366
000190 12 ae 72 3e e2 18 62 3e 2a 6f 20 3d 2b a1 49 3d
       0.23699215 0.22079805 0.039168514 0.049225967
0001a0 80 4c 6e 3d 99 9f 86 3f 29 97 85 3f ed 67 09 40
       0.058178425 1.0517455 1.0436755 2.1469681

weight f4 [108, 108]
000000 e9 df 9a 3d 39 28 df bc 0a 13 b6 3d 74 46 5b bd
       0.07562239 -0.02724086 0.0889035 -0.053533986
000010 49 ee bf bc 2f d1 78 bd 11 ef 26 3d 3b 2b 9d bd
       -0.023429053 -0.060746368 0.040755335 -0.07674261
000020 07 99 ee 3c d2 ff b5 3d 7d 11 e7 3c 39 81 a6 3d
       0.029125703 0.088866845 0.028206581 0.08130116
000030 79 e9 98 bd 8a e5 90 3d 15 69 b8 bd ad d2 69 3d
       -0.074664064 0.07075031 -0.09004418 0.05708568
000040 93 33 57 3d 9f c8 9e bd 25 46 78 bd 96 24 7d bd
       0.05253942 -0.07753109 -0.06061377 -0.06180247
000050 25 56 67 3d bf 16 19 bd f7 d9 cc 3d 6b 90 87 bd
       0.05647864 -0.037375208 0.10002511 -0.066193424
000060 3b 91 f2 3c b3 87 18 3d bc e8 a6 bd 69 78 a4 bd
       0.029610267 0.037238788 -0.08149859 -0.08030779
000070 4e c9 8a 3d 5d 44 3c 3c de 32 83 bd c8 80 4c 3d
       0.06776677 0.011490908 -0.064061865 0.049927503
000080 e7 2d f6 3c e9 a2 bc bc e9 eb a7 bc 89 ff 8a bd
       0.030051185 -0.0230269 -0.020498233 -0.06787021
000090 8d 6d c1 bc cc 0e 4c b9 0c ca c0 bc e0 b3 a1 bd
       -0.023611808 -0.00019460468 -0.023533843 -0.078956366
0000a0 c0 90 b6 bc 61 19 ae 3d 0e a8 7a bd dc d3 0a bd
       -0.022285819 0.085009344 -0.061195426 -0.03389345
0000b0 fc 7b 0a 3c ae 46 aa 3b 67 25 51 3d fb 66 0f bd
       0.008452412 0.005196414 0.05106106 -0.03501032
0000c0 8e 38 21 bd 31 5a 99 bd ca dd a2 bd 28 aa aa bd
       -0.039360575 -0.07487906 -0.07952459 -0.08333236
0000d0 ea 8f 37 bd cd 7a dd 3d a8 1c a7 bd 71 31 80 3d
       -0.04481498 0.10814438 -0.081597626 0.0625943
0000e0 36 ef 9e 3d b4 6d c0 3a a8 b3 3b 3d 98 2d 98 bb
       0.077604696 0.0014681132 0.04582563 -0.004644107
0000f0 cb 01 29 3d 86 b8 0b 3c fc ce c9 bc ac dd a7 3d
       0.041261476 0.008527881 -0.02463483 0.081965774
000100 2a 55 26 bd 0a 71 18 3c 32 a0 95 3d 69 5e c4 bd
       -0.040608563 0.009304294 0.073059455 -0.0958832
000110 ad b6 82 3d 74 05 29 bd ff c1 3f 3d 2c 89 9b bc
       0.06382499 -0.041264966 0.04681587 -0.018986307
000120 7d 8c af bc 60 cb c9 3d 34 f0 0c bd ec cc da bd
       -0.021429295 0.09853244 -0.034408763 -0.10683617
000130 20 c2 80 3d fb 8a 86 bd df 46 42 bc da 9c 5f bd
       0.062870264 -0.06569477 -0.011857717 -0.054592945
000140 bd 7d 6f 3d 40 c0 c4 bd 11 62 1d bd b4 3b 8d 3d
       0.058469523 -0.09606981 -0.0384236 0.06896153
000150 14 33 c6 bc 79 7d 91 bd 4c a6 54 3d 9c 65 a0 3b
       -0.024194278 -0.0710401 0.051916406 0.0048949253
000160 1c 81 af 3d 3d 42 8d 3d 1c 87 ea 3d eb cb b8 bd
       0.085695475 0.068973996 0.11451551 -0.09023269
000170 f0 5f 97 bc 0e 9d c9 3c bd fe 28 bd 81 02 bc bd
       -0.018478364 0.024611022 -0.041258562 -0.09180165
000180 d2 98 b9 bd 1e ca 9e 3d 0e 9b c4 b9 4b 75 ae bd
       -0.09062351 0.077533945 -0.00037499558 -0.085184656
000190 7f 98 9c 3d a1 ee 8d 3d 59 c0 33 bd ac 8b 90 bc
       0.07646274 0.069302805 -0.04388461 -0.017644726
0001a0 73 66 4d 3d a5 4c 7a 3c f1 af ac bd af 0d 96 3c
       0.05014653 0.015277063 -0.08431996 0.018317072
0001b0 69 a8 ca 3d 92 45 39 bd 16 1f 50 3c 65 e7 4a bd
       0.09895403 -0.045232363 0.012702724 -0.04953708
0001c0 78 e5 52 bc d8 41 02 bb b2 57 a0 3c 9e b9 61 3d
       -0.012872092 -0.0019875672 0.019573066 0.05510866
0001d0 28 0d c5 bb 9d 97 bd 3d 5f 74 58 bd 93 07 41 3d
       -0.0060135312 0.092574336 -0.052845355 0.047126364
0001e0 f1 32 84 bd 0b ae b7 3d ca e8 a3 bc 38 86 02 be
       -0.06455029 0.08968743 -0.020008463 -0.12746513
0001f0 6b 7a 8b 3d 74 53 07 3d 02 e6 94 bd 2a 36 38 3d
       0.06810459 0.03303857 -0.07270433 0.04497353
000200 11 5c 70 bd 9e 58 0d 3d e0 99 eb 3c d1 52 f4 3d
       -0.05868155 0.03450834 0.028759897 0.119298585
000210 6d 5c c0 3d 2d ac 2c 3d e4 e2 a8 3d 91 c5 e3 bc
       0.09392629 0.042156387 0.08246401 -0.027804168
000220 fc d8 3a 3d cf cc b1 bb cf 1d 27 3d a2 77 ef bd
       0.04561709 -0.0054260264 0.040799912 -0.1169274
000230 0c 4f 58 bd 83 19 44 bd 8d 39 b0 3d 21 4c ce 3d
       -0.05280976 -0.047875892 0.08604727 0.10073114
000240 f0 e9 41 bd 51 c4 dc 3d 23 ad 4e 3d cd b8 1b 3d
       -0.04734224 0.10779632 0.050458085 0.038018037
000250 b5 4d 2f bb 82 33 c9 bd 39 2e a8 bd 0b f4 db bc
       -0.0026749198 -0.098242775 -0.08211941 -0.026849767
000260 a2 8f 21 bd c4 52 ae bd 29 79 f9 bc a6 68 3c 3d
       -0.03944362 -0.0851188 -0.030453281 0.045998238
000270 ae cb e3 bd b7 3d 9b bd fc d2 1f bd 88 a4 e0 3d
       -0.11122833 -0.075801305 -0.03901957 0.10968882
000280 80 25 02 3d e6 f9 f6 3c 7b 3a 8f bd 16 2b 7b 3d
       0.031774044 0.030148458 -0.06993576 0.061320387
000290 a1 e8 c6 3d e4 7b 02 3d 9f 8a 97 3d 11 6f 6f bd
       0.09712339 0.031856433 0.07399487 -0.05845553
0002a0 eb 15 c5 3d 90 66 e3 3c fc 9e bf 3d 1a b3 bf 3d
       0.09623321 0.027758867 0.09356496 0.09360333
0002b0 6b 75 72 3c a5 c9 24 bd 54 b2 8b bd 72 e8 8c 3d
       0.014798502 -0.040231366 -0.06821123 0.06880273
0002c0 ee fa 88 3d a6 3d 7a 3d d5 24 4e bd 09 cf a7 3d
       0.06688486 0.06109395 -0.050328095 0.08193786
0002d0 0a ba a8 bd 43 fb 56 b9 91 ac 5d 3d 92 dc 4a ba
       -0.08238609 -0.00020502233 0.05411965 -0.0007738556
0002e0 c1 35 d9 3d 3d d6 0e bd 21 42 62 3c 4c 04 5d 3d
       0.10605956 -0.034872282 0.013809712 0.053959176
0002f0 0c 1e 27 bd 59 9c 01 bb c3 83 df bc 73 9e 21 bd
       -0.04080014 -0.0019777028 -0.027284509 -0.03945775
000300 4e 69 91 bd 12 73 83 bd e4 5b 02 3d 9b 96 e2 3d
       -0.071001634 -0.06418432 0.031825915 0.11063882
000310 f1 88 3a 3d a2 3d 78 bd 9c 36 42 bd 1d 45 5c bd
       0.045540754 -0.060605653 -0.04741536 -0.05377685
000320 f8 de 66 bd 9b 4f 82 3d 79 26 a5 bd 57 f2 3a 3d
       -0.056364983 0.0636284 -0.08063979 0.04564127
000330 d0 07 ca 3d 85 2a 98 3d 1b 0a ad 3c 2e d7 89 bd
       0.09864771 0.07429985 0.021122983 -0.067304954
000340 4a f9 1c 3d 38 42 90 bc 79 da f2 bb d7 1c e4 bc
       0.038323678 -0.0176097 -0.007411298 -0.027845783
000350 e8 fd 00 3d d8 c3 1b 3d 13 2f 1f bd 97 74 ac 3d
       0.031492144 0.038028568 -0.038863253 0.08420675
000360 83 f8 5a 3b 71 39 b4 3d 2a bf 05 bc 9e 8f 9f bd
       0.0033412285 0.088000186 -0.008163253 -0.07791065
000370 b6 60 6d 3d 60 79 09 3d 73 88 c9 bd 45 61 c9 bd
       0.05795356 0.033563018 -0.09840479 -0.09833006
000380 fe 90 80 bc 12 29 9d bd da fe 44 bd 96 49 b7 bb
       -0.015694138 -0.07673849 -0.048094608 -0.005593489
000390 38 e9 2d bd db b1 6f 3d 29 b8 dc 3b 39 1c 7b 3d
       -0.042458743 0.058519226 0.006735821 0.061306212
0003a0 85 76 40 bc 36 d8 c9 bc 73 80 c8 bb 22 f1 e3 bd
       -0.011747007 -0.02463923 -0.006118828 -0.11129977
0003b0 81 2c 3e 3d f0 be 5f bd 50 29 35 bd f2 30 eb 3d
       0.04642916 -0.05462545 -0.04422885 0.11483945
0003c0 c8 e6 89 3b 25 f3 f5 bc 0c a2 96 3c 97 b1 65 bc
       0.0042084195 -0.030023167 0.018387817 -0.0140193915
0003d0 13 a0 44 bb 59 56 d6 bd 75 90 5c bd de db 77 bd
       -0.0030002638 -0.10465688 -0.053848702 -0.060512416
0003e0 fd 84 bf 3c 84 75 2d 3d 33 07 92 bd d0 6f 6f 3d
       0.023378843 0.0423484 -0.071302794 0.058456242
0003f0 ef 5e dd bd 62 59 ca 3d ff 97 28 bd 19 8f e3 bd
       -0.10809123 0.0988033 -0.04116058 -0.11111278

bias f4 [108]
000000 04 b8 0e bd 19 08 0c 3e 57 7d b7 3c f7 b0 a6 3d
       -0.03484346 0.13674964 0.022398634 0.08139222
000010 5e 03 46 3c 0e b1 3c bd ab be 62 bd ac 19 17 3c
       0.012085764 -0.04606729 -0.055357616 0.009222429
000020 b9 95 3d 3d 8d e5 d2 bc 4e 91 0c 3d 40 88 40 bd
       0.046285365 -0.025744224 0.03431826 -0.047004938
000030 70 d0 59 3d 42 76 bf 3d ea df 8a 3d 64 5d 28 bd
       0.053177297 0.09348728 0.067809895 -0.04110469
000040 01 3b d6 bc b1 16 2d bd 4e cf 0d ba dd 58 90 3d
       -0.026151182 -0.04225797 -0.0005409614 0.07048199
000050 c9 a1 a2 bc d9 66 15 3e 01 c7 1a bb 97 65 05 bd
       -0.019852536 0.14590015 -0.002361715 -0.032567587
000060 7b e5 8d 3d 72 a5 7b bd 36 82 40 3b 17 8c 25 3c
       0.069285356 -0.061437078 0.0029374487 0.010104201
000070 2d be 96 3d 11 6b 73 bd ef 4d 54 3d 89 8d 2e 3d
       0.07360492 -0.05942828 0.051832136 0.042615447
000080 ad f7 3c 3d c6 1e f6 3c 6e 26 f5 3d fe df 9b 3d
       0.04613464 0.03004397 0.119702205 0.076110825
000090 29 4a a4 3d be 98 13 bd 9a ce 8f 3b 88 51 ca bc
       0.080219574 -0.03603434 0.0043886425 -0.02469708
0000a0 69 e8 ab 3b 34 21 8d 3d be 99 09 3e e4 58 b4 3d
       0.0052462113 0.068910986 0.13437554 0.08806017
0000b0 d6 ed e4 bc ec 0e b7 3d fb d7 7d bd 7e 2f aa 3d
       -0.02794544 0.08938393 -0.061973553 0.0830984
0000c0 8f f8 cd 3d 2c 93 ad 3c a3 5e 87 bc 65 9e 98 bd
       0.100571744 0.021188341 -0.016524618 -0.07452086
0000d0 8c dd 71 bc 85 8d 06 3e 30 d0 fa 3d d2 77 87 3b
       -0.014762294 0.13139923 0.1224674 0.0041341567
0000e0 16 b7 59 3d bd 8f 03 3e 74 7f 22 bd 1d 6f 78 3d
       0.05315312 0.128478 -0.03967233 0.06065284
0000f0 6b 3b 38 bd 9e d4 ca 3d 82 ca 8a bc 8d 34 fd 3d
       -0.04497854 0.09903835 -0.016942266 0.12363539
000100 b0 36 af 3d 6b 04 b5 bd 7c 09 ad 3c 1b 0a 1c bc
       0.08555353 -0.08838733 0.021122687 -0.009523894
000110 53 9e 42 3d 14 f9 84 bd e4 3a 92 3c e4 81 8c 3a
       0.04751427 -0.064928204 0.017850347 0.0010719863
000120 92 6b 29 bd ce a3 94 bd 18 a7 da 3d e8 9f 04 3e
       -0.041362353 -0.07257806 0.10676402 0.12951624
000130 3a 26 6a bc d6 d7 d0 3d 99 0c f5 3d 17 45 c5 3d
       -0.0142913405 0.101974174 0.119652934 0.096323185
000140 49 ab fa bc 39 8c 41 bd 2c 2c 6d bd 80 a8 02 3e
       -0.030599253 -0.047252867 -0.057903454 0.1275959
000150 2f 43 d4 3d 50 68 96 3d dd 1b 34 bc 9e fe 6c 3d
       0.10364377 0.07344115 -0.010992971 0.05786001
000160 bf 95 cd bd 6c 00 ba 3d f5 6d 1d bc d9 6a b8 3d
       -0.100383274 0.09082112 -0.009608735 0.090047546
000170 c8 8f f5 3d 72 eb 8f 3d d7 5c 0b 3e 5c e7 bb bb
       0.11990315 0.070273295 0.13609634 -0.0057343673
000180 24 7b 0d 3d 58 d5 6d bd 69 f2 d4 bc 4f 3c 73 3b
       0.034541264 -0.05806479 -0.025994496 0.0037114804
000190 49 d8 a6 3b bf c2 9b 3d bc ac 8f 3c 7f d3 65 bc
       0.005091701 0.07605504 0.01753842 -0.014027475
0001a0 0e a8 73 3d 16 3f d5 3d 82 02 a8 3c b2 fa 7f 3d
       0.05948644 0.10412423 0.020509008 0.06249494

weight f4 [54, 108]
000000 a2 ae 8c bd 20 7c 86 bd 5b ba a8 bd 40 db 4d bd
       -0.06869246 -0.06566644 -0.082386695 -0.05025792
000010 e9 bc a7 3c a1 1d 85 bd 8a 28 14 bd 7a 84 9e bb
       0.020475822 -0.06499792 -0.036171474 -0.00483757
000020 c7 fc 59 bd 6b 20 b1 bd bb 36 58 bd 41 10 83 3d
       -0.053219583 -0.08648761 -0.05278657 0.063995846
000030 99 6d 0b 3d 80 d6 c3 ba da cf ee bc 1a 09 0f 3d
       0.034040067 -0.0014941245 -0.029151846 0.03492079
000040 7f 4f 93 3d f3 db f6 3b 1b 6b 94 3d 64 5d a9 bd
       0.07192897 0.007533544 0.07246991 -0.08269766
000050 a5 8d 7b 3c 82 0e c8 bd 0e e1 73 bd 0f 7f b3 bd
       0.015353595 -0.09768392 -0.0595408 -0.08764469
000060 8a 78 3b 3c cf e4 ba bd 12 ee 5b bc ca 84 92 bd
       0.011442313 -0.09125673 -0.01342346 -0.07154234
000070 ec b6 99 bd 07 05 2c 3d 93 bf 1a 3d 29 2b 94 3d
       -0.07505593 0.041996982 0.037780356 0.07234795
000080 b0 1d 94 3d 49 eb 85 3c 5d 9f 9b bd 71 a0 cd bc
       0.07232225 0.016347544 -0.075987555 -0.025100918
000090 b2 bc 41 bc c4 2e 2d bc 25 79 93 bc e7 ea b0 3c
       -0.011824774 -0.010570232 -0.018002102 0.021596385
0000a0 ae 0e 87 3d 66 1b ca 3c 35 75 c7 bd 08 b3 cd 3c
       0.06594597 0.024671268 -0.09739152 0.025109783
0000b0 61 41 85 bd 5b 9e 29 bd b4 76 19 bd ff 05 9b 3c
       -0.06506611 -0.041410785 -0.03746672 0.018923758
0000c0 56 70 8e bd e4 f7 4b 3d e3 fa d9 bc 53 a1 78 3d
       -0.0695502 0.049796954 -0.02660889 0.060700726
0000d0 aa 68 48 3d d9 12 6a bd 19 c7 43 bc 0b 16 fa bb
       0.04892794 -0.05714688 -0.011949324 -0.0076320223
0000e0 45 57 1e 3d 5c c4 6f bc 51 2a 38 bd 4d ae 83 bd
       0.038657445 -0.014634218 -0.04496223 -0.064297296
0000f0 28 dc 3c bc 4a 87 d1 bc d7 4a 68 3d 3f e8 88 3d
       -0.011527099 -0.025577206 0.056711998 0.066849224
000100 77 b4 cd bd ec 40 cd 3c 83 24 53 bd 98 a1 88 3d
       -0.100441866 0.025055371 -0.051548492 0.066714466
000110 c4 a9 3d bd 54 e5 08 bd 49 c5 80 bc d9 3e 21 3d
       -0.04630448 -0.03342183 -0.015719073 0.039366577
000120 f2 f3 53 bd 5c d7 89 3d 16 77 c4 bc 91 d3 0a bd
       -0.051746316 0.0673053 -0.023982566 -0.03389317
000130 84 a6 b8 bd 6f 2d 62 3c 1a d0 88 3d 44 44 a1 3c
       -0.09016135 0.0138047775 0.06680317 0.019685872
000140 92 49 90 bd 77 1c f7 bb 6b 7b d8 bc 6b 35 c7 3b
       -0.070452824 -0.007541235 -0.026426038 0.006079366
000150 5a 4e e6 bc 33 47 67 bc 28 65 de bc 94 b8 b8 bd
       -0.028113533 -0.014116096 -0.027147844 -0.090195805
000160 12 3d 1b 3d 5c 32 de 3c c9 7f 9f 3d 12 91 2d bd
       0.037900038 0.027123623 0.07788045 -0.042374678
000170 59 4b 09 bd 30 d1 97 3d 4b ab 21 bd ae 6c 97 3d
       -0.033519123 0.07412946 -0.03947 0.07393776
000180 cf 74 64 bd 37 35 9e 3d ff 25 a2 bc 60 a8 36 bd
       -0.05577546 0.07724994 -0.019793509 -0.04459417
000190 3b 62 7b bd c7 d0 81 bd 14 bc 94 3d a4 e5 9f 3d
       -0.061372977 -0.06338649 0.072624356 0.07807472
0001a0 2c 3e 56 bd 92 16 a2 bd 7b 1f 00 bd 33 74 9b bd
       -0.052305385 -0.07914461 -0.031280022 -0.075905226
0001b0 0d f2 bb bd 43 10 2c bd 69 9c 6c 3c de fe cd 3d
       -0.09177027 -0.042007696 0.014441588 0.10058378
0001c0 53 fe 92 bd 9c 6e 81 3c d5 3c b2 bd 82 39 6b 3d
       -0.07177415 0.015799813 -0.08703009 0.05742789
0001d0 4f 41 6f bd 5e c4 ba bd 4a 39 4c 3d 91 36 44 bd
       -0.058411893 -0.09119485 0.049859323 -0.0479036
0001e0 99 a7 85 bd f2 2c b1 bd 35 1f aa bd d2 b8 3c 3d
       -0.06526107 -0.08651151 -0.083067335 0.046074696
0001f0 6e 0f 08 3d 01 4f 8f 3d b4 45 0b 3d 1c cf a2 3d
       0.03321784 0.06997491 0.03400202 0.07949659
000200 d3 05 25 3d 46 a9 5d bd e5 4c 66 bd 14 f3 f5 bc
       0.040288758 -0.05411651 -0.056225676 -0.030023135
000210 6c 7a b5 bd 2c b5 83 3d be ca ba bd 3e 7c 42 3c
       -0.08861241 0.0643104 -0.09120701 0.011870442
000220 55 4b 31 3d 85 46 c2 3d 5a 28 8b 3d 16 58 92 bb
       0.043284733 0.09486107 0.06794806 -0.004466067
000230 06 31 3e bb 50 60 b5 bd 52 12 1c 3c bb 80 1e bc
       -0.002902092 -0.08856261 0.009525852 -0.009674246
000240 72 b9 92 3d 12 dc 44 3d 87 f4 b9 3d ce 38 41 3a
       0.07164277 0.048061438 0.09079843 0.000737083
000250 65 e9 3d 3d c2 42 1e 3b 1b aa bf 3d 4d 89 37 bc
       0.04636516 0.0024148677 0.09358617 -0.011202169
000260 31 19 d6 3c 66 94 36 bd 29 5c b4 3d b3 c0 ba bd
       0.02613506 -0.044575118 0.08806641 -0.09118786
000270 28 a9 97 3c 5e f8 ad bd 2f 95 a3 bd c1 43 fb bc
       0.018513277 -0.08494638 -0.07987439 -0.030671956
000280 66 5f 2b bd 6b 6e 9e 3d dc 94 4c bd ea b8 8d bd
       -0.041839026 0.07735904 -0.04994665 -0.06920035
000290 65 a2 21 3d 86 87 4a bd b6 7b fb bc e0 b7 ba 3d
       0.039461512 -0.04944565 -0.030698638 0.091171026
0002a0 e9 bd 21 3d 58 41 67 3d 1e f8 56 bc e0 52 ab bd
       0.039487753 0.0564588 -0.013120679 -0.083654165
0002b0 5a 2c bd bd eb 2d 85 bb c5 4f a0 3d 2c a2 5d 3d
       -0.09236975 -0.0040643117 0.07827715 0.054109737
0002c0 b8 00 63 bd 8d 25 61 bd 4c 5a 70 3d 5b ee 5c 3c
       -0.055420607 -0.05496745 0.058679864 0.013484563
0002d0 27 49 da 3c d9 48 f1 3c 0a 41 16 bd 28 3e 4f 3d
       0.02664621 0.029453682 -0.03668312 0.050596386
0002e0 35 a0 77 bd 8d 7f 04 bd a5 35 7a bd d7 2e 90 3d
       -0.06045552 -0.032348204 -0.061086316 0.07040184
0002f0 29 67 b6 bd 99 4d 63 bd b4 38 d1 ba 5c 23 32 3d
       -0.08906395 -0.055493925 -0.0015962333 0.043490753
000300 e3 8a 8d bd 60 ba 1a 3c d9 51 34 3d bf 93 f0 bc
       -0.06911256 0.009443849 0.04402337 -0.029367326
000310 50 0d b6 bc b5 f1 06 bc cc 56 ba 3d 3c 3a 82 3d
       -0.022223145 -0.008236338 0.090985864 0.063587636
000320 89 eb a4 bd d2 ef 86 bb 14 8d 64 3d c2 b6 af 3d
       -0.08052737 -0.0041179443 0.055798605 0.0857978
000330 5c 9a c7 3d 24 35 3a 3d 7d 78 3e 3d 7c 3f ab 3d
       0.097462386 0.045460835 0.046501625 0.08361718
000340 20 3d 1e 3d 73 b2 95 3d 77 b5 55 3d a4 7e a1 3c
       0.038632512 0.07309427 0.05217501 0.019713707
000350 4d b3 0b 3c cc 82 b2 3b cf 9c 1a bd 83 a2 e8 bc
       0.008526635 0.005447721 -0.0377472 -0.028397804
000360 dc 7b af 3d 0c bd 80 bc 19 d7 5e bd 7b c8 61 3d
       0.08568546 -0.015715145 -0.05440435 0.055122834
000370 7b fe ca 3d ee 3b cd 3d ba da fd 3c d5 3a 75 bd
       0.099118195 0.10021196 0.030988086 -0.05987056
000380 a5 52 f6 bc 4e 2d 3b bb 0c d6 c3 3d c5 5e 54 bd
       -0.030068705 -0.002856094 0.095623106 -0.05184819
000390 96 d2 e7 3d b8 fc 42 3d f6 0e 93 3d a0 a3 17 bc
       0.11319463 0.047604293 0.07180588 -0.00925532
0003a0 4e 9c b4 3d 72 95 8a 3d 2a 1b 2b 3d 00 15 20 bd
       0.08818875 0.06766786 0.041773953 -0.039082527
0003b0 7b b7 9e 3d 78 2f 07 3d f5 e4 29 bd f3 85 d8 3d
       0.0774984 0.033004254 -0.041478116 0.10572424
0003c0 bb eb fa bc 03 f2 8a 3d 01 d6 b7 3d 89 3e 9a 3d
       -0.030629983 0.06784441 0.08976365 0.07531459
0003d0 b9 0a 0b 3d 7d 31 e7 3d e0 ce 04 3d 61 4d 93 3c
       0.033945773 0.11288736 0.032423854 0.017981233
0003e0 8e d4 87 3d 93 30 03 bd b6 d4 c7 bc d6 a5 89 bd
       0.066323385 -0.032028746 -0.02439342 -0.06721084
0003f0 7a ba 3e bd 1e 04 c9 bc 3d 70 49 3d 5b 6d 95 bd
       -0.046564557 -0.024538096 0.049179304 -0.072962485

bias f4 [54]
000000 be b4 b5 bc 35 1a b5 bd a3 3f 97 3d fb fd 85 3d
       -0.022180911 -0.08842889 0.073851846 0.065425836
000010 b7 52 60 bc 2f a7 4c bd 73 05 04 3e 43 1b 11 bb
       -0.013691596 -0.049964126 0.12892704 -0.0022141493
000020 4a a5 cc bb 46 d0 80 3d 80 8c a0 3d 36 32 64 bd
       -0.00624529 0.06289725 0.07839298 -0.055711947
000030 03 0c 95 b9 39 ad a1 bc 3c f5 69 bd 8c 86 6b bd
       -0.00028428444 -0.01973592 -0.05711864 -0.05750136
000040 85 16 c8 3d c2 49 04 3c 6a cf ab 3d b8 07 79 3c
       0.0976992 0.008074226 0.083891705 0.015199594
000050 8f 83 cd 3c 84 92 13 bc 6a c0 13 bd 90 35 eb bc
       0.025087146 -0.0090071 -0.036072172 -0.028712064
000060 47 65 98 3d e1 d6 d1 bc f2 82 62 3c 90 b5 97 3d
       0.07441192 -0.025615158 0.013825165 0.07407677
000070 fc da 27 bd 0b 2c b7 3d 0b d9 79 3d e1 8e 35 bd
       -0.040980324 0.089439474 0.060998004 -0.044325713
000080 8a ce d2 3d af cb 83 bc 3c 4f d6 3d 56 a2 c1 bd
       0.102933004 -0.016088335 0.104643315 -0.09454791
000090 7c c6 1b 3d 6d f7 f3 3d 67 94 ba 3c 2d 14 b8 bb
       0.038031086 0.11912427 0.022775842 -0.0056176395
0000a0 96 54 e5 bc 80 08 a9 3a 70 1d c9 3d bd 4b d5 bc
       -0.027994435 0.001289621 0.09820068 -0.026037091
0000b0 10 75 66 3d 32 4f ac bd b0 1b 4a 3d 6d e0 44 bc
       0.056263983 -0.08413543 0.04934281 -0.012016398
0000c0 96 e8 7d 3c 8b 52 89 bc f7 2e 12 3e 8a 8e e7 3d
       0.015497347 -0.016762992 0.14275728 0.11306484
0000d0 33 a7 55 3d e4 60 d8 bc
       0.052161407 -0.026413389

weight f4 [13, 54]
000000 17 5f 28 bd 21 c6 c3 bd a6 ce 2f 3e 65 ad bb 3c
       -0.04110631 -0.095592745 0.17168674 0.02290983
000010 58 f3 2d 3e 21 bc 2e 3d 78 aa f6 3d ee a8 3b 3b
       0.1698736 0.042659882 0.12044233 0.0028634625
000020 5f 19 84 3d 4e 12 28 3e de 30 9b 3d 3d 7d 1f bd
       0.06450152 0.16413233 0.0757768 -0.038937796
000030 a5 a0 4a 3b c1 ff 86 3d c0 f9 06 be 1d 16 02 bd
       0.0030918506 0.0659175 -0.1318121 -0.03175937
000040 b9 76 c3 bd 2e 28 cb 3c 0e ae 9d bc 62 15 b4 3d
       -0.09544129 0.024799433 -0.019248035 0.08793141
000050 6d 83 20 bd 7d c8 ed bc ae 3d 14 3e 38 6e cb bd
       -0.039187837 -0.029026264 0.14476654 -0.09933132
000060 53 d0 14 bd 5a 20 0a 3c 52 7f a8 3c 10 fb 26 3d
       -0.036331486 0.008430565 0.020568524 0.040766776
000070 c1 0a f6 3c fc 53 fd bc f0 1d cf bd cc 00 9e bd
       0.030034425 -0.030923836 -0.10113132 -0.07714996
000080 2e 71 2b bd ab e5 a4 3d bb 3a 22 bd 77 55 f6 bd
       -0.041855983 0.08051618 -0.03960679 -0.1202802
000090 9f 9c e5 3d ed 37 26 3e 3e 13 c9 bd b3 4e 2d bd
       0.11211514 0.16232271 -0.09818123 -0.04231138
0000a0 11 a9 1c 3e 6b ae 2e 3e 96 76 c1 bc 30 aa e4 bd
       0.15298869 0.17058723 -0.023616116 -0.11165273
0000b0 3c 89 a6 3d 94 c9 39 ba a1 b8 17 3e 7d d1 c4 3d
       0.08131644 -0.00070872274 0.14816524 0.09610269
0000c0 be 34 2b 3d 73 9e 7e 3d dc a7 01 3e ef ea 22 3e
       0.041798346 0.062162828 0.1266169 0.15909933
0000d0 1a ca 07 bd a1 f0 08 3e cb 53 99 3b cf 3b b8 bd
       -0.033151723 0.13373043 0.0046791784 -0.089957826
0000e0 52 2e c2 bd a8 d8 ae bd 8d 6c e3 bd cd 44 d1 3d
       -0.09481491 -0.08537418 -0.11104689 0.10218201
0000f0 61 ef 7f 3d 6e 5f d3 3d 65 e4 4e 3d db a6 3e bd
       0.06248415 0.10320936 0.050510783 -0.046545845
000100 1b b9 34 3c fa e6 9f 3d 2a 33 65 3d a0 03 bb 3d
       0.011030461 0.07807727 0.055956997 0.09131551
000110 8e fa c0 3d 63 2e f7 3d f8 b8 c3 bd 20 29 9f bd
       0.094227895 0.120693944 -0.09556764 -0.07771516
000120 42 1e bd bd b2 73 90 3d c3 19 8e 3d 35 07 80 3c
       -0.09234287 0.07053317 0.069385074 0.015628437
000130 79 63 d0 bd 0c 42 0e 3b 78 cb b6 bd 78 2b 07 be
       -0.10175223 0.0021706847 -0.08925527 -0.13200176
000140 1b 15 5e 3c de 2f a5 3a 63 a1 91 3c 93 01 4d 3d
       0.013554837 0.0012602767 0.01777715 0.05005033
000150 35 60 ad bc d0 62 ce 3c ce bb 03 bc 06 3e 23 3c
       -0.02116404 0.025193602 -0.008040382 0.009963518
000160 eb 8b dd bd 28 7c 08 be 21 d5 17 3d f2 54 02 be
       -0.10817703 -0.13328612 0.03706849 -0.12727717
000170 40 cd c5 bd a3 46 d8 bc f8 19 84 3d cd 92 7f 3d
       -0.09658289 -0.02640087 0.06450266 0.06239586
000180 23 52 6c 3c e5 33 bc 3d 08 0d b2 3d 8d 71 0d bd
       0.01442388 0.091895856 0.08693892 -0.03453212
000190 ec fb 68 bd 71 b4 1c 3d 74 07 e9 ba 1f 01 c7 3d
       -0.056880876 0.03825802 -0.001777871 0.09717011
0001a0 3f e4 ed bd 80 fe 58 3d 58 76 92 bd 17 f7 82 bd
       -0.116158 0.052977085 -0.071514785 -0.06394785
0001b0 89 76 b6 bd eb 14 dc bd 5a 7a 6a bd 3d cc 8a 3c
       -0.089093275 -0.10746177 -0.05724559 0.016943092
0001c0 58 b1 95 3d 37 df ab bd 33 3c 13 3e 5f 34 ec bc
       0.07309216 -0.08392184 0.14378433 -0.028833566
0001d0 99 49 70 bd e7 13 23 3e 17 50 ab 3d 45 c4 ab 3d
       -0.05866394 0.15925561 0.08364885 0.08387045
0001e0 41 47 17 3e 20 e4 e2 3c 87 e9 ec bd a4 d4 3b 3d
       0.14773275 0.02769667 -0.11567979 0.045857087
0001f0 13 77 db 3d 05 72 d5 3d 93 19 31 3e 9b 23 34 bd
       0.10716071 0.10422138 0.17294912 -0.04397927
000200 c2 ce 04 3e 70 77 c5 bd 2a 64 40 3e e8 41 c2 ba
       0.12969497 -0.096419215 0.1878821 -0.0014820667
000210 1a 56 0e 3e 98 52 ad 3d 4b d4 0e 3e 61 40 44 3d
       0.13900033 0.08463019 0.13948171 0.04791296
000220 3f db bd bb f0 88 a5 bc 32 37 cd 3c d8 4c 3e bd
       -0.0057939584 -0.020206898 0.025050733 -0.046460003
000230 bb 34 8b 3d a7 3c be 3d 8d f5 69 3d cd ea eb bd
       0.06797167 0.09288912 0.05711894 -0.11519394
000240 69 0c 48 bd 5a eb 30 3e 59 10 a1 3c dc 8f 5a 3d
       -0.04883996 0.1727728 0.019661115 0.05335985
000250 55 7f 37 3e 50 4e 22 3e 0e e5 21 3e 47 e0 41 3d
       0.17919667 0.15850186 0.15810034 0.04733303
000260 32 50 f7 3c b9 ea 31 bd 35 42 9c 3a 16 af 98 bd
       0.030189607 -0.04343674 0.0011921587 -0.0745527
000270 91 77 1c 3e 8e 1a d6 3d b6 5d 32 3e fe ae 02 3e
       0.15279986 0.10454284 0.1741856 0.12762067
000280 81 1d 82 3c 06 7d e1 3d 7c c1 d4 3c 36 22 04 be
       0.01588321 0.110101745 0.025971167 -0.12903675
000290 84 65 bd bd 63 14 83 bd f0 c3 c4 bd 46 41 de bd
       -0.09247878 -0.06400373 -0.096076846 -0.10852294
0002a0 42 5a 77 3c c0 0f c7 3d de 46 4c 3d 70 40 7f 3d
       0.015097203 0.09719801 0.04987227 0.06231731
0002b0 8f 51 16 bc 07 bd dc 3d 0a 7f b1 bd 54 08 86 bd
       -0.0091747185 0.107782416 -0.08666809 -0.06544557
0002c0 b2 55 c4 3d 3a 77 a4 3d 77 a2 14 be 46 04 11 3c
       0.095866576 0.08030553 -0.145151 0.0088511165
0002d0 bc c4 c0 3d ea 58 ea bd ac 4c 1d be bd a3 1b 3d
       0.09412524 -0.1144274 -0.15361279 0.03799795
0002e0 62 ec 7d bd 78 04 ab bd b7 e9 d6 3d 47 f3 b2 bd
       -0.06199301 -0.08350462 0.10493796 -0.08737808
0002f0 95 0b f8 3b 89 9c e2 bd cf 6f 02 3d 68 dd 07 be
       0.00756974 -0.11065013 0.03184491 -0.13268054
000300 f1 73 ad bd 98 01 07 3e c6 44 ea 3d a6 4d b5 3d
       -0.0846938 0.13184202 0.11438899 0.08852701
000310 9a c0 0a be b9 6e db bd e7 f9 bd bd c4 15 73 bb
       -0.13550034 -0.10714478 -0.09276181 -0.003709183
000320 b1 3f c4 3d 4f 91 c7 3d 81 cc 78 bd 6f 3e a6 3d
       0.09582461 0.09744512 -0.060741905 0.08117377
000330 23 72 9d bd 4c 0e d0 bd fb 76 c9 3d e3 2c df 3d
       -0.076877855 -0.10158977 0.09837147 0.10897233
000340 a7 32 f4 bd 9e 67 95 3d e8 8c b4 3d 21 86 f0 bd
       -0.11923724 0.07295154 0.08815938 -0.11744333
000350 d2 01 c9 3d 9a 37 7e bd 3e c8 bc 3d 82 49 e0 bb
       0.098148 -0.062064745 0.09217881 -0.0068447003
000360 b7 8c 12 3c ca 28 20 3d 7a 76 f7 3d 0c 1d a4 3d
       0.008944682 0.0391014 0.120831445 0.08013353
000370 14 cf 30 3d ba 4b 1d 3c 7c d8 81 3c d0 62 d4 bc
       0.043166235 0.009600574 0.015850298 -0.025926024
000380 7b 49 eb 3d f1 60 79 bd 02 b1 8b 3d f7 7a 0f 3e
       0.11488625 -0.060883466 0.06820871 0.14011751
000390 00 75 f3 3d 52 6c 4f bd 76 19 52 bc b1 65 2b 3e
       0.1188755 -0.05064041 -0.012823453 0.16738011
0003a0 83 43 8c 3d bb 7b f0 3c d6 58 0c b8 0b ba f6 bd
       0.06848814 0.029355874 -3.3461336e-05 -0.12047204
0003b0 75 57 fc 3d 5a 30 b6 3c c3 38 25 3e 5f 1c 5b 3c
       0.123213686 0.022239853 0.16134934 0.013373463
0003c0 95 92 fd ba b4 e1 d6 3d ef a8 dc bd a4 aa b6 3d
       -0.0019346053 0.10492268 -0.10774409 0.08919266
0003d0 8f 04 83 bd 14 88 16 3e 57 e6 6a bd 23 6e bd bd
       -0.06397354 0.14700347 -0.057348575 -0.092495225
0003e0 e5 27 09 3e 33 75 1e bd bd 06 97 3d e5 38 1b bd
       0.13394125 -0.03868599 0.07374332 -0.037896056
0003f0 d3 09 34 3e 03 9b 6c 3b 81 96 8d bd 49 db 44 3d
       0.17581873 0.0036103136 -0.06913472 0.04806069

bias f4 [13]
000000 4d d2 34 3c 85 d6 02 be 1b ef 05 3e ff 06 86 bd
       0.011036468 -0.12777145 0.13079493 -0.06544303
000010 b2 92 be 3d fb 04 da bd 6a 1b c3 bd 98 f1 8e 3d
       0.09305324 -0.10645481 -0.09526713 0.06979674
000020 8e c0 0f bd 3e 09 75 3d b1 b7 bd bc a7 ba 0b be
       -0.035095744 0.059823267 -0.02315888 -0.13645421
000030 c0 36 a3 bd
       -0.07969427

weight f4 [2, 13]
000000 c5 2a 33 3e db 11 9e 3d 7e 4a 9d be f0 bd 68 bd
       0.17496784 0.077182494 -0.30720896 -0.056821764
000010 0a d4 88 be 76 25 4d bd cf 6c 92 3e c2 d4 49 be
       -0.26724273 -0.050084554 0.2859864 -0.19710067
000020 3e 89 a7 be e9 a3 bd 3d 15 e2 a7 be 52 68 7c 3e
       -0.32721895 0.09259779 -0.32789674 0.2464917
000030 c2 79 f8 b8 c8 24 01 3e 66 62 e7 bd 99 c2 11 3e
       -0.00011848241 0.12611687 -0.11298065 0.1423439
000040 f4 5b 48 be cf 7e aa 3e 95 d8 24 bb 09 a3 41 bd
       -0.19566327 0.33299872 -0.0025153507 -0.047274623
000050 f2 7a 2a 3e 27 bc dc 3d 96 00 c0 3c 6d 28 8f 3d
       0.16648462 0.10778075 0.02343778 0.069901325
000060 26 d9 3c be 83 2f 42 3d
       -0.1844221 0.047408592

bias f4 [2]
000000 ce 61 83 bd be a2 9a 3e
       -0.06415139 0.30202287
