Network2/params/mlp_nnnParams0831142205.pth (torch_old, 33713 bytes, 12 tensors)

weight f4 [48]
000000 15 13 a9 3e cb 7d 36 3f da 4c 79 3e 0b 57 14 3f
       0.3302237 0.71285695 0.24345723 0.5794532
000010 6b 61 1f 3e 43 24 89 3f dd 45 e1 3e 6d c9 72 3f
       0.15564506 1.0714191 0.43998614 0.948386
000020 b9 80 90 3f 52 78 4a 3e 86 10 3d 3f 17 8c 70 3f
       1.1289283 0.19772461 0.7385334 0.9396376
000030 0c d4 ce 3e bf cf 70 3f ff 78 87 3f ae e6 f5 3e
       0.40396154 0.94066995 1.05838 0.48027557
000040 35 ed 2a 3f e2 a1 d1 3e 6b cb 91 3e 73 ed 4a 3f
       0.667682 0.4094382 0.28475508 0.7926857
000050 f2 1f 39 3f c5 2f 46 3f bd fe 54 3f c6 ff c1 3e
       0.7231437 0.7741664 0.832012 0.37890452
000060 4f fe 8e 3e 70 ac 07 3e 12 ba 92 3f 72 39 4c 3f
       0.27928397 0.13249373 1.1463034 0.79775155
000070 a5 0f 19 3e dd d9 4c 3f 77 19 e1 3e 21 c5 3e 3e
       0.14947374 0.80019933 0.4396474 0.18629886
000080 2e a7 85 3f d3 63 11 3f 4d 56 18 3f 47 51 2b 3f
       1.0441644 0.56792945 0.59506685 0.66920894
000090 06 7b a2 3f b7 8d 94 3f 41 29 f6 3e 4e 0a 7a 3f
       1.2693794 1.1605748 0.4807835 0.97671974
0000a0 21 da 4f 3f 97 44 15 3f 35 c3 50 3f 3c 7f 95 3e
       0.81192213 0.58307785 0.8154786 0.29198635
0000b0 6e 63 d5 3e 78 37 8c 3f 02 f2 80 3f 0e 1a 01 3f
       0.4167742 1.0954428 1.0073855 0.5043038

bias f4 [48]
000000 5a 11 e5 bd f2 da e1 3b b0 72 03 3e 32 8c e4 bc
       -0.1118495 0.0068925554 0.12836719 -0.027898882
000010 b6 2a 50 3c 5c cb 41 3d ba 24 80 3e 1a 81 02 3e
       0.012705496 0.04731308 0.2502802 0.12744561
000020 0a 4a 18 3e 03 11 19 be 8e c8 8a 3d 5e c9 c8 3c
       0.14871994 -0.14947896 0.06776534 0.024510082
000030 b8 27 3c 3d cb 19 92 3c 70 30 a5 3d b9 5b 13 3e
       0.045936316 0.017834565 0.08065879 0.14390458
000040 5f bd aa 3d 98 7d c9 3c be 6e 32 be 52 a9 c9 bd
       0.08336901 0.02459602 -0.17425057 -0.098467484
000050 b8 28 39 3d e8 24 e5 3a 51 b0 4a 3e 3e d7 d4 3d
       0.045204848 0.0017482312 0.19793822 0.10392617
000060 7c 88 3f 3e 26 95 2b be c9 f9 ec 3c 92 46 09 be
       0.18704408 -0.16756114 0.0289277 -0.13405827
000070 c9 e7 5b be 03 dc a6 3c 6b 35 19 bd d8 99 ac bd
       -0.21475138 0.020368582 -0.03740446 -0.08427781
000080 ae a2 f3 3d 3a 8b ce bd 9e d9 b9 bd 87 5d 48 3d
       0.11896263 -0.10085149 -0.0907471 0.04891732
000090 b8 ce 4f be 92 e6 cb bc be c0 0c 3e fa a9 89 bd
       -0.202937 -0.024890218 0.137454 -0.067218736
0000a0 f4 4c 49 bc 7f b7 6e 3d 69 cd 8b bb 2a 11 08 be
       -0.012286413 0.058280464 -0.00426643 -0.13287798
0000b0 b9 4c 9e 3d c7 e9 b3 bd e1 c0 33 be 27 0d 90 3d
       0.077294774 -0.08784824 -0.17554046 0.070337586

running_mean f4 [48]
000000 fb 17 62 3e da 01 55 3e 49 e9 fd 3e b2 81 66 3e
       0.2207946 0.20801488 0.49592045 0.22510412
000010 5a 72 4c 3e 33 39 01 3f f5 a5 6c 3e 0f 0f 58 3e
       0.19965497 0.50477904 0.23110183 0.21099494
000020 ed f8 fc 3e 49 82 64 3e eb 04 68 3e 7d fc fb 3e
       0.49408665 0.22315325 0.22658126 0.4921607
000030 43 35 61 3e ac 47 4f 3e fa 29 05 3f b1 3c 6f 3e
       0.21992974 0.20242184 0.52017176 0.23362996
000040 b9 4a 66 3e 18 c1 fd 3e 46 08 6f 3e 0e 9c 67 3e
       0.22489442 0.4956138 0.23343 0.22618124
000050 50 1a 00 3f 16 b7 6f 3e 80 52 51 3e ed bf 05 3f
       0.5004015 0.23409685 0.20441628 0.5224598
000060 91 20 6b 3e a6 54 70 3e 49 24 00 3f e6 75 77 3e
       0.22961642 0.23469791 0.50055367 0.24166068
000070 39 97 63 3e 66 68 02 3f 38 91 71 3e 5e c2 58 3e
       0.22225656 0.5094055 0.23590553 0.21167895
000080 f3 4d 08 3f 58 24 72 3e 9e a2 76 3e 4f d5 00 3f
       0.5324394 0.23646677 0.24085471 0.50325483
000090 ae 9b 70 3e 70 c5 6a 3e 71 d5 05 3f 9e 53 71 3e
       0.23496887 0.22926879 0.5227881 0.23567054
0000a0 e7 9d 61 3e 82 29 08 3f 78 fe 7b 3e 47 3b 6d 3e
       0.22032891 0.53188336 0.24608791 0.23167144
0000b0 bb 7b 03 3f 72 9d 72 3e 29 3f 7e 3e c8 52 02 3f
       0.5136067 0.23692873 0.24828781 0.50907564

running_var f4 [48]
000000 0b 2c f4 3c ed 0f 15 3d a1 ac 76 3d 08 95 f0 3c
       0.029806158 0.03639214 0.060223226 0.029367939
000010 a7 f4 01 3d 7b 3b 64 3d 5b 27 00 3d 35 2e 05 3d
       0.03172746 0.055720787 0.031287532 0.03251477
000020 73 26 6b 3d d2 46 05 3d 56 6b 1c 3d b5 bb 82 3d
       0.057409715 0.032538243 0.0381883 0.063834585
000030 72 10 f1 3c 2c 34 fa 3c 69 7b 4e 3d 38 6d 04 3d
       0.029426787 0.030542456 0.05041066 0.03233072
000040 a5 8f 04 3d 29 a2 62 3d f1 b2 fa 3c 51 0c 17 3d
       0.032363553 0.05533043 0.030602904 0.03687698
000050 5c a1 6d 3d b8 71 e2 3c 0a c3 f0 3c 8c 68 37 3d
       0.058015212 0.027642116 0.029389877 0.044777438
000060 96 61 f4 3c 9c a8 06 3d 90 e1 63 3d 89 bb f2 3c
       0.029831689 0.032875642 0.055635035 0.02963044
000070 17 d7 16 3d 9e bc 65 3d 01 f7 ed 3c 0c 54 f3 3c
       0.03682622 0.056088082 0.029048445 0.029703163
000080 9f 90 36 3d 46 ac f8 3c ba 4a 0b 3d e7 15 61 3d
       0.044571515 0.030355584 0.03400681 0.05495253
000090 48 79 ff 3c 75 c4 0d 3d be c9 49 3d bf 83 e9 3c
       0.031185761 0.034611184 0.049264662 0.028505204
0000a0 8b 38 f7 3c c9 3b 3a 3d 57 fc f1 3c 46 f5 06 3d
       0.030178329 0.04546717 0.02953927 0.032948755
0000b0 d7 c7 44 3d 25 98 f0 3c 8e bc 17 3d 30 76 5d 3d
       0.048042145 0.029369423 0.037045054 0.05406779

weight f4 [48, 48]
000000 28 9e b8 bb 25 f8 03 3e 68 c9 ee bd 9c a4 45 3c
       -0.005634088 0.12887628 -0.11659509 0.012063172
000010 9e af fd 3b 71 bc 2a 3d a4 7a c7 bd 5d b7 79 bd
       0.0077418825 0.041683618 -0.09740189 -0.060965884
000020 85 6b 76 3c 5e 46 24 3d 33 e6 b8 3d ae 66 ed bc
       0.015040283 0.04010617 0.09028282 -0.028979626
000030 5f f1 ac bc ff 77 b5 bd 96 c9 13 bd 2f b7 74 bd
       -0.021111188 -0.08860778 -0.03608092 -0.05974501
000040 aa 87 0d bc 7c 23 a9 ba 9c 44 1f bd ab fe e1 3d
       -0.008638302 -0.0012904252 -0.03888379 0.11034902
000050 e3 f8 fd 3d 05 61 a1 bc 70 56 9a bd 57 18 c3 3d
       0.12400987 -0.019699583 -0.07536018 0.09526127
000060 4c a4 e3 bd 20 49 99 bd 5c e1 3b bc d9 2c f2 3d
       -0.111153215 -0.074846506 -0.011467304 0.1182496
000070 a0 0a 70 bd b4 86 d3 bc ab 11 a2 bd 7a f4 4a bd
       -0.058603883 -0.025821067 -0.07913526 -0.049549557
000080 35 17 23 bc 99 d6 45 bc cb b6 d7 bc 94 41 5f bd
       -0.009954263 -0.01207509 -0.02633228 -0.0545059
000090 a6 a6 36 bc af ac 3a 3c 6a 16 25 bb 03 4d c1 bc
       -0.0111481305 0.01139371 -0.0025190362 -0.023596292
0000a0 a6 27 17 bd d5 df 06 3d 8b fd 4f bd 2e 0b f5 bd
       -0.036903046 0.032928307 -0.050778907 -0.11965023
0000b0 84 5a 02 3b b6 70 f9 3e 13 1a 58 be d2 dd 48 bc
       0.0019890377 0.48718804 -0.21103697 -0.012259917
0000c0 4d 5f a0 bd 90 2e 2a bd 22 d4 87 bd 40 2e ce 3d
       -0.07830677 -0.04154831 -0.06632258 0.10067415
0000d0 e4 e8 e6 3d cc 02 b4 3d 21 98 df bd 70 b2 6e bd
       0.11274889 0.08789596 -0.10917688 -0.05827564
0000e0 3f f2 78 bd fe 5a f8 3c 53 9e 9d 3d f8 a4 cf 3d
       -0.0607779 0.030316826 0.076962136 0.10138887
0000f0 28 b6 fa bd 99 c1 a2 bd 9c 7b 95 bc 44 8d 37 bd
       -0.12241775 -0.07947082 -0.018247418 -0.044812456
000100 c9 9a 90 bd 6e 96 96 3d 83 39 2f 3e 2f 8d 14 be
       -0.07060773 0.07352911 0.17111783 -0.14506982
000110 a3 e9 31 3e 96 73 36 bc 52 f0 68 bd cc f8 72 3d
       0.17374282 -0.011135956 -0.056869812 0.059319302
000120 2a 3c c0 bc b7 43 01 3e 5a 44 f2 3c 48 86 a6 bd
       -0.023466188 0.12623487 0.029573608 -0.08131081
000130 93 cb b5 3c d3 62 c4 3c 27 99 08 be 74 a4 14 3d
       0.022191798 0.023972904 -0.13339673 0.036289647
000140 7c 7c db bc 1c 19 b5 3d 12 65 5c 3d f1 3e db 3d
       -0.026792757 0.0884268 0.053807326 0.107053645
000150 3d 26 36 3b 31 f1 52 3d b9 63 f5 bc d1 8d 3a 3d
       0.0027793788 0.05149955 -0.029954778 0.045545403
000160 fc 6f 08 3d 5d 67 86 3d 22 af ee 3b da cb 50 3d
       0.03330992 0.06562684 0.007284061 0.050975658
000170 e2 52 98 bc 5a 4b ce 3e 05 18 cf be ce 7b 0e 3e
       -0.01859421 0.40291864 -0.40448013 0.13914415
000180 2b 67 2c be e2 d3 94 bd 74 4b 83 3e 81 fd f3 bd
       -0.1683623 -0.07266976 0.25643504 -0.119135864
000190 0b 51 c9 bc 4e b9 8f 3e 0e 21 70 3d 67 11 90 bd
       -0.024574777 0.28071064 0.058625273 -0.07034569
0001a0 73 e7 a1 3e d3 0d 24 be 73 6a 70 bd e4 46 c0 3d
       0.31621894 -0.16020899 -0.058695268 0.09388521
0001b0 75 6a 82 bd 85 53 b9 bd 07 33 88 3e 5e 5f 0b be
       -0.06367961 -0.09049133 0.2660143 -0.13610598
0001c0 4d d7 24 be 7e dd cf 3d cc e5 37 be 04 aa d9 bd
       -0.16097756 0.10149668 -0.17958754 -0.10628131
0001d0 47 52 7d 3e 99 42 52 be a8 df 19 be 4e 36 2d 3e
       0.24738418 -0.20533217 -0.15026724 0.16915247
0001e0 5b fb 8b 3c d0 8f 04 be e3 3d 7b 3e a0 b5 1a be
       0.017087629 -0.12945485 0.24535327 -0.15108347
0001f0 5c ca 7f be 93 d0 20 3e 91 b2 ed bc bc 45 e1 bd
       -0.24979538 0.15704565 -0.029015811 -0.10999629
000200 b0 aa 91 3e 65 90 58 be 76 a2 1d be 25 35 25 3e
       0.28450537 -0.21148832 -0.15394005 0.16133554
000210 a8 72 06 be c6 01 d4 bd 27 7e 70 3e bb 55 31 be
       -0.13129675 -0.10351901 0.23485623 -0.1731786
000220 70 c8 a5 bd 28 29 8a 3e 17 65 08 be 1f 7f 15 be
       -0.08094871 0.26984525 -0.13319813 -0.14599274
000230 e0 04 93 3e 9d ac 0c be cb 88 fd bd cf f4 4a 3e
       0.28714657 -0.13737722 -0.12379607 0.1981995
000240 fd d3 88 3d 8f 22 40 be cc 60 1f 3e 64 96 0a bd
       0.066810586 -0.18763183 0.15564269 -0.03383483
000250 b0 c3 5b 3b 40 62 36 3c e5 e3 59 bd a2 a6 8d bd
       0.0033533387 0.011131823 -0.053195853 -0.06916548
000260 03 6f 85 bd c4 a4 ff bd c6 24 97 3d 22 4e 07 3e
       -0.065153144 -0.124825984 0.07380061 0.13213399
000270 e8 14 5e bc ea 3d 15 3d 3c f5 ed 3d e2 01 d4 3b
       -0.013554789 0.036436 0.1161904 0.006469951
000280 d1 a1 59 3d ae ad 3c 3d f5 e6 02 3d 8d 29 e3 bd
       0.053132836 0.04606407 0.03195854 -0.110919096
000290 6a d6 ba bc c7 8e fe bc 72 52 03 bd cb c1 bc 3d
       -0.022807319 -0.03107394 -0.032061048 0.092166506
0002a0 46 66 43 3d 49 2c 83 bc 21 dc 9d 3c 2c 85 1e be
       0.047704957 -0.016012328 0.019270005 -0.15480489
0002b0 a8 e5 a4 3c 67 e8 0b 3e ce 2e 3c 3a 50 7d 5c bc
       0.02012904 0.13662873 0.00071786053 -0.013457611
0002c0 71 1c 4c bb 59 2b 56 3d 11 65 8e 3d 6d 35 97 3d
       -0.0031144882 0.052287433 0.06952871 0.07383237
0002d0 42 22 b1 3e fa ce 5b 3c 55 88 17 be ce 76 f7 bc
       0.3459645 0.013416046 -0.147981 -0.030208018
0002e0 ee cc 8d bd bc f4 39 bd 2b ba 87 bc 92 e5 d0 3d
       -0.06923853 -0.045399413 -0.016568264 0.10200037
0002f0 9a 52 a7 3d 3d 36 2e 3d 23 92 77 3e 71 3d 53 3d
       0.08170052 0.042532194 0.2417684 0.051572267
000300 a0 18 13 3d cb 0d 87 3b 5c 0c 50 3e 98 84 23 be
       0.035912156 0.0041215173 0.20317215 -0.15968549
000310 7b 75 30 3d 43 6b a9 3e 2e eb 92 3d db 91 14 be
       0.043080788 0.33089647 0.07173763 -0.14508764
000320 66 2e 0a bd 73 7e 87 3d 60 da 41 3d 9d e3 dd 3d
       -0.033735655 0.06615915 0.0473274 0.108344294
000330 d0 60 3b bc 96 b0 29 3d 48 5f 2e 3e 4a 12 22 be
       -0.011436656 0.04142817 0.17028534 -0.15827289
000340 23 ce 09 3c d1 7d be bc 2d 2b bd bd fe f8 af bd
       0.008410963 -0.023253353 -0.09236751 -0.08592413
000350 25 bd 08 bd 3f e5 2b bd 2f be 9d bd e4 19 88 3e
       -0.033383507 -0.041966673 -0.0770229 0.26582253
000360 c6 33 1f be b1 27 7a be 60 76 f2 bc 2e 1b 82 bd
       -0.15547094 -0.24429204 -0.029597461 -0.0635284
000370 81 12 c8 bd 35 a1 29 3c a4 2d 22 be ea 98 fe bd
       -0.09769154 0.010353376 -0.15837723 -0.1243151
000380 26 6f 32 3e 3c 8f 2c 3d 86 1f 4b bc 82 b8 d5 3d
       0.17425212 0.042128786 -0.0123976525 0.10435583
000390 e0 60 73 bd e3 21 19 bd 06 30 1a bd 81 dc 0d 3d
       -0.05941856 -0.037385833 -0.037643455 0.034634117
0003a0 99 5e 27 be e6 e7 0b 3e 97 a7 98 bc 41 f0 31 bd
       -0.1634468 0.13662681 -0.0186346 -0.043442015
0003b0 c1 38 46 3e 64 27 7f bd 5b 01 d7 bd 9e d5 6b 3c
       0.19357587 -0.062293425 -0.104983054 0.014394192
0003c0 bc bf c2 3c 02 f2 32 be 01 c6 ad 3c 2b 63 5b 3d
       0.023773067 -0.17475131 0.02121258 0.05356137
0003d0 1a 8c 9e 3c a2 41 d7 3d fe e2 3b 3d 14 3a 20 bd
       0.019353915 0.10510565 0.045870773 -0.039117888
0003e0 a9 18 d9 bd 58 ed 97 3d 67 cf 51 3d 02 d4 65 bd
       -0.10600407 0.074183166 0.051223185 -0.05611039
0003f0 8a 31 85 bd 11 4e 15 3d bc 82 33 3d e8 1c a8 3d
       -0.065035895 0.036451403 0.04382585 0.082086384

bias f4 [48]
000000 01 1a 09 be 80 d5 73 bc 1c bc 10 3e cb 05 89 bd
       -0.13388826 -0.014882445 0.14134258 -0.06690558
000010 68 d5 6c 3d 13 1e 14 be 76 8b fb bd 6a 82 31 be
       0.057820708 -0.14464597 -0.122824594 -0.17334905
000020 d4 07 96 3c 3c 10 1b 3e 76 20 0b be 32 47 bd bd
       0.01831428 0.15142912 -0.13586602 -0.09242095
000030 23 a8 9d bd 1b d1 46 be fa b3 b8 3d e7 ef 01 be
       -0.07698085 -0.19415705 0.09018703 -0.12689172
000040 c2 cd 07 bd 31 3b 3f 3e 41 af 05 3c 60 e5 2f be
       -0.03315521 0.18674923 0.00815946 -0.17177343
000050 1b 26 d3 bd a4 81 cb 3d 55 8b 1e 3e 9a 92 a4 3d
       -0.103100024 0.09936836 0.15482838 0.080357745
000060 ef 63 a9 bd b8 14 a4 3d c0 df 59 bd b2 89 e7 bd
       -0.08271014 0.08011764 -0.0531919 -0.1130556
000070 49 e6 1e be 5e 69 39 bd 6e 6a ca bd 68 b4 ad ba
       -0.15517534 -0.0452665 -0.09883581 -0.0013252618
000080 f3 b1 90 3d e3 bd 00 3e f4 ff 53 3d 5e 26 08 3e
       0.07065191 0.12572436 0.051757768 0.13295886
000090 38 73 c2 3d 28 d3 65 3e 1d a6 c0 3d 6a 50 2b 3e
       0.094946325 0.22443831 0.094066836 0.16729894
0000a0 7a 93 2d 3c 14 60 65 3d db 12 07 3e e2 bf 27 bd
       0.010594243 0.05599983 0.13190787 -0.040954478
0000b0 d8 45 b6 bd d2 75 e4 3b 5f 73 9a bd a0 c3 59 be
       -0.089000404 0.006972053 -0.075415365 -0.21266031

weight f4 [24, 48]
000000 1f 5c 0e be 1a f2 23 be b4 57 a5 3e ad 15 0d be
       -0.13902329 -0.16010323 0.32293475 -0.137778
000010 04 32 40 3d 49 94 a0 bd 44 f5 20 be 62 18 49 be
       0.0469227 -0.07840783 -0.15718561 -0.19638208
000020 34 aa b4 3e 35 4a 07 bc 8c 8b 38 be 51 83 a6 bd
       0.35286105 -0.008257438 -0.18021983 -0.08130515
000030 7b 8d 01 3e ec 19 a2 bd 85 ee b7 3d 4c 66 ea bd
       0.12651627 -0.079151005 0.08981041 -0.11445293
000040 87 e2 15 be 57 c1 d6 3e 29 c5 80 3e 97 91 10 be
       -0.14637195 0.41944382 0.2515042 -0.14118038
000050 aa dd bb bd 61 ed de 3e 60 b8 2c 3e 90 0c c4 3c
       -0.091731384 0.4354048 0.16867208 0.023931772
000060 48 b4 06 bd 73 ad d8 3e 11 f4 48 be 20 ad 17 be
       -0.032886773 0.4231983 -0.19624354 -0.14812136
000070 c8 af 25 be 68 55 75 bb a4 fd 97 bc c5 75 0c be
       -0.16180336 -0.003743494 -0.018553562 -0.137168
000080 98 32 0e 3e 5e 7e d8 3b 67 4c 37 3e 79 56 43 3d
       0.13886487 0.006606861 0.17900239 0.04768989
000090 df 30 db 3e 5e dc e5 3e 1b 12 98 3e 1a 95 f0 3d
       0.42810723 0.4489469 0.29701313 0.11747189
0000a0 9e e0 d5 3e 4b b3 bb 3e f4 7c cf 3e 58 19 98 3d
       0.41772932 0.36660227 0.4052502 0.07426709
0000b0 2d 24 39 be 47 16 f2 bd cd b0 a7 3d 9b de 56 be
       -0.18080206 -0.11820655 0.08188019 -0.20983355
0000c0 fc 36 21 bd b5 30 35 be c1 e1 cc 3d 27 ac 3e be
       -0.039359078 -0.17694362 0.10003997 -0.18620358
0000d0 7a 79 fa 3d da f9 10 be b3 d0 8d bd db 64 3b be
       0.12230201 -0.14157811 -0.06924572 -0.18300192
0000e0 90 4d 21 3e e4 8d 8e 3d a6 05 d9 bd 82 b8 eb bd
       0.15752244 0.06960657 -0.105967805 -0.115098014
0000f0 94 5b b0 3d 8c 37 20 3c da 30 38 3d 7b 79 20 be
       0.08611217 0.009778868 0.044968463 -0.15671341
000100 03 71 c5 bd c9 aa 8c 3e 9a e2 4f 3d 0d 4c 2b be
       -0.09640696 0.2747405 0.050753213 -0.1672823
000110 4e 5d f3 bc 5a 94 7e 3e 3b 74 35 3d b9 6b 55 bd
       -0.029707577 0.24861279 0.0443003 -0.052104685
000120 2f 1f 2a 3c bc c2 b2 3d 5a 7a 41 be 84 aa 2a be
       0.010383411 0.08728549 -0.1889433 -0.16666609
000130 ae 32 07 be 6e b4 4f bd 4f 2a 44 3d 7f f2 20 3d
       -0.13202927 -0.05070918 0.04789191 0.039293762
000140 00 76 40 3e e3 81 11 3d 57 03 4c b9 1c ab f8 3d
       0.18795013 0.03552426 -0.000194562 0.121420115
000150 a8 d5 5c 3e 57 01 2b 3e d5 b7 0c 3e ef 69 13 3c
       0.21565878 0.1669973 0.13742001 0.0089974245
000160 6d 03 cf 3d 46 2f 47 3e 49 6f ae 3d a3 48 4e bd
       0.10108075 0.19451627 0.0851732 -0.05036224
000170 fd 14 24 be 15 7b 23 bd a0 bb 67 3d 4d ed cf bd
       -0.16023631 -0.039912302 0.056575418 -0.101526834
000180 c0 87 0b 3e b1 6a 87 3e b6 e5 0c 3e f0 0d 98 3e
       0.13626003 0.26448587 0.13759503 0.29698133
000190 1e 8e 21 3e 5f e9 70 bd 36 42 39 3e 92 78 a2 3e
       0.1577687 -0.05881631 0.18091664 0.31732613
0001a0 c2 36 8f 3d 5f 73 1a bc 27 9a 81 3e 3d aa 7a 3e
       0.06992866 -0.009426921 0.2531292 0.24479003
0001b0 aa 5e e3 3d 2c 09 63 3e 7a af 41 bc 37 fa d8 3d
       0.1110204 0.22171468 -0.011821622 0.105946
0001c0 83 d0 92 3e 46 d6 31 3b 4e 48 95 3d 98 b7 85 3e
       0.28674707 0.0027135774 0.07289182 0.26116633
0001d0 d9 8b 85 bd 88 b5 80 3c f9 4f 08 be 8d 3e 13 be
       -0.065208144 0.01571156 -0.13311757 -0.1437933
0001e0 9b 56 ab bd bd d7 41 3d 83 f3 37 3e 43 43 00 3e
       -0.08366128 0.047324885 0.17963986 0.12525658
0001f0 bb 1b 82 3e a5 d2 2e bb 7c 0e 17 be dc d8 20 3e
       0.25411782 -0.0026675847 -0.14751619 0.15707725
000200 dd 7a 0d be 20 f7 e4 3c 7f 11 c4 bd 5d 4a 84 bd
       -0.138164 0.02794987 -0.095736496 -0.06459496
000210 79 02 12 bd 98 2b 24 3d 6e ac 24 bc bf 0b 76 bd
       -0.03564689 0.040080637 -0.010050876 -0.060069796
000220 a8 37 48 3d fc 7f 30 3d 1c c1 30 bd b6 9a e5 3d
       0.048881203 0.043090805 -0.043152913 0.112111494
000230 99 bd 82 3e 85 b7 03 be 60 91 15 bd 45 70 d7 bb
       0.25535277 -0.12862976 -0.036515594 -0.006574663
000240 f9 36 e4 bd 42 19 51 be 47 cc c3 3e c2 36 4e be
       -0.11143298 -0.20419791 0.3824179 -0.20138076
000250 01 81 26 3e bd 54 e5 bd 23 1d 51 be a0 d2 84 be
       0.16260149 -0.11197803 -0.20421271 -0.25941944
000260 78 85 f2 3e fe 27 f5 bc 17 37 44 be d5 76 08 be
       0.47367454 -0.029926296 -0.1916164 -0.13326581
000270 db 7d 2b 3e e6 5e f8 bd 47 36 d7 bc d4 df 3a be
       0.16747229 -0.121274754 -0.026270999 -0.18249446
000280 d2 48 3b be 5c d9 7f 3e e1 78 11 3f 0c b2 11 be
       -0.18289497 0.2498526 0.5682507 -0.14228076
000290 92 2e ef 3c e8 24 a5 3e bb 63 44 3e e9 24 ab bc
       0.029197011 0.3225472 0.19178669 -0.020891624
0002a0 74 6e 13 3d 76 a2 0b 3f bd b2 81 be 6e 09 35 be
       0.03599401 0.5454477 -0.2533168 -0.17679378
0002b0 43 3f 10 be ef fd 5b 3d 9b fa 1f 3e 90 3d 47 3c
       -0.14086632 0.053708967 0.15622942 0.012160674
0002c0 bb 17 2c 3e 5e 01 d2 bb 62 83 2f 3e db 27 14 3c
       0.16805927 -0.0064088544 0.17139962 0.009042705
0002d0 1e 81 eb 3e b4 1b d7 3e 97 a0 bc 3e 42 30 45 bd
       0.45996946 0.42013323 0.3684127 -0.048141725
0002e0 b9 a1 be 3e c5 30 cc 3e db d2 10 3f 73 0d cf bd
       0.3723276 0.39880958 0.5657174 -0.10109987
0002f0 1b 59 51 be 33 1b e8 bd 08 07 34 3d 91 bb 54 be
       -0.20444147 -0.11333313 0.043952018 -0.20774676
000300 70 d7 10 be 8c 27 9b bd dd 0f 3e be d7 2d 12 be
       -0.14144683 -0.07575902 -0.18560739 -0.14275299
000310 87 90 1d be 6d a6 fa bc fb e9 f4 bd da 84 55 be
       -0.15387164 -0.030596936 -0.11958691 -0.2085146
000320 3f 79 ef bd b3 0d 77 bd d0 c8 12 be 2f 77 01 be
       -0.11693048 -0.0603158 -0.14334416 -0.12643121
000330 84 99 b2 bc 2b 2a 95 bc 53 e5 ca 3d a8 82 f8 bd
       -0.021801718 -0.018208584 0.099070214 -0.12134296
000340 bf fa 02 be ea 22 ee bd c7 0f 33 be 7b ec 85 be
       -0.12790965 -0.11627753 -0.17486487 -0.26156983
000350 57 ff e8 3c 11 22 4e bd d5 02 3d be 24 7c aa bd
       0.028442068 -0.050325457 -0.18458112 -0.08324459
000360 be 77 14 3d de 53 cb bd 74 ea 2a be 7c 3f b2 bd
       0.036247008 -0.09928106 -0.16691 -0.08703515
000370 5a 07 06 be ad 91 cf 3d 47 39 9b bd f2 80 c5 3d
       -0.13088742 0.10135207 -0.07579284 0.09643735
000380 5a d4 dc bd cc 63 03 bd 2d c1 0a be de 17 a1 3b
       -0.1078269 -0.032077596 -0.13550253 0.0049161753
000390 f2 57 f5 bd eb d4 74 bd 61 cc 40 be 5a 28 a5 3b
       -0.11979665 -0.059773367 -0.18827964 0.0050402107
0003a0 c6 3b 03 be f1 9f 4d bd 94 a6 ff bb 66 6a 7d 3d
       -0.1281577 -0.05020136 -0.00780184 0.061869048
0003b0 5a 83 71 bd 7b a1 f4 bd e4 21 34 3e 90 6d 25 be
       -0.058963157 -0.119448625 0.17591053 -0.16155076
0003c0 e7 58 89 3e 7d 76 60 3e ea 6b 4a bd d0 85 31 3e
       0.2682564 0.219202 -0.04941932 0.17336202
0003d0 e3 70 91 bb b3 fc 80 3d c5 ee 36 3e 6e 87 37 3e
       -0.004438506 0.062981986 0.17864521 0.17922756
0003e0 68 94 17 bd 48 6a 1c be 77 26 79 3e 20 b2 9e 3e
       -0.037006766 -0.15274918 0.2433108 0.30995274
0003f0 ca e7 64 bc 9c d6 c5 3d fe 2e 81 bd 45 8b 66 bd
       -0.013971278 0.09660074 -0.06307791 -0.05628516

bias f4 [24]
000000 d6 cf 85 3e e0 82 57 3e 96 f5 21 3d 40 f6 b2 3e
       0.2613513 0.21046019 0.03954085 0.349535
000010 dc 4a 62 bc b7 5c 3f 3d a1 01 a9 3e 14 96 b1 bc
       -0.013811793 0.04671928 0.33009055 -0.021678008
000020 4b db 03 bc 8e bf 96 3e 47 ea cb 3c 65 09 76 3e
       -0.008047889 0.2944302 0.024891986 0.24027021
000030 a6 cb 86 3e 48 55 fd 3b b2 7a 04 be 97 19 74 3e
       0.26327246 0.0077311136 -0.1293743 0.23837887
000040 06 36 49 3e ac cf 26 3b c7 6a 1c 3d 56 d0 1c be
       0.19649515 0.0025453372 0.03818777 -0.15313849
000050 7a e4 84 3e d2 03 19 3b 4c 3c 7f 3e 3e d7 b0 bd
       0.25955564 0.0023348224 0.24925345 -0.08634804

weight f4 [6, 24]
000000 bf 02 45 3f 17 09 a6 3e 88 fc 8d be 2b ab 6e 3f
       0.76957315 0.3242881 -0.2773173 0.9322993
000010 b6 3e b2 3d 01 25 bc be be bd 35 3f b4 ac dd bd
       0.087033674 -0.36746982 0.7099265 -0.10823956
000020 06 79 48 be e9 e4 53 3f b5 74 01 3e 63 fc 4b 3f
       -0.19577417 0.82771164 0.12642176 0.79681987
000030 34 5d 0a 3f 96 bf 98 be b0 01 55 3f b7 7a 21 3f
       0.54048467 -0.29833668 0.832057 0.63077873
000040 10 19 1e 3d 0b 95 90 be a2 9a d0 3d 74 0c 70 3f
       0.03859812 -0.2823871 0.10185744 0.93769
000050 e4 a9 13 3f 2f 1d 94 be d6 46 94 3f 6d 79 76 3f
       0.5768111 -0.28928515 1.1584117 0.9627903
000060 0f 69 0f bf 21 cc 22 be 15 39 cd 3e 0f 49 f3 be
       -0.5601968 -0.15898181 0.40082613 -0.47516677
000070 67 d0 d0 3b 15 21 d6 3e d5 13 c7 be a0 a1 fd 3e
       0.0063724997 0.41822115 -0.38882318 0.49537373
000080 fe 48 c2 3d 94 48 27 bf 25 b8 08 be da f9 1a be
       0.094865784 -0.6534512 -0.13351496 -0.15134373
000090 d3 bd 58 bf 6f 95 f6 3e dc d2 7a bf 01 04 fc be
       -0.8466465 0.48160884 -0.97977996 -0.49221805
0000a0 70 af 85 3e 6c 5a 78 3e ff 02 b0 be 0d 7d 5a bf
       0.2611041 0.24253243 -0.34377286 -0.8534706
0000b0 03 91 ba be 0e 77 b1 3e a6 83 63 bf 8d e0 92 bf
       -0.3643876 0.34661144 -0.88872755 -1.1474777
0000c0 b7 42 46 3f 79 d2 09 3f 73 75 3c be fe 21 69 3f
       0.7744555 0.5383678 -0.18404178 0.9106749
0000d0 02 f1 9a 3d ff 13 82 be 22 d4 3f 3f ac 1c 51 be
       0.075655 -0.2540588 0.74933064 -0.20421094
0000e0 cf ea b0 bc 31 99 45 3f db 26 51 3d a1 4c 36 3f
       -0.02159634 0.77186877 0.051062446 0.71210676
0000f0 a7 b4 42 3f c9 77 33 be 3c f6 82 3f 6c c2 21 3f
       0.76056904 -0.17526163 1.0231395 0.6318729
000100 fd 51 1f 3d dd 2e 7d bd 22 69 ef 3e ce 5f 80 3f
       0.03889655 -0.06181227 0.46759897 1.0029237
000110 64 7f 28 3f 58 73 03 be d3 74 91 3f 23 72 5e 3f
       0.6581938 -0.12836969 1.1363777 0.8689291
000120 ba c9 0f 3f af af b5 3e 50 c8 3e be af b8 09 3f
       0.56167185 0.35485598 -0.186311 0.5379743
000130 ad 46 9c 3e 47 4d 57 be 47 dc b6 3e c6 d1 fd bd
       0.3052267 -0.21025573 0.35714933 -0.12393527
000140 13 83 5a bd 8b 9b 0b 3f 17 75 71 3e af 77 0e 3f
       -0.05334766 0.54534215 0.23579822 0.5565137
000150 d7 f7 49 3e 51 58 4f be c6 30 17 3f 6c 5d e7 3e
       0.1972345 -0.20248534 0.590588 0.45188463
000160 b8 09 e3 3d 90 80 65 be 8c 60 8d 3e a2 c5 17 3f
       0.11085838 -0.22412324 0.27612722 0.5928594
000170 de b9 c2 3e 7a c7 7f be 08 e8 43 3f f7 dc f4 3e
       0.3803243 -0.24978438 0.76525927 0.47824833
000180 d7 07 42 3f ef 1b ac 3e d4 63 02 be 3f 53 47 3f
       0.7579321 0.33615062 -0.12733394 0.778614
000190 2b 77 20 3e 43 2a 22 be 9d ca 35 3f a0 68 0f be
       0.15670459 -0.15836434 0.7101229 -0.14004755
0001a0 9d a4 55 be 61 96 41 3f 4f c2 99 3e 36 bf 1c 3f
       -0.20863576 0.75620085 0.30031058 0.61229265
0001b0 c4 f2 a4 3e 2a ee 9e bd 66 e2 74 3f f3 64 13 3f
       0.32216465 -0.0776027 0.95657957 0.5757591
0001c0 6f dc c2 3d c1 19 6c be 01 42 99 3e a2 9e 8c 3f
       0.095147006 -0.230567 0.2993317 1.0985911
0001d0 ea d3 04 3f 7d 75 7f be 6b 46 68 3f 5b e1 6b 3f
       0.51885855 -0.24947162 0.9073245 0.9214074
0001e0 35 94 c5 be 7f b5 91 bd 74 ac b7 3e 28 a3 fd be
       -0.38589635 -0.07114696 0.3587376 -0.4953854
0001f0 f1 58 ff bd 7a ca ca 3e 78 8d f0 be 3f b4 ed 3e
       -0.12468136 0.39607602 -0.46982932 0.4642658
000200 31 cd 87 3d f0 0a e3 be 56 be 5b be 72 b4 95 be
       0.06630934 -0.44344282 -0.21459326 -0.2923923
000210 c5 b6 9c be f1 04 ed 3e 62 92 97 be 42 b0 89 be
       -0.30608192 0.46292832 -0.2960387 -0.26892287
000220 2c 61 06 3d 21 88 84 3e 43 63 8f be 22 c7 43 bf
       0.032807514 0.25885108 -0.28005418 -0.7647573
000230 e1 1f df be 88 f2 c0 3e 21 64 3e bf 6d 97 f2 be
       -0.4357901 0.37685037 -0.74371535 -0.47381154

bias f4 [6]
000000 48 64 01 3e 5c cf 9b 3d 15 50 7d 3d 01 d0 c2 3d
       0.1263591 0.0760791 0.06184395 0.0951233
000010 f0 9b 37 3d 1d de 2a 3e
       0.044826448 0.16686292

weight f4 [2, 6]
000000 1e 09 06 c0 97 63 59 3f c6 50 06 c0 da 1b 80 bf
       -2.0943065 0.8491759 -2.09868 -1.00085
000010 2c 51 e8 bf 4f ac 46 3f a7 e8 4f 3f cb d8 95 bf
       -1.8149772 0.7760667 0.81214374 -1.1706785
000020 e3 9a 25 3f 95 fd 80 3f 10 0d 6b 3f a9 76 84 bf
       0.64689463 1.0077387 0.91816807 -1.0348712

bias f4 [2]
000000 11 28 09 3f 8b 81 a7 3c
       0.5357676 0.020447513
