Network2/params/mlp_nnnParams0831104201.pth (torch_old, 18903 bytes, 12 tensors)

weight f4 [9]
000000 9a 10 62 3f a7 23 e9 3d 74 59 33 3f 3a c1 f6 3e
       0.8830658 0.11383753 0.7005837 0.48194295
000010 c2 8c 08 3f 72 3b 92 3e cf 13 34 3f 59 e3 0b 3e
       0.5333978 0.28560978 0.70342726 0.13660945
000020 4f 82 6b 3f
       0.9199571

bias f4 [9]
000000 33 e5 af 3c 33 ae 2f 3b a8 14 a0 3c 3a 9a 1b 3d
       0.021471595 0.0026806712 0.0195411 0.03798888
000010 d8 73 47 bd dd 85 39 3d 54 2e 31 bd c2 7b 2f 3d
       -0.04869446 0.045293678 -0.043257073 0.042842634
000020 30 e8 17 3c
       0.009271666

running_mean f4 [9]
000000 aa 73 6a 3e 8c e5 67 3e 91 e5 06 3f a5 12 68 3e
       0.22895685 0.22646159 0.5269404 0.22663362
000010 f7 1f 5c 3e d0 2d 0b 3f b6 67 76 3e 66 54 6d 3e
       0.21496569 0.5436678 0.24063 0.23176727
000020 12 cd 05 3f
       0.5226604

running_var f4 [9]
000000 44 bf e9 3c 24 de 0e 3d c1 d3 49 3d 55 89 12 3d
       0.028533585 0.03487982 0.04927421 0.0357755
000010 57 ed 0b 3d 7f 8c 4d 3d 4b 55 0c 3d 19 68 0f 3d
       0.03416189 0.050182816 0.03426103 0.035011385
000020 d8 e8 72 3d
       0.05930409

weight f4 [9, 9]
000000 05 f0 0c be 66 58 17 be dc ac e9 bd 2d ee ef 3d
       -0.13763435 -0.14779815 -0.114099234 0.1171535
000010 9b 31 5b 3e 88 8d a9 bb 0e bb c2 3d 9c 9d 58 3e
       0.21405642 -0.0051743425 0.09508334 0.21153873
000020 82 4c 8d bd 03 3e 85 3e 33 74 6f 3e a2 5a 85 3e
       -0.06899358 0.26023874 0.2338417 0.2604571
000030 7f fc 90 be 28 aa 93 be 2a b8 f9 3d 68 8f 8e be
       -0.2831764 -0.28840756 0.1219333 -0.27843785
000040 dc d1 25 be d6 74 94 3e 3a 62 32 bd 00 56 c7 3c
       -0.16193336 0.2899539 -0.043550707 0.024333
000050 12 04 08 be 68 e3 8c 3e 2e 2b 90 bd fd 0a bd 3d
       -0.13282803 0.27517247 -0.07039486 0.092306115
000060 3c e6 a1 be 16 dc 9c 3e 38 b8 59 bd 0c 61 ae 3d
       -0.31620967 0.30636662 -0.0531542 0.08514604
000070 5a 7a 73 be 28 37 5d 3e 7e 62 87 bd bc 25 86 bc
       -0.23777142 0.21603072 -0.06610583 -0.016375415
000080 b0 75 27 3e 1e 09 29 3d 98 28 63 3e f2 76 7a be
       0.16353488 0.04126846 0.22183454 -0.24459437
000090 cc c3 da 3d 7c 16 53 bd 15 66 28 be c0 6a 72 3d
       0.106818765 -0.051535115 -0.16445191 0.059183836
0000a0 59 7b f5 3d 65 c9 37 be f0 0a 97 3e 3a fc 87 be
       0.11986417 -0.1794792 0.29500532 -0.2655962
0000b0 cd 0f 85 3e 6d 41 db bd 7a c1 4f bd 17 f0 69 3e
       0.25988618 -0.10705838 -0.050721623 0.22845493
0000c0 74 92 88 be e8 35 a5 3c bb 87 50 be d4 23 97 3d
       -0.26674235 0.020167306 -0.20364277 0.073798805
0000d0 1d 04 0e be 73 de a9 be 93 40 44 3e c8 d9 81 3d
       -0.13868757 -0.33177528 0.19165258 0.063403666
0000e0 f0 00 50 be 68 f3 93 3e 53 7a 37 be 23 f1 1e 3d
       -0.20312858 0.28896642 -0.17917757 0.038804185
0000f0 62 13 d2 bc 95 4a 94 3d 0a ed 94 3d 74 f3 3c be
       -0.025644008 0.07240788 0.07271774 -0.18452245
000100 9c 93 fc 3c 7d 03 55 3e 91 dd 8c bd 3e 0b 00 be
       0.030832104 0.20802112 -0.06878198 -0.12504289
000110 40 c3 bd bd 66 ae d6 bd 6b 35 21 3e 9e 29 08 3e
       -0.092657566 -0.104824826 0.15743034 0.13297126
000120 e9 45 7d be 73 5c 94 be 54 93 43 bc 76 f9 5c be
       -0.247337 -0.28976783 -0.011936981 -0.21579537
000130 db 13 49 3e 65 fc 9e be 9a 84 2a 3d df 1b eb 3c
       0.1963648 -0.31051937 0.041630365 0.028699813
000140 c6 52 94 bb
       -0.004526469

bias f4 [9]
000000 35 66 6a 3c 31 8e ed bd 62 d4 60 be 67 b0 87 3e
       0.014306595 -0.115993865 -0.21956018 0.26501772
000010 66 9e aa bd 60 0a 85 3e 19 2e 10 3e cf a7 ff 3c
       -0.08330993 0.25984478 0.14080085 0.031207947
000020 f4 54 18 3e
       0.14876157

weight f4 [4, 9]
000000 8f 5b a8 3d 12 59 84 3d 9f ea 79 3e c7 d4 a0 3e
       0.082205884 0.06462301 0.24405907 0.31412336
000010 1f c6 4e be 38 63 2b be 4f 6f c9 3c d4 18 3f 3e
       -0.20192765 -0.16737068 0.024589209 0.18661815
000020 cc fb 0b 3e 2b c3 69 be a6 17 84 3e 0f 4e d7 bd
       0.13670272 -0.22828357 0.25799292 -0.10512935
000030 18 3a e4 3d 81 c2 76 be 52 8d 9d bd a2 e0 c5 3d
       0.11143893 -0.24097635 -0.0769297 0.09661986
000040 46 32 8f 3e 86 1c 2f 3e a7 86 01 3e 60 95 8f bc
       0.27968043 0.17100725 0.12649022 -0.017527282
000050 05 92 6f 3e 64 c5 42 be 97 1a 95 3e 64 6b e9 3d
       0.23395546 -0.19020611 0.2912185 0.11397436
000060 47 13 3b 3d f2 9a 9e be 4f c2 8b 3e 8a b5 90 be
       0.04567268 -0.3097759 0.27296683 -0.28263503
000070 c0 6d 51 be 05 12 3f be 24 f6 00 bd 10 f0 73 be
       -0.20452023 -0.18659218 -0.031484738 -0.23822045
000080 56 08 a3 bc 64 92 a9 3d 6a c5 fb bd 25 11 61 3e
       -0.019901436 0.08279875 -0.12293513 0.21979196

bias f4 [4]
000000 59 ec 8a 3e f8 e4 24 3d 19 75 92 bc 85 ed 39 be
       0.27133444 0.040257424 -0.017878102 -0.18157013

weight f4 [2, 4]
000000 b9 b1 aa be 92 72 1c be 88 d4 9d 3e 3b 3e 10 3e
       -0.33338717 -0.1527808 0.3082621 0.14086239
000010 6f a2 f1 be 8b 81 bd bc e6 d3 1a 3e 4e 64 b1 3e
       -0.4719424 -0.02313306 0.15119895 0.3464684

bias f4 [2]
000000 7d a4 3b be b2 38 21 3e
       -0.18324466 0.15744284

weight f4 [2, 2]
000000 7e df 40 3f 29 19 8b be 83 f5 0f 3f c9 8a b0 be
       0.7534102 -0.27167633 0.56233996 -0.34480885

bias f4 [2]
000000 0e f3 27 bf a1 f0 83 be
       -0.6560525 -0.25769523
