Network2/params/mlp_nnnParams0831105248.pth (torch_old, 19911 bytes, 12 tensors)

weight f4 [15]
00000000: 5107 da3e 9a68 0b3f d982 c33f f6f1 723f
00000010: 2918 083f 25cd a63f e9af 883f 89e4 8f3f
00000020: b5cd c03f 1f66 673f 144d 833f 4c88 5b3f
00000030: 0071 8d3f 54fc 263f c9f5 283f
0.42583707 0.54456484 1.5274307 0.94900453 0.53161865 1.3031355 1.0678684 1.1241618
1.5062777 0.903902 1.0257897 0.8575485 1.105011 0.6522877 0.6600004

bias f4 [15]
00000000: 4960 42be bd3e 09bd af74 6e3e 7141 d0bd
00000010: ba6f d93e a6c8 2b3d 4765 64be 14e1 71be
00000020: 2a53 233e ed98 2bbe 177d a7be 81ac 6c3e
00000030: 92c1 92be d894 7fbe 98e4 873e
-0.18982042 -0.033507098 0.23286699 -0.10168732 0.42468053 0.0419394 -0.22304259 -0.23621017
0.15949693 -0.16757555 -0.32712623 0.2311268 -0.28663307 -0.24959123 0.2654159

running_mean f4 [15]
00000000: 4224 593e a6e2 683e b675 073f 110c 5e3e
00000010: 1953 6c3e b43d 093f b3d8 6e3e 6ac8 6f3e
00000020: 3906 053f b119 613e 92ef 663e b5b9 0b3f
00000030: db13 623e 4694 6b3e 3b42 0b3f
0.21205238 0.2274271 0.5291399 0.2168429 0.23078574 0.53609776 0.23324852 0.23416296
0.5196262 0.21982457 0.22552326 0.5458024 0.22077887 0.2300578 0.54397935

running_var f4 [15]
00000000: fa42 f93c 8271 003d 3b8e 593d 6d4e 053d
00000010: f5b3 033d 565c 5a3d 87bf f63c 0203 0f3d
00000020: a72a 533d e940 003d 77c8 013d 1395 3c3d
00000030: a6d8 043d 4ff3 ed3c 1852 473d
0.030427445 0.03135825 0.053114157 0.032545496 0.032154042 0.053310715 0.030120624 0.034914978
0.05155435 0.031311903 0.03168532 0.046040606 0.032433175 0.029046683 0.048662275

weight f4 [15, 15]
00000000: 3163 f0be 5ece cebc 0915 a13e ef0b 82be
00000010: f001 b2bd 321f d33e 2600 cebe ba21 69be
00000020: 8cf3 0b3f 60b0 e0be 1b61 babe d9f0 193f
00000030: d331 35be 3760 a5be 08f7 163f da7a 50be
00000040: e66b 283e a56b f0be 313f e23e d911 23bd
00000050: 198b babe fa0d 7a3d 3717 b0bd 2eaa df3c
00000060: dabc 313e b752 0dbe afd8 5abe c9a5 ad3e
00000070: 1142 c9bd 8fae c53d 8f3c e4be 71ad bbbe
00000080: dfa6 053f d25a 7cbd 90a5 793d 9509 a43e
00000090: 4af0 81be 0fd5 56be 2367 e53e 65c0 21be
000000a0: daf3 afbd 9c5a 033f 53a8 23be 3ccf 84bd
000000b0: ad67 013f 515e b8bd 28a1 84bc 43df ff3e
000000c0: 5365 0cbc 472e 16be e263 9b3e 018b bdbd
000000d0: 3e22 86be 800f 4d3d 693a 57be 1e13 9fbe
000000e0: e518 f73d ef76 47be 218d 96be f590 e93e
000000f0: d10d 61be bde9 0cbe 7ca2 093f 6f87 a6bd
00000100: 0d6e f7b9 1690 f73d 6883 95be df67 32be
00000110: 2776 ce3d fe42 f7bd 1dcc 94bd 5824 193f
00000120: e79d 1bbe 985a 4ebd a038 943e ec99 37be
00000130: 4b12 903c 1cf3 453f a8dc 81be 6b48 4bbe
00000140: 5f3a 593e eda4 c8be 1201 55be c29c c43e
00000150: d911 8bbe 7bf4 8fbe 9a6a 513f cac7 a3be
00000160: bb07 82be 4cda 3c3e 3a23 4cbd fd69 d03b
00000170: 2bc0 1c3d 4190 1e3f d6e9 edbd 4609 f0bc
00000180: 4105 993e 53d7 383d 1990 773e cf56 143d
00000190: 297d 97bd 2b79 193e c971 603f 3ef6 66be
000001a0: d884 b5be e48a f3be 3f21 98be c90d a43e
000001b0: 6136 f1bd 9815 71bd 2fe0 983e 548b 5cbe
000001c0: ad0b 27be c269 6b3f d5c9 5abe ef61 4bbe
000001d0: fef6 503f fb85 57be c256 41be 03f9 f13e
000001e0: 1019 14be 695e 6d3c 90e6 473c 57c1 58be
000001f0: 6740 bc3d 88c6 873e c5d5 ef3d ab11 31be
00000200: e7d7 a1bd 933e 2cbe 47b1 003e 7609 d7bd
00000210: 992a 38bd 9086 423e 4239 443e 9867 5a3d
00000220: b8ef 90bd d003 a3be 384d cd3e b319 a43c
00000230: d73c 15bc e255 913e 2c20 143e e22d a63c
00000240: 4d36 3fbb 2bc2 33be a8c6 08bd a692 0d3f
00000250: 9065 4dbe 9b48 41be acdc 5cbe cdc6 91be
00000260: 8432 313f 7c2c 20be 4756 313d 58df d43e
00000270: 289b d8be a386 8abe 304e b63e f941 e4be
00000280: 47e5 d7be 2f79 0d3f 167d 9cbe c5d3 c1be
00000290: 5baa f93e 756f fdbe 4c71 babe 05ad 663f
000002a0: 47f1 8bbe 442e 08be 1a22 513e 92d1 98be
000002b0: 4f2f 90be 5c05 343f a069 9ebe ad5e b8be
000002c0: 1899 483f 821c cabe d41d cdbe caeb 0f3f
000002d0: 4170 8fbe 1159 6fbc e5f1 3a3f e15e f9bd
000002e0: 21d7 14bb 7693 ae3e 5712 bdbe 6725 9ebe
000002f0: 3b87 4a3f d476 c6be e87c a9be 24cc 3c3f
00000300: 31b6 a2be 51aa 94be d8a4 a43e 0ecc 883d
00000310: 0585 09be 5df3 85be 0b04 44bd 260b 223e
00000320: ee25 5abe bddc 0a3e 8650 32be cddb 82be
00000330: 980a 3d3e 2ce5 fcbd ee94 05be b17b 5e3e
00000340: 7dfe 43be 7cff 6abe 2320 d7bd 851e 0abe
00000350: f54d 603f 800d 1ebb 2d39 093e 3348 e53e
00000360: 5f3e 06bf db32 a8be 7c57 553e 638c 93be
00000370: 3ab7 34be 946e 623f 216d 8dbe d2dc cabd
00000380: 7052 e93e
-0.46950677 -0.025244888 0.3146136 -0.2539973 -0.08691776 0.41234738 -0.40234488 -0.22766772
0.546685 -0.43884563 -0.3640221 0.6013313 -0.17694788 -0.3229997 0.5897069 -0.20359364
0.1644741 -0.46957126 0.44188836 -0.039811943 -0.36434248 0.061048485 -0.08598178 0.027302828
0.17357197 -0.13801084 -0.2137172 0.33915547 -0.09827054 0.09652435 -0.44577453 -0.36655763
0.5220775 -0.06161005 0.06094891 0.3203856 -0.25378639 -0.20979713 0.4480525 -0.15796049
-0.08591433 0.51310134 -0.1598218 -0.06484839 0.5054882 -0.090023644 -0.016190127 0.49975023
-0.008569079 -0.14666091 0.30349642 -0.092550285 -0.26198 0.05006361 -0.21018375 -0.31069273
0.12065295 -0.19478963 -0.29404548 0.45618406 -0.21977927 -0.13761039 0.53763556 -0.08131301
-0.00047193505 0.12088029 -0.29201818 -0.17422436 0.100811295 -0.120733246 -0.07265494 0.5982108
-0.15196954 -0.050379366 0.2894945 -0.1792981 0.017586848 0.7732408 -0.2536366 -0.19851844
0.21213673 -0.39188328 -0.2080119 0.38400847 -0.27162054 -0.2811621 0.81803286 -0.31988364
-0.25396523 0.18442649 -0.049838282 0.006360291 0.038269203 0.61938864 -0.11616866 -0.029301297
0.2988682 0.045127224 0.24176063 0.0362156 -0.07396919 0.14987628 0.8767362 -0.22554871
-0.35452914 -0.47566903 -0.29712865 0.32041767 -0.1177795 -0.058858484 0.29858539 -0.21537524
-0.16313048 0.9195825 -0.21366055 -0.19861577 0.8162688 -0.21047203 -0.18880752 0.47260293
-0.14462686 0.014487841 0.0122009665 -0.21167503 0.09191971 0.26518655 0.11710695 -0.17291896
-0.07902508 -0.16820745 0.12567626 -0.104998514 -0.0449625 0.18996644 0.19162467 0.05332145
-0.07076973 -0.31838846 0.40097976 0.020031786 -0.009108744 0.28385836 0.14465398 0.02028555
-0.0029176653 -0.17554538 -0.03339258 0.5530189 -0.20058274 -0.18875353 -0.21568555 -0.28471985
0.69217706 -0.1564197 0.04329517 0.41576648 -0.42305875 -0.27055845 0.35606527 -0.44581583
-0.42167112 0.55263036 -0.30564183 -0.3785688 0.48762783 -0.49499097 -0.36414564 0.90107757
-0.27332518 -0.13298899 0.20423165 -0.2984739 -0.28161094 0.7032068 -0.3093996 -0.36009732
0.783586 -0.39474875 -0.4006182 0.5621916 -0.2801533 -0.014608637 0.7302535 -0.121763
-0.0022711235 0.3409688 -0.36928055 -0.3088791 0.79112595 -0.38762534 -0.33103108 0.73748994
-0.31779626 -0.2903619 0.32157016 0.06679545 -0.13429649 -0.26162234 -0.04785542 0.15824565
-0.21303532 0.13560767 -0.1741353 -0.2555832 0.18461072 -0.123483986 -0.13045093 0.21726872
-0.19140048 -0.22949022 -0.105041765 -0.13488205 0.87618953 -0.0024116933 0.13400717 0.44781646
-0.5243892 -0.328513 0.20834154 -0.28818044 -0.1764802 0.8844998 -0.2762232 -0.099053994
0.45570707

bias f4 [15]
00000000: 40f6 e63c fabc a53e 2859 593c 2bc0 36bc
00000010: e1c6 a73d 0aaf bd3e e9bf c5bd c96e 283e
00000020: cf8f bbbd 1415 713e de79 583d 892b a93d
00000030: 7a30 913e d943 643e 6b0f 903e
0.028193593 0.3237074 0.013265885 -0.011154215 0.0819223 0.37047607 -0.096557446 0.16448511
-0.09158289 0.23543197 0.052850597 0.08260257 0.28357297 0.22291507 0.28136763

weight f4 [7, 15]
00000000: 5b55 cbbd 60d0 c53d c969 80be 51ac 893e
00000010: 3014 b5bc ace6 c0bd a57d e03e 1fb5 c3be
00000020: 23d2 16be 4e6b 283d 81a6 2bbc 05ff e4be
00000030: 77fc 6abd 6a57 1b3c c694 1cbf 6034 fd3e
00000040: 1b7d 9cbe 23ff 2b3f 44d3 a73e e6d3 c23e
00000050: 30fa f63e 289f 26be dfe8 063f 7ab9 23be
00000060: e4f7 acbe f05a ea3e 3f8b cf3e 0487 1a3f
00000070: ebd2 debe 642b 0a3f 67f9 03be 347e 863d
00000080: ae38 2b3e ae07 50be 15dc 32bd dd5a 98be
00000090: bb4d 843e 6f3b c6bd 2848 6cbe 6ce8 0dbe
000000a0: ee60 f3b9 a471 4a3c e587 34bc 2a91 39be
000000b0: d0fe 9ebc b4d4 353f 8c30 c7be 0f3b 4d3f
000000c0: 6e88 273f 329c fb3e e6b2 8e3f d1d0 08bf
000000d0: 97b0 623f 1c7b 183e 89f8 96be 5b2f 893f
000000e0: 1866 b53f e4c3 9f3f 37ec d6be 4550 8c3f
000000f0: c9d1 663f 6dbf fcbe 7052 6c3f bd30 9b3e
00000100: e638 143f ba02 593f 9818 fdbe 7140 843f
00000110: f7de 3ebe 27a6 e0be 056f 993f 4a77 a83f
00000120: b914 913f b117 97be 0c35 8d3f 69f7 c2bc
00000130: 6920 4e3e 99a3 0abe f835 07bd 24d1 20be
00000140: 02ee 18be 2891 0d3f 19c1 afbd 3de6 a23e
00000150: f2a8 ce3e f9e2 633c 0c84 4dbe a6d0 1ebd
00000160: 3fa0 b13e d61c 1fbe faee 843f 796c fbbe
00000170: 662e 943f 6cde 173f 0382 4c3f 9899 993f
00000180: 9133 b4be 6879 843f e5f9 30be 2ede a6be
00000190: b853 7c3f 21c7 9b3f 79ac 873f f85c 47be
000001a0: fc34 8e3f
-0.0992839 0.09658885 -0.25080708 0.2688928 -0.022104353 -0.09418997 0.4384586 -0.38224122
-0.14728598 0.04111796 -0.010476709 -0.44725814 -0.057369675 0.00948129 -0.6116451 0.4945402
-0.30564198 0.6718618 0.3277837 0.3805229 0.48237753 -0.16271651 0.52699083 -0.15988722
-0.33782876 0.45772505 0.40535924 0.6036227 -0.43520293 0.5397246 -0.12888108 0.0656704
0.1672084 -0.2031543 -0.043666918 -0.29756823 0.25840554 -0.09679305 -0.230744 -0.13858193
-0.0004642079 0.012356196 -0.011018728 -0.18121782 -0.019408613 0.71027684 -0.38904226 0.8016824
0.6544255 0.49142605 1.1148345 -0.5344363 0.88550705 0.14890712 -0.29486492 1.0717577
1.4171782 1.2481656 -0.41977093 1.0961996 0.90163857 -0.49364796 0.9231329 0.30310622
0.5789932 0.84769785 -0.49432826 1.0332166 -0.18639742 -0.43876764 1.1987005 1.3161404
1.1334449 -0.29510263 1.1031814 -0.023799615 0.20129551 -0.1353897 -0.033010453 -0.15704781
-0.14934543 0.55299616 -0.08581752 0.31816283 0.4036327 0.013909095 -0.20069903 -0.0387732
0.3469257 -0.15538344 1.038543 -0.49106196 1.157666 0.59323764 0.7988588 1.1999998
-0.35195592 1.034955 -0.17282827 -0.32591385 0.98565245 1.2170144 1.059951 -0.19469059
1.110992

bias f4 [7]
00000000: dd49 afbd 95e2 343e dfbf efbc 5f92 aebd
00000010: 313b 8abc 2b2f e43e db19 05bd
-0.0855901 0.17664559 -0.029266296 -0.08524012 -0.016873928 0.44567236 -0.03249536

weight f4 [2, 7]
00000000: 1fde e23e 76b0 9cbe 81e2 c63e fc7d d5bf
00000010: b3f3 b1bf 5fdc e13d ca73 afbf a6a1 49bf
00000020: e6bf b83f 6e8d 8a3d e48d ac3f fcab c83f
00000030: 7418 2bbf bf66 9e3f
0.4431009 -0.3060338 0.38844684 -1.6679072 -1.3902496 0.110283606 -1.3707211 -0.7876228
1.4433563 0.06765257 1.3480802 1.5677485 -0.6683419 1.2375106

bias f4 [2]
00000000: 6e30 cdbe bc03 ce3d
-0.4007601 0.10059306

weight f4 [2, 2]
00000000: 9f45 823f acfd 3ac0 7e87 09c0 9c84 813d
1.0177497 -2.921733 -2.1488948 0.06324121

bias f4 [2]
00000000: 7d2f 8bbf 370c 283f
-1.0873867 0.6564364
