Network2/params/mlp_nwParams0820174827.pth (torch_old, 25430 bytes, 8 tensors)

weight f4 [42, 42]
000000 65 fe 53 3e 53 dd 26 3e 12 74 e0 3d ba 0a 49 3e
       0.20702513 0.16295366 0.10959639 0.19632998
000010 71 be ef 3c 34 ab 1c 3e b3 7f 98 3d 97 58 35 3e
       0.029265614 0.15299684 0.07446232 0.17709576
000020 69 a9 4e 3e d2 b7 d0 3d ba 5d 69 3e 63 5e 35 3e
       0.20181812 0.10191311 0.2278966 0.17711787
000030 0a 91 a5 3e 39 0c e7 3d 95 ed 6c 3e 29 7b a5 3e
       0.3233722 0.11281628 0.23137505 0.32320526
000040 67 42 40 3e 0d 41 91 3e cc d8 7e 3e 2b 4c d0 3d
       0.1877533 0.28369942 0.24887389 0.10170778
000050 16 33 9a 3e 68 54 a6 3c 83 d5 9d 3e 7d ec 7b 3e
       0.301171 0.02030392 0.3082696 0.24601932
000060 09 98 85 3e c3 3d 8f 3e 1e 47 e9 3d 6f 8f 2b 3e
       0.26092556 0.27976808 0.11390518 0.16753934
000070 bc 81 1c 3e 92 86 8a 3d fe ef 93 3d 3b d2 79 3d
       0.15283865 0.067639485 0.07223509 0.060991507
000080 70 b9 9c 3e 89 f5 1a 3e 09 9b a9 3e 51 0e 99 3e
       0.30610228 0.15132727 0.33126095 0.29893735
000090 cf 3e 02 3d a7 ee 12 3e 36 6b 62 3e 90 f1 a8 3e
       0.03179818 0.14348851 0.2211121 0.32996798
0000a0 e2 ff 42 3c 2f 05 ce 3e 72 b9 e3 bc ca ad 8e 3c
       0.0119018275 0.4023833 -0.027798388 0.017416853
0000b0 cf e2 6b bb 1d e6 76 3e 8a 73 1a bc 5e 00 0f 3d
       -0.0035993343 0.24111219 -0.009426961 0.03491246
0000c0 50 0d 56 3e 5e 00 50 3e 13 9a 35 3c 9e 7e 07 bd
       0.20903516 0.2031264 0.011084097 -0.033079736
0000d0 aa 4a 3c 3e 76 47 2f 3e 04 b3 68 3e 06 25 8d bb
       0.18387857 0.17117104 0.22724539 -0.004307392
0000e0 36 4c 3d 3e 35 25 9b 3e a7 0a 27 3e 28 ad 95 3e
       0.18486103 0.30301824 0.16312657 0.2923367
0000f0 22 0e c7 bc b7 2b d7 3d 82 da 1c 3e b3 a0 4b 3e
       -0.024298731 0.10506385 0.15317729 0.1988552
000100 e2 4d 69 3e d2 3d a2 3e 6a ef 27 3d d0 61 fc 3d
       0.22783616 0.3168779 0.040999807 0.12323344
000110 1c 3d 84 3e f4 64 52 3d a4 e3 62 3e ef 77 0b 3e
       0.25827873 0.051365808 0.2215715 0.1361997
000120 f2 34 bf 3c 7e f6 b1 3c 1b 79 71 3e c7 e8 93 3d
       0.023340676 0.021723982 0.23581354 0.07222133
000130 82 48 f1 3c d7 67 23 3e 2a ee 28 3e 72 2c 2f bd
       0.02945352 0.1595758 0.16497102 -0.042766996
000140 e7 86 03 3e a1 c6 5a 3e dc 2c c6 3c 46 54 84 3e
       0.1284443 0.21364833 0.024191312 0.25845546
000150 ea f7 a8 3d c4 0e 5a 3d 54 9b d1 3d f7 4b 80 3e
       0.08250411 0.053236738 0.102347046 0.25057957
000160 4c 19 2e 3e 40 42 67 3e 93 e9 20 3e 44 39 f5 3d
       0.17001837 0.22583866 0.15714101 0.11973813
000170 21 bc ae 3e 08 10 03 3d 51 15 03 3c 1c db 3c 3e
       0.34127906 0.03199771 0.008000688 0.18442959
000180 1b 08 59 3e bb df 32 3e fc 73 91 3e 9c d1 ad 3e
       0.21194498 0.17468159 0.28408802 0.33948982
000190 8e 18 1a 3e c1 13 80 3e 51 30 0f bc c9 2b 4d 3d
       0.1504843 0.2501507 -0.008739547 0.050090585
0001a0 1b 28 02 3e a2 09 14 3e 23 52 d8 3d b8 cd 9e 3e
       0.12710612 0.144568 0.10562541 0.31016326
0001b0 a8 fa b5 3d 6f 2c 3b 3e dd b8 0a 3e 9f e4 c6 3d
       0.088856995 0.18278669 0.13547082 0.09711575
0001c0 ad ea 51 3e eb 8a 8a 3e f8 f1 87 3e 20 31 5d 3e
       0.20499678 0.2705911 0.26551795 0.21600771
0001d0 c3 59 9d 3e ad cd 85 3e 9e 2b b5 3c ae d8 8c 3e
       0.30732545 0.2613348 0.022115525 0.27509063
0001e0 d8 b8 47 3e ed a9 f3 3d a0 8e 0b 3e 2e 51 94 3e
       0.19504106 0.11897645 0.13628626 0.28968185
0001f0 5b 2d e4 3d c5 d0 7b 3e 74 95 1d be a6 55 24 bc
       0.11141463 0.24591358 -0.15389043 -0.010030186
000200 21 81 3d be 89 e9 9d bc bf 2a 26 be 4d f3 60 be
       -0.1850629 -0.019276397 -0.16227244 -0.21967812
000210 72 98 20 be ce 1d aa bd a1 de 1c be 5b db 15 be
       -0.15683153 -0.08306466 -0.15319301 -0.14634459
000220 8f c1 78 3d f1 9a 1d be ef 94 2c be 5f a2 00 be
       0.060731467 -0.15391137 -0.16853689 -0.1256194
000230 43 57 33 bd bc 6f 13 be 31 e6 00 be 8d 6a 44 be
       -0.04378439 -0.14398092 -0.12587811 -0.19181271
000240 28 47 8f 3c ef c8 e2 3c 9c f1 df 3d b8 17 1a bd
       0.017489985 0.027683703 0.10934755 -0.037620276
000250 98 1a 88 3d 97 6c 44 be 08 2b be bd 7e f1 05 be
       0.06645697 -0.19182049 -0.09285551 -0.13080403
000260 00 32 b0 bc ff dd 9b bd 53 9c 3d be 21 0d 8c bd
       -0.021508217 -0.07610702 -0.18516664 -0.06838442
000270 92 cc a7 3c 8c 9d c7 bd b9 40 a6 bc 8a 1d 03 be
       0.020483289 -0.097468466 -0.020294534 -0.12804237
000280 69 b0 0e be 12 f6 9e 3d 1b 6e 16 3c cf 2b 65 3d
       -0.13934483 0.07761778 0.009181525 0.055949982
000290 87 d6 11 bd bb b8 f9 bd 1d 4a f7 3d 2c 53 33 be
       -0.03560498 -0.12193438 0.12074683 -0.17512196
0002a0 28 39 0b bd 40 b7 2c bc 28 5d 1f bd f5 08 77 bd
       -0.033990055 -0.010541737 -0.0389072 -0.060311276
0002b0 c6 c5 b4 bd 50 f8 de bc 1d 89 09 3e 47 59 66 3d
       -0.08826785 -0.027218014 0.13431211 0.056237485
0002c0 02 06 cb bc 66 61 00 3e db 15 2e be 1c 40 13 be
       -0.024783138 0.12537155 -0.17000525 -0.14379925
0002d0 86 a7 9c bd 67 0e 3c bc a1 1c b0 bd 6b 53 13 bd
       -0.0764914 -0.011478043 -0.085992105 -0.035968225
0002e0 94 fc 18 be 7a 93 33 3d ff e8 da 3d 5c 44 35 be
       -0.14940101 0.043841816 0.10688972 -0.17701858
0002f0 4c 0a a7 3c 58 f3 82 bb 6a 84 9f bd 72 af 27 be
       0.020390652 -0.003996294 -0.07788928 -0.16375521
000300 bc 2d 39 bd 85 58 69 bd 8a d1 59 3c 05 c0 3b be
       -0.04520963 -0.056969184 0.013294587 -0.18334968
000310 0b 2f 84 3c d9 eb 4d bd 65 4c ad bd 9c 42 f5 3d
       0.016135713 -0.05027375 -0.08461837 0.11975595
000320 71 e8 d7 bc e6 b9 37 bd a8 3d ba 3c 75 b9 80 bd
       -0.026355954 -0.04485502 0.022734478 -0.06285373
000330 81 69 6a 3d 1e 4d 30 be ae df fd bd 31 75 9d bd
       0.057229523 -0.17216918 -0.12396179 -0.07688368
000340 0a d6 14 be ce 94 0f 3d e8 73 0b 3e 0d 93 4a 3e
       -0.14534774 0.03505402 0.13618433 0.19782658
000350 49 dc ef 3d 0b 82 10 3e 8b 10 31 3e 4a 63 3f 3e
       0.11711938 0.14112107 0.17291467 0.1869022
000360 39 bf 05 3e a3 f0 7e 3d 44 85 f1 3d 94 d4 41 3e
       0.13061227 0.062241208 0.117929965 0.18928748
000370 03 1d b6 3d aa 8f 5b 3e a4 88 c4 bc c6 c2 a0 3d
       0.08892252 0.21441522 -0.023990937 0.0784965
000380 35 3b 3a 3d f2 34 46 3e 06 4a 3e 3e 89 7e 95 3e
       0.04546662 0.19356135 0.18582925 0.291981
000390 7b 67 83 3d 78 47 5a 3d 9c 96 2c 3e 65 6b b3 3c
       0.06416222 0.053290814 0.16854328 0.021901796
0003a0 23 9a 2e bc 55 8f c4 3d 58 ee 67 3e 52 5e 42 3e
       -0.010656866 0.09597651 0.22649515 0.18981293
0003b0 9a 01 57 3d 0a 00 a7 3c f7 7a f6 3c 93 d8 f8 3d
       0.05249176 0.02038576 0.030087931 0.12150683
0003c0 b4 df ef 3d e3 c7 0b 3e 57 d8 aa 3e da 17 c6 3b
       0.1171259 0.1365047 0.3336818 0.006045324
0003d0 20 73 8a 3d c8 89 82 3e 32 a3 8c 3d 46 e6 17 bd
       0.067602396 0.25495744 0.068670645 -0.03708484
0003e0 bd c0 3a 3d 14 8f 50 3e cf 2e 6b 3e a3 48 20 3e
       0.045593966 0.2036708 0.22967075 0.15652709
0003f0 84 9f 2c be 72 f1 eb 3c 97 03 81 3d b4 6b fc 3d
       -0.16857725 0.028801654 0.06299513 0.1232523

bias f4 [42]
000000 50 90 af 3e 6c dd 52 3e ee a7 1d 3e 07 da d1 3d
       0.3428979 0.20592278 0.15396091 0.102466635
000010 fb 13 12 3d 40 bc 96 3e b9 9c d3 bc d4 94 1d 3e
       0.035663586 0.29440498 -0.025831567 0.15388805
000020 ff ab 4c bd b0 83 6d be a8 21 ac bd ab 11 f6 3e
       -0.049968716 -0.23194766 -0.08404857 0.48060355
000030 4d 0a 0b bd 2d 10 b0 3d b7 37 6e 3e 6d 95 75 3e
       -0.03394537 0.08596835 0.23263441 0.23982783
000040 1a 68 88 3e 06 9a e4 3e de 38 63 3e cf 31 7f 3e
       0.26641923 0.4464876 0.22189662 0.24921344
000050 33 ed 8c 3e 7c ec 71 3e da 37 ee 3d 1d a5 c6 3d
       0.2752472 0.23625368 0.116317466 0.096994616
000060 a3 41 5f 3c eb 70 c5 3d 0a 15 c0 3c 23 46 7c 3e
       0.013626489 0.09640678 0.023447532 0.2463613
000070 ca 50 ba 3e 02 7e 52 3e b8 6e 49 3d 88 c3 83 3e
       0.36389762 0.2055588 0.049177855 0.25735116
000080 ff b6 cc 3e 40 63 0a be 53 25 c5 3e a1 2b 47 bd
       0.39983365 -0.13514423 0.3850504 -0.048625592
000090 e1 92 0d 3e 3a a4 ac 3d 3b 98 1b bc 07 1d 16 bb
       0.13825561 0.08429761 -0.009496744 -0.0022905485
0000a0 9e dd 54 bd 36 54 8a 3e
       -0.051969163 0.27017373

weight f4 [21, 42]
000000 83 6e 9e be 4f 39 b3 be ad ac 7b be d0 d2 72 3c
       -0.3094369 -0.3500466 -0.2457759 0.014820769
000010 dd 62 cc 3d f6 cb 79 be 79 97 00 be 19 0b 85 bd
       0.09979794 -0.24394211 -0.12557782 -0.06496257
000020 9f d5 32 be 1f 8d 90 3e c4 f2 43 3d 16 33 7b be
       -0.17464302 0.28232667 0.04783894 -0.24531206
000030 db 35 ec bd 12 96 8d be 11 89 8e be 85 4c 65 be
       -0.115337096 -0.27653557 -0.27838948 -0.22392471
000040 23 f3 87 be d4 3c 41 be 16 88 11 be a0 3f 4e be
       -0.26552686 -0.1887086 -0.14212069 -0.20141459
000050 2f 3e 8e be d9 30 c1 be d2 5e 84 be 6c 31 1d 3d
       -0.27781817 -0.3773258 -0.25853592 0.03837721
000060 84 89 c5 bb a0 ab 63 bd 31 94 21 be 34 4a 27 bd
       -0.006028356 -0.055583596 -0.15779187 -0.04084225
000070 cf d8 a6 bb ef 85 0c be d6 c2 d4 3d d4 c8 85 be
       -0.0050917636 -0.13722967 0.103887245 -0.26129782
000080 db 0d 96 be 8f 98 d6 bd fe a7 38 be 26 8e 4f 3d
       -0.29307446 -0.10478317 -0.18032834 0.050672673
000090 70 7f 13 be 37 68 9c be 32 24 f8 3d 09 56 06 be
       -0.14404082 -0.3054826 0.12116279 -0.13118757
0000a0 b8 6e 23 be 7e 58 ca be f1 28 79 bd 48 e5 a4 3d
       -0.15960205 -0.3952064 -0.06083006 0.080515444
0000b0 c4 18 3f 3c 34 95 e3 ba 79 a3 a0 3d 06 c6 08 3e
       0.011663619 -0.0017363192 0.0784368 0.1335679
0000c0 ae 44 15 be 22 41 99 bc 28 36 c3 3b 36 14 a9 bd
       -0.1457698 -0.018707816 0.0059573837 -0.08255808
0000d0 65 10 cd bd 53 b8 27 be 17 8a 02 3e 65 d2 a5 3c
       -0.10012893 -0.16378908 0.1274799 0.020241925
0000e0 92 12 42 bd d5 da 62 3d 0a 98 02 be 38 12 1f 3d
       -0.04738099 0.055384476 -0.12753311 0.038835734
0000f0 92 bf 97 3d 28 77 e8 3c 36 92 99 3d 56 3e 20 3d
       0.07409586 0.02837713 0.07498591 0.03912195
000100 f2 0c 22 bc 0e 74 1f 3e 46 d5 0d 3e bc 4d d5 3d
       -0.009890782 0.15571615 0.13850889 0.10415217
000110 b4 49 31 3e 24 66 1b 3e fa b2 3b be 01 4e 12 be
       0.17313272 0.15175682 -0.18329993 -0.14287569
000120 bb 7a fc bb ec 72 7d 3c 93 04 74 bd d1 11 bb 3d
       -0.0077050603 0.015469294 -0.059574675 0.091342576
000130 85 ff 11 3d 92 f6 31 3d 06 d9 6f bd df 03 0c bd
       0.035644073 0.04344804 -0.05855658 -0.03418338
000140 1b a2 f7 bd 09 b2 b3 bd 7e d2 ea bd 31 37 82 3d
       -0.12091466 -0.08774192 -0.114659294 0.06358183
000150 66 16 89 3e 74 e1 94 3e 09 d2 a8 3e 96 46 81 bb
       0.267749 0.29078257 0.32972744 -0.003945182
000160 dd 4f c2 bb a5 ed c5 3e 42 67 96 bd ca 72 e7 3e
       -0.0059299306 0.3865787 -0.073439136 0.45204765
000170 dc bc 90 3c 69 fd 56 bd 01 57 0c 3e d2 61 6a 3e
       0.01766818 -0.052487765 0.13705064 0.22888878
000180 23 20 0b 3e b8 5a a6 3e 12 50 30 3e 21 be 86 3e
       0.13586478 0.32491088 0.17218044 0.26316932
000190 92 06 8c 3e 75 ba e3 3e 9b 85 90 3e ad 3a 0d 3f
       0.27348763 0.44478193 0.28226933 0.5516766
0001a0 20 e0 79 3e 86 37 e4 3e 3d 8e bd 3e 7e 2a 3e 3d
       0.24401903 0.4457361 0.37022582 0.046427242
0001b0 2c a6 09 be 0e 11 a4 3e 82 ad 6b 3e af 56 9a 3e
       -0.13442296 0.32044262 0.23015407 0.3014426
0001c0 33 21 23 3f e1 1c cd 3e 20 80 90 be ce ba d6 3e
       0.63722533 0.40061095 -0.28222752 0.41939396
0001d0 5a 5d ab 3e c5 9b 03 bd 72 22 bc 3e 13 aa 6e bd
       0.3346966 -0.032130975 0.3674503 -0.058267664
0001e0 0c c1 a9 3e bf da 7e 3e 2e f8 fe bd 58 95 0b 3d
       0.33155096 0.24888133 -0.1244968 0.034077972
0001f0 ac 11 c2 bd bd df 8d 3e a5 81 84 3d 8b cd 05 be
       -0.09476027 0.2770976 0.0647004 -0.1306669
000200 de 45 86 bd c9 c1 29 3e c8 81 23 bb f0 e4 1e be
       -0.06556295 0.1657783 -0.0024949182 -0.1551702
000210 d2 bb c5 bd 88 70 bf bd 17 d3 1e be 3e 35 e5 3d
       -0.096549645 -0.093476355 -0.15510212 0.11191796
000220 77 ca 06 be af 01 72 bd 03 39 0b 3e 90 f5 60 3d
       -0.13163172 -0.059083637 0.13595967 0.054921687
000230 0d 51 06 be 5e e6 08 bb c7 b3 9d 3d ce 0b 22 be
       -0.13116856 -0.0020889263 0.077003054 -0.15824816
000240 0c ee f4 3d 86 a2 d9 bd 48 8b 7b 3d de 2c e0 3d
       0.11959466 -0.10626702 0.061412126 0.10946058
000250 ca 18 68 bd 40 59 3b 3d 5e 3c 99 bd c0 56 b3 3c
       -0.056664266 0.045739412 -0.07482217 0.021891952
000260 be 19 f4 bd d2 42 e3 bd 87 b1 6a 3c 84 fb ee bc
       -0.119189724 -0.11096729 0.014324552 -0.029172666
000270 ff 26 30 3e 8a 4b 9d bd 2b 2e 3d 3d 89 e7 0f 3e
       0.17202376 -0.076804236 0.046186607 0.14053167
000280 f6 68 c4 bd 48 9a 33 bd 70 0e 2a be 61 4c f7 bb
       -0.09590332 -0.043848306 -0.1660707 -0.007546947
000290 00 01 29 3d 1d e0 df 3d 7f 17 af bd 30 d2 ca bd
       0.04126072 0.10931418 -0.085494034 -0.09903371
0002a0 26 5f f9 3d 01 19 c4 bd 1b c1 24 3e 5e ad 80 3d
       0.12176351 -0.095750816 0.16089289 0.06283067
0002b0 48 36 d1 3c a0 ff 0e 3d 57 80 f6 3d c6 c2 95 3c
       0.025538579 0.03491175 0.12036198 0.018281352
0002c0 64 1b b3 bd f2 94 03 bd 9e b6 f3 bd b2 9e 80 bd
       -0.08745459 -0.032124467 -0.11900066 -0.06280269
0002d0 a5 1a c1 3d f9 5d b5 3d 2c 82 ea bd 46 7c 40 bc
       0.0942891 0.088558145 -0.114506096 -0.011748379
0002e0 b4 b3 83 bc 89 c4 8c 3d 1e 93 7e 3d 47 3c 11 3d
       -0.0160769 0.068734236 0.06215202 0.035457876
0002f0 db c4 47 bd 8f b6 45 3d 56 73 ee 3b 2e 01 07 be
       -0.04877172 0.048269805 0.0072769327 -0.13184044
000300 98 de 3b 3d 64 a7 65 3d 85 a7 02 be ed df a6 bd
       0.04586658 0.05606784 -0.12759216 -0.08148179
000310 2c ee 5d be 9b 39 82 bd b9 d8 1c be ee 56 90 bd
       -0.21672887 -0.063586436 -0.15317048 -0.070478305
000320 c3 ae e4 3c 0a 55 54 3d 29 71 a7 3c 74 84 10 be
       0.027915364 0.051838912 0.020439701 -0.14113027
000330 28 27 c7 3d 68 9a 02 be 67 f4 12 be 0d cc 9e bd
       0.09724265 -0.12754214 -0.14351045 -0.07753763
000340 98 c9 03 bd ec 3f 24 be 4d 05 a6 3c 17 bb 23 3e
       -0.032174677 -0.1604001 0.0202662 0.15989338
000350 1d ba 13 3e ce a4 e8 3d 2f 59 83 bd 7d 35 7f 3b
       0.14426465 0.11359559 -0.06413495 0.0038941794
000360 ae 55 77 bc e6 3f 1e 3e 8c e1 b5 bd fd f3 2b bd
       -0.015096111 0.15454063 -0.0888091 -0.041980732
000370 c0 e4 2a 3d 29 e0 15 3e 79 0e 2f 3d ee bb 1b 3e
       0.04172206 0.14636292 0.04273841 0.15208408
000380 19 c7 2a 3d 1f 53 9a 3d d4 79 87 bd ed c6 04 3e
       0.04169378 0.07535385 -0.06615034 0.12966509
000390 45 49 52 3e ce 28 72 3d 93 52 48 3e 08 7a 8b 3e
       0.20535763 0.059120946 0.1956275 0.2724154
0003a0 62 33 05 3e f0 be 6b 3b 1f 1c 30 bd d6 8f ad bc
       0.13007882 0.0035971962 -0.04299557 -0.02118675
0003b0 6f f5 fe bc 79 09 3a 3e cc 82 55 3e 1b 02 27 3e
       -0.031122891 0.18167676 0.20850676 0.16309397
0003c0 12 64 53 be ad f7 34 3d 21 f3 9e 3d da 66 4d 3d
       -0.20643643 0.044181515 0.07761217 0.050146915
0003d0 fa 36 32 bd 33 c6 75 3d ae ff dc 3d 0d 01 d6 3d
       -0.04350946 0.06000347 0.107909545 0.10449419
0003e0 69 58 c6 bd 79 07 cf 3d 56 cc 73 3d e7 d5 e9 3e
       -0.09684832 0.10108847 0.05952104 0.45671007
0003f0 72 9e 85 3e b1 cd 67 3e 5d d4 a9 3d 7b aa 3b be
       0.26097447 0.22637059 0.08292458 -0.18326752

bias f4 [21]
000000 c6 12 9d be 5f 48 86 bd 2a cd be 3d 5f 29 10 be
       -0.30678385 -0.065567724 0.09316476 -0.14078282
000010 5a bd 05 3e d9 51 d5 3b 9d 6c 3c 3d 21 79 90 b9
       0.13060513 0.006510001 0.04600202 -0.00027556068
000020 15 b3 40 3e d5 cd ec bc 9a a8 4a 3d e1 2b 67 3d
       0.18818314 -0.028906742 0.049477197 0.05643833
000030 48 b0 1d bc 2c 80 0c 3e 41 4d 54 3e d1 a3 86 3e
       -0.009624548 0.13720769 0.20732595 0.26296857
000040 8b 9d c8 3d e2 9d 43 3e 93 24 8f 3c 7d 63 d2 3d
       0.09795674 0.19103196 0.017473495 0.10272882
000050 45 18 ba ba
       -0.0014197907

weight f4 [6, 21]
000000 a9 6b ab be 6e 19 3a 3d 4f 89 25 3f 11 7e 41 be
       -0.33480576 0.045434408 0.6466264 -0.18895747
000010 19 cc 56 3e 79 a4 0a 3f 90 f2 30 3f a1 41 46 be
       0.20976295 0.54157215 0.6912012 -0.19360973
000020 8a fa f1 3e 66 7f 7f be 13 fc 26 3f df 2e a5 3e
       0.4726146 -0.24950942 0.65228385 0.32262322
000030 20 e5 77 3e 46 7d dd 3e ce c3 c6 3e ea 64 20 3f
       0.24208498 0.4325964 0.38821262 0.6265398
000040 5e 0b fe 3e 39 91 14 3f ab 19 92 3e c9 b3 0c 3f
       0.49618047 0.5803409 0.28535208 0.5496183
000050 b3 30 5e bd 84 b8 30 3e 1e 13 84 be 6a 2b 95 be
       -0.054245662 0.17257887 -0.25795835 -0.29134685
000060 6e ca 10 be 13 c4 b2 bd bb cd 07 ba da 6d 91 3d
       -0.14139721 -0.087288044 -0.00051804975 0.07101031
000070 c8 42 51 3d f2 c5 a7 3c 9a 5d 32 3e 70 06 8b bd
       0.05108908 0.02048013 0.17418519 -0.06788337
000080 da cd 16 3c 29 2d aa bb 10 bb 1d be 33 6e b2 be
       0.009204352 -0.005193372 -0.1540339 -0.348497
000090 5b c0 8e be 24 45 ec be 66 f8 69 be 9d eb da 3c
       -0.2788113 -0.461465 -0.22848663 0.026723677
0000a0 44 b3 77 3c 78 6a 04 3e 7c 1c 1f be 72 34 c5 bd
       0.015118424 0.1293124 -0.1553821 -0.09629144
0000b0 d1 0a a6 3e 6d 2d a4 3c 6a 21 ff bd 2d 25 70 3e
       0.32430127 0.020041192 -0.12457545 0.23451681
0000c0 dc 41 2d 3f eb 83 9b be 23 f7 94 3e a9 9a 68 be
       0.6767862 -0.30374083 0.290948 -0.22715248
0000d0 fc e9 07 3f 16 2c 07 3f 17 73 01 3f 17 98 af 3d
       0.53091407 0.52801645 0.5056624 0.08573931
0000e0 03 d0 70 3d 4a 78 e0 3e 7f 4d 31 3e a8 a7 9e 3e
       0.058792125 0.43841773 0.17314719 0.30987287
0000f0 33 b1 26 3f 4c 6a 05 3f 11 11 03 3e 43 12 9c 3e
       0.65114135 0.5211532 0.12799479 0.30482683
000100 24 e3 a3 3d 71 bd 8a be 25 c5 40 3e ae 53 bd bd
       0.08002308 -0.27097657 0.18825205 -0.09244476
000110 fa 7c ff 3d b3 56 ae be 2c 49 3b 3c cf 25 bd bc
       0.12475009 -0.3405052 0.01143102 -0.023089318
000120 bc 28 80 bd d2 09 93 3d ed 4e a2 be 97 d1 8c be
       -0.062577695 0.071796075 -0.3170084 -0.27503654
000130 45 c5 09 be aa f1 34 be d6 42 1f be 65 7a 91 bd
       -0.13454159 -0.17670313 -0.1555284 -0.07103423
000140 53 37 20 be df c4 f5 bd a8 62 14 be 57 72 e4 3d
       -0.15646105 -0.12000441 -0.1449076 0.11154621
000150 e3 fd 80 be 95 5c 3a 3e f8 86 af 3d 67 30 a5 bd
       -0.251937 0.1819938 0.08570665 -0.08065873
000160 e2 d0 08 be cf 94 83 bd e8 3c ba 3d 37 31 50 be
       -0.13360932 -0.06424867 0.09093648 -0.20331274
000170 c5 82 51 3e 5f 20 54 be 26 eb 0e 3e e5 72 97 3e
       0.20460041 -0.20715474 0.1395689 0.29579845
000180 57 60 79 3e f3 bb 84 3e 6a 3e 1e 3e 09 33 4b 3e
       0.24353157 0.25924644 0.15453497 0.19843687
000190 b9 6c df 3d 24 bd 2b 3e b6 9b ef 3e 98 8d d1 3e
       0.10909409 0.1677137 0.46798486 0.4092834
0001a0 ce f8 39 3e 60 3b 36 3e 1c 3e cf bd 65 d1 54 bd
       0.18161318 0.17796087 -0.10119268 -0.051957507
0001b0 f2 cc 43 3d 83 c3 60 be dc 57 8c be c7 46 29 be
       0.047802873 -0.21949582 -0.2741078 -0.16530906
0001c0 93 0b 18 bd 73 09 e9 bd 47 b4 45 3e 72 94 77 be
       -0.037120413 -0.113787554 0.19307052 -0.24177721
0001d0 95 41 76 3d ca 0f 01 be cb 56 c4 3b fc d4 53 be
       0.060121138 -0.1260368 0.005991792 -0.20686716
0001e0 75 77 4f be e8 38 28 be ea 77 85 bd b0 f2 a8 be
       -0.20260413 -0.16427958 -0.065170124 -0.32997656
0001f0 f6 b3 96 be 72 d7 39 3d
       -0.29434174 0.04537148

bias f4 [6]
000000 0c f6 63 3e fb d4 d3 bd 97 ba 6c 3e 1e 70 2e be
       0.22261828 -0.10343357 0.23118053 -0.17034957
000010 32 02 42 3e 56 d7 78 be
       0.1894615 -0.24300894

weight f4 [2, 6]
000000 bc 9a 1f bf f4 b8 07 3e 3d 73 ad bf b5 75 64 3d
       -0.6234548 0.13254148 -1.3550793 0.055776317
000010 e8 d3 04 be d2 6a c9 3e 06 72 f1 3e 88 86 10 bf
       -0.12971461 0.3933931 0.47157305 -0.5645528
000020 03 5e 39 3e e6 f7 d1 be a7 6d ee 3e 4f 07 0a bf
       0.18102269 -0.41009444 0.46568033 -0.539174

bias f4 [2]
000000 18 76 28 bf 38 07 59 3f
       -0.65805197 0.8477664
