Network2/params/mlp_nwParams0831190022.pth (torch_old, 58566 bytes, 12 tensors)

weight f4 [78]
0	0x3e4fd128	0.2029463
1	0x3efb7c1d	0.49118128
2	0x3f426536	0.75935686
3	0x3ef06200	0.46949768
4	0x3ea3dfdc	0.3200673
5	0x3ed80df0	0.42198133
6	0x3ececd68	0.40391088
7	0x3f13ddb5	0.57760173
8	0x3f7dc7ee	0.99133193
9	0x3f07ad6f	0.52999014
10	0x3ed33cf0	0.4125743
11	0x3f746de8	0.95480204
12	0x3e57522e	0.21027443
13	0x3ebc1329	0.36733368
14	0x3f2d9db8	0.67818785
15	0x3f5ba40d	0.85797197
16	0x3ebb9873	0.36639747
17	0x3f0002f0	0.5000448
18	0x3f09bb21	0.5380116
19	0x3f65c7e0	0.8975811
20	0x3f3ee61d	0.74569875
21	0x3f5775df	0.8416423
22	0x3f3946bc	0.7237356
23	0x3dc2569d	0.094891764
24	0x3f300fd6	0.68774164
25	0x3f97ce43	1.1859821
26	0x3ee668cd	0.45001832
27	0x3d8a3a98	0.06749457
28	0x3f21099a	0.62905276
29	0x3e263633	0.16231613
30	0x3f1a9504	0.6038363
31	0x3f0276fe	0.5096282
32	0x3f17cc00	0.59295654
33	0x3e2362c5	0.15955646
34	0x3e639186	0.22223482
35	0x3dd7c895	0.10536305
36	0x3e9dcd38	0.30820632
37	0x3ec2c4ac	0.38040674
38	0x3e912189	0.28345898
39	0x3e9ba74d	0.30401078
40	0x3f4f41ca	0.8095976
41	0x3ea00ab5	0.3125817
42	0x3f501119	0.8127609
43	0x3d888591	0.06666101
44	0x3ec75c83	0.38937768
45	0x3f56ef4f	0.83958906
46	0x3e85ec36	0.26156777
47	0x3f08eb09	0.53483635
48	0x3ebe3153	0.37147006
49	0x3e30bdec	0.1725995
50	0x3f5b7add	0.8573435
51	0x3eadb95f	0.3393049
52	0x3f08a8d3	0.53382605
53	0x3f67768a	0.9041525
54	0x3ecd3cbf	0.40085408
55	0x3ea3598c	0.31904256
56	0x3e99b4a5	0.30020633
57	0x3f4acc79	0.7921825
58	0x3e92847c	0.28616703
59	0x3f6f193b	0.93397874
60	0x3e930ca7	0.2872059
61	0x3e5a5a65	0.21323545
62	0x3f4bfa88	0.79679155
63	0x3ea65339	0.3248537
64	0x3e30d39f	0.17268227
65	0x3e8a0cbe	0.26962847
66	0x3f648ecc	0.8928039
67	0x3f300581	0.687584
68	0x3ee9c8ae	0.4566092
69	0x3e9edfb8	0.3103006
70	0x3f068763	0.52550334
71	0x3e4164f1	0.18886162
72	0x3f2a78d7	0.66590637
73	0x3e3013ab	0.17195003
74	0x3f4cce4f	0.800023
75	0x3e126156	0.14294943
76	0x3f61d369	0.8821321
77	0x3ebc3c4e	0.3676476

bias f4 [78]
0	0xbd1f4329	-0.03888241
1	0x3cf72ce2	0.030172769
2	0x3da59e1c	0.080867976
3	0x3d9c18c8	0.07621914
4	0x3d7c9720	0.06166756
5	0x3db9f7a6	0.09080438
6	0x3ceea8a9	0.029133158
7	0xbd5da72e	-0.054114513
8	0x3ca4e72f	0.020129768
9	0xbdb3b216	-0.087742016
10	0xbddcec19	-0.107872196
11	0xbde08824	-0.10963467
12	0xbcf64f86	-0.030067217
13	0xbd46c986	-0.04853203
14	0x3d80bda4	0.06286171
15	0xbc97e947	-0.018543852
16	0xbc4c9d1c	-0.01248863
17	0x3c8160bd	0.015793199
18	0xbc34d786	-0.011037713
19	0xbc016d45	-0.007899587
20	0xbd8e5b79	-0.06951041
21	0x3bd29229	0.006426115
22	0xbb33cf1e	-0.0027436684
23	0xbe4a591b	-0.19760554
24	0xbd2ba8e8	-0.04190913
25	0x3c4d769b	0.012540485
26	0x3d4e2b54	0.05033429
27	0x3c66fc49	0.014098235
28	0x3d5c88e6	0.053841494
29	0xbd81c2e5	-0.06336001
30	0xbc920658	-0.01782529
31	0xbd8c532e	-0.06851803
32	0x3c9a06d1	0.018802078
33	0xbd19ae1d	-0.037519563
34	0x3d9e45b4	0.077281386
35	0x3c7a22ff	0.015267133
36	0xbcdf1c5e	-0.027235206
37	0x3b9ee7fb	0.0048494316
38	0x3d153ca5	0.03643479
39	0x3d52e6f3	0.05148978
40	0x3deba516	0.11506097
41	0x3dcb851f	0.099375
42	0xbc453991	-0.012037651
43	0x3df88575	0.1213483
44	0x3aff6f8a	0.0019488197
45	0xbcdffb19	-0.027341412
46	0x3ba6a2ab	0.0050853095
47	0xbd022ef5	-0.031783063
48	0x3e115847	0.14193831
49	0xbd2b2763	-0.04178561
50	0x3cce31ff	0.025170324
51	0x3c0b5482	0.008504035
52	0x3c43693e	0.011926947
53	0x3d80d6ef	0.06290995
54	0xbd5da0fe	-0.054108612
55	0xbd23dde2	-0.040006526
56	0x3ce13a8b	0.027493736
57	0x3c96b977	0.018398983
58	0x3d0b6121	0.034028176
59	0x3d08e068	0.033417135
60	0xbd76f11b	-0.06028853
61	0xbdaf161e	-0.085491404
62	0xbbd73d08	-0.006568555
63	0x3cc50f98	0.024055287
64	0xbd44739f	-0.047961827
65	0x3bef95b9	0.0073115495
66	0x3c2ff829	0.010740318
67	0x3b7ebb47	0.003886895
68	0xbc76c4ad	-0.01506154
69	0x3d745550	0.059651673
70	0x3c1c91d6	0.009556254
71	0xbbc84141	-0.0061112945
72	0x3dc1d590	0.09464562
73	0x3dbcd81e	0.092209086
74	0x3da851f4	0.08218756
75	0xbd1d2e11	-0.03837401
76	0x3bece3ba	0.0072292956
77	0x3ca456b7	0.02006088

running_mean f4 [78]
0	0x3eae25ac	0.34013116
1	0x3eaadb0d	0.33370247
2	0x3e8c2218	0.2736976
3	0x3e6e752e	0.23286888
4	0x3e7ba39a	0.24574128
5	0x3eeda2ab	0.46413168
6	0x3f86ba62	1.052563
7	0x3f6905f8	0.9102473
8	0x3f9e9f04	1.2392278
9	0x3e8e3c35	0.2778031
10	0x3eae25ac	0.34013116
11	0x3eaadb0d	0.33370247
12	0x3e6eeaac	0.23331708
13	0x3e782a75	0.24234946
14	0x3ef13ab2	0.47115093
15	0x3f8767a4	1.0578504
16	0x3f6e39bc	0.93056846
17	0x3fa17a8a	1.2615521
18	0x3eb03b8c	0.3442043
19	0x3e8e3c35	0.2778031
20	0x3eae25ac	0.34013116
21	0x3e79a5d6	0.24379668
22	0x3e6e89c7	0.23294745
23	0x3ef5efc6	0.48034495
24	0x3f7fddde	0.9994792
25	0x3f687272	0.9079963
26	0x3fa187fa	1.2619622
27	0x3eb1b5a3	0.3470889
28	0x3eb03b8c	0.3442043
29	0x3e8e3c35	0.2778031
30	0x3e81ca30	0.2534957
31	0x3e740b80	0.23832512
32	0x3ef1f988	0.4726069
33	0x3f84016f	1.0312937
34	0x3f654db1	0.8957167
35	0x3fa3b692	1.2790091
36	0x3e91157f	0.28336713
37	0x3eb1b5a3	0.3470889
38	0x3eb03b8c	0.3442043
39	0x3e6ae6f0	0.22939658
40	0x3e82c7ca	0.25543052
41	0x3ef87e53	0.48533878
42	0x3f88c0d3	1.0683845
43	0x3f7ad1e9	0.9797655
44	0x3fa2c250	1.271555
45	0x3eb1719d	0.34656993
46	0x3e91157f	0.28336713
47	0x3eb1b5a3	0.3470889
48	0x3e79c60b	0.24391954
49	0x3e7ad1df	0.24494122
50	0x3ef7643b	0.48318657
51	0x3f7dab9a	0.9908997
52	0x3f709b4b	0.9398696
53	0x3fa6b3c2	1.3023608
54	0x3eb3b2ae	0.3509726
55	0x3eb1719d	0.34656993
56	0x3e91157f	0.28336713
57	0x3e7f82ac	0.24952191
58	0x3e731f86	0.23742494
59	0x3efa9190	0.4893918
60	0x3f896e4a	1.0736783
61	0x3f6646a2	0.8995153
62	0x3fa3acac	1.278707
63	0x3e932d2e	0.28745407
64	0x3eb3b2ae	0.3509726
65	0x3eb1719d	0.34656993
66	0x3e6dd43e	0.23225495
67	0x3e872f5b	0.26403317
68	0x3ef7fc9d	0.48434916
69	0x3f865291	1.0493947
70	0x3f7f0c1f	0.9962787
71	0x3fa90422	1.3204386
72	0x3eb92024	0.36157334
73	0x3e932d2e	0.28745407
74	0x3eb3b2ae	0.3509726
75	0x3e816033	0.25268707
76	0x3e79c948	0.24393189
77	0x3eff3004	0.4984132

running_var f4 [78]
0	0x3e671570	0.22566772
1	0x3e685703	0.22689442
2	0x3e470cd0	0.19438481
3	0x3d09377a	0.033500172
4	0x3d3f1f20	0.046660542
5	0x3d93e328	0.07221061
6	0x3f1735ca	0.5906645
7	0x3f079bc4	0.52972054
8	0x3f0f2d24	0.55928254
9	0x3e48e2ea	0.19617811
10	0x3e671570	0.22566772
11	0x3e685703	0.22689442
12	0x3d0560ce	0.032563023
13	0x3d327626	0.043569706
14	0x3d75a3e0	0.059970737
15	0x3f1af757	0.6053366
16	0x3f047293	0.51737326
17	0x3f01b201	0.5066224
18	0x3e6b73ac	0.22993344
19	0x3e48e2ea	0.19617811
20	0x3e671570	0.22566772
21	0x3d1e7c9a	0.038693048
22	0x3d39de9c	0.045378312
23	0x3d6d409d	0.05792295
24	0x3f0a4369	0.5400911
25	0x3f16fcda	0.5897957
26	0x3ef2d4f2	0.4742809
27	0x3e6a3652	0.22872284
28	0x3e6b73ac	0.22993344
29	0x3e48e2ea	0.19617811
30	0x3d0f1aa2	0.03493751
31	0x3d3a26f4	0.045447305
32	0x3d8599d7	0.06523483
33	0x3eff4287	0.49855444
34	0x3f0739f8	0.5282283
35	0x3f096652	0.53671753
36	0x3e4a8ca8	0.19780219
37	0x3e6a3652	0.22872284
38	0x3e6b73ac	0.22993344
39	0x3d008d93	0.031385016
40	0x3d287f69	0.041137133
41	0x3d5f6a8e	0.054544978
42	0x3f1f382c	0.62195086
43	0x3f06b0c5	0.5261348
44	0x3ee92f5b	0.45543942
45	0x3e6c5a88	0.2308141
46	0x3e4a8ca8	0.19780219
47	0x3e6a3652	0.22872284
48	0x3d19313d	0.037400473
49	0x3d389530	0.04506415
50	0x3d675a92	0.05648286
51	0x3f080549	0.53133065
52	0x3f118014	0.56836057
53	0x3ef49068	0.47766423
54	0x3e6b2f90	0.22967362
55	0x3e6c5a88	0.2308141
56	0x3e4a8ca8	0.19780219
57	0x3d0439ea	0.032281794
58	0x3d365b60	0.044520736
59	0x3d7ed0e9	0.06221095
60	0x3f0a218e	0.5395745
61	0x3f095830	0.5365019
62	0x3efce083	0.4939004
63	0x3e4aff48	0.19823945
64	0x3e6b2f90	0.22967362
65	0x3e6c5a88	0.2308141
66	0x3d05b24d	0.032640744
67	0x3d2dcb8f	0.042430457
68	0x3d5dc9fc	0.054147705
69	0x3f1a768d	0.60337144
70	0x3f02f6dd	0.51157933
71	0x3eea3f3d	0.45751372
72	0x3e705e48	0.23473465
73	0x3e4aff48	0.19823945
74	0x3e6b2f90	0.22967362
75	0x3d0e2572	0.03470368
76	0x3d37acdb	0.044842582
77	0x3d62fcb1	0.055416767

weight f4 [78, 78]
0	0xbe05bf54	-0.13061267
1	0x3c51e61d	0.012811211
2	0x3d2b9815	0.041893084
3	0xbd2b2dd4	-0.041791752
4	0x3da4cfd7	0.08047455
5	0xbdcde8a3	-0.100541376
6	0x3c8d5327	0.017251564
7	0xbc91c064	-0.017791934
8	0x3cf901f0	0.030396432
9	0xbd4a7725	-0.04943003
10	0x3c8724c5	0.016497025
11	0xbdbf55be	-0.09342526
12	0xbd390cf2	-0.04517836
13	0xbdf39d10	-0.11895192
14	0xbd636391	-0.055514876
15	0x3d9d715f	0.076876394
16	0xbd98ce0d	-0.07461176
17	0x3d963b4e	0.0733553
18	0x3d1b3c5c	0.03789936
19	0x3c69bcb5	0.014266183
20	0x3d7b7593	0.061391424
21	0x3d3222ee	0.043490343
22	0x3bfb3b9c	0.007667018
23	0xbdb3bc08	-0.087760985
24	0x3dcb5527	0.09928351
25	0xbc27dd87	-0.010245687
26	0x3ea53a80	0.32271194
27	0x3d32f851	0.043693844
28	0x3cdd2390	0.026994497
29	0x3ded833f	0.11597299
30	0x3ccfa07f	0.025345085
31	0x3de0d586	0.10978226
32	0xbcfa2910	-0.030537158
33	0x3dc94b20	0.09828782
34	0xbc221ae5	-0.0098941075
35	0xbdbe34a9	-0.09287388
36	0x3d2aade4	0.04166974
37	0xbe059259	-0.13044108
38	0x3d741dca	0.05959872
39	0xbdfbd23b	-0.12295958
40	0xbdcee0d0	-0.10101473
41	0x3d889fd5	0.066711105
42	0x3cf355c2	0.029703978
43	0x3df74c44	0.120750934
44	0x3da3e3f8	0.08002466
45	0x3d711879	0.05886123
46	0xbdaa5a1f	-0.083179705
47	0xbca2b214	-0.019860305
48	0x3d92ec79	0.0717401
49	0xbc8a2d59	-0.016867327
50	0xbcb9c3b0	-0.022676319
51	0x3cd654f1	0.02616355
52	0x3e6c24ae	0.23060867
53	0x3e9d6f83	0.3074914
54	0xbdd486bb	-0.1037726
55	0xbd88c3bf	-0.066779606
56	0xbd997650	-0.074932694
57	0xbe049a7e	-0.12949559
58	0x3d919c18	0.07109851
59	0x3ca4eb29	0.020131664
60	0x3d81cbb4	0.063376814
61	0xbca35d61	-0.019941987
62	0x3e16a4d2	0.14711311
63	0x3d1893cb	0.03725032
64	0xbd107fad	-0.03527801
65	0x3c9a524f	0.018838076
66	0xbd9699bb	-0.073535405
67	0xbdbced6e	-0.092249736
68	0x3da53319	0.08066387
69	0x3db8b0d7	0.090181045
70	0x3d4b4d38	0.04963419
71	0x3dd561df	0.10419058
72	0xbd59e156	-0.053193413
73	0x3df44c78	0.11928648
74	0xbb7c7c62	-0.0038526286
75	0xbca5e34c	-0.020249985
76	0xbde01121	-0.10940767
77	0x3d8513c2	0.06497909
78	0xbdbfb346	-0.093603656
79	0x3d9de978	0.07710546
80	0x3d5aa606	0.05338099
81	0xbd892642	-0.0669675
82	0x3dc98ab9	0.09840912
83	0x3daf6532	0.08564223
84	0x3dc6055d	0.09668992
85	0x3d95289c	0.07283136
86	0xbd7cb860	-0.06169927
87	0xbcb4e743	-0.02208293
88	0xbcde90cc	-0.027168654
89	0x3b2da45f	0.0026495678
90	0x3e062d17	0.13103138
91	0xbdf63e4d	-0.12023602
92	0x3d62e040	0.055389643
93	0x3d4ebad5	0.050471146
94	0x3d743a3c	0.05962585
95	0xbbecf00d	-0.0072307647
96	0xbdc39fe8	-0.09551984
97	0xbc56e824	-0.01311687
98	0xbc0d2ea8	-0.008617081
99	0x3d4cbd63	0.0499853
100	0x3d5d157b	0.053975563
101	0xbe364824	-0.17800957
102	0xbe0711b7	-0.13190351
103	0xbe108aa0	-0.14115381
104	0xbd94cde2	-0.072658315
105	0xbd241d30	-0.040066898
106	0x3b18aeb4	0.002329749
107	0x3d09f4b2	0.033680625
108	0xbd8390fa	-0.064241365
109	0x3d62de69	0.055387888
110	0x3dcaa8d2	0.09895481
111	0x3d43b97b	0.04778431
112	0xbd40c812	-0.047065802
113	0xbddb3c61	-0.10704876
114	0x3ca877f9	0.02056502
115	0xbca14513	-0.019686257
116	0x3c1b9599	0.009496116
117	0xbd3d673d	-0.046241034
118	0x3da8f4bc	0.082498044
119	0x3d0ad883	0.033897888
120	0xbd144021	-0.03619397
121	0xbc65003a	-0.013977105
122	0x3d8e514e	0.069491014
123	0xbdd9a71e	-0.10627578
124	0x3d521095	0.051285345
125	0x39caecd8	0.00038704905
126	0x3d86974c	0.06571826
127	0xbd9a1dbd	-0.075252034
128	0x3d04a60a	0.03238491
129	0xbe4a85b0	-0.1977756
130	0xbe11f38d	-0.14253063
131	0xbe27cf46	-0.16387662
132	0x3d85becc	0.06530532
133	0x3d5e288e	0.054237895
134	0x3d33f9d7	0.043939438
135	0x3dace29a	0.08441658
136	0xbb831ca5	-0.0040012174
137	0xbd758b34	-0.059947208
138	0x3d127eb4	0.035765365
139	0xbd3992be	-0.04530596
140	0xbdcef99a	-0.101062015
141	0x3dc19cdf	0.09453749
142	0xbcf8a38f	-0.030351428
143	0xbd9a9c03	-0.07549288
144	0xbd0882f5	-0.033328015
145	0x3dcbb497	0.09946554
146	0x3bf6f228	0.0075361915
147	0xbd25fe55	-0.040525753
148	0xbdbd39c0	-0.092395306
149	0xbd932a05	-0.07185749
150	0x3d5079c5	0.05089738
151	0xbc9cbf1c	-0.019134097
152	0x3d104188	0.035218745
153	0x3d383ec5	0.044981737
154	0xbdc28ef9	-0.09499926
155	0x3d97fa52	0.07420792
156	0x3d3cff88	0.04614213
157	0xbcc504e9	-0.024050193
158	0x3e089d00	0.13341141
159	0x3cedb9f5	0.029019335
160	0x3dad135b	0.084509574
161	0xbd65b36f	-0.056079324
162	0xbd2d6a7e	-0.042337887
163	0xbd9d0936	-0.076677725
164	0xbd9e8fe0	-0.07742286
165	0xbcd35b8d	-0.02580049
166	0xbda34133	-0.0797142
167	0x3cacf2cf	0.021111874
168	0x3dba7112	0.09103598
169	0xbbcc03aa	-0.0062260227
170	0x3dc5ef07	0.096647315
171	0x3dcb48f5	0.09926025
172	0xbd37503b	-0.044754248
173	0xbd990e77	-0.07473462
174	0x3ce2bfa4	0.027679272
175	0x3d45076e	0.04810279
176	0xbda81478	-0.08207029
177	0xbd7110bc	-0.05885385
178	0x3da864c5	0.08222345
179	0x3d61865b	0.055059772
180	0xbdcbeee7	-0.099576764
181	0x3cd374a3	0.025812453
182	0xbe53656c	-0.20644158
183	0x3d52d0aa	0.05146853
184	0x3e06bf70	0.13158965
185	0x3df06f09	0.11739928
186	0xbd09054e	-0.033452325
187	0xbd9b556b	-0.075846516
188	0x3d223985	0.039605636
189	0xbd7d4222	-0.061830647
190	0xbca91d87	-0.020643963
191	0xbda184f4	-0.07886687
192	0x3ca903cb	0.020631691
193	0xbdb98b2e	-0.090597495
194	0x3e0900b7	0.13379179
195	0x3daacec3	0.08340218
196	0x3d8d9709	0.06913573
197	0x3dd8f181	0.10592938
198	0x3cb2fed0	0.02185002
199	0xbcf0daac	-0.029401146
200	0x3ba563dd	0.005047305
201	0xbc523e44	-0.012832228
202	0x3ba5bf5d	0.0050582127
203	0xbdccac30	-0.0999378
204	0xbd7a5db5	-0.061124522
205	0xbdc41541	-0.09574366
206	0x3e05538a	0.13020149
207	0xbe61eace	-0.22062227
208	0xbe079929	-0.1324202
209	0xbe5be5de	-0.21474406
210	0x3d784a8a	0.06061796
211	0xbc5637ee	-0.013074858
212	0x3df55b95	0.119803585
213	0xbcc77047	-0.02434553
214	0x3dd65294	0.10464969
215	0x3c95e3ae	0.018297043
216	0x3c5ad7bb	0.013357098
217	0xbdc40ae3	-0.09572389
218	0xbd400f32	-0.04688949
219	0x3d05c462	0.03265799
220	0xbda22904	-0.07917979
221	0xbd63243e	-0.055454485
222	0xbd2983f7	-0.041385617
223	0x3d38a182	0.0450759
224	0xbd282367	-0.041049387
225	0x3dd8540d	0.105629064
226	0x3da7eaf6	0.08199112
227	0x3d288777	0.041144814
228	0x3d5372fc	0.05162333
229	0x3da31d4c	0.07964572
230	0xbdcd94c8	-0.100381434
231	0x3db47ec1	0.08813239
232	0xbdf2e6b4	-0.118604094
233	0x3d9266e7	0.07148533
234	0x3dc828ae	0.09773384
235	0xbd2de42a	-0.042453922
236	0xbc98692d	-0.01860484
237	0xbd39b9d6	-0.045343243
238	0x3c8748e0	0.016514242
239	0x3ca0b7af	0.019618837
240	0xbddabc73	-0.10680475
241	0xbdf1a6ea	-0.117994145
242	0x3e0b3288	0.13593495
243	0x3dc82609	0.0977288
244	0xbb5224b1	-0.0032065327
245	0x39b956c3	0.00035350592
246	0xbc9d92a3	-0.01923496
247	0x3d4d5a04	0.050134674
248	0x3e0c1217	0.13678776
249	0x3d696eea	0.05699054
250	0x3d212a60	0.039347053
251	0x3d901f79	0.07037253
252	0xbddedab1	-0.10881556
253	0xbdb5f25b	-0.08884116
254	0x3cc7ea70	0.02440378
255	0x3dae8fed	0.085235454

bias f4 [78]
0	0x3dd2bd65	0.102900304
1	0xbc9b1f59	-0.018935846
2	0xbd76b362	-0.060229667
3	0xbc271a5c	-0.010199156
4	0xbcf06b4a	-0.029348034
5	0x3da2359a	0.0792038
6	0xbc5dbf7a	-0.013534421
7	0xbdb19a1e	-0.08671974
8	0x3e36b8d8	0.1784395
9	0xbc8131cd	-0.015770817
10	0x3ddcfe68	0.10790712
11	0x3d62c868	0.055366904
12	0xbbe2b51e	-0.0069185635
13	0x3e3d50f4	0.18487912
14	0x3d2cbe55	0.042173702
15	0x3cb9be83	0.02267385
16	0x3df2f210	0.11862576
17	0x3e0bcf65	0.13653333
18	0xbdd8cba2	-0.10585715
19	0xbac1eee8	-0.0014795931
20	0x3d63f967	0.05565777
21	0x3d86097b	0.06544777
22	0x3e3c2a64	0.18375546
23	0xbd9acf77	-0.07559102
24	0x3dad570a	0.08463867
25	0xbd0676dd	-0.0328282
26	0x3d04972e	0.03237074
27	0x3dc31a0f	0.09526455
28	0xbcdfc01e	-0.027313288
29	0x3e04d1fd	0.12970729
30	0x3e020e5a	0.12700787
31	0x3bbdb429	0.005789299
32	0x3db25899	0.08708305
33	0xbd62ecb0	-0.055401504
34	0x3e136636	0.14394459
35	0x3e12d7d4	0.14340144
36	0xbd5f7b1f	-0.054560777
37	0x3dce820c	0.10083398
38	0xbcf2fffe	-0.029663082
39	0xbd267b92	-0.04064519
40	0x3d9baddf	0.07601523
41	0x3d41c787	0.047309425
42	0x3e15ca5f	0.1462798
43	0x3d84c954	0.06483713
44	0x3e15b9fc	0.14621729
45	0xbddb6f72	-0.10714616
46	0x3d67ac59	0.056560848
47	0xbd47c1ae	-0.04876869
48	0x3d23d2b6	0.03999587
49	0x3e0560b4	0.1302517
50	0x3bdf18cf	0.0068083773
51	0xbdb1bd2e	-0.08678661
52	0x3d7c80ab	0.061646145
53	0x3bd748c5	0.006569954
54	0x3ca78e67	0.020453645
55	0x3dfd3840	0.123642445
56	0x3e0b8844	0.136262
57	0xbc1f1065	-0.009708499
58	0xbcebb560	-0.02877301
59	0x3e081b04	0.13291556
60	0xbd100558	-0.035161346
61	0x3e16dd9b	0.14732973
62	0x3dc0bc3f	0.09410905
63	0x3d39fcc2	0.045407064
64	0x3df1d079	0.11807341
65	0x3e0638ab	0.13107555
66	0x3ccaba7d	0.024747128
67	0x3de649bd	0.11244533
68	0x3d8b454a	0.06800325
69	0x3d917d91	0.07104028
70	0x3d394da0	0.045240045
71	0x3df2e54b	0.118601404
72	0xbcf2c919	-0.029636906
73	0x3dbf879b	0.093520366
74	0x3da67a89	0.081288405
75	0x3da63ec7	0.081174426
76	0x3bae4191	0.0053178747
77	0xbbcfe53a	-0.0063444646

weight f4 [39, 78]
0	0xbd2577a9	-0.04039732
1	0x3cce4f5d	0.025184328
2	0x3e1d3c69	0.15355076
3	0xbd7a2eaf	-0.061079677
4	0x3c3ac90f	0.011400475
5	0xbda58a98	-0.08083075
6	0xbda8991c	-0.08232328
7	0xbdf460ad	-0.11932502
8	0xbcf918ec	-0.030407391
9	0x3e13467c	0.14382356
10	0x3e4247d8	0.18972719
11	0x3e0bce47	0.13652907
12	0x3d1fe3ef	0.039035734
13	0xbcef4319	-0.0292068
14	0x3df7fadd	0.12108395
15	0xbdcb6420	-0.09931207
16	0xbd82740a	-0.06369789
17	0x3d8c6f22	0.068571344
18	0x3dae1ef3	0.08501997
19	0xbdc77ec7	-0.09740978
20	0x3e1674a9	0.1469294
21	0x3a1a0213	0.0005874943
22	0xbdb3a929	-0.08772499
23	0xbd8a88a4	-0.067643434
24	0xbe1b4a44	-0.15165049
25	0x3da856a0	0.082196474
26	0x3d4c1259	0.049822185
27	0xbd2f8bca	-0.042857923
28	0xbd78b5f4	-0.0607204
29	0xbd4548d7	-0.04816517
30	0xbd452b4b	-0.04813699
31	0xbd11c211	-0.035585467
32	0x3d964733	0.07337799
33	0x3bbad0d3	0.0057011633
34	0x3de1450f	0.109995
35	0xbdd34ba6	-0.10317163
36	0x3bdef6b8	0.0068043135
37	0xbcaa5a85	-0.020795116
38	0xbcd8af86	-0.026450884
39	0xbd6e387e	-0.058159344
40	0xbd78f153	-0.06077702
41	0x3e2603f0	0.1621244
42	0xbd4675f5	-0.048452336
43	0x3ad8ee6f	0.0016550551
44	0xbe09cc0a	-0.13456741
45	0xbd91b549	-0.071146555
46	0x3e06a235	0.13147815
47	0x3b2101a1	0.0024567621
48	0x3c0d6b98	0.008631609
49	0xbdd8e5fd	-0.10590742
50	0x3e0e71f6	0.1391066
51	0x3db6b148	0.089205325
52	0x3de8f0b7	0.11374038
53	0x3d9e6e33	0.077358626
54	0x3d8ceae9	0.06880743
55	0xbd913a33	-0.07091179
56	0x3ccc8215	0.024964372
57	0xbd88280e	-0.06648265
58	0x3bc8ae4c	0.0061242934
59	0x3c9329a3	0.01796419
60	0x3e32fc56	0.17479071
61	0xbe091128	-0.13385451
62	0x3b0bd0a6	0.002133408
63	0x3e4d43a3	0.20045333
64	0x3e45f050	0.19329953
65	0x3d66f0a1	0.056381825
66	0xbcee9589	-0.029124038
67	0x3c3a6803	0.011377337
68	0xbdaf0612	-0.0854608
69	0xbd43f2e0	-0.047839046
70	0xbd7c32c6	-0.06157186
71	0x3cb6b2ff	0.022302149
72	0xbdd84e58	-0.10561818
73	0xbd96edab	-0.0736955
74	0xbd0cc401	-0.03436661
75	0x3e321495	0.17390664
76	0x3cb65117	0.022255464
77	0x3d9d9533	0.07694473
78	0x3d142b2f	0.036173996
79	0xbbb1a2bd	-0.0054210112
80	0xbe11094a	-0.141637
81	0x3d5792ac	0.05263011
82	0x3db04afa	0.08608051
83	0x3dec4bb2	0.11537875
84	0x3dbf390b	0.09337052
85	0x3cc75f9e	0.024337586
86	0x3d6d2c4d	0.057903577
87	0xbde51ab8	-0.11186737
88	0x3b538e05	0.0032280695
89	0xbdc38440	-0.09546709
90	0x3c904d41	0.017614963
91	0x3e3b5229	0.1829306
92	0xbb562de6	-0.0032681166
93	0x3e2dd9c4	0.16977602
94	0x3e4e5490	0.20149446
95	0x3e0aec72	0.13566759
96	0xbc662611	-0.014047162
97	0x3df33c23	0.118767045
98	0xbd912785	-0.07087616
99	0x3e55e158	0.20886743
100	0x3e20a00b	0.15686052
101	0x3d86461c	0.06556341
102	0x3e41068b	0.18850152
103	0xb96cbe92	-0.00022577707
104	0xbe06193c	-0.13095564
105	0x3ddcb6a0	0.107770205
106	0x3e315c58	0.17320383
107	0x3dd893d5	0.10575072
108	0x3e74ea6a	0.23917547
109	0x3d0fa54c	0.03506975
110	0x3e0c3636	0.13692555
111	0x3c4cbd07	0.0124962395
112	0xbd86de29	-0.065853424
113	0x3e21c702	0.15798572
114	0x3d8d8be2	0.06911446
115	0x3d972f5b	0.07382079
116	0xbd4f312f	-0.050584015
117	0x3e115a59	0.14194621
118	0x3e2c0725	0.167996
119	0x3d3d8622	0.046270497
120	0x3df8ba3d	0.12144897
121	0x3e631f24	0.22179848
122	0x3ce40c31	0.027837845
123	0xbc4e8684	-0.012605313
124	0xbd3f3641	-0.0466826
125	0xbdb6d15c	-0.08926651
126	0xbdc1c6b0	-0.09461725
127	0x3df0ba23	0.11754253
128	0xbe1c660c	-0.15273303
129	0x3dcf28d0	0.10115206
130	0xbd1b5952	-0.03792698
131	0x3db0af8f	0.08627235
132	0x3d928c30	0.07155645
133	0x3df12077	0.1177377
134	0x3e0c827c	0.13721651
135	0xbcaeb2ac	-0.021325432
136	0xbdfec2cb	-0.124394976
137	0x3e7006b4	0.23440057
138	0xba4fbf09	-0.000792489
139	0x3e3faf34	0.18719178
140	0x3e6111b4	0.2197941
141	0xbd9f74cb	-0.07785948
142	0xbd9a5848	-0.075363696
143	0x3cda8c68	0.026678279
144	0x3e6500c7	0.22363578
145	0x3e02d72f	0.12777399
146	0x3da8f0f9	0.08249087
147	0x3deb65b5	0.114940085
148	0x3ddc8758	0.10768002
149	0x3db0766d	0.08616338
150	0xbd407aa1	-0.046991948
151	0x3e299d9d	0.16564031
152	0x3e0988d8	0.13431108
153	0xbd584ad6	-0.052805744
154	0x3d37d492	0.044880457
155	0xbce8af20	-0.028403819
156	0x3b0ad19b	0.0021182064
157	0xbd69fc14	-0.057125166
158	0xbd6c96bb	-0.057760935
159	0xbdebc271	-0.11511696
160	0xbd646f83	-0.05577041
161	0x3d934ece	0.07192765
162	0xbca01e47	-0.019545687
163	0xbde4f80f	-0.11180126
164	0xbe2dd64e	-0.16976282
165	0xbcf98f23	-0.03046376
166	0x3d45069e	0.048102014
167	0x3cda0575	0.02661393
168	0xbcfb2a1b	-0.030659726
169	0xbd90d050	-0.070709825
170	0xbe1f115d	-0.15533967
171	0xbd6ff0a5	-0.058579106
172	0xbcb99f63	-0.02265901
173	0x3d9394d6	0.072061226
174	0xbdb75f83	-0.08953764
175	0x3dd19bec	0.10234818
176	0xbd4e1f78	-0.05032298
177	0xbda7588a	-0.08171184
178	0xbd91f244	-0.071262866
179	0x3da593fa	0.08084865
180	0x3da0469e	0.07825969
181	0xbd2d57bd	-0.042320002
182	0xbe33bb88	-0.17552006
183	0x3dcf7a83	0.10130789
184	0x3d7afaea	0.061274447
185	0xbcdf702f	-0.027275173
186	0x3c74e59f	0.014947324
187	0xbd6ef978	-0.05834338
188	0xbcb18583	-0.021670109
189	0xbb585132	-0.003300738
190	0x3bef2947	0.007298622
191	0xbd4b569e	-0.04964315
192	0x3d3209f6	0.04346653
193	0xbccd6142	-0.02507079
194	0xbcd74146	-0.026276242
195	0xbd51915e	-0.051164024
196	0xbd845c11	-0.06462873
197	0x3b4fe984	0.003172488
198	0x3d0cd5b7	0.0343835
199	0xbd150244	-0.036379114
200	0xbc99d589	-0.01877858
201	0xbd0f2c33	-0.03495426
202	0xbd23b935	-0.03997155
203	0xbd8d2b6e	-0.06893049
204	0x3bd784a4	0.0065770913
205	0xbc19fa30	-0.009398028
206	0xbd840d9e	-0.0644791
207	0x3d821551	0.06351722
208	0x3d7f9319	0.062396143
209	0x3c8da419	0.017290162
210	0x3c37ef1e	0.011226444
211	0xbd5772ab	-0.05259959
212	0xbda315f7	-0.07963174
213	0xbdb3061d	-0.087414004
214	0x3d1097f0	0.03530115
215	0x3da6cc23	0.08144405
216	0xbd8d4cca	-0.06899412
217	0xbdacf9d7	-0.08446091
218	0x3cbd75f8	0.023127541
219	0xbe2dfcc7	-0.16990958
220	0xbe1dd52f	-0.15413354
221	0xbdd897c0	-0.10575819
222	0xbdc05a51	-0.093922265
223	0xbdac3b89	-0.08409793
224	0xbd5267d8	-0.051368564
225	0x3dbaf505	0.09128765
226	0xbd3ba78f	-0.045814093
227	0x3d904840	0.070450306
228	0xbd794f88	-0.060866863
229	0xbd81802e	-0.063232765
230	0xbe05e0b6	-0.13074002
231	0xbe2b1ec9	-0.16710962
232	0x3d090bc0	0.03345847
233	0x3d8cd503	0.06876566
234	0xbdcae2c7	-0.099065356
235	0x3e24996e	0.16074154
236	0x3c8e8cc7	0.017401112
237	0xbd20d24b	-0.03926305
238	0xbd20aed4	-0.03922923
239	0x3c8ba0dd	0.017044479
240	0xbd691922	-0.056908734
241	0x3db60327	0.0888732
242	0x3e11f356	0.14252982
243	0x3aba6e14	0.001422348
244	0x3e518edd	0.20464654
245	0x3ced9844	0.02900327
246	0xbd941cc1	-0.07232047
247	0xbd847348	-0.06467301
248	0x3d3baad3	0.045817208
249	0x3c716914	0.014734525
250	0xbd570ab2	-0.052500434
251	0xbd70ef20	-0.058821797
252	0xbc446a4d	-0.011988235
253	0xbd639919	-0.055565927
254	0x3d6be8b2	0.057594962
255	0xb8f36fd8	-0.000116079755

bias f4 [39]
0	0x3e3aa3af	0.18226503
1	0x3daf6074	0.08563319
2	0xbe021153	-0.12701921
3	0x3dafeafd	0.08589742
4	0x3ce3b220	0.027794898
5	0xbd56dd3c	-0.05245708
6	0x3d9613a2	0.073279634
7	0xbd643397	-0.055713262
8	0x3d82d85d	0.06388924
9	0xbd0dac90	-0.034588397
10	0x3dd43a73	0.10362711
11	0x3e103611	0.14083125
12	0xbcb928db	-0.02260249
13	0xbd48ec15	-0.04905327
14	0x3da09d04	0.07842448
15	0x3d35fac0	0.044428587
16	0x3dcb5c11	0.0992967
17	0x3d4b4855	0.049629528
18	0x3baee219	0.0053370115
19	0x3e14d1af	0.14533113
20	0x3e0be32a	0.13660875
21	0x3da7f7b6	0.08201544
22	0x3e4f4ca1	0.20244075
23	0x3c633a11	0.013868825
24	0x3b748ef1	0.0037316645
25	0xbda712f4	-0.08157912
26	0x3d948eac	0.07253775
27	0xbcb47f57	-0.022033377
28	0x3d205769	0.03914586
29	0x3cc9f037	0.024650676
30	0x3db0ff53	0.08642449
31	0x3e0dd803	0.13851933
32	0xbd4185e1	-0.047246817
33	0x3d89f653	0.06736436
34	0x3bfd4169	0.0077287448
35	0xbd9ff649	-0.07810647
36	0xbb606dcb	-0.003424513
37	0x3db344b8	0.087533414
38	0x3df4b321	0.119482286

weight f4 [10, 39]
0	0xbd52075f	-0.05127656
1	0x3e1f64e9	0.15565838
2	0xbdb08dc2	-0.08620788
3	0xbc6a7c5a	-0.014311874
4	0x3de4bf44	0.111692935
5	0xbc1daaea	-0.009623269
6	0x3e00fca5	0.12596376
7	0x3e32984e	0.17440912
8	0x3e487acd	0.19578095
9	0x3e618e19	0.22026862
10	0xbe06a819	-0.13150062
11	0x3ca4f204	0.020134933
12	0x3e2e985d	0.1705031
13	0x3e4a9c1a	0.1978611
14	0x3e586c8b	0.21135156
15	0x3ddaf155	0.10690562
16	0x3e482b53	0.19547777
17	0xbd8e32b3	-0.06943264
18	0x3e028ebf	0.12749766
19	0xbe080f9a	-0.13287202
20	0xbdacc398	-0.08435744
21	0xbdeac38e	-0.1146308
22	0xbdbdbd12	-0.09264578
23	0x3d2350cd	0.03987198
24	0x3e32faca	0.17478481
25	0x3e21e05c	0.15808243
26	0x3e86df16	0.26342076
27	0x3e15b799	0.14620818
28	0x3e7f0e25	0.2490774
29	0x3e08e751	0.1336949
30	0x3e4d1a4c	0.20029563
31	0xbb4331fa	-0.0029784427
32	0x3c8efcde	0.01745456
33	0x3d99121f	0.074741594
34	0x3ca2916a	0.01984473
35	0x3d8df4e5	0.069314755
36	0x3cc47790	0.023982793
37	0xbe123935	-0.14279635
38	0xbc1ed1f3	-0.0096936105
39	0xbdf26a66	-0.118367
40	0x3ed8e6b9	0.42363527
41	0xbd7751a1	-0.06038058
42	0xbcebc117	-0.028778596
43	0x3e675f1e	0.22594878
44	0x3dafa961	0.08577228
45	0x3e31a64d	0.17348595
46	0x3ebf1d7a	0.37327176
47	0x3ec7a910	0.38996172
48	0x3eb778a1	0.3583422
49	0xbe31bf6e	-0.17358181
50	0xbe421ab2	-0.18955496
51	0x3e505eb9	0.20348634
52	0x3e4a51bb	0.1975774
53	0x3e93d610	0.28874254
54	0x3ec80427	0.39065668
55	0x3ec692ef	0.38783976
56	0x3dc80cbe	0.097680554
57	0x3e1d0bd5	0.15336545
58	0xbccc1e1f	-0.024916707
59	0x3df9788e	0.12181197
60	0xbd6700e7	-0.056397345
61	0xbdc270cd	-0.09494171
62	0xbe138aba	-0.14408389
63	0x3e9df8fb	0.3085402
64	0x3ed16d46	0.40903682
65	0x3ebf1fe4	0.37329018
66	0x3e330d5f	0.1748557
67	0x3ed64afd	0.41854087
68	0x3e4d6a6d	0.2006013
69	0x3e901129	0.28138092
70	0xbdb6f4df	-0.08933424
71	0xbcc99a1f	-0.024609623
72	0x3e83ef3c	0.2576846
73	0x3efb17b9	0.49041536
74	0x3cacd472	0.021097396
75	0xbd57f542	-0.05272413
76	0x3c229d9f	0.009925275
77	0xbddc3f49	-0.10754258
78	0x3d701911	0.058617655
79	0xbdcdf0d0	-0.10055697
80	0xbda6097a	-0.08107276
81	0x3c830372	0.015992854
82	0xbb20ea79	-0.002455382
83	0x3d058b24	0.032603398
84	0xbdb1cd82	-0.08681776
85	0x3d612b68	0.054973036
86	0x3d0a6f1c	0.03379737
87	0xbdea56e2	-0.11442353
88	0x3e4a58b3	0.19760399
89	0x3da849e6	0.0821722
90	0x3d59cc82	0.05317355
91	0x3d744d33	0.059643935
92	0xbc02dd5e	-0.007987348
93	0xbcc48ce6	-0.023992967
94	0xbe05a796	-0.1305221
95	0x3d71b507	0.05901053
96	0xbd41d55e	-0.047322623
97	0x3e83feb4	0.2578026
98	0x3e54961b	0.20760386
99	0x3cc6ba70	0.024258822
100	0x3e6369b6	0.22208294
101	0x3e2d891b	0.16946833
102	0xbd3a1ee3	-0.045439612
103	0xbd0da1cb	-0.034578126
104	0xbdf9ef4d	-0.12203846
105	0xbe3d7697	-0.1850227
106	0xbd4f3d5f	-0.050595637
107	0xbe17c319	-0.14820518
108	0xbe3171c0	-0.17328548
109	0x3dbcf117	0.09225672
110	0xbda3cd60	-0.079981565
111	0xbcb46cda	-0.02202456
112	0xbdb2b22f	-0.08725392
113	0xbc02d566	-0.007985448
114	0x3da664ff	0.08124732
115	0x3de05f24	0.10955647
116	0x3e2fb565	0.1715904
117	0xbe49db86	-0.19712648
118	0x3ebd9f59	0.37035635
119	0x3d8e32b8	0.069432676
120	0xbe3993e5	-0.18122824
121	0x3ec77fd1	0.38964704
122	0xbdbd008a	-0.092286184
123	0x3e5993f1	0.21247841
124	0x3ec37e28	0.38182187
125	0x3edfc294	0.4370314
126	0x3e97f826	0.2968151
127	0x3cd15004	0.02555085
128	0xbdf23f8d	-0.118285276
129	0x3ec4b9b1	0.3842292
130	0x3e87190c	0.26386297
131	0x3eecd10d	0.46253243
132	0x3ebedb9f	0.37276933
133	0x3e8ef8b1	0.2792411
134	0xbe25bc14	-0.16185027
135	0x3e092a4f	0.13395046
136	0xbe1da4a9	-0.15394844
137	0xbd06405d	-0.032776225
138	0xbc5f9b5c	-0.01364788
139	0xbc531a4a	-0.012884686
140	0xbe26f248	-0.1630336
141	0x3ee7666a	0.45195323
142	0x3eb1f9ad	0.347608
143	0x3ee55aec	0.4479593
144	0x3ed3da33	0.4137741
145	0x3e9f9dba	0.31175023
146	0x3f07516f	0.5285863
147	0x3e8b6ab4	0.27229846
148	0xbe1e4893	-0.15457372
149	0xbe0b286a	-0.13589635
150	0x3eef3d0b	0.4672626
151	0x3ee23c93	0.4418684
152	0xbcd1a235	-0.025590042
153	0xbdf04110	-0.1173116
154	0x3d7bf774	0.061515287
155	0xbe1bf70d	-0.15230961
156	0x3aa09705	0.0012252039
157	0x3eaaaf57	0.333369
158	0x3e02fdb1	0.12792088
159	0xbd9fac52	-0.07796539
160	0x3edfcc58	0.4371059
161	0x3e071995	0.13193353
162	0x3e8a7911	0.2704549
163	0x3e06e168	0.13171923
164	0x3e75eb43	0.24015526
165	0x3ebc395d	0.36762515
166	0xbdfe119e	-0.12405704
167	0xbdcd23d9	-0.10016603
168	0x3e9a4e22	0.30137736
169	0x3e8758cb	0.2643493
170	0x3e823e42	0.25438124
171	0x3e9a5990	0.30146456
172	0x3ebc09f9	0.3672636
173	0xbd555e3c	-0.052091822
174	0x3dc3f0a7	0.09567385
175	0xbe2aca24	-0.16678673
176	0x3dc59963	0.09648397
177	0xbe30fe49	-0.17284502
178	0xbde4e0ae	-0.11175667
179	0x3cdaac75	0.026693562
180	0x3e9ac97f	0.30231854
181	0x3e9c0426	0.30471915
182	0x3e81274c	0.25225294
183	0x3eb661ee	0.3562159
184	0x3ef22cc0	0.47299767
185	0x3eaa4d46	0.3326208
186	0x3ec89a4f	0.39180228
187	0xbe116de4	-0.14202076
188	0xbdfdcd3e	-0.123926625
189	0x3e885788	0.2662928
190	0x3eb47876	0.35248154
191	0xbe158e79	-0.1460513
192	0xbd3ebb78	-0.046565503
193	0xbe128278	-0.14307582
194	0xbdfaca68	-0.12245637
195	0x3df2a2bc	0.11847445
196	0x3da0d105	0.07852367
197	0xbde98d26	-0.11403875
198	0x3e6942e2	0.2277942
199	0xbe0cf880	-0.1376667
200	0x3e34e64d	0.17665978
201	0xbe154e41	-0.14580633
202	0x3de1a863	0.11018445
203	0xbdcb9deb	-0.0994223
204	0xbe515dd6	-0.20445952
205	0x3e3abb97	0.18235622
206	0x3d02335c	0.03178726
207	0x3dd2984a	0.10282953
208	0xbd085883	-0.033287536
209	0xbe2c4c38	-0.1682595
210	0xbc537be7	-0.012907959
211	0xbe4bef3a	-0.19915476
212	0x3d9268e4	0.071489125
213	0xbe04b72a	-0.12960497
214	0x3d9fb1c7	0.0779758
215	0x3e348808	0.17630017
216	0x3da3c06d	0.07995687
217	0x3dfcb514	0.123392254
218	0x3db12e1a	0.08651371
219	0x3c74b3e3	0.014935466
220	0x3cd5ee8d	0.026114726
221	0xbe6307a6	-0.22170886
222	0xbe016137	-0.12634741
223	0xbddf2f8b	-0.1089774
224	0xbe13e68c	-0.14443415
225	0xbcbe931a	-0.023263503
226	0x3c5b4cf2	0.013385044
227	0x3b7bb804	0.0038409242
228	0xbdef7c2d	-0.116936065
229	0xbdeb1107	-0.11477857
230	0x3df1d0a5	0.11807374
231	0x3b7d22ac	0.0038625402
232	0x3e435ae9	0.19077648
233	0x3e5d4b86	0.21610841
234	0x3e9c4713	0.30522975
235	0xbdd2ff23	-0.1030257
236	0xbe3619fb	-0.17783348
237	0x3e0c56bc	0.13704962
238	0x3cf7baf9	0.030240523
239	0xbd0907f2	-0.033454843
240	0xbc749806	-0.014928823
241	0xbdcf3a4d	-0.10118542
242	0xbe28883a	-0.16458216
243	0xbc910b04	-0.017705448
244	0x3eb3b220	0.35096836
245	0x3e567511	0.20943095
246	0x3cb78f51	0.022407206
247	0xbdcd7996	-0.10032956
248	0xbc91f0a0	-0.017814934
249	0xbde421a9	-0.11139233
250	0xbdeb48e3	-0.114885114
251	0x3e37e4ef	0.17958425
252	0xbcef4e26	-0.029212069
253	0x3e327fcb	0.17431562
254	0x3da34bb8	0.079734266
255	0x3e35e2e3	0.17762332

bias f4 [10]
0	0x3b038569	0.0020068532
1	0xbd7e8c02	-0.06214524
2	0x3df6c279	0.120488115
3	0x3db86c86	0.09005074
4	0x3dd0c3e5	0.10193614
5	0x3e83f257	0.25770828
6	0x3e9c44c7	0.30521223
7	0xbd58f066	-0.052963637
8	0xbcdbdeef	-0.026839701
9	0x3d55ac0b	0.052166026

weight f4 [2, 10]
0	0xbe440714	-0.19143325
1	0xbf8a1771	-1.0788404
2	0x3e020db1	0.12700535
3	0xbf66eb30	-0.9020262
4	0xbf471001	-0.77758795
5	0x3f071b11	0.52775675
6	0x3e9bb84d	0.30414048
7	0xbdad4abd	-0.08461521
8	0x3e1a1b5e	0.15049502
9	0xbf66dcb6	-0.9018053
10	0x3ed3b85e	0.41351599
11	0x3ebd047d	0.36917487
12	0xbea56d34	-0.32309878
13	0x3e710136	0.23535618
14	0x3eab48f6	0.33454102
15	0xbe3e5508	-0.18587124
16	0xbe95837d	-0.2920188
17	0xbe9a86a2	-0.30180842
18	0xbe8d6069	-0.27612618
19	0x3efc4258	0.49269366

bias f4 [2]
0	0x3ddd85f1	0.10816563
1	0x3e6cb8a0	0.23117304
