Network2/params/mlp_nwParams0831193215.pth (torch_old, 239550 bytes, 12 tensors)

weight f4 [186]
0	0x3e3364e5	0.17518957
1	0x3f1b8396	0.6074766
2	0x3f10d46c	0.5657413
3	0x3ec00719	0.37505415
4	0x3e606316	0.21912798
5	0x3e200ae2	0.15629151
6	0x3f62c787	0.88585705
7	0x3f218382	0.6309129
8	0x3eb99c85	0.36252227
9	0x3ee62af0	0.44954634
10	0x3f657bc9	0.89642006
11	0x3f10a77c	0.5650556
12	0x3f230782	0.6368333
13	0x3dc358af	0.095383994
14	0x3de76aab	0.11299642
15	0x3f533b95	0.8251279
16	0x3daafcc0	0.083489895
17	0x3ead8176	0.33887833
18	0x3f22cd6c	0.635947
19	0x3f5c8dc4	0.8615382
20	0x3f5948b6	0.84876573
21	0x3f44bf4b	0.7685439
22	0x3e6b91fe	0.2300491
23	0x3f27366b	0.6531741
24	0x3e9f0782	0.31060416
25	0x3ec5ffca	0.38671714
26	0x3ecbcb85	0.3980371
27	0x3d89f410	0.06736004
28	0x3ca81a4a	0.020520348
29	0x3f7c3035	0.9851106
30	0x3e09f7f7	0.13473497
31	0x3e7eb4eb	0.24873702
32	0x3e9719bd	0.29511824
33	0x3e8d4a0f	0.27595565
34	0x3e7a5cdd	0.24449487
35	0x3f2c6b0c	0.6735084
36	0x3f08d235	0.5344575
37	0x3f47bdaa	0.7802378
38	0x3eb3b6a2	0.35100275
39	0x3f43587a	0.7630688
40	0x3e8e052e	0.27738327
41	0x3f375ee7	0.71629184
42	0x3f0b5568	0.54427195
43	0x3f6d9c82	0.92816937
44	0x3f213808	0.6297612
45	0x3ea6fe5a	0.3261593
46	0x3e5bf8cf	0.21481632
47	0x3f2472f4	0.64237905
48	0x3ed56371	0.4167743
49	0x3eb7b6ed	0.3588175
50	0x3ed50bba	0.4161051
51	0x3eefee9c	0.46861732
52	0x3f805fba	1.0029213
53	0x3f52df51	0.82372004
54	0x3f448e6f	0.76779836
55	0x3f2a6c09	0.665711
56	0x3e4c4301	0.19947435
57	0x3f2e8438	0.681705
58	0x3ef35167	0.47523043
59	0x3f6a936a	0.91631186
60	0x3f67a2b9	0.9048267
61	0x3e9deb0a	0.30843383
62	0x3f5edca6	0.8705543
63	0x3ec398b5	0.38202444
64	0x3f2789a2	0.65444386
65	0x3ead048e	0.33792537
66	0x3e1a1a51	0.15049101
67	0x3e0dad33	0.13835602
68	0x3f18d643	0.5970194
69	0x3ef516fb	0.47869095
70	0x3f1dc1d0	0.6162386
71	0x3f5865f5	0.84530574
72	0x3eae6fe5	0.34069744
73	0x3f6f5b8a	0.9349905
74	0x3f238154	0.63869214
75	0x3f491568	0.7854829
76	0x3edd0fd4	0.43176138
77	0x3f6aef84	0.9177172
78	0x3f20b667	0.62778324
79	0x3f11db9f	0.5697574
80	0x3f57e4d9	0.8433357
81	0x3f5d743b	0.8650548
82	0x3e28439b	0.1643204
83	0x3ecc9ef2	0.39965016
84	0x3ef54514	0.47904265
85	0x3f2ca666	0.67441404
86	0x3f3e6c69	0.7438417
87	0x3f0b1e48	0.5434308
88	0x3f4f8f9d	0.8107851
89	0x3ea9f7b5	0.33196798
90	0x3f2ebe22	0.6825887
91	0x3f70920e	0.9397286
92	0x3f7ae0d6	0.9799932
93	0x3efc959c	0.49332893
94	0x3e22ee91	0.15911318
95	0x3f4d8cc2	0.80292904
96	0x3f3f2fb7	0.7468218
97	0x3f25e1bc	0.6479757
98	0x3f022279	0.5083385
99	0x3ece0245	0.40236107
100	0x3f304638	0.68857145
101	0x3f7b588a	0.98181975
102	0x3f5f4a8b	0.8722312
103	0x3f4cb593	0.7996456
104	0x3eeb5a98	0.45967555
105	0x3f7c62bf	0.98588175
106	0x3f829180	1.0200653
107	0x3f37281b	0.7154557
108	0x3edffdf2	0.43748432
109	0x3f1d8c51	0.6154223
110	0x3f5b3c12	0.85638535
111	0x3f135cdd	0.57563573
112	0x3ea07836	0.31341714
113	0x3f73c4c9	0.95222145
114	0x3f35142f	0.7073392
115	0x3f0cf97b	0.55068177
116	0x3f1959ed	0.5990284
117	0x3f0744e6	0.52839506
118	0x3dde489c	0.10853693
119	0x3f4cf818	0.8006606
120	0x3f08fb84	0.5350878
121	0x3f3b8d51	0.73262507
122	0x3ec7ec22	0.39047343
123	0x3d7beab5	0.06150313
124	0x3e403aaf	0.18772386
125	0x3f1b2884	0.60608697
126	0x3f808319	1.0040008
127	0x3e4b5d53	0.19859819
128	0x3e8d5ada	0.27608377
129	0x3f43dd85	0.76509887
130	0x3f43779e	0.76354396
131	0x3f3aab00	0.72917175
132	0x3f60c45d	0.87799627
133	0x3f6f6033	0.93506163
134	0x3ead10d2	0.33801895
135	0x3ebfaf64	0.374385
136	0x3f42816c	0.7597873
137	0x3f0cd275	0.5500863
138	0x3e73929f	0.237864
139	0x3eeb39d5	0.4594256
140	0x3f60a2ea	0.8774859
141	0x3f1e2e0c	0.6178901
142	0x3e0d7935	0.13815768
143	0x3e52bd94	0.20580131
144	0x3e75b4fd	0.23994823
145	0x3ed6a89e	0.4192552
146	0x3ec5fe0d	0.38670388
147	0x3efb21d2	0.4904924
148	0x3f5b110d	0.8557289
149	0x3e2021da	0.15637913
150	0x3f453c72	0.7704536
151	0x3f4b42da	0.7939888
152	0x3f1d6be7	0.6149277
153	0x3ec7303a	0.3890398
154	0x3f127dc4	0.57223153
155	0x3ec1228a	0.37721664
156	0x3ecc5869	0.39911202
157	0x3e94e593	0.290814
158	0x3dd2b8f3	0.102891825
159	0x3f279aad	0.6547039
160	0x3f2e353d	0.68049985
161	0x3f6e6f5b	0.93138665
162	0x3f3a702d	0.72827417
163	0x3f24feac	0.644511
164	0x3f7e924b	0.99441975
165	0x3efbf4ac	0.49210107
166	0x3f5fdcaf	0.8744611
167	0x3f372026	0.7153343
168	0x3e5c934d	0.21540566
169	0x3ecd9ab7	0.401571
170	0x3ed46ab7	0.41487667
171	0x3e1a4e97	0.15069042
172	0x3f37524d	0.71609956
173	0x3f06a783	0.5259935
174	0x3f6a1c4c	0.9144943
175	0x3db6ebc9	0.08931691
176	0x3f21a0b2	0.63135827
177	0x3f1ca8e8	0.6119523
178	0x3ea57c73	0.3232151
179	0x3eb3817d	0.3505973
180	0x3e8178e6	0.2528755
181	0x3e3a08b1	0.18167378
182	0x3ea6d363	0.3258315
183	0x3f8460cd	1.0342041
184	0x3f0d86a0	0.55283546
185	0x3e49503e	0.19659516

bias f4 [186]
0	0x3cc39d51	0.023878725
1	0x3b5c1885	0.003358395
2	0xbc053ccb	-0.00813217
3	0xbbfde09a	-0.007747722
4	0xbd1c0074	-0.03808637
5	0x3cc5ea1c	0.024159484
6	0x3c3f2be1	0.011668176
7	0x3c093ceb	0.00837634
8	0x3c1ef5ac	0.009702127
9	0x3aafde53	0.0013417698
10	0x3c0c1444	0.008549754
11	0x3cf0de8d	0.029402995
12	0xbc314e17	-0.010821841
13	0x3c13ae78	0.009013765
14	0x3d8bd630	0.068279624
15	0x3c0c7983	0.0085738925
16	0x3ccd7d0e	0.025084045
17	0x3cd52e4f	0.026023058
18	0x3d001668	0.03127137
19	0xbd172cb3	-0.036907863
20	0x3da2d73b	0.07951208
21	0xbbaaa0fa	-0.005207178
22	0xbc960acb	-0.018315693
23	0xbd31a2a2	-0.04336799
24	0x3c38f7d9	0.01128956
25	0xbbf77286	-0.007551494
26	0x3ca9aba1	0.020711722
27	0xbda97b1b	-0.08275434
28	0xbd95752f	-0.072977416
29	0x3cda2d56	0.026632946
30	0xbc286d79	-0.010280007
31	0x3c3a32a7	0.0113646155
32	0x3bde9c62	0.0067935446
33	0xbd0673be	-0.032825224
34	0xbceacfe6	-0.028663587
35	0x3b8a46ae	0.0042198515
36	0xbd0a08fb	-0.03369997
37	0xbc0e9a8e	-0.008703841
38	0x3b67be6d	0.0035361305
39	0x3d3f6e59	0.046736095
40	0xbc76a677	-0.015054337
41	0x3d01af0f	0.03166109
42	0xba28278c	-0.00064145843
43	0x3c1ab339	0.009442144
44	0x3c942f89	0.018089073
45	0x3cc4e39a	0.02403431
46	0x3d92937d	0.071570374
47	0x3c25fd0d	0.010131133
48	0x3d65042e	0.05591219
49	0x3c270b9a	0.010195637
50	0x3ae1c1f1	0.0017223937
51	0xbca330f1	-0.019920798
52	0x3c8226db	0.015887668
53	0x3cc66e90	0.024222642
54	0x3cb0433f	0.02151644
55	0x3d201076	0.0390782
56	0x3d080c82	0.033215053
57	0x3d1ea005	0.038726825
58	0x3d7c90ac	0.061661407
59	0x3cf1b756	0.029506367
60	0x3cb73de5	0.02236838
61	0x3ca0d849	0.019634383
62	0xbb5ae45a	-0.0033400268
63	0x3c101dd2	0.008796172
64	0x3ccf7e5f	0.025328813
65	0x3c0faa0c	0.00876857
66	0x3d01e6b9	0.031714175
67	0x3d681279	0.056658242
68	0x3cbeacb9	0.02327572
69	0xbc30fb00	-0.010802031
70	0xbd456baf	-0.0481984
71	0x3cb13457	0.021631403
72	0xbc3b699c	-0.011438753
73	0x3d60aaf1	0.054850522
74	0xbcbda7bd	-0.023151273
75	0xbc6a08f5	-0.014284362
76	0x3c0ac220	0.008469135
77	0xbcc10512	-0.023561988
78	0x3cbdd950	0.023174912
79	0xbcbfe919	-0.02342658
80	0x3c651217	0.013981364
81	0xbc0c4918	-0.008562349
82	0xbc3b4051	-0.011428908
83	0x3cc5b583	0.024134403
84	0x3ca32952	0.019917164
85	0x3c96c5b2	0.018404815
86	0xbb59d921	-0.0033240991
87	0x3b35f873	0.0027766495
88	0xbd012405	-0.03152849
89	0xbd184539	-0.03717539
90	0x3bc4a049	0.006000553
91	0x3d1afca1	0.037838582
92	0x3b1e2120	0.002412863
93	0x3cab1d50	0.020888
94	0xbb858217	-0.004074346
95	0x3d024835	0.031807143
96	0x3c3f9ce6	0.011695122
97	0x3c78894a	0.015169451
98	0x3d280619	0.04102144
99	0xbb03b03d	-0.002009406
100	0xbc3040ca	-0.010757634
101	0xbb83c70a	-0.00402153
102	0x3d3e89ea	0.046518244
103	0x3d2ba28d	0.041903067
104	0xbc23d999	-0.01000061
105	0x3cf6e038	0.030136213
106	0x3d09d498	0.03365001
107	0x3c35179d	0.011052993
108	0x3c19d184	0.009388331
109	0x3cb39e30	0.021926016
110	0xbc0bd7fb	-0.0085353805
111	0xbc6a89b3	-0.014315057
112	0x3ce83cba	0.02834927
113	0x3c7e1054	0.015506823
114	0xbd72cde8	-0.0592784
115	0xbcb9ddd9	-0.022688793
116	0xbc1708d2	-0.0092184115
117	0xbbaa66e6	-0.0052002547
118	0xbc3b1513	-0.011418599
119	0xbc5383f6	-0.01290988
120	0x3d1dbaea	0.038508333
121	0xbd0e2df0	-0.03471178
122	0x3d3b73ae	0.045764618
123	0xbc05caaa	-0.008165995
124	0xbc07cc09	-0.008288392
125	0x3d4160f3	0.0472116
126	0x3d030d2b	0.03199498
127	0xbc06b4ca	-0.008221814
128	0xbd1f97a2	-0.038962968
129	0xbbb2a48e	-0.0054517454
130	0x3cada13f	0.021195052
131	0xbae17e05	-0.0017203694
132	0x3c7885d5	0.015168627
133	0x3cf2dab5	0.029645303
134	0x3caa1e40	0.020766377
135	0x3cce2b1b	0.025167039
136	0x3bd2ff3d	0.006439118
137	0xbd21b70b	-0.039481204
138	0xbd106f48	-0.035262376
139	0x3d39830e	0.045291
140	0x3cd96a9c	0.026540093
141	0x3d66efa9	0.0563809
142	0x3d23d474	0.039997533
143	0xbc500bac	-0.012698095
144	0x3d2c1f3a	0.042021967
145	0xbcd4f90d	-0.025997663
146	0x3ce57ba0	0.02801305
147	0xbc10d6c7	-0.008840269
148	0x3cff7234	0.031182386
149	0xbc6bba5d	-0.014387694
150	0x3cbf4330	0.023347467
151	0xbc73ea8f	-0.014887466
152	0x3d05b97e	0.032647602
153	0x3baf59dd	0.0053512887
154	0x3cd7a65b	0.026324442
155	0xbcb36f63	-0.0219037
156	0xbc2dedaf	-0.01061575
157	0xbc3f998d	-0.011694324
158	0x3d00c208	0.031435043
159	0x3b4a0778	0.0030827206
160	0x3c859bcd	0.016309643
161	0x3c454ebb	0.012042697
162	0xbc7868d1	-0.015161709
163	0xbc4fe03b	-0.012687738
164	0x3d5d9cbf	0.054104563
165	0xbc6fd645	-0.014638488
166	0x3d0e2711	0.034705225
167	0x3d5c0983	0.05372001
168	0x3c99e0f0	0.018784016
169	0x3c818b57	0.015813513
170	0x3c8eddf9	0.01743983
171	0x3c0934d5	0.008374413
172	0xbc26e1fe	-0.010185717
173	0xbc4f8db9	-0.012668067
174	0xbaf35863	-0.001856577
175	0x3c816997	0.01579742
176	0x3cdeee6f	0.027213303
177	0x3bd8dd9a	0.006618214
178	0x3ce4eee1	0.027945938
179	0xbc8b3340	-0.016992211
180	0xbd406405	-0.046970386
181	0x3c94782b	0.018123707
182	0xbcbf38bc	-0.023342483
183	0x3d726b72	0.0591845
184	0xbb56d9c9	-0.0032783619
185	0x3d5acb8b	0.05341677

running_mean f4 [186]
0	0x3e9bb0a6	0.3040821
1	0x3e98846e	0.29788536
2	0x3ea5b4b9	0.32364443
3	0x3e5cd21c	0.21564525
4	0x3e657f45	0.2241183
5	0x3ef68163	0.4814559
6	0x3f795825	0.9740012
7	0x3f6b4355	0.91899616
8	0x3f9e8b9c	1.2386355
9	0x3eaacb15	0.33358064
10	0x3e9bb0a6	0.3040821
11	0x3e98846e	0.29788536
12	0x3e6e308e	0.2326071
13	0x3e592934	0.21207124
14	0x3ef8d7f5	0.48602262
15	0x3f7dc751	0.9913226
16	0x3f64e55b	0.8941247
17	0x3fa60ad4	1.2972054
18	0x3e99028b	0.29884753
19	0x3eaacb15	0.33358064
20	0x3e9bb0a6	0.3040821
21	0x3e645496	0.22297892
22	0x3e5e86bc	0.21731085
23	0x3efb9c88	0.4914286
24	0x3f7dd985	0.99160033
25	0x3f615255	0.88016254
26	0x3fa3afdd	1.2788044
27	0x3e9bd4e2	0.30435854
28	0x3e99028b	0.29884753
29	0x3eaacb15	0.33358064
30	0x3e626fef	0.22113012
31	0x3e6b9c26	0.23008785
32	0x3ef63ca7	0.4809315
33	0x3f7201e4	0.94534135
34	0x3f7c8fee	0.9865712
35	0x3fa098ea	1.2546666
36	0x3eb03f50	0.34423304
37	0x3e9bd4e2	0.30435854
38	0x3e99028b	0.29884753
39	0x3e7d3193	0.24725942
40	0x3e6154b8	0.22004974
41	0x3ef336d7	0.47502777
42	0x3f843a16	1.0330226
43	0x3f6f241b	0.9341447
44	0x3fa31c93	1.2743095
45	0x3e9988e8	0.29987264
46	0x3eb03f50	0.34423304
47	0x3e9bd4e2	0.30435854
48	0x3e6e32db	0.23261587
49	0x3e646a16	0.22306094
50	0x3ef9e458	0.48807025
51	0x3f7cb01b	0.98706216
52	0x3f6a9e0a	0.916474
53	0x3fa81baa	1.3133442
54	0x3e9c0621	0.30473426
55	0x3e9988e8	0.29987264
56	0x3eb03f50	0.34423304
57	0x3e6c07c9	0.23049845
58	0x3e68fe47	0.22753249
59	0x3ef8dd1b	0.4860619
60	0x3f85a3ee	1.0440652
61	0x3f76cbd5	0.96404773
62	0x3f9fe259	1.2490951
63	0x3eb176c9	0.34660938
64	0x3e9c0621	0.30473426
65	0x3e9988e8	0.29987264
66	0x3e7e3c0c	0.24827594
67	0x3e5e85ca	0.21730724
68	0x3ef609be	0.48054308
69	0x3f8342b5	1.0254732
70	0x3f6757b6	0.9036821
71	0x3fa65a28	1.2996264
72	0x3e99edd6	0.30064267
73	0x3eb176c9	0.34660938
74	0x3e9c0621	0.30473426
75	0x3e70d7bd	0.23519798
76	0x3e5fd1c3	0.21857361
77	0x3efcb21a	0.4935463
78	0x3f8442f2	1.033293
79	0x3f5bd8ce	0.8587769
80	0x3fa49429	1.2857715
81	0x3e9de4da	0.30838662
82	0x3e99edd6	0.30064267
83	0x3eb176c9	0.34660938
84	0x3e68c2c7	0.22730552
85	0x3e75f036	0.24017414
86	0x3ef7910c	0.4835285
87	0x3f806e86	1.0033729
88	0x3f7c8884	0.98645806
89	0x3fa00503	1.250153
90	0x3eb276a2	0.34856135
91	0x3e9de4da	0.30838662
92	0x3e99edd6	0.30064267
93	0x3e7a765f	0.24459217
94	0x3e5f4e45	0.21807201
95	0x3efac1fe	0.4897613
96	0x3f86333f	1.0484389
97	0x3f658684	0.8965838
98	0x3fa72156	1.3057048
99	0x3e9b63bd	0.30349532
100	0x3eb276a2	0.34856135
101	0x3e9de4da	0.30838662
102	0x3e5e77b5	0.21725352
103	0x3e71b63f	0.23604678
104	0x3f009bc0	0.50237656
105	0x3f734056	0.95020044
106	0x3f703070	0.9382391
107	0x3fa9ac55	1.3255717
108	0x3e9fa47b	0.31180176
109	0x3e9b63bd	0.30349532
110	0x3eb276a2	0.34856135
111	0x3e674168	0.22583544
112	0x3e77b555	0.24190266
113	0x3efb9fe0	0.49145412
114	0x3f80ce70	1.0063
115	0x3f7b7f61	0.9824124
116	0x3fa586a5	1.2931715
117	0x3eb2c64f	0.34916922
118	0x3e9fa47b	0.31180176
119	0x3e9b63bd	0.30349532
120	0x3e7b9f9f	0.2457261
121	0x3e64269f	0.22280358
122	0x3efb6a27	0.49104425
123	0x3f85ab20	1.0442848
124	0x3f6d62ef	0.92729086
125	0x3fa5ec98	1.2962828
126	0x3e9ea423	0.309846
127	0x3eb2c64f	0.34916922
128	0x3e9fa47b	0.31180176
129	0x3e6f054f	0.23341869
130	0x3e61d321	0.22053196
131	0x3f030d1e	0.5119189
132	0x3f809fca	1.0048764
133	0x3f623806	0.88366735
134	0x3fac00a3	1.3437694
135	0x3ea16b6f	0.31527278
136	0x3e9ea423	0.309846
137	0x3eb2c64f	0.34916922
138	0x3e6dfe25	0.2324148
139	0x3e7397b7	0.23788343
140	0x3eff9b2c	0.49923074
141	0x3f7e438b	0.9932181
142	0x3f821cd2	1.0165045
143	0x3fa3a3ac	1.2784324
144	0x3eb8f4c1	0.36124232
145	0x3ea16b6f	0.31527278
146	0x3e9ea423	0.309846
147	0x3e802ef2	0.25035816
148	0x3e696dc8	0.22795784
149	0x3f00c7d4	0.50304914
150	0x3f849eeb	1.0360998
151	0x3f71a508	0.9439244
152	0x3fac936a	1.3482487
153	0x3e9ef1b3	0.31043777
154	0x3eb8f4c1	0.36124232
155	0x3ea16b6f	0.31527278
156	0x3e6c0b8a	0.23051277
157	0x3e736f00	0.23772812
158	0x3f038999	0.5138183
159	0x3f786f19	0.9704452
160	0x3f72a36d	0.9478062
161	0x3fadea42	1.3587115
162	0x3ea37c75	0.3193089
163	0x3e9ef1b3	0.31043777
164	0x3eb8f4c1	0.36124232
165	0x3e72f18c	0.23724955
166	0x3e7bfbcb	0.2460777
167	0x3f00bdf3	0.5028984
168	0x3f8624fd	1.0480038
169	0x3f821220	1.0161781
170	0x3fa52a52	1.290354
171	0x3eb8f716	0.36126012
172	0x3ea37c75	0.3193089
173	0x3e9ef1b3	0.31043777
174	0x3e81c403	0.25344858
175	0x3e6df984	0.23239714
176	0x3f0001c6	0.50002706
177	0x3f88b3b4	1.0679841
178	0x3f72f920	0.94911385
179	0x3fab1a47	1.3367394
180	0x3ea38c75	0.31943098
181	0x3eb8f716	0.36126012
182	0x3ea37c75	0.3193089
183	0x3e77b45d	0.24189897
184	0x3e763b8b	0.24046151
185	0x3f034062	0.51270115

running_var f4 [186]
0	0x3e5a9d6e	0.21349117
1	0x3e5cc96f	0.21561216
2	0x3e5e6764	0.21719128
3	0x3d0d99d0	0.034570515
4	0x3d28bef1	0.04119772
5	0x3d83af85	0.06429962
6	0x3f1d4b9e	0.6144351
7	0x3f1690b5	0.58814555
8	0x3f043bf5	0.5165399
9	0x3e637268	0.22211611
10	0x3e5a9d6e	0.21349117
11	0x3e5cc96f	0.21561216
12	0x3d076f26	0.033064984
13	0x3d23ddb1	0.040006343
14	0x3d7b08fd	0.06128787
15	0x3f0ccc7b	0.5499951
16	0x3f164201	0.58694464
17	0x3f074c2e	0.52850616
18	0x3e5d4224	0.21607262
19	0x3e637268	0.22211611
20	0x3e5a9d6e	0.21349117
21	0x3d0905f3	0.03345294
22	0x3d10e59d	0.035375226
23	0x3d7b12d5	0.061297256
24	0x3f15edb3	0.58565825
25	0x3f062385	0.5239795
26	0x3f000957	0.5001425
27	0x3e5a9f04	0.21349722
28	0x3e5d4224	0.21607262
29	0x3e637268	0.22211611
30	0x3d115e69	0.035490427
31	0x3d1ddfa5	0.038543362
32	0x3d806e64	0.06271055
33	0x3f140969	0.5782686
34	0x3f17047c	0.5899122
35	0x3f0741f8	0.52835035
36	0x3e66ef9e	0.22552344
37	0x3e5a9f04	0.21349722
38	0x3e5d4224	0.21607262
39	0x3d0e2df5	0.034711797
40	0x3d1d569c	0.038412675
41	0x3d89c349	0.06726701
42	0x3f09f91f	0.53895754
43	0x3f130a3c	0.5743749
44	0x3f0f9e35	0.5610078
45	0x3e5dbb80	0.21653557
46	0x3e66ef9e	0.22552344
47	0x3e5a9f04	0.21349722
48	0x3d0c5a90	0.034266055
49	0x3d0c5cd9	0.034268234
50	0x3d6b12b4	0.057390884
51	0x3f13e978	0.5777812
52	0x3f05d7f8	0.5228267
53	0x3f0028c7	0.5006222
54	0x3e5abd9d	0.21361394
55	0x3e5dbb80	0.21653557
56	0x3e66ef9e	0.22552344
57	0x3cfff087	0.031242622
58	0x3d25f4d2	0.040516682
59	0x3d800679	0.062512346
60	0x3f13ee33	0.5778534
61	0x3f17c3c8	0.59283113
62	0x3f029a7c	0.51016974
63	0x3e6823bf	0.22669886
64	0x3e5abd9d	0.21361394
65	0x3e5dbb80	0.21653557
66	0x3d0dddd3	0.034635376
67	0x3d19d020	0.037552
68	0x3d7d5602	0.0618496
69	0x3f096c13	0.53680533
70	0x3f0dd135	0.5539735
71	0x3f0664a8	0.5249734
72	0x3e5e1508	0.2168771
73	0x3e6823bf	0.22669886
74	0x3e5abd9d	0.21361394
75	0x3d0afa10	0.033929884
76	0x3d13588a	0.03597311
77	0x3d75f000	0.060043335
78	0x3f13128c	0.57450175
79	0x3f0189a3	0.5060064
80	0x3efebaad	0.49751797
81	0x3e5d17ca	0.21591106
82	0x3e5e1508	0.2168771
83	0x3e6823bf	0.22669886
84	0x3d0a7ef1	0.033812467
85	0x3d261eb6	0.040556632
86	0x3d82af32	0.06381072
87	0x3f1027a6	0.563105
88	0x3f0f484b	0.55969685
89	0x3f024c7f	0.50897974
90	0x3e6955c2	0.2278662
91	0x3e5d17ca	0.21591106
92	0x3e5e1508	0.2168771
93	0x3d09d9da	0.033655025
94	0x3d2809c4	0.04102494
95	0x3d7ab2cc	0.06120567
96	0x3f0c5f10	0.54832554
97	0x3f12da5c	0.5736444
98	0x3f02c5f7	0.5108332
99	0x3e5f0dc6	0.21782598
100	0x3e6955c2	0.2278662
101	0x3e5d17ca	0.21591106
102	0x3d0baa9e	0.03409826
103	0x3d0f916f	0.035050806
104	0x3d60707d	0.054794777
105	0x3f168f85	0.58812743
106	0x3f029ccc	0.51020503
107	0x3ef3049f	0.47464463
108	0x3e5de77f	0.2167034
109	0x3e5f0dc6	0.21782598
110	0x3e6955c2	0.2278662
111	0x3d14dbea	0.03634254
112	0x3d2890d0	0.04115373
113	0x3d74c9a2	0.059762605
114	0x3f142c08	0.57879686
115	0x3f10a52c	0.5650203
116	0x3ef5ad4f	0.47983786
117	0x3e69e84e	0.22842523
118	0x3e5de77f	0.2167034
119	0x3e5f0dc6	0.21782598
120	0x3d058082	0.032593258
121	0x3d205d15	0.03915127
122	0x3d7bd310	0.06148058
123	0x3f08947b	0.53351563
124	0x3f15ceba	0.58518565
125	0x3f014bd9	0.5050636
126	0x3e605688	0.21908009
127	0x3e69e84e	0.22842523
128	0x3e5de77f	0.2167034
129	0x3d07307d	0.033005226
130	0x3d15ec43	0.03660227
131	0x3d534ab2	0.051584907
132	0x3f106c2c	0.5641506
133	0x3f060726	0.5235466
134	0x3ee0da5c	0.43916595
135	0x3e5cc88c	0.21560878
136	0x3e605688	0.21908009
137	0x3e69e84e	0.22842523
138	0x3d0b16c5	0.03395726
139	0x3d1ab130	0.037766635
140	0x3d73db1c	0.05953513
141	0x3f0e169d	0.55503255
142	0x3f117294	0.5681546
143	0x3ef38694	0.47563612
144	0x3e6e9293	0.23298101
145	0x3e5cc88c	0.21560878
146	0x3e605688	0.21908009
147	0x3d07754e	0.033070855
148	0x3d1567f5	0.036476094
149	0x3d575990	0.052575648
150	0x3f06fbd0	0.52727985
151	0x3f0c09dd	0.5470255
152	0x3ee8c202	0.45460516
153	0x3e6091cc	0.21930617
154	0x3e6e9293	0.23298101
155	0x3e5cc88c	0.21560878
156	0x3d03ac83	0.032146942
157	0x3d11b0f0	0.03556913
158	0x3d473087	0.048630264
159	0x3f0d40e3	0.55177134
160	0x3f000c25	0.5001853
161	0x3edd8f51	0.43273404
162	0x3e5e000c	0.21679705
163	0x3e6091cc	0.21930617
164	0x3e6e9293	0.23298101
165	0x3d06de44	0.032926813
166	0x3d20ccf8	0.039257973
167	0x3d68ca77	0.05683371
168	0x3f102399	0.5630432
169	0x3f0dd9c6	0.5541042
170	0x3eef0f8b	0.46691546
171	0x3e6e95de	0.23299357
172	0x3e5e000c	0.21679705
173	0x3e6091cc	0.21930617
174	0x3d140aca	0.0361431
175	0x3d1d0802	0.038337715
176	0x3d67f1ca	0.056627072
177	0x3f05066a	0.5196291
178	0x3f0ccfb2	0.5500442
179	0x3ef703ea	0.48245174
180	0x3e6464c8	0.2230407
181	0x3e6e95de	0.23299357
182	0x3e5e000c	0.21679705
183	0x3d0201b1	0.031739894
184	0x3d11b578	0.035573453
185	0x3d464b77	0.048411813

weight f4 [186, 186]
0	0x3b8df223	0.0043318435
1	0xbc85cd3d	-0.016333217
2	0x3c2abbd2	0.010420756
3	0x3c921262	0.017831031
4	0xbd202ae9	-0.039103422
5	0x3d7d21ba	0.061799742
6	0x3b845a23	0.0040390654
7	0x3b944aad	0.0045255036
8	0x3c73e03f	0.014885007
9	0x3d3bebf1	0.045879308
10	0xbd4e6bd5	-0.050395805
11	0x3d816e14	0.06319824
12	0xbb2d7248	-0.0026465822
13	0x3d5cd2e7	0.05391207
14	0x3d8d2f67	0.06893807
15	0x3d430b74	0.047618344
16	0x3b663f29	0.0035132861
17	0x3d92fc49	0.07177026
18	0x3d95a202	0.07306291
19	0x3c88dfb2	0.016708229
20	0x3d9d8902	0.07692148
21	0x3d197d54	0.037473038
22	0x3d5c86b9	0.05383942
23	0xbceca7ed	-0.028888667
24	0x3bcb9293	0.0062125414
25	0xbdb4b9da	-0.08824511
26	0xbd20bf92	-0.039245196
27	0xbd2ce765	-0.042212863
28	0xbd99f566	-0.07517509
29	0x3d2c9b89	0.042140517
30	0xbcc135e0	-0.02358526
31	0x3d195460	0.037433982
32	0xbd27ffa6	-0.04101529
33	0xbd414fec	-0.04719536
34	0xbd449b64	-0.047999755
35	0xbbbd3fed	-0.005775443
36	0xbc958a63	-0.018254464
37	0xbd6d630b	-0.057955783
38	0xbd16bf7d	-0.03680371
39	0xbcefda30	-0.029278845
40	0x3d72ac6c	0.059246466
41	0xbb63d424	-0.0034763897
42	0xbd012b39	-0.03153536
43	0x3d2fabe5	0.04288854
44	0x3caccea6	0.021094631
45	0x3d155969	0.03646222
46	0xbc09dc8a	-0.008414397
47	0x3d94a088	0.072571814
48	0x3d8de576	0.06928532
49	0x3d586b27	0.052836563
50	0x3d59d359	0.053180072
51	0xbd974075	-0.07385341
52	0x3c5720d5	0.013130386
53	0xbd799772	-0.060935445
54	0x3d9a004c	0.07519588
55	0x3c84c97e	0.01620936
56	0x3d16095b	0.036630016
57	0x3c89db82	0.016828302
58	0xbbdc4f8c	-0.00672335
59	0x3bb18ab0	0.005418144
60	0x3d964ea9	0.07339222
61	0x3d17dc84	0.037075534
62	0xbd28400e	-0.041076712
63	0xbaf14681	-0.0018407853
64	0xbc7c7c58	-0.015410505
65	0x3d2f8011	0.042846743
66	0x3da0dca5	0.078545846
67	0x3da7d2f4	0.08194533
68	0xbd47ef1b	-0.048812013
69	0x3d36ac80	0.044598103
70	0x3d2e2a32	0.04252071
71	0x3d2efc2a	0.04272095
72	0xbd6b6c3f	-0.05747628
73	0x3d29a8dc	0.041420802
74	0xbc239df0	-0.009986386
75	0xbb087de7	-0.0020826997
76	0xbd20c1c9	-0.039247308
77	0xbd23b64a	-0.039968766
78	0xbdc57d81	-0.096430786
79	0xbdb52622	-0.08845164
80	0xbc3bf5c8	-0.011472173
81	0xbcbf41ea	-0.02334686
82	0xbd0d529c	-0.03450261
83	0x3db38a92	0.087666646
84	0x3dbdd8a7	0.09269839
85	0xbd29114a	-0.041276254
86	0x3c887ac3	0.0166601
87	0x3cd9c11d	0.026581341
88	0xbd81987e	-0.06327914
89	0xbd929d08	-0.071588576
90	0x3d86b4d0	0.06577456
91	0xbd1dc15c	-0.03851448
92	0x3c2cea7f	0.010553955
93	0x3d22f46c	0.03978388
94	0x3d3c7129	0.046006355
95	0x3dbcd6fe	0.09220694
96	0x3cd3ceaf	0.02585539
97	0x3d4fb7a7	0.050712254
98	0x3cc2b129	0.023766117
99	0x3ca01ea6	0.019545864
100	0xbb932657	-0.0044906544
101	0xbb30f408	-0.0027000923
102	0x3d78465f	0.060613986
103	0x3c3bbb07	0.011458165
104	0x3d3bf633	0.04588909
105	0xbb2c6048	-0.0026302505
106	0x3b326004	0.0027217874
107	0xbd0eb0cd	-0.03483658
108	0xbcc95752	-0.02457777
109	0xbd16613a	-0.036713816
110	0x3d94b5ff	0.072612755
111	0xbccd2efc	-0.025046818
112	0x3c9caa36	0.019124132
113	0x3d5654b5	0.052326877
114	0xbd1d6206	-0.03842356
115	0xbc27e1ae	-0.010246677
116	0xbce61ac2	-0.028088931
117	0xbd448d73	-0.04798646
118	0x3d14edf0	0.036359727
119	0x3d533915	0.05156811
120	0x3c8099b1	0.015698286
121	0xbcc32643	-0.023821956
122	0x3d69493a	0.0569546
123	0xbcc758ad	-0.024334276
124	0x3c841528	0.01612337
125	0x3af8d6c6	0.0018984906
126	0x3ca99b8c	0.020704053
127	0xbc79aa0c	-0.015238296
128	0xbd580866	-0.052742384
129	0xbcdf4ad9	-0.02725737
130	0x3d339e7d	0.043852318
131	0x3d25c0e8	0.040467173
132	0xbcea47bf	-0.028598664
133	0xbd222dba	-0.03959439
134	0xbde28b08	-0.11061674
135	0x3bcf42f5	0.0063251206
136	0x3cf586ca	0.029971499
137	0x3c0c68ac	0.008569878
138	0xbc107c2f	-0.00881867
139	0xbc064065	-0.008194064
140	0xbcfc15d0	-0.03077212
141	0x3d6aac4d	0.057293225
142	0xbaa730d8	-0.0012755645
143	0xbd0b4655	-0.03400262
144	0x3d1d2414	0.038364485
145	0xbcf82083	-0.03028894
146	0x3da29229	0.07938034
147	0xbd348a0a	-0.044076957
148	0x3a07a74e	0.00051747716
149	0x3c561b75	0.01306807
150	0xbcebbdbe	-0.028777
151	0xbd18b0fd	-0.037278164
152	0xbcfea7d5	-0.031085888
153	0x3c3aa82a	0.0113926325
154	0x3d96dee8	0.07366735
155	0x3d855e20	0.065120935
156	0x3c016125	0.007896696
157	0x3b82871d	0.003983392
158	0x3de7f88c	0.113267034
159	0xbdfa57ba	-0.12223764
160	0xbd5eac9d	-0.054363836
161	0xbdc83fd2	-0.09777798
162	0x3d9306b2	0.071790114
163	0xbd2e963f	-0.042623755
164	0xbbd2b993	-0.0064308136
165	0x3dac40ee	0.08410822
166	0x3d1baf43	0.03800894
167	0x3d63b90b	0.055596393
168	0x3dc5da60	0.09660792
169	0x3d717faa	0.05895964
170	0xbd8c9bdd	-0.06865666
171	0xbd26e796	-0.0407482
172	0x3d5d9144	0.054093614
173	0x3d477f0f	0.048705157
174	0xbd12d710	-0.03584963
175	0x3dc08ba1	0.09401632
176	0x3d941627	0.07230788
177	0xbdc91a8c	-0.098195165
178	0xbce054a0	-0.027384102
179	0xbda46602	-0.08027269
180	0xbc1bff2f	-0.00952129
181	0xbcac16ed	-0.021007026
182	0x3c34042f	0.010987326
183	0x3ce2a80b	0.02766802
184	0xbd224a4f	-0.039621647
185	0x3d073928	0.033013493
186	0xbc933ab0	-0.01797232
187	0xbd8a2f0c	-0.06747255
188	0x3dad6cb2	0.084679976
189	0xbcc0f964	-0.023556419
190	0xbc47c417	-0.012192748
191	0xbd693e8d	-0.05694442
192	0xbc2f1705	-0.010686641
193	0xbd4c84f2	-0.049931474
194	0x3cc7ecf8	0.024404988
195	0xbd6d45ae	-0.05792778
196	0xbb4025da	-0.0029319436
197	0x3cfeb333	0.031091308
198	0x3ca7616f	0.020432202
199	0xbc88bdc2	-0.016692046
200	0x3d179478	0.037006825
201	0xbc8aeddc	-0.016959123
202	0x3ca71a45	0.020398268
203	0x3d9373d9	0.071998306
204	0xbd28cc1b	-0.041210275
205	0x3cf8ed81	0.030386688
206	0x3d530ca8	0.05152574
207	0xbd291a54	-0.041284874
208	0x3d2b78db	0.041863304
209	0xbc42ce74	-0.011890043
210	0xbcabd1eb	-0.02097412
211	0xbd0edee7	-0.034880545
212	0x3d8bc5ad	0.06824813
213	0xbd2104bb	-0.039311152
214	0xbd72644f	-0.059177693
215	0x3da92ade	0.082601294
216	0xbd24512e	-0.04011648
217	0x3c167eec	0.009185534
218	0xbc6a6d9e	-0.014308361
219	0xbcbb92d4	-0.022897162
220	0xbd573550	-0.052541077
221	0x3cd55863	0.026043123
222	0xbcdef9a2	-0.027218644
223	0xbd092cbe	-0.033489935
224	0xbce3fa2e	-0.027829256
225	0x3d587e72	0.052854963
226	0xbd34fffa	-0.04418943
227	0xbc74b205	-0.014935021
228	0xbbd70faf	-0.006563149
229	0xbb2ec42e	-0.0026667225
230	0xbc672e5a	-0.014110172
231	0xbd5faf70	-0.05461067
232	0xbd5f13d8	-0.054462284
233	0xbd61b1f8	-0.055101365
234	0xbca71238	-0.02039443
235	0x3db9a7df	0.09065222
236	0xbd285631	-0.041097824
237	0x3d737979	0.059442017
238	0xbd22ee87	-0.03977826
239	0xbc9d47f3	-0.019199347
240	0xbc2e1d1c	-0.010627057
241	0x3c8823a3	0.016618555
242	0xbd0299ed	-0.031885076
243	0xbd54f557	-0.051991787
244	0x3d4f4402	0.050601967
245	0x3d9cb8eb	0.07652458
246	0xbd887d16	-0.06664483
247	0x3d7f73a2	0.062366135
248	0xbca75951	-0.020428332
249	0xbd69f89f	-0.05712187
250	0x3d062ff9	0.032760594
251	0xbdaf24b0	-0.085519195
252	0x3cd0b5bb	0.02547728
253	0x3cf545c3	0.029940492
254	0xbc811824	-0.015758581
255	0xbd4cdd27	-0.050015595

bias f4 [186]
0	0x3de4dbf5	0.11174766
1	0x3d32c051	0.04364044
2	0xbcec2d5e	-0.028830227
3	0xbce3c426	-0.027803492
4	0xbc486705	-0.012231593
5	0x3c556872	0.01302539
6	0x3c41941f	0.0118151
7	0x3d9c26a3	0.07624557
8	0x3dbd98f6	0.092576906
9	0xbcdf3195	-0.027245322
10	0xbbbac827	-0.0057001295
11	0x3d2ab593	0.04167707
12	0x39a98a84	0.00032337394
13	0x3c4710b9	0.012149983
14	0x3d8bd093	0.06826892
15	0xbd69012a	-0.056885876
16	0xbce937e7	-0.02846904
17	0x3dd5a658	0.10432118
18	0x3dd8b2bb	0.10580965
19	0x3d7c448b	0.061588805
20	0x3c0461f3	0.008079994
21	0xbd6cb792	-0.057792254
22	0x3bb5f3b9	0.0055527356
23	0x3d6eee52	0.05833275
24	0x3d961719	0.07328624
25	0xbbbb4ef5	-0.0057161995
26	0xbd73fdec	-0.05956833
27	0x3ab575d3	0.0013844318
28	0x3cb317a6	0.021861862
29	0xbc09b95f	-0.008406012
30	0xbd0b4d61	-0.03400934
31	0x3dc35a5c	0.09538719
32	0xbd649120	-0.055802464
33	0x3c73a9a2	0.014871987
34	0x3db5782d	0.08860812
35	0xbd061746	-0.03273704
36	0x3d90b788	0.07066256
37	0xbc8d3ddb	-0.017241409
38	0x3d8cc4bb	0.06873461
39	0x3d5f2cd1	0.0544861
40	0x3ca68341	0.020326259
41	0xbd4c944b	-0.04994611
42	0x3c189527	0.009312904
43	0x3cc1e7fa	0.023670185
44	0x3cb37068	0.021904185
45	0x3ce61690	0.02808693
46	0xbd516bef	-0.051128324
47	0xbc10be57	-0.008834443
48	0x3c55d932	0.013052272
49	0x3b4b9a88	0.003106745
50	0x3ca90a5a	0.020634819
51	0xbcfef5f4	-0.031123139
52	0x3cc96604	0.024584778
53	0xbd29bd4a	-0.041440286
54	0x3da3535f	0.07974886
55	0xbcc8a0d9	-0.02449076
56	0xbc9eeb6e	-0.019399371
57	0x3d10ab66	0.03531971
58	0x3da74d5b	0.08169051
59	0xbc30b849	-0.0107861245
60	0x3cf7611a	0.030197669
61	0xbc1c1e5c	-0.009528723
62	0x3d95f836	0.07322733
63	0x3c83642f	0.016038982
64	0x3dc45299	0.09586067
65	0x3d853864	0.06504896
66	0x3d9f5694	0.07780185
67	0x3d8cac69	0.06868822
68	0x3d7a94d2	0.061177082
69	0x3b892b4f	0.004186071
70	0x3d408dee	0.047010355
71	0x3da634f9	0.081155725
72	0xbc879e63	-0.016555017
73	0xbd4e26ae	-0.050329857
74	0x3cb7ddda	0.022444654
75	0xbcb8e39d	-0.022569472
76	0xbc47441b	-0.012162234
77	0xbd22b84e	-0.039726548
78	0x3bba2aa4	0.0056813527
79	0x3c5527d0	0.01300998
80	0x3d6b3235	0.057420928
81	0x3d667c09	0.056270633
82	0x3d257af2	0.040400453
83	0x3d9098ea	0.07060416
84	0xbcb43289	-0.021996753
85	0xbc6ddb6e	-0.014517648
86	0x3cf98a21	0.030461373
87	0x3dc6e3e1	0.09711433
88	0x3d77d8f1	0.060509626
89	0x3c074604	0.008256439
90	0xbc91fb6e	-0.017820086
91	0xbcced211	-0.025246652
92	0x3b81af88	0.0039576925
93	0x3cc3d368	0.023904517
94	0x3d297833	0.041374397
95	0x3d70b054	0.05876191
96	0x3db464f2	0.08808316
97	0x3d9d28aa	0.07673772
98	0x3a5bb8fd	0.00083817524
99	0xbd157ab8	-0.036493987
100	0xbb8ad81d	-0.0042371885
101	0xbce81c89	-0.02833392
102	0xbd241d86	-0.04006722
103	0x3d8c11c2	0.068393245
104	0x3c66bf62	0.014083715
105	0xbd10d74f	-0.035361584
106	0x3d6234e5	0.055226225
107	0xbcad0cef	-0.021124331
108	0xbd5ac8c1	-0.05341411
109	0xbc87b581	-0.01656604
110	0xbd3d20a6	-0.046173714
111	0xbce86177	-0.028366787
112	0x3d74d24d	0.05977087
113	0xbd0ca286	-0.034334682
114	0xbd0d3835	-0.03447743
115	0x3c9a5183	0.018837696
116	0x3db984b3	0.090585135
117	0xbd2a9c52	-0.041652985
118	0x396691dc	0.00021988846
119	0xbd2802a1	-0.041018132
120	0x3d583685	0.05278637
121	0x3bf42c19	0.007451546
122	0xbca7072b	-0.02038916
123	0x3bfdb295	0.007742236
124	0x3cb66c44	0.022268422
125	0xbc93fe19	-0.0180655
126	0xbd0509fd	-0.03248023
127	0x3d437cca	0.04772643
128	0xbcbf649a	-0.0233634
129	0x39f84951	0.0004735687
130	0x3db8b306	0.09018521
131	0x3d3900da	0.045166828
132	0x3d24aa02	0.040201195
133	0xbcc2cd38	-0.023779497
134	0xbc9d2f41	-0.019187571
135	0x3da20b03	0.079122566
136	0x3da9f67b	0.082989655
137	0xbb091fc1	-0.0020923468
138	0xbd5e6f4d	-0.054305363
139	0xbd5442d8	-0.05182156
140	0x3d989f43	0.07452252
141	0xbd4dcc6e	-0.050243787
142	0x3d8bde88	0.06829554
143	0x3d095c63	0.033535372
144	0xbd1bf541	-0.03807569
145	0xbd7b8b4f	-0.061412152
146	0xbc1f6a42	-0.009729924
147	0x3d9e78af	0.07737862
148	0x3dc3454f	0.09534704
149	0x3d84701b	0.06466695
150	0x3d85cb31	0.06532896
151	0x3cc74ba7	0.024328066
152	0xbc790013	-0.015197772
153	0x3da74e21	0.08169199
154	0xbd163dfd	-0.03668021
155	0xbca2eee9	-0.019889312
156	0xbc8fbb2f	-0.01754531
157	0xbccef302	-0.02526236
158	0x3d8a39c8	0.06749302
159	0x3d8a5aed	0.06755624
160	0xbd1fa088	-0.038971454
161	0x3c5898b5	0.013220002
162	0x3cf44e77	0.029822571
163	0x3c1dc714	0.009629983
164	0x3d09026f	0.033449586
165	0x3cc1a111	0.023636373
166	0xbaaae4a0	-0.0013038106
167	0x3d8a6c78	0.0675897
168	0x3d47af00	0.048750877
169	0x3c717624	0.01473764
170	0xbc961bec	-0.018323861
171	0x3c728cb5	0.014804055
172	0xbc822a7f	-0.015889404
173	0x3d80e88a	0.06294353
174	0x3cc3e17c	0.02391123
175	0x3c9bfdd2	0.01904193
176	0x3d00093c	0.031258807
177	0x3db9acd4	0.090661675
178	0xbd8fa334	-0.070135504
179	0x3db88b3d	0.090109326
180	0xbcf5b464	-0.029993244
181	0x3d562611	0.052282397
182	0x3d86fa6c	0.06590733
183	0x3de5ae21	0.11214853
184	0x3da20c77	0.07912534
185	0xbd416697	-0.047216978

weight f4 [93, 186]
0	0x3d5a6fad	0.05332916
1	0x3c9924ed	0.018694365
2	0xbd1894ce	-0.037251286
3	0x3bd7d7b1	0.0065869917
4	0x3df708a2	0.120621935
5	0x3dc5b16c	0.09652981
6	0x3d5b34ce	0.053517155
7	0xbd924a93	-0.0714313
8	0x3db44e21	0.088039644
9	0xbd19f1b0	-0.037584007
10	0xbca79f5e	-0.020461734
11	0x3d893b6c	0.06700787
12	0xbcbdfd36	-0.02319203
13	0xbd19ecc3	-0.03757931
14	0xbccd5d36	-0.02506886
15	0x3c986f53	0.018607771
16	0xbd97a177	-0.07403844
17	0x3e046714	0.12929946
18	0x3bbbb812	0.00572873
19	0xbd6c7a7d	-0.057734
20	0x3d527cb3	0.051388454
21	0x3d296338	0.041354388
22	0xbdad3557	-0.084574394
23	0xbd094093	-0.03350885
24	0x3bb783da	0.0056004347
25	0x3d89f647	0.06736427
26	0xbc3eb64b	-0.011640142
27	0xbd422718	-0.047400564
28	0x3dc5fd43	0.096674465
29	0xbd667f74	-0.056273893
30	0xbc7953a8	-0.015217699
31	0x3d158169	0.03650037
32	0x3d67a187	0.05655053
33	0xbc942427	-0.018083645
34	0xbcb6ae87	-0.022300018
35	0x38c64913	9.454987e-05
36	0x3d0c7bc0	0.034297705
37	0xbdd8c879	-0.10585112
38	0x3d844390	0.06458199
39	0x3c102773	0.008798468
40	0x3d7371ca	0.05943469
41	0xbaa81eca	-0.0012826559
42	0x3d082204	0.033235565
43	0x3c38437a	0.011246556
44	0x3d630e5d	0.05543362
45	0xbc797f33	-0.015228081
46	0x3abc3df2	0.0014361723
47	0x3b3cc734	0.0028805258
48	0xbce42e3b	-0.027854076
49	0x3dac16cf	0.08402788
50	0x3d06747b	0.03282593
51	0xbd83b61e	-0.064312205
52	0x3d7541f3	0.059877347
53	0xbd7f58f7	-0.062340703
54	0xbd64edfb	-0.05589102
55	0xbd0ca2e0	-0.034335017
56	0x3daffe65	0.08593444
57	0x3dd061f5	0.10174934
58	0xbd3c75ed	-0.0460109
59	0x3ce0972d	0.027415836
60	0x3c82c9bc	0.015965335
61	0xbd8fca76	-0.07021038
62	0xbd93d1ba	-0.072177365
63	0xbcad8d2f	-0.021185486
64	0xbdad17fb	-0.084518395
65	0x3c3e85a4	0.011628542
66	0x3dde0acc	0.10841903
67	0x3d1ab3fd	0.037769306
68	0xbd256314	-0.04037769
69	0x3c91dc1d	0.017805154
70	0x3b86a6c7	0.004109237
71	0x3d011185	0.03151085
72	0x3d8dde08	0.06927115
73	0x3ca701c0	0.020386577
74	0xbd636708	-0.05551818
75	0xbd5c724e	-0.053819947
76	0x3db3da69	0.08781893
77	0xbd85ba55	-0.06529681
78	0x3af003f2	0.0018311723
79	0xbd869086	-0.065705344
80	0x3d7d7e1b	0.06188784
81	0x3db5d7fa	0.08879085
82	0xbcb87cbe	-0.02252042
83	0xbb89632b	-0.00419273
84	0xb8043ff1	-3.1530803e-05
85	0xbd67deee	-0.056609087
86	0xbceee1ea	-0.029160459
87	0xbd784826	-0.06061568
88	0x3db038e8	0.08604604
89	0xbd70d2b9	-0.05879471
90	0x3d467d6a	0.048459448
91	0x3ddd5ab2	0.108083144
92	0x3d69b7cc	0.057060048
93	0xbc87bf99	-0.016570853
94	0x3d4830a4	0.048874512
95	0xbc46b41d	-0.012127903
96	0xbbb93e30	-0.0056531653
97	0x3d7ea905	0.06217291
98	0xbd647b0e	-0.055781417
99	0x3ce4889d	0.027897174
100	0x3db2e39a	0.08734818
101	0x3d9131fa	0.070896104
102	0xbdae4a3c	-0.08510253
103	0x3cb2e933	0.021839714
104	0x3de3d207	0.11124044
105	0x3d369df3	0.044584226
106	0x3e091e90	0.13390565
107	0xbc6184ff	-0.013764619
108	0xbd8c2480	-0.06842899
109	0x3dcb274d	0.099196054
110	0xbce1a0da	-0.02754252
111	0xbd92933b	-0.07156988
112	0x3d4c71f0	0.049913347
113	0x3cc61c09	0.02418329
114	0x3d0ee9c4	0.034890905
115	0x3d6da7a5	0.058021206
116	0xbd051e51	-0.032499615
117	0xbd2bf6f3	-0.041983556
118	0x3dd98115	0.106203236
119	0x3bb52166	0.005527663
120	0xbd708296	-0.058718286
121	0x3d5ec3f0	0.05438608
122	0x3df3fb9f	0.11913227
123	0xbdc32cf3	-0.09530058
124	0x3e05e35d	0.13075013
125	0xbd6d2fbc	-0.05790685
126	0xbd8de15f	-0.06927752
127	0x3d43f542	0.047841318
128	0xbd936bf4	-0.07198325
129	0xbceac77b	-0.028659573
130	0xbd948489	-0.072518416
131	0x3dd23aa6	0.102650926
132	0xbd5d576c	-0.05403845
133	0x3d84ed96	0.064906284
134	0xbd16ddb6	-0.036832534
135	0x3dd5d3b6	0.10440771
136	0xbd37c5e8	-0.044866472
137	0x3d1b13bc	0.037860617
138	0xbd590247	-0.052980687
139	0x3d7374bf	0.05943751
140	0x3d08aba0	0.0333668
141	0x3c78147a	0.015141601
142	0xbc7d4274	-0.015457738
143	0x3d0ff7a7	0.03514829
144	0x3d4ee8b4	0.05051489
145	0xbcb72344	-0.022355683
146	0x3c72d23f	0.014820634
147	0x3cae53e1	0.021280231
148	0x3c8a318b	0.016869327
149	0x3d6b7cf1	0.0574922
150	0xbda9b10b	-0.082857214
151	0x3cfb81bf	0.030701516
152	0x3dc7d813	0.0975801
153	0x3c87700c	0.01653292
154	0x3c58e758	0.01323875
155	0x3d8a7553	0.06760659
156	0x3d9fa96f	0.07795989
157	0x3d97ebe6	0.07418041
158	0x3d92f35c	0.07175323
159	0x3b69c12b	0.0035668116
160	0xbcd9c6c9	-0.026584046
161	0x3d9afa81	0.07567311
162	0xbd0817ca	-0.033225812
163	0xbc7963e8	-0.015221573
164	0xbc645d7d	-0.013938305
165	0xbca8d985	-0.020611534
166	0x3dc93900	0.09825325
167	0x3d10e941	0.0353787
168	0x3ca89cdd	0.02058261
169	0xbd98738e	-0.07443915
170	0x3cae2aad	0.021260584
171	0xbd00b88c	-0.031425998
172	0xbafd1a48	-0.0019310201
173	0xbda58291	-0.08081544
174	0x3a8d3340	0.001077272
175	0xbce15bdb	-0.02750962
176	0x3dae1dfd	0.085018136
177	0x3d884de5	0.06655482
178	0x3c3d41be	0.011551319
179	0xbcf09e72	-0.029372428
180	0xbdb06e24	-0.08614758
181	0xbb861c28	-0.004092712
182	0x3dd4b0b0	0.10385263
183	0x3b873a57	0.0041268277
184	0xbb0f791e	-0.002189226
185	0x3d7ba342	0.06143499
186	0xbd92bb4a	-0.07164629
187	0x3d3dcd5c	0.046338424
188	0x3d655963	0.05599345
189	0x3dcc3e91	0.09972871
190	0xbdc06ce0	-0.09395766
191	0x3d26b716	0.040701948
192	0xbcd7d369	-0.026345925
193	0x3db1dd9e	0.08684848
194	0x3cac476f	0.021030156
195	0x3cb01bb7	0.02149759
196	0x3d038228	0.03210655
197	0x3e0f6197	0.14002071
198	0x3dec85ef	0.11548983
199	0x3e3bcfb5	0.18340953
200	0x3c29db2d	0.010367197
201	0x3d2215ff	0.03957176
202	0x3da5673b	0.0807633
203	0x3b6c20a2	0.0036030193
204	0xbd7dfb1c	-0.062007055
205	0x3e06d8bd	0.13168617
206	0x3dbcd548	0.09220368
207	0x3e075859	0.13217296
208	0x3e14f108	0.14545071
209	0x3bd12b4d	0.0063833357
210	0x3d9c6b6b	0.07637676
211	0xbdaa34e4	-0.08310869
212	0xbcbbb6ea	-0.022914369
213	0x3df0fff1	0.11767567
214	0x3cf92817	0.030414624
215	0x3d331ea3	0.04373039
216	0xbc5e43e9	-0.013565996
217	0xbd33651e	-0.043797605
218	0x3c53b464	0.012921426
219	0x3d72fdce	0.05932408
220	0x3d8fbc1d	0.07018302
221	0x3e025ca9	0.1273066
222	0x3da89982	0.08232404
223	0x3e22cbf5	0.15898116
224	0x3d9f9707	0.07792478
225	0xbcf511ce	-0.029915716
226	0x3de9bdf4	0.11413184
227	0xbb7cd1b3	-0.003857714
228	0xbb8d7df5	-0.0043179938
229	0x3c9af282	0.018914465
230	0xbc960c3c	-0.01831638
231	0x3c418baf	0.011813088
232	0x3d59295a	0.05301795
233	0xbd08afd1	-0.033370797
234	0x3d95cd0d	0.07314501
235	0xbd77b5cd	-0.060476113
236	0x3cc2a29e	0.023759183
237	0x3d1499ea	0.036279596
238	0xbcc1ef13	-0.02367357
239	0x3da96980	0.08272076
240	0x3d85feff	0.06542777
241	0x3c2c2c00	0.010508537
242	0xbc7404db	-0.014893736
243	0x3c8c154d	0.0171
244	0x3d93f349	0.07224137
245	0x3d6d0b9a	0.057872392
246	0xbd35e690	-0.044409335
247	0x3d8f740c	0.07004556
248	0x3cf9ba5b	0.030484369
249	0x3dcd717e	0.100314125
250	0x3e174af5	0.14774688
251	0x3e0cb133	0.13739471
252	0x3c44c89e	0.0120107215
253	0x3da8c56c	0.0824078
254	0x3d99c719	0.07508678
255	0x3ccb9873	0.024852967

bias f4 [93]
0	0x3b52f248	0.0032187868
1	0x3d683b52	0.056697197
2	0x3b43de49	0.002988713
3	0xbd66a868	-0.05631295
4	0xbc544859	-0.012956702
5	0x3c562711	0.013070838
6	0x3d458e62	0.04823149
7	0x3c94a9ac	0.018147312
8	0x3ca86969	0.020558076
9	0x3ba93db7	0.0051648277
10	0x3d77185c	0.060325965
11	0xbc188c68	-0.009310819
12	0xbd4ee829	-0.050514374
13	0xbc3fd418	-0.011708282
14	0x3c7342c4	0.014847461
15	0xbd26a1e5	-0.04068174
16	0x3d8613af	0.06546723
17	0x3ceb2e5d	0.028708631
18	0xbd1d4e87	-0.038404968
19	0xbc8a8c0d	-0.016912485
20	0x3d6b4b80	0.05744505
21	0x3daa7c91	0.083245404
22	0x3d89fe65	0.06737975
23	0xba5337df	-0.00080573367
24	0x3cd89193	0.026436603
25	0x3d7a42a9	0.06109873
26	0xbd719f86	-0.058990024
27	0x3d775355	0.060382206
28	0x3d2b6c9c	0.041851625
29	0x3d0d9ea1	0.03457511
30	0x3da708be	0.08155964
31	0xbd0feac0	-0.035135984
32	0x3cd0b5b9	0.025477277
33	0x3c0efc3e	0.008727131
34	0xbc86a4e0	-0.01643604
35	0xbd262bad	-0.040568996
36	0x3ccf3776	0.025295
37	0x3de04c47	0.10952049
38	0x3d7eeca7	0.062237408
39	0xbc8f0421	-0.017458024
40	0x3b9307ad	0.004486999
41	0x3d8261a7	0.06366282
42	0x3cda17bc	0.026622646
43	0x3c7ce179	0.015434616
44	0x3e023a6a	0.12717596
45	0x3a12176a	0.0005572947
46	0xbb59d049	-0.003323572
47	0x3d23642d	0.039890457
48	0xbce23903	-0.027615076
49	0x3d6bfbc2	0.05761314
50	0x3d60b27f	0.054857727
51	0x3d69d915	0.05709179
52	0xbd279772	-0.040915914
53	0x3da6f6d7	0.0815255
54	0x3ddb2234	0.10699883
55	0x3bda3247	0.0066588256
56	0x3dc44494	0.09583393
57	0x3de48e15	0.111599125
58	0x3dcac19a	0.09900208
59	0x3d45909e	0.04823362
60	0x3def77fc	0.11692807
61	0x3d44aee8	0.048018366
62	0x3d884131	0.06653059
63	0x3d417da3	0.047238957
64	0x3d269b4e	0.040675454
65	0xbb8784d4	-0.0041357074
66	0x3cfe98ce	0.031078722
67	0x3c161688	0.009160645
68	0xbcdaa434	-0.026689626
69	0x3d63cb21	0.05561364
70	0xbd7e7235	-0.062120635
71	0xbd1793bf	-0.037006136
72	0x3b17dc24	0.0023171986
73	0x3dae0d78	0.08498663
74	0x3d9bbe5a	0.07604666
75	0xbd8faf2d	-0.07015834
76	0x3d81c703	0.063367866
77	0xb90098f0	-0.00012264005
78	0xba2889de	-0.0006429235
79	0xbd84b5a3	-0.06479957
80	0x3d2c696a	0.04209272
81	0x3decab5a	0.1155612
82	0xbac9af02	-0.0015387239
83	0xbc728a18	-0.014803432
84	0x3d5db0f5	0.054123838
85	0xbc41c828	-0.011827506
86	0x3d440f37	0.047866073
87	0xbbbe6239	-0.005810049
88	0x3dd0dad9	0.10197992
89	0xbdac0c0e	-0.08400737
90	0x3c7fe428	0.0156183615
91	0x3d7823f2	0.060581155
92	0x3d622d43	0.055218946

weight f4 [24, 93]
0	0x3dcb8eab	0.09939321
1	0x3cc81aba	0.024426807
2	0xbdb64d28	-0.08901435
3	0xbdd5cc99	-0.104394145
4	0x3d626883	0.05527545
5	0x3c76a41f	0.015053778
6	0xbc8a53ca	-0.016885657
7	0x3d42d2e0	0.047564387
8	0xbdb79884	-0.08964637
9	0x3c2f4121	0.01069668
10	0x3da9d973	0.08293428
11	0x3cd86c3b	0.026418796
12	0xbdbb7787	-0.091536574
13	0xbd50f12e	-0.051011257
14	0x3d94397e	0.07237528
15	0xbd9db6a7	-0.07700854
16	0x3c34aa5a	0.011026943
17	0xbd8e9042	-0.06961109
18	0x3c17a856	0.009256443
19	0xbd92ff00	-0.07177544
20	0x3bc06743	0.0058716848
21	0x3d7206f3	0.05908866
22	0xbdd92b2f	-0.1060394
23	0xbd364f84	-0.044509426
24	0xbcfa4a67	-0.030553056
25	0x3d0e93a1	0.03480876
26	0xbd85321c	-0.06503698
27	0x3ce2c64e	0.02768245
28	0x3c3ed8f1	0.011648403
29	0xbce815eb	-0.028330764
30	0xbc2da923	-0.010599407
31	0xbd7ad92f	-0.06124228
32	0xbc9fe70d	-0.019519353
33	0xbdb4a9bf	-0.08821439
34	0xbc066bcd	-0.008204413
35	0x3cee35ab	0.029078325
36	0xbc71b65d	-0.014752951
37	0x3d0ba441	0.03409219
38	0x3d2a7b85	0.041621704
39	0xbce35b6a	-0.02775355
40	0xbd580502	-0.05273915
41	0x3d9f19a0	0.077685595
42	0x3de81d9a	0.11333771
43	0xbd9956b6	-0.07487242
44	0x3d90f4dd	0.07077954
45	0x3d9a104d	0.075226404
46	0xbb7c4d56	-0.0038498244
47	0xbd8d8d04	-0.06911662
48	0xbd4631cc	-0.048387334
49	0xbd8446f4	-0.06458846
50	0x3d3df975	0.04638048
51	0x3dcdf741	0.100569256
52	0xbde8e88c	-0.1137248
53	0x3d154c16	0.036449514
54	0xbd582a09	-0.052774463
55	0xbc7da1b7	-0.01548045
56	0x3da82025	0.08209256
57	0x3d9bf1c8	0.076144755
58	0xbbcce24e	-0.0062525636
59	0xbdade6df	-0.08491301
60	0x3d9c41cf	0.076297395
61	0x3d36e4bc	0.04465173
62	0x3d2e1c96	0.04250773
63	0x3db2d0e8	0.08731252
64	0xbdcf2a4f	-0.101154916
65	0x3db0fa48	0.08641487
66	0x3cd39239	0.02582656
67	0xbdb5f6e3	-0.088849805
68	0xbd3cead8	-0.046122402
69	0x3c0826a7	0.008309997
70	0x3b1c245c	0.0023825383
71	0x3d8e532d	0.06949458
72	0x3c84db7a	0.016217936
73	0x3d574d81	0.052564148
74	0x3dea8c9f	0.114526026
75	0x3dbdb9ad	0.092639305
76	0xbdcb6b21	-0.099325426
77	0xbdce628a	-0.100773886
78	0x3d82ea8e	0.06392394
79	0x3d11964d	0.03554373
80	0x3deac850	0.11463988
81	0x3dc74b2c	0.09731135
82	0x3d76b67f	0.060232636
83	0xbd7859ae	-0.0606324
84	0x3ded0079	0.11572356
85	0xbcc67f77	-0.024230702
86	0x3d5571f4	0.052110627
87	0xbd3756f7	-0.04476067
88	0x3dade9c2	0.084918514
89	0xbdba4f72	-0.09097184
90	0x3c9ff479	0.019525753
91	0x3da23ace	0.07921372
92	0xbbc14def	-0.005899183
93	0x3da4bbf2	0.0804366
94	0xbd729d5a	-0.059232093
95	0xbcde41ee	-0.027131047
96	0xbd10adf7	-0.035322156
97	0xbcd29337	-0.025704963
98	0xbe03a3f3	-0.1285551
99	0x3d09077c	0.033454403
100	0xbda4978e	-0.08036719
101	0xbdd68667	-0.10474854
102	0x3be1e789	0.006894056
103	0x3d954bef	0.07289874
104	0x3d418b77	0.047252145
105	0xbd7fc4eb	-0.062443655
106	0x3e439811	0.19100977
107	0x3dd41bb9	0.1035685
108	0xbdfc1386	-0.12308411
109	0xbcd5f67c	-0.02611851
110	0xbaf12232	-0.0018397032
111	0xbc941c46	-0.018079888
112	0xbd989249	-0.07449777
113	0x3c9cd1a3	0.019142931
114	0x3caec4fe	0.021334168
115	0xbd15804c	-0.036499307
116	0x3d217a73	0.039423417
117	0x3d0606d7	0.032721367
118	0x3e0d288e	0.13785002
119	0x3de243e0	0.110481024
120	0x3dffa93b	0.1248345
121	0x3d2f8d89	0.042859588
122	0xbc7fdee1	-0.015617103
123	0x3df50f31	0.11965788
124	0x3d430f31	0.04762191
125	0x3d8e0d47	0.06936126
126	0x3b763fd2	0.003757466
127	0x3c33b421	0.010968239
128	0xbdca422f	-0.09875905
129	0xbddc51ea	-0.10757811
130	0x3d3c7d2d	0.046017814
131	0xbd485043	-0.04890467
132	0xbb8b86bd	-0.0042580054
133	0xbcbf6678	-0.02336429
134	0xbbdc6a9c	-0.006726576
135	0x3e43c682	0.19118693
136	0xbcd6ad0b	-0.02620556
137	0xb958a914	-0.00020662352
138	0xbdc79d82	-0.09746839
139	0xbd004d43	-0.031323683
140	0x3e528aa5	0.20560701
141	0xbd44fb76	-0.048091374
142	0xbdf306fb	-0.11866566
143	0x3e2870e3	0.16449313
144	0x3cc8e9c0	0.024525523
145	0x3cee7e84	0.029113062
146	0x3e1cf7a4	0.15328842
147	0x3d85dd22	0.06536318
148	0x3d066390	0.032809794
149	0x3dcb36fe	0.09922598
150	0x3dad6966	0.08467369
151	0x3df2dcd0	0.11858523
152	0xbdbad894	-0.0912334
153	0x3d8cf432	0.06882514
154	0x3e449cb9	0.1920041
155	0xbd9533e5	-0.07285289
156	0x3e3cf382	0.18452266
157	0xbd9b5e7c	-0.07586381
158	0x3d9596b1	0.07304133
159	0x3c936723	0.017993515
160	0xbd856280	-0.06512928
161	0x3d0d9cb9	0.03457329
162	0x3d0b8b1b	0.03406821
163	0xbda89e27	-0.0823329
164	0xbd3e800f	-0.046508845
165	0x3e4c7787	0.19967471
166	0x3ca5d39d	0.020242507
167	0x3d310cad	0.04322498
168	0x3de85c66	0.113457486
169	0xbcdf55c0	-0.027262568
170	0xb95de889	-0.00021162828
171	0xbd970f46	-0.0737596
172	0xbc2a9426	-0.010411298
173	0x3e23deed	0.16003008
174	0x3da66287	0.08124261
175	0xbc2363c6	-0.009972518
176	0xbddc258a	-0.107493475
177	0x3cf57141	0.02996123
178	0xbdda795f	-0.10667681
179	0xbbb7a1f6	-0.005604024
180	0xbddfd5b6	-0.10929434
181	0x3e3daeae	0.18523666
182	0xbcb0eb9e	-0.021596726
183	0xbd781e32	-0.06057567
184	0x3e263458	0.16230905
185	0x3d9d8692	0.07691683
186	0x3d9ffa27	0.07811385
187	0xbdbbe77c	-0.091750115
188	0x3d5f8612	0.05457122
189	0xbdb4a2a4	-0.08820084
190	0x3d2fea29	0.042947922
191	0xbddaae27	-0.10677748
192	0x3d18a777	0.037269082
193	0x3d773833	0.06035633
194	0x3cd5fb02	0.026120666
195	0xbc44491f	-0.011980324
196	0x3e4ff203	0.20307164
197	0xbc453caa	-0.012038389
198	0xbcd8356b	-0.02639266
199	0x3de85e9f	0.113461725
200	0x3dd8468d	0.105603315
201	0x3b007d2b	0.0019605856
202	0xbd860c82	-0.065453544
203	0xbd024264	-0.031801596
204	0x3d565efb	0.052336674
205	0xbdd5764b	-0.10422953
206	0x3c7e3443	0.01551539
207	0x3d7939c0	0.06084609
208	0x3d8d414e	0.068972215
209	0xbc02b8be	-0.007978616
210	0xbd94930c	-0.072546095
211	0x3d0c9634	0.034322932
212	0xbd67133c	-0.056414828
213	0x3e0a768e	0.13521788
214	0xbde861f4	-0.11346808
215	0xbbaefdc3	-0.0053403093
216	0x3e37ac11	0.17936732
217	0xbd5d83e0	-0.054080844
218	0xbd0ddbd7	-0.034633484
219	0x3c97dd6c	0.0185382
220	0x3d27ae49	0.040937696
221	0x3d78a42f	0.060703453
222	0xbd8205d1	-0.06348766
223	0x3e048d0e	0.12944433
224	0xbde583b6	-0.112067625
225	0x3cd7aa0b	0.0263262
226	0xbd9438e2	-0.07237412
227	0x3dea492b	0.11439737
228	0x3e1e68a5	0.15469606
229	0xbcf60b34	-0.030034639
230	0x3da997b0	0.08280885
231	0xbd444222	-0.04791463
232	0xbdcb15f1	-0.09916294
233	0x3d83a789	0.06428439
234	0xbd89afda	-0.06722994
235	0xbd9d296b	-0.076739155
236	0x3e1f2439	0.15541162
237	0x3e2865c4	0.1644507
238	0xbd4e86cf	-0.050421532
239	0x3e34bc32	0.17649916
240	0x3e12319c	0.14276737
241	0xbdd94395	-0.106085934
242	0x3ba28859	0.0049601016
243	0x3d8fb468	0.07016832
244	0x3e1cc92c	0.15311116
245	0xbdce8486	-0.100838706
246	0x3e046451	0.12928893
247	0x3ded10c0	0.115754604
248	0xbdcd99e5	-0.10039119
249	0x3d9efe4e	0.077633485
250	0xbd7f07f4	-0.062263444
251	0x3dd30a82	0.103047386
252	0x3dc808a5	0.09767274
253	0x3d6548ab	0.055977505
254	0xbd55601c	-0.05209361
255	0xbc856731	-0.016284557

bias f4 [24]
0	0xbd86b6e0	-0.065778494
1	0x3dd6205e	0.10455392
2	0x3e0f3348	0.13984406
3	0x3e04368b	0.12911431
4	0x3d1ef375	0.038806397
5	0xbd6ed397	-0.058307257
6	0x3e2ce121	0.16882755
7	0x3d2d5644	0.042318597
8	0xbd8c727e	-0.06857775
9	0xbd35d468	-0.04439202
10	0x3e262e01	0.16228487
11	0xbc303583	-0.010754946
12	0x3dcf587f	0.10124301
13	0xbd96fed7	-0.073728256
14	0xbce511e1	-0.027962627
15	0x3c8d3c8e	0.017240789
16	0xbc79b5fd	-0.015241143
17	0x3e197f9c	0.14990085
18	0x3dc75136	0.09732287
19	0x3d80bb61	0.0628574
20	0x3d47cc0f	0.04877859
21	0xbb916000	-0.004436493
22	0x3e29acc6	0.16569814
23	0xbbeaf32a	-0.0071701007

weight f4 [2, 24]
0	0x3e821eba	0.25414068
1	0x3e32a601	0.17446138
2	0x3e483be5	0.19554098
3	0x3e549897	0.20761333
4	0xbede5f26	-0.43431967
5	0xbf13e8c8	-0.5777707
6	0x3e449500	0.19197464
7	0xbf249036	-0.6428255
8	0xbf364e5c	-0.71213317
9	0xbd8e0749	-0.06934983
10	0x3e2e892f	0.17044519
11	0x3e7ffadc	0.24998039
12	0x3cf6e220	0.030137122
13	0xbba9e51a	-0.0051847817
14	0xbf2ec67f	-0.6827163
15	0xbf571429	-0.84015137
16	0xbf252acf	-0.64518446
17	0x3e892d2c	0.26792276
18	0xbf34821c	-0.7051103
19	0xbf4d941d	-0.8030413
20	0xbf2d8163	-0.67775553
21	0x3e1d23e2	0.1534572
22	0x3e6ff367	0.23432694
23	0x3e542a60	0.2071929
24	0x3d1b40ce	0.0379036
25	0xbe1bf55e	-0.15230319
26	0xbe81dac2	-0.2536221
27	0xbe303c42	-0.17210487
28	0x3e81eb7d	0.25374976
29	0x3e23d28d	0.15998287
30	0xbdb1bb47	-0.086782984
31	0x3e4f2306	0.20228204
32	0x3de27856	0.110581085
33	0xbe33caf0	-0.17557883
34	0xbe19a896	-0.15005717
35	0xbe5cd153	-0.21564226
36	0xbe8fdef3	-0.28099784
37	0xbe63e777	-0.22256266
38	0x3e22d837	0.15902792
39	0x3e5d1435	0.2158974
40	0xbe07c5ef	-0.132591
41	0xbe18581b	-0.1487736
42	0x3d8c8b45	0.06862501
43	0x3dfb4244	0.122684985
44	0x3e87f134	0.2655121
45	0xbe9d825f	-0.30763528
46	0xbe29c901	-0.16580583
47	0xbdfab8b4	-0.122422606

bias f4 [2]
0	0x3df133cd	0.11777458
1	0x3c37b557	0.011212668
