Network2/params/mlp_nnnParams0827113521.pth (torch_old, 21404 bytes, 12 tensors)

weight f4 [21]
0.73947644 0.23016448 0.6507377 0.78121734 0.4417131 0.18082696 0.37735134 0.8478996
0.29089612 0.353912 0.30225807 0.9165098 0.77795404 0.38959938 0.025068425 0.080030285
0.15460548 0.73811793 0.027036423 0.93789166 0.1198345
00000000: 544e 3d3f 3db0 6b3e bf96 263f dcfd 473f
00000010: 3828 e23e b42a 393e 3234 c13e f30f 593f
00000020: 56f0 943e f433 b53e 92c1 9a3e 63a0 6a3f
00000030: ff27 473f 9279 c73e 4c5c cd3c ebe6 a33d
00000040: e650 1e3e 4cf5 3c3f 7d7b dd3c ab19 703f
00000050: ca6b f53d

bias f4 [21]
-0.014123992 0.046182647 0.05421785 0.04678298 -0.02385128 0.010921972 0.053149305 0.048620097
0.037241574 -0.048918184 -0.059572548 0.033266585 -0.022834012 -0.051802896 0.040162817 -0.051001545
-0.032744616 -0.032071594 -0.0031856894 0.049850192 -0.025212046
00000000: 5168 67bc 042a 3d3d 8913 5e3d 839f 3f3d
00000010: c263 c3bc 12f2 323c 16b3 593d de25 473d
00000020: 9f8a 183d 6f5e 48bd 5802 74bd 8b42 083d
00000030: 650e bbbc 462f 54bd c481 243d ffe6 50bd
00000040: 381f 06bd 815d 03bd 00c7 50bb b72f 4c3d
00000050: 7e89 cebc

running_mean f4 [21]
0.2610039 0.25859365 0.4544117 0.2632222 0.23841333 0.47440994 0.26790673 0.23276418
0.48081467 0.24117947 0.2877151 0.45678946 0.24858087 0.2503487 0.49614644 0.27577412
0.25176775 0.46828246 0.24764384 0.2879245 0.46051866
00000000: 4ea2 853e 6366 843e a6a8 e83e 0fc5 863e
00000010: a022 743e dce5 f23e 122b 893e bc59 6e3e
00000020: 572d f63e c0f7 763e 654f 933e 4fe0 e93e
00000030: fc8b 7e3e b42d 803e e806 fe3e 4432 8d3e
00000040: b4e7 803e b8c2 ef3e 5996 7d3e d76a 933e
00000050: 1ac9 eb3e

running_var f4 [21]
0.04548959 0.046645187 0.068911925 0.043266326 0.045806278 0.066628486 0.04558079 0.041370302
0.058433168 0.045030244 0.0471679 0.06950459 0.042313978 0.044562295 0.057526007 0.0465884
0.042722553 0.060817216 0.047336463 0.048492726 0.0721492
00000000: 4b53 3a3d 060f 3f3d b221 8d3d 0838 313d
00000010: 5d9f 3b3d 8474 883d ecb2 3a3d e873 293d
00000020: 9e57 6f3d a271 383d 2133 413d 6c58 8e3d
00000030: 6c51 2d3d f486 363d 64a0 6b3d 7ad3 3e3d
00000040: d8fd 2e3d 791b 793d e1e3 413d 4fa0 463d
00000050: f6c2 933d

weight f4 [21, 21]
-0.11014753 0.009296474 -0.12516277 -0.065385744 0.026228726 -0.027164059 -0.089779876 0.14903946
-0.08201759 0.19428536 -0.120290585 -0.030108118 -0.21515633 -0.11573783 0.0658431 -0.0014706514
-0.10866728 -0.13050239 -0.18879402 -0.12168171 -0.020770703 -0.22268564 -0.18062745 0.16667923
-0.17990695 0.0689429 0.21244848 -0.16353218 -0.11169398 0.1692155 -0.07090642 -0.124019384
0.21230727 0.07858528 0.01693351 0.23870246 -0.022488503 0.20073901 0.20014921 -0.058446154
-0.0021237761 -0.14779156 -0.10924516 -0.03209036 -0.12242906 0.054531474 0.15688805 0.014924452
-0.004129162 -0.028344797 -0.11829647 -0.010074266 0.04190029 0.0054799244 0.023848055 0.19504102
0.09363992 0.22669743 -0.039354328 0.06070541 -0.020144952 -0.08454049 0.21551383 0.105653405
-0.00091522385 -0.0029746247 0.044502545 -0.17160797 -0.008080782 0.071831934 0.1420348 -0.021066796
-0.04215218 -0.1390583 -0.17383368 -0.16311347 -0.11905275 0.02942923 0.107065566 0.09494162
0.062184907 -0.00785178 -0.01600065 -0.061518088 -0.099839985 -0.06576644 -0.042656716 -0.12657867
-0.17700195 0.13911085 -0.116513975 0.18614371 0.1733443 0.08567229 0.055311132 0.026942968
-0.11135035 0.16098966 -0.13258214 0.22496083 -0.12976128 0.10163151 -0.034901325 -0.16464174
-0.1843325 -0.11066513 0.117580876 0.050072506 -0.1101294 -0.10047569 0.03054098 -0.029713294
0.009290477 -0.15259172 -0.19485909 -0.17662984 -0.08710554 0.13637313 0.13034467 0.19335674
0.09901849 -0.15007102 0.036228787 -0.19725709 -0.17017397 -0.06267641 0.1909954 0.03283536
0.104562744 0.03913155 0.12827314 0.032083206 -0.0037329765 0.20509647 -0.09225084 -0.21166755
-0.08602406 0.19387738 0.081669495 0.08411353 0.17361733 -0.14669152 -0.19271559 0.06277094
-0.16703603 0.045600504 -0.16369712 0.17658195 0.069293454 0.14947204 0.17908747 -0.13321742
-0.0052797915 0.19538735 2.6584225e-05 0.20603113 0.0031031005 -0.08578345 -0.044892117 -0.048720844
-0.088604845 -0.10746081 -0.21830419 -0.029405177 0.09558697 0.17744762 0.12938924 0.017055646
0.19054224 -0.049421724 -0.1731069 -0.08239787 0.059112597 0.021520847 0.064801745 0.11431559
0.18715814 -0.11561802 -0.21846569 -0.023188783 0.016786238 0.15587474 0.22516409 -0.10383977
-0.13225694 -0.12833628 0.19360009 -0.152177 -0.050869945 -0.06379328 0.061032377 -0.0035236694
0.04916176 0.08594576 -0.046243627 0.0333548 -0.17517081 -0.20983407 -0.051713575 -0.06546797
-0.11590855 -0.044222195 -0.09243992 0.16044803 0.1692291 0.1965026 0.18040866 0.045228273
0.1987511 0.089287646 -0.2197471 0.21669628 0.11004813 0.05260946 0.04825262 -0.09175969
0.07603392 0.10406234 0.05252608 -0.23948832 -0.13004084 0.140118 -0.14306155 -0.043511137
0.20781462 0.02519999 -0.15005115 -0.03954985 -0.13501692 0.20916952 0.13120937 0.095150135
0.11662872 0.09984852 0.0803889 0.12947315 0.15377009 0.06536437 -0.05067071 0.10781619
0.13825352 0.14431149 -0.104464956 -0.04496376 0.16087326 -0.090423144 0.11439531 0.14640318
-0.027674781 -0.15850289 -0.18408947 0.11778041 -0.21223086 0.020480562 -0.17666553 -0.076965295
00000000: 0795 e1bd 3d50 183c ab2a 00be f6e8 85bd
00000010: a0dd d63c 2987 debc 83de b7bd cd9d 183e
00000020: d7f8 a7bd bef2 463e e95a f6bd 4da5 f6bc
00000030: f151 5cbe f507 edbd bfd8 863d dfc2 c0ba
00000040: f38c debd 6ba2 05be 3853 41be 4334 f9bd
00000050: 5227 aabc b407 64be 67f6 38be f6ad 2a3e
00000060: 8739 38be ef31 8d3d 188c 593e fb74 27be
00000070: d0bf e4bd d446 2d3e 6337 91bd e0fd fdbd
00000080: 1467 593e 52f1 a03d 25b8 8a3c 6b6e 743e
00000090: cf39 b8bc 878e 4d3e eaf3 4c3e 3c65 6fbd
000000a0: 0d2f 0bbb ac56 17be edbb dfbd 2e71 03bd
000000b0: 16bc fabd 655c 5f3d 43a7 203e b085 743c
000000c0: ec4d 87bb 5933 e8bc 6b45 f2bd 890e 25bc
000000d0: a39f 2b3d f090 b33b ff5c c33c d5b8 473e
000000e0: 49c6 bf3d 5f23 683e 0132 21bd 3ca6 783d
000000f0: 0707 a5bc 9023 adbd a8af 5c3e d060 d83d
00000100: a2eb 6fba ecf1 42bb 4d48 363d 00ba 2fbe
00000110: 4265 04bc 9f1c 933d 9271 113e 4694 acbc
00000120: c4a7 2cbd 4d65 0ebe 7501 32be 3807 27be
00000130: eed1 f3bd 9215 f13c 3145 db3d c170 c23d
00000140: 9ab5 7e3d c1a4 00bc cc13 83bc 64fa 7bbd
00000150: e878 ccbd 8eb0 86bd cfb8 2ebd d79d 01be
00000160: 0040 35be 1373 0e3e e19e eebd 759c 3e3e
00000170: 2b81 313e f474 af3d ed8d 623d 80b7 dc3c
00000180: a70b e4bd 79da 243e 9dc3 07be 225c 663e
00000190: 24e0 04be 2e24 d03d b1f4 0ebd d897 28be
000001a0: a9c1 3cbe 66a4 e2bd 3ece f03d d418 4d3d
000001b0: 868b e1bd 33c6 cdbd 1431 fa3c 4b69 f3bc
000001c0: 1637 183c 0141 1cbe 2489 47be 74de 34be
000001d0: 6464 b2bd 66a5 0b3e 1379 053e 4fff 453e
000001e0: 35ca ca3d 38ac 19be a364 143d c3fd 49be
000001f0: 1642 2ebe 7d5c 80bd 4c94 433e 5f7e 063d
00000200: fe24 d63d 6748 203d 095a 033e ae69 033d
00000210: f4a4 74bb cf04 523e 02ee bcbd 61bf 58be
00000220: 622d b0bd cb87 463e 5642 a73d b743 ac3d
00000230: bec8 313e 4d36 16be 3c57 45be 0d8e 803d
00000240: 7e0b 2bbe 98c7 3a3d 38a0 27be e6d1 343e
00000250: bae9 8d3d 330f 193e b562 373e 266a 08be
00000260: 1a02 adbb 9f13 483e 3001 df37 d3f9 523e
00000270: 635d 4b3b 3caf afbd cce0 37bd 828f 47bd
00000280: 7576 b5bd 6a14 dcbd 228b 5fbe 20e3 f0bc
00000290: 1ac3 c33d d4b4 353e 9d7e 043e 48b8 8b3c
000002a0: 811d 433e 6f6e 4abd ef42 31be 37c0 a8bd
000002b0: 0d20 723d 7d4c b03c c7b6 843d 4b1e ea3d
000002c0: 62a6 3f3e 24c9 ecbd 78b5 5fbe 67f6 bdbc
000002d0: 4b83 893c a19d 1f3e 6a91 663e f2a9 d4bd
000002e0: 5d6e 07be 966a 03be 1a3f 463e 4ad4 1bbe
000002f0: 015d 50bd 0da6 82bd 16fd 793d 5ded 66bb
00000300: d75d 493d 5504 b03d f569 3dbd 0b9f 083d
00000310: fa5f 33be bede 56be 9dd1 53bd 1214 86bd
00000320: 7661 edbd 5522 35bd 2451 bdbd 7d4c 243e
00000330: 654a 2d3e fa37 493e 0cbd 383e 4841 393d
00000340: 6985 4b3e 71dc b63d 6205 61be a1e5 5d3e
00000350: ea60 e13d 047d 573d 8aa4 453d 81ec bbbd
00000360: acb7 9b3d a31e d53d 9625 573d 6d3c 75be
00000370: 6d29 05be 187b 0f3e ba7e 12be bc38 32bd
00000380: 5bcd 543e 3670 ce3c 02a7 19be 06ff 21bd
00000390: e041 0abe 8930 563e c05b 063e 13de c23d
000003a0: 0adb ee3d 617d cc3d f0a2 a43d 9c94 043e
000003b0: e875 1d3e c1dd 853d 178c 4fbd bcce dc3d
000003c0: 5592 0d3e 64c6 133e b9f1 d5bd eb2b 38bd
000003d0: f6bb 243e c52f b9bd 1748 ea3d b7ea 153e
000003e0: 39b6 e2bc 954e 22be f381 3cbe db36 f13d
000003f0: 0c53 59be dac6 a73c cfe7 34be fb9f 9dbd

bias f4 [21]
0.24189308 -0.05790221 -0.005040812 0.1494851 0.11534785 -0.13482834 0.19392891 0.22933665
-0.04425641 0.06389818 0.14437239 -0.17445321 -0.0515811 -0.05536393 -0.007544332 -0.080185235
-0.088956356 0.20379303 -0.21781644 0.071428604 -0.08390823
00000000: d2b2 773e de2a 6dbd 652d a5bb 9f12 193e
00000010: 7e3b ec3d 7110 0abe 4d95 463e 3ad7 6a3e
00000020: 3646 35bd 0ddd 823d 5bd6 133e dda3 32be
00000030: b446 53bd 4ac5 62bd 7236 f7bb 2838 a4bd
00000040: c02e b6bd 1faf 503e 460b 5fbe 2949 923d
00000050: 14d8 abbd

weight f4 [10, 21]
-0.032547515 -0.02898671 0.120550856 -0.11689852 -0.12799767 -0.11157276 0.15780929 0.09593013
-0.18073297 -0.07534461 0.21895358 -0.1404083 -0.14441556 0.22131558 -0.15241317 0.11864332
-0.07018582 0.03962511 0.027292512 0.22802873 -0.0351527 -0.111417994 -6.05067e-05 -0.16647111
0.19930772 -0.08873643 -0.11456737 0.06474648 0.23650636 0.16933897 0.16278373 -0.040747758
-0.15041842 0.117527194 -0.07132939 0.1999253 0.23703827 0.23504105 0.13645378 -0.17397624
-0.14770845 0.08653165 -0.1873753 0.031701718 0.11962236 0.16045085 0.16631919 -0.18627469
-0.07460516 0.13609342 -0.09298163 0.154073 -0.14770053 -0.23180391 -0.09028061 0.16607764
0.06410145 -0.13605402 0.035115886 0.0128839975 0.11914939 -0.19990411 -0.1452486 0.2399505
0.25273117 -0.14481169 0.217516 0.042181414 0.078895256 -0.15042688 0.13577995 0.14770839
-0.07816965 0.22320285 -0.07093574 0.16858107 -0.015448846 0.13175462 -0.06546143 0.14881065
0.18824975 0.09778577 0.09623215 0.027534958 -0.17735872 0.11631942 0.06695268 0.11194267
-0.11094695 -0.06712191 -0.0741161 -0.07524551 0.05447715 0.030089345 0.023397537 0.1418801
0.18368582 0.011364839 -0.19909109 -0.14818144 0.21143723 0.097513996 0.067145675 -0.115919374
0.094653994 -0.16213118 -0.14018364 0.15337203 -0.19792236 0.09869998 -0.051198713 -0.026509179
0.18847756 -0.05675574 -0.04086942 0.17528799 0.017773364 -0.15143992 -0.0029844218 0.21616575
-0.056522522 -0.115345575 0.1577602 0.013007111 -0.058124695 -0.009845644 -0.05041566 -0.16596626
-0.17802969 0.17775477 -0.16706133 0.20316333 -0.04026482 0.09246744 -0.06888785 0.18255289
0.08032841 -0.12356431 0.13630743 -0.0888259 0.1692633 -0.22507723 -0.07419437 -0.094968304
-0.004973408 -0.16646339 -0.07426592 0.10022945 -0.13122334 -0.042544067 -0.040172577 0.07577734
0.04900214 0.17542726 -0.14128517 0.053911515 -0.09715909 -0.108202904 -0.108910106 0.04427555
0.023986902 0.14899826 -0.13530427 -0.022467544 0.14115597 0.1747949 -0.0053044115 -0.18741599
0.1706283 -0.15896736 0.11079871 0.110739514 -0.09199918 0.18063581 -0.20482233 -0.14007783
0.05982455 0.105087064 0.02124078 0.2019469 0.14532527 -0.037168 -0.19679917 -0.1711419
0.084098645 -0.039974533 -0.039880153 0.17939083 0.1724333 0.20138884 -0.113170795 -0.072745435
0.23367828 -0.073750764 0.10923348 0.2079529 -0.073755145 0.12304133 -0.10104789 0.20901303
-0.18671346 0.11069577 0.052539237 -0.077186316 0.15178041 0.1258385 -0.17908646 0.022664579
-0.12150935 0.007455202
00000000: 8b50 05bd 8975 edbc 5ee3 f63d 7e68 efbd
00000010: d211 03be 4280 e4bd c298 213e 0477 c43d
00000020: 1012 39be 464e 9abd 5e35 603e 32c7 0fbe
00000030: ace1 13be 8da0 623e 3312 1cbe 45fb f23d
00000040: 95bd 8fbd f04d 223d 8c94 df3c 5d80 693e
00000050: 47fc 0fbd 1e2f e4bd 93c8 7db8 6777 2abe
00000060: 5317 4c3e 72bb b5bd 4ca2 eabd cd99 843d
00000070: b92e 723e 3267 2d3e c7b0 263e 1fe7 26bd
00000080: 4907 1abe 19b2 f03d 2515 92bd 38b9 4c3e
00000090: 29ba 723e 9aae 703e 8aba 0b3e d426 32be
000000a0: e240 17be 8137 b13d 50df 3fbe a9d9 013d
000000b0: 91fc f43d 3a4d 243e 944f 2a3e cbbe 3ebe
000000c0: 97ca 98bd 135c 0b3e 276d bebd 50c5 1d3e
000000d0: cf3e 17be 015e 6dbe 0ae5 b8bd 4210 2a3e
000000e0: 9f47 833d bf51 0bbe add5 0f3d 6717 533c
000000f0: 9804 f43d aab3 4cbe 0dbc 14be 95b5 753e
00000100: fb65 813e 8449 14be 84bc 5e3e 6bc6 2c3d
00000110: d693 a13d 8109 1abe e609 0b3e de40 173e
00000120: 6917 a0bd 4a8f 643e c246 91bd 84a0 2c3e
00000130: 281d 7dbc afea 063e a410 86bd d261 183e
00000140: 8bc4 403e e843 c83d 5d15 c53d fe90 e13c
00000150: 869d 35be e038 ee3d 7d1e 893d 3342 e53d
00000160: 2838 e3bd 3677 89bd 2fca 97bd 511a 9abd
00000170: 6f23 5f3d ee7d f63c 31ac bf3c 0449 113e
00000180: 2318 3c3e 9733 3a3c 89de 4bbe e0bc 17be
00000190: 0083 583e 6bb5 c73d ac83 893d 2367 edbd
000001a0: f4d9 c13d b705 26be 4d8c 0fbe 8f0d 1d3e
000001b0: 29ac 4abe 3723 ca3d beb5 51bd c729 d9bc
000001c0: 4300 413e b578 68bd b166 27bd b27e 333e
000001d0: 7299 913c 1113 1bbe 4a96 43bb 8e5a 5d3e
000001e0: 2984 67bd 4d3a ecbd e48b 213e c71b 553c
000001f0: 2914 6ebd a04f 21bc a780 4ebd 0ff3 29be
00000200: 6a4d 36be 5905 363e 2012 2bbe 0c0a 503e
00000210: b9ec 24bd 925f bd3d 1315 8dbd 25ef 3a3e
00000220: 3983 a43d 490f fdbd 2d94 0b3e 5aea b5bd
00000230: 5c53 2d3e a57a 66be 38f3 97bd be7e c2bd
00000240: f8f7 a2bb 6175 2abe bb18 98bd 1945 cd3d
00000250: 695f 06be b042 2ebd 008c 24bd 2631 9b3d
00000260: 78b6 483d 34a3 333e 0fad 10be 52d2 5c3d
00000270: 58fb c6bd 7c99 ddbd 430c dfbd 475a 353d
00000280: 2e80 c43c 0093 183e 348d 0abe db0d b8bc
00000290: 318b 103e 6ffd 323e a1d0 adbb fae9 3fbe
000002a0: 2fb9 2e3e 57c8 22be 6fea e23d 66cb e23d
000002b0: 116a bcbd 98f8 383e f2bc 51be 9070 0fbe
000002c0: 960a 753d e337 d73d 2501 ae3c 2bcb 4e3e
000002d0: 26d0 143e 793d 18bd b985 49be d23f 2fbe
000002e0: e93b ac3d 56bc 23bd 5f59 23bd 3bb2 373e
000002f0: 5b92 303e e038 4e3e 17c6 e7bd 8ffb 94bd
00000300: 5c49 6f3e a40a 97bd ceb5 df3d 9bf1 543e
00000310: f00c 97bd 18fd fb3d 32f2 cebd 8307 563e
00000320: d031 3fbe 77b4 e23d 6233 573d dc13 9ebd
00000330: 536c 1b3e cfdb 003e 7162 37be 11ab b93c
00000340: e5d9 f8bd c44a f43b

bias f4 [10]
0.20334996 0.21549602 0.040181015 -0.05618078 -0.22250342 -0.19102547 0.16420944 0.19085947
0.10352698 0.037708513
00000000: f93a 503e fdaa 5c3e d994 243d d11d 66bd
00000010: f0d7 63be 2e9c 43be 8526 283e aa70 433e
00000020: f405 d43d 3e74 1a3d

weight f4 [3, 10]
0.31704617 0.32994595 -0.19338454 0.26498538 0.26600266 -0.29252374 0.19083229 0.075953856
0.07638178 -0.13076618 0.3296568 0.29154962 -0.060636707 0.33705774 -0.26699802 0.06724297
-0.15487973 0.07639375 -0.22554925 0.31068492 0.2605456 -0.31273103 -0.19407274 0.24502797
-0.21629947 -0.08382368 0.02580758 0.2931963 -0.27016446 -0.096991174
00000000: e053 a23e adee a83e 9906 46be 2aac 873e
00000010: 8031 883e acc5 95be 8a69 433e b28d 9b3d
00000020: 0d6e 9c3d 92e7 05be c7c8 a83e fe45 953e
00000030: 325e 78bd d592 ac3e f7b3 88be afb6 893d
00000040: cb98 1ebe 5474 9c3d 62f6 66be 1812 9f3e
00000050: 3c66 853e 481e a0be 01bb 46be 9de8 7a3e
00000060: 9c7d 5dbe c0ab abbd 6b6a d33c d31d 963e
00000070: ff52 8abe 4fa3 c6bd

bias f4 [3]
0.15056038 -0.011087979 -0.28407863
00000000: 802c 1a3e 5baa 35bc c172 91be

weight f4 [2, 3]
0.1535664 -0.63110757 -0.16541402 0.40451416 -0.36663738 -0.18897854
00000000: 8340 1d3e 4490 21bf 4b62 29be 7b1c cf3e
00000010: e5b7 bbbe 9783 41be

bias f4 [2]
0.47941685 0.6151823
00000000: 2076 f53e 967c 1d3f
