Network2/params/mlp_wParams0901090739.pth (torch_old, 32199 bytes, 12 tensors)

weight f4 [45]
000000 25 1c c3 3e 94 3c 74 3f 84 d9 a6 3e 27 17 43 3e
       0.3810741 0.95404935 0.32587826 0.190518
000010 8a 10 80 3e 0a 76 b9 3e fe ea 1e 3f b4 30 4a 3f
       0.25012618 0.3622287 0.6207732 0.78980565
000020 d2 7b 03 3f 54 f8 b5 3e 4c 05 5d 3f a7 f8 4a 3f
       0.5136081 0.35541022 0.8633621 0.79285663
000030 d0 c7 3a 3f 1f 06 32 3f d4 3d eb 3e 55 c4 93 3f
       0.7296114 0.6954059 0.4594561 1.1544291
000040 f5 2c 9e 3f 86 f6 74 3f 95 d4 41 3f 22 33 4b 3f
       1.235747 0.95688665 0.75715 0.793749
000050 bb 45 43 3f 74 61 4b 3f fb dd 29 3d c7 99 16 3f
       0.76278275 0.79445577 0.041471463 0.58828396
000060 68 17 41 3c 23 60 55 3f 2e 51 6a 3f 59 33 59 3f
       0.011785366 0.8334982 0.9153012 0.84843975
000070 c6 3e 24 3f ac 0a 92 3e ba 87 40 3f e3 4c bf 3e
       0.64158285 0.28523767 0.752071 0.37363347
000080 28 68 86 3e c4 18 1c 3f bf 65 60 3f bf fe ea 3e
       0.2625134 0.6097529 0.8765525 0.4589748
000090 23 74 0f 3f 31 fa 23 3f fa 33 6d 3f 6d 1e 6a 3f
       0.56036586 0.64053637 0.92657435 0.91452676
0000a0 4e 17 20 3f bf a1 a3 3e 4e c7 00 3f 75 1b 08 3f
       0.6253556 0.3195934 0.50304115 0.53166896
0000b0 37 af 31 3f
       0.6940798

bias f4 [45]
000000 71 28 e8 3c 1f e1 5f bd 7a b0 65 3e 9f a9 5e bd
       0.028339596 -0.05465805 0.22430602 -0.054360982
000010 89 c1 d7 3d 21 c9 21 3d c0 8a bc bd 3e 38 8d 3d
       0.10534961 0.039498452 -0.09206152 0.06895493
000020 38 49 52 bd a9 11 d9 bd 65 01 2a 3e 55 cb ce bd
       -0.051339358 -0.105990715 0.16602094 -0.10097376
000030 98 de 49 bd 03 c0 48 bd a1 c8 27 3d 22 01 92 3d
       -0.049284548 -0.04901124 0.04096282 0.07129122
000040 9b f6 d6 3d 96 8f c8 3c e9 8e 2e be 84 d2 9d bd
       0.10496255 0.02448253 -0.17046703 -0.07706168
000050 16 34 7b 3d 9d d5 a1 3d d4 8d 55 be 38 05 d3 3d
       0.06132897 0.079020716 -0.20854884 0.1030373
000060 13 eb 21 be 11 b6 15 be bc ec ae 3d 35 9d 70 3d
       -0.1581233 -0.14620234 0.08541247 0.058743674
000070 e1 c5 08 3e 42 29 eb bd 6e 8f e4 3d c5 b7 05 be
       0.13356735 -0.11482479 0.111601695 -0.13058384
000080 fc ff 94 bd 12 26 d5 bb d5 00 96 3d d4 18 95 3c
       -0.07275388 -0.0065047825 0.073243774 0.018200316
000090 02 7f 2d be 79 27 0d 3d fd b3 8c bd 9c 15 fc b8
       -0.16942981 0.034461472 -0.068702675 -0.000120203214
0000a0 3c 82 c4 3c 65 22 d1 3c 5a 43 e6 3c 9d 2e 6a 3c
       0.023987882 0.025529096 0.028108288 0.01429334
0000b0 ce ae 0d be
       -0.13836214

running_mean f4 [45]
000000 58 27 a0 3e ce 64 ca 3e 91 3f 85 3e ce 5c 76 3e
       0.31280017 0.39530033 0.2602506 0.2405884
000010 12 39 7a 3e 6c e9 f4 3e 90 39 8b 3f 28 9a 84 3f
       0.24435833 0.47834337 1.0876942 1.0359545
000020 08 5e b0 3f 88 f8 86 3e 58 27 a0 3e ce 64 ca 3e
       1.3778696 0.2636149 0.31280017 0.39530033
000030 cc 23 69 3e 7a 97 6e 3e 0e 8f 01 3f fa bf 84 3f
       0.22767562 0.23299971 0.5060891 1.0371087
000040 28 2c 70 3f 48 47 a3 3f 6c 59 cc 3e 88 f8 86 3e
       0.9381738 1.2756128 0.39911973 0.2636149
000050 58 27 a0 3e 18 a5 73 3e 4a 93 69 3e 47 12 01 3f
       0.31280017 0.23793447 0.22810093 0.50418514
000060 a3 f1 78 3f 21 d7 75 3f 44 30 af 3f 2d 15 a9 3e
       0.9724371 0.96031386 1.3686604 0.33023968
000070 6c 59 cc 3e 88 f8 86 3e d8 63 7e 3e 76 42 83 3e
       0.39911973 0.2636149 0.24842775 0.25636643
000080 b2 8d f7 3e 84 92 8c 3f ce bd 81 3f c6 7d b0 3f
       0.48350292 1.0982213 1.0136049 1.3788383
000090 66 91 8a 3e 2d 15 a9 3e 6c 59 cc 3e 35 ac 5f 3e
       0.27064055 0.33023968 0.39911973 0.21843036
0000a0 a4 d3 82 3e ef 77 05 3f ae c0 fb 3f 87 30 0e 40
       0.25552094 0.5213613 1.9668176 2.2217119
0000b0 69 5b 4b 40
       3.1774542

running_var f4 [45]
000000 5a 5b 59 3e b8 ef 6f 3e 4a 28 45 3e b0 b2 0d 3d
       0.21226254 0.23431289 0.1925365 0.034594238
000010 65 39 04 3d 2a cc 62 3d 72 24 15 3f 63 3d 03 3f
       0.0322813 0.055370487 0.58258736 0.51265544
000020 86 36 ef 3e f1 50 46 3e 5a 5b 59 3e b8 ef 6f 3e
       0.46721286 0.19366814 0.21226254 0.23431289
000030 68 b2 0c 3d 4c 8d 26 3d 1a f4 60 3d 79 fc 1b 3f
       0.03434983 0.040662095 0.054920293 0.6093212
000040 34 28 11 3f 22 46 e4 3e 40 45 71 3e f1 50 46 3e
       0.5670197 0.44584757 0.23561573 0.19366814
000050 5a 5b 59 3e f8 b2 16 3d e4 c2 18 3d fe d5 4f 3d
       0.21226254 0.03679177 0.037295237 0.05074119
000060 4e b4 01 3f 8d 4e 1a 3f b3 92 e2 3e 37 af 5f 3e
       0.5066575 0.6027611 0.44252548 0.21844183
000070 40 45 71 3e f1 50 46 3e 0b 60 0c 3d fc 3d 0e 3d
       0.23561573 0.19366814 0.03427128 0.03472708
000080 40 8b 60 3d 62 f8 0c 3f 6b de f7 3e 29 44 ed 3e
       0.0548203 0.550665 0.4841188 0.46341065
000090 9e 1a 4a 3e 37 af 5f 3e 40 45 71 3e e1 00 06 3d
       0.19736716 0.21844183 0.23561573 0.032715682
0000a0 bb d7 1d 3d 59 3b 45 3d df 3a 87 3f e1 91 92 3f
       0.038535815 0.0481523 1.0564841 1.1450769
0000b0 01 6d 04 40
       2.069153

weight f4 [45, 45]
000000 90 09 dd 3d 96 8c 49 3c 4e c2 2e bd aa fe 95 3d
       0.107928395 0.012301585 -0.042665772 0.07323964
000010 26 2e 4e bb 0e ff 1f 3e 25 13 95 bd fb 04 29 3d
       -0.0031460612 0.1562464 -0.07279042 0.041264515
000020 ad ae 59 3e 3a 14 b6 3d 0f ee 16 3c f5 b4 45 3d
       0.2125804 0.08890577 0.009212031 0.048268277
000030 46 69 40 be f3 dd 31 bd 1f 32 10 be 65 9e cf 3e
       -0.18790159 -0.043424558 -0.1408162 0.40550533
000040 4a 1e 19 3e 00 76 8f 3d f0 b1 e9 3b 0a 9a 23 be
       0.1495296 0.070049286 0.0071318075 -0.1597673
000050 97 03 ff 3d 3b 62 b0 3c d6 82 07 bd 5e 9e 07 3e
       0.124518566 0.021531215 -0.03308376 0.13244006
000060 a2 0c df bc af c5 f0 3c 9c 1a 47 3d 09 65 be 3d
       -0.027227703 0.029391138 0.04860936 0.09296615
000070 8e af e8 bc 20 59 ba bd 72 3c 05 3e 66 e3 fc bc
       -0.028404023 -0.090990305 0.1301134 -0.03087015
000080 a2 1a 63 3d 90 8e fa bd c7 de 29 be bc ae 10 3e
       0.05544532 -0.12234223 -0.16588889 0.14129156
000090 07 9f 18 bd 72 d9 cb bd ee c6 74 3d 24 62 ca 3d
       -0.037261035 -0.09953584 0.059760027 0.09882
0000a0 63 dd fa 3d 97 47 de bd 5b e8 f9 3d 00 26 b9 bd
       0.122492574 -0.108534984 0.122025214 -0.09040451
0000b0 69 71 b9 ba 1b 5c 4a bd bb 00 58 3d c1 b3 34 3d
       -0.0014148179 -0.049404245 0.05273507 0.04411674
0000c0 ff 66 0b be a3 21 cf bc b2 25 a9 3d da cb 1d 3e
       -0.13613509 -0.025284594 0.08259143 0.15409794
0000d0 a0 35 8c bd 15 ed 03 be 7e c7 a9 bd 7e 5c 34 bd
       -0.06846166 -0.12883408 -0.08290003 -0.04403352
0000e0 cf 5d e5 bd 4e 0d e8 3c 90 b0 86 bd 3c a8 0f 3e
       -0.11199533 0.028326657 -0.065766454 0.1402902
0000f0 e0 ce 8e 3d 02 96 c6 3e 62 a1 32 3e 2a cf 23 3d
       0.06973052 0.38786322 0.17444375 0.03999249
000100 50 c6 1b 3e 34 94 e5 bd a1 cb 74 3b b5 60 80 bd
       0.15212369 -0.11209908 0.0037352818 -0.062684454
000110 d8 4e 6d bd 43 c9 ec bd 57 0a 5d bd f9 e8 be 3d
       -0.05793652 -0.11561825 -0.05396494 0.0932178
000120 8c 39 c0 3d fd 56 30 3d f3 c3 15 bd 3c 11 02 bc
       0.09385976 0.04305171 -0.036563825 -0.007938679
000130 e8 86 da bc 7f 5f a1 bd 4c 1b 7c 3d 1f 60 62 3d
       -0.026675656 -0.078795426 0.06154947 0.05526745
000140 70 97 0a be 47 71 86 3b 7e d0 b7 bd 79 ff 07 bd
       -0.13534331 0.004102859 -0.089753136 -0.033202622
000150 90 f7 08 3d 99 1f ba bd 82 67 1f 3e 64 3c c7 bd
       0.03343922 -0.09088058 0.15566829 -0.097283155
000160 09 44 86 bd eb ff 02 3d 95 78 a0 bd 37 0a a9 bd
       -0.065559454 0.031982344 -0.07835499 -0.082539015
000170 7c cc ee 3d a4 40 d3 3d b0 70 33 bd de cd e5 3c
       0.11660096 0.103150636 -0.04380864 0.028052267
000180 46 63 0c 3d 34 c1 2c bb d0 22 d5 bd a8 06 96 3d
       0.034274362 -0.0026360275 -0.104070306 0.07325488
000190 fb c5 f2 3d 0e 8c b0 3d a3 1e 4f be 0a 9c b2 bc
       0.11854168 0.08620463 -0.2022653 -0.02180292
0001a0 d6 15 c2 3d bd 9e fe 3c 5e 34 8c bd 7e 85 af bd
       0.09476821 0.031081552 -0.06845926 -0.085703835
0001b0 0d a7 04 be 08 46 f6 3d c6 11 0d bd 75 7c b2 3c
       -0.1295435 0.12025076 -0.03444078 0.021787861
0001c0 7f dd b2 3d 33 65 d0 3d 0f fe e1 3d 97 73 4b bc
       0.08733653 0.10175552 0.11034786 -0.0124176955
0001d0 17 d2 59 bd 2c db 7a bb 49 af 92 bd fb a0 9e bd
       -0.053178873 -0.003827761 -0.07162339 -0.07745548
0001e0 38 f2 c2 3d ed 9a 01 bd a7 40 03 bd a3 f3 fb bb
       0.09518856 -0.03164189 -0.03204408 -0.007688956
0001f0 61 3c cc 3c 31 15 22 3c 94 cd e2 3d 6c 37 5a bd
       0.024931135 0.009892748 0.11074367 -0.05327551
000200 55 a0 bc bd e2 7b c0 b9 6c b1 3b bd 1d d4 af 3d
       -0.092102684 -0.00036713394 -0.0458235 0.08585379
000210 76 85 78 bd dd cb 11 be e3 3e 62 bb 14 81 64 bc
       -0.060674153 -0.14237924 -0.0034522347 -0.01394679
000220 44 6b 8e 3d f2 17 c3 3d 23 c2 73 bb ec 90 ec bc
       0.06954053 0.095260516 -0.0037194572 -0.028877698
000230 d9 a4 24 3e c8 91 93 bc 69 58 bb 3c 94 78 95 3d
       0.1607851 -0.01801385 0.022869306 0.07298389
000240 f7 6a 21 bd ec 91 fa bd 3e 7d af bd 6c a2 d9 bd
       -0.03940865 -0.12234864 -0.0856881 -0.10626683
000250 c4 73 8b bd dc 47 bd bd 5b d0 9f 3e 28 8b 23 3e
       -0.0680919 -0.09242222 0.3121365 0.15971053
000260 03 f7 58 3e 37 8b 4d ba 06 b2 00 bc a0 d1 5f 3d
       0.21187977 -0.0007840874 -0.007854944 0.054643273
000270 ea 1d 09 3c bf e3 c1 bd c0 da ce bd 48 d0 ae 3c
       0.0083689485 -0.09467267 -0.10100317 0.02133955
000280 c3 fd 23 3c 5e fd 9a bd 26 36 8b 3c ab a5 8a bd
       0.010009232 -0.07567857 0.016993593 -0.0676988
000290 cf da 9f bd 66 f6 15 bc 3d 50 f9 3d e5 39 db bd
       -0.07805406 -0.009152984 0.12173507 -0.10704402
0002a0 8c e0 ea bd 78 7b 12 bd cb 2a 7d 3d a2 4b ac bd
       -0.1146861 -0.03576228 0.06180839 -0.08412863
0002b0 7e c9 cc 3d 06 fb 89 bc a5 6e a7 bd 2a 91 cb 3d
       0.09999369 -0.01684333 -0.08175401 0.09939797
0002c0 b1 79 fd bd 91 00 dc bb fa 73 00 3e 59 75 c1 bd
       -0.123767264 -0.0067139347 0.12544242 -0.094462104
0002d0 cb bc 25 3d cc 0c f9 bd a6 ff 3e 3e 56 e9 a5 3d
       0.04046325 -0.12160644 0.1865221 0.08101146
0002e0 92 e0 28 3e 52 46 93 3d df 83 99 3c f7 3e 7b bd
       0.16491917 0.07191147 0.018739639 -0.061339345
0002f0 ee 47 45 3b b0 eb e6 bc 76 ef 6a 3d ef 19 fe 3d
       0.0030102688 -0.028188556 0.057357274 0.1240729
000300 0a 89 a2 3d 6a c4 e3 bd d5 8f 96 bd 01 e6 8a be
       0.079362944 -0.111214474 -0.073516525 -0.27128604
000310 d0 9e 69 be 92 1c 7a be b4 27 e4 bd 0d 06 a2 bd
       -0.22814488 -0.24424961 -0.11140385 -0.0791131
000320 e8 a5 0d 3c b4 de 6b 3d e1 58 7f be 24 6d 32 3e
       0.008645512 0.057585433 -0.24936248 0.17424446
000330 f6 90 3e be 47 41 d9 bc 85 26 87 bd e1 00 4e bd
       -0.18609986 -0.026520384 -0.06599144 -0.050293807
000340 ce 1a dd 3d 04 94 d7 3c 0c 56 52 3d 51 9d 9c 3d
       0.10796128 0.026315697 0.051351592 0.07647193
000350 40 ce 4e 3a 49 e3 96 3d 5c b6 50 bd f1 74 c8 bd
       0.000788901 0.0736757 -0.05095516 -0.0978793
000360 5c 14 ea bd a7 e8 80 3d e1 d5 b0 3b bf 23 4d 3d
       -0.114296645 0.06294375 0.00539659 0.05008292
000370 98 e3 60 bd 1d 10 b3 3d 6c 36 d8 3d 68 a6 99 bd
       -0.05490455 0.08743308 0.10557255 -0.075024426
000380 86 a9 61 bc 20 ba 1b be 65 90 f5 3c 3c cf a7 3d
       -0.013773328 -0.1520772 0.02997608 0.08193824
000390 21 2f ab bd 71 2a a1 bd a0 cb 74 3d 87 5e ab 3c
       -0.083585985 -0.07869423 0.059764504 0.020919098
0003a0 df 42 6a 3b ef 6e bb 3d 54 d5 94 3c db 97 e0 3d
       0.0035745425 0.09152018 0.018168129 0.10966464
0003b0 e4 0f ae 3d c1 ad a0 3d 56 8e e1 3c e5 45 4c bc
       0.08499125 0.07845641 0.027533691 -0.012467836
0003c0 14 ea a4 3d 78 d7 93 3e 0c ae 67 3e 60 b6 af bd
       0.08052459 0.28875327 0.22624987 -0.08579707
0003d0 b0 12 15 3d 33 ac 91 ba 41 c1 1c bd 7e 72 04 be
       0.036394775 -0.0011113941 -0.03827024 -0.129343
0003e0 35 57 e1 bd a5 02 4f 3d de c1 41 3e ca 89 fa 3c
       -0.110029615 0.05053963 0.1892161 0.030583281
0003f0 cf 11 89 bc 14 9c 03 3d be a1 1b be 05 c0 fb bc
       -0.016732125 0.03213127 -0.15198418 -0.03073121

bias f4 [45]
000000 72 6e 23 3d 46 0c 9c 3d 0c 2d 95 bc ca 16 1b 3e
       0.03990025 0.076195285 -0.018209957 0.15145412
000010 d4 c7 fd 3d 18 db 07 3e 99 fc 97 3d 2c 77 88 3d
       0.1239163 0.13267171 0.07421226 0.06663355
000020 99 19 4f 3e ca 34 83 3c 63 98 38 3d 79 6d 0a 3e
       0.20224608 0.016016383 0.045067202 0.13518323
000030 96 0c 76 3e 6d 34 4c bd c0 1f b2 3d 36 e0 0a 3d
       0.24028239 -0.049854685 0.08697462 0.03390523
000040 ed 90 2d 3e 34 39 91 bd 7c b6 2c 3e 77 8f e0 3d
       0.16949816 -0.07090989 0.16866487 0.10964864
000050 da e8 c7 bc 30 07 dd bc 8c f0 7f 3c a4 8b a3 3d
       -0.024403024 -0.026980966 0.015621316 0.07985619
000060 e0 49 28 3e ca bb 39 bd cf 49 b9 3c 38 0b 7b 3c
       0.16434431 -0.045345105 0.022618202 0.015322499
000070 b0 47 b1 3c d4 2e 2b 3e ce 17 a1 3d 2c a9 eb 3c
       0.021640629 0.16717082 0.078658685 0.02876719
000080 8a cc 25 3d bb 72 7f 3d 1b 8c dd 3d ad cd 1a 3e
       0.040478267 0.062365275 0.108177386 0.15117522
000090 09 f2 66 3d 39 85 4e 3e 70 13 a3 bc 03 56 90 3d
       0.056383166 0.20168008 -0.01990673 0.070476554
0000a0 df a8 85 3d ba c1 9a 3d ae 4d 98 3c 8f 83 a9 bd
       0.0652635 0.07556482 0.018591728 -0.08277046
0000b0 fb a3 a6 3b
       0.005085466

weight f4 [22, 45]
000000 31 4a 36 3e 28 4f 2c 3e 71 1d 9a 3d 1b e9 23 3e
       0.1780174 0.1682707 0.07525147 0.16006891
000010 ea 62 2e 3b 39 ce 59 3d 91 de 91 3e c3 ad cf 3e
       0.002660925 0.053175185 0.28490117 0.40562257
000020 43 eb 8a 3e 2f 42 04 3e b9 94 6a 3e e3 bf 6a 3e
       0.27132615 0.12915872 0.22908296 0.22924761
000030 0a 05 a4 3e ba a1 41 3e 6f 8a 89 3c 38 df 84 3e
       0.32035094 0.1890935 0.016789643 0.25951552
000040 30 2d 34 3e 6a 3d 0b 3e 4a f2 d0 3d 6b 04 d6 bd
       0.17595363 0.13597646 0.10202463 -0.104500614
000050 39 dc 92 3e 85 ae 9e bd 6b 08 82 3e db 6d 5e 3d
       0.28683642 -0.07748131 0.25397047 0.054303985
000060 1f e4 83 bc c5 f6 78 3e fa c5 cb 3e 22 c8 44 bc
       -0.016099988 0.24312885 0.39799482 -0.012010606
000070 11 86 c6 3e 4e 3e d8 3e d8 c4 83 3c f3 1f 8f 3d
       0.3877416 0.42235035 0.016085073 0.06988516
000080 bd 30 9b 3e 28 42 25 be f1 88 10 3d 49 8a c0 3e
       0.30310622 -0.16138518 0.035286848 0.37605503
000090 da d4 11 be 3d b9 0a 3f 23 0e a5 3d 59 63 19 3e
       -0.14241353 0.541889 0.08059337 0.14979304
0000a0 aa ca 11 3e a2 b4 79 bd 5d 8d 86 3e 1f 12 05 be
       0.14237466 -0.06096328 0.26279727 -0.12995194
0000b0 0b 17 66 3b c2 de 33 be 1e 7c 1f be f4 6b 3f 3d
       0.003510895 -0.17565444 -0.1557469 0.04673381
0000c0 b9 b0 12 be 6b ac 85 3e 08 41 dd 3c c8 80 04 be
       -0.14325227 0.26108107 0.027008548 -0.12939751
0000d0 90 b5 3a be f3 16 ab bd de e5 72 3d 3e f9 61 3d
       -0.18233323 -0.083539866 0.05930125 0.055169336
0000e0 70 59 2a 3d 8e c5 3b be 4e 75 e7 3d 35 f5 74 bd
       0.0415892 -0.1833708 0.11301671 -0.05980416
0000f0 3b 17 bd 3c 7b 0e f6 bd d3 03 4c be 74 d7 11 bd
       0.023082366 -0.12014481 -0.19923334 -0.035605863
000100 62 66 9a 3e ca e3 f7 bd 2d f6 1d 3e 15 39 96 bd
       0.30156237 -0.12103994 0.1542594 -0.07335106
000110 ff 9b 50 bd ce bd 5c 3e ef 7c 13 bd 14 84 88 bd
       -0.05093002 0.2155678 -0.036007818 -0.06665817
000120 71 b1 61 3e ae 99 72 be 78 c0 72 bd bb d4 8e 3e
       0.22040345 -0.23691437 -0.059265584 0.27896675
000130 c9 c3 d2 3d 4c da 03 bd 95 ed 4f 3e 26 43 a0 3e
       0.10291249 -0.032190606 0.20305474 0.3130123
000140 b0 8f 62 39 aa 71 43 3e 59 df 53 be ca f7 04 be
       0.00021606567 0.19086328 -0.20690669 -0.12985149
000150 b3 b3 a6 3d 53 88 b5 3c 17 a8 75 3d c7 ca af bd
       0.08139744 0.022159731 0.059974756 -0.085835986
000160 39 d6 20 3e e9 e6 3f bd 23 1a 89 3e 2c 80 96 3e
       0.1570672 -0.046851072 0.26777753 0.29394662
000170 7b cc df bd a1 8e 31 3e 6c 0c 8e bd 88 56 9d 3d
       -0.109276734 0.17339565 -0.06935963 0.0768252
000180 61 e2 6d 3e c2 14 4f 3e dc 32 e3 3e 86 7e d1 3e
       0.23230888 0.20222762 0.4437474 0.40916842
000190 48 9b 85 3e 79 65 b9 3e 3e e5 86 3e 73 75 59 3e
       0.26095033 0.3621023 0.26346773 0.2123621
0001a0 e5 7f 5c 3e b8 d3 22 3e 18 98 82 3e 7a 16 c3 3e
       0.21533163 0.15901077 0.25506663 0.38103086
0001b0 82 f0 92 3e 5f 4e 85 bd bd a6 a4 3e 74 bb f4 bc
       0.28699118 -0.06509089 0.3215846 -0.02987454
0001c0 d9 6e 70 3e 5d 33 02 3c 9c a2 82 bd f0 da 15 3e
       0.23479785 0.007946816 -0.063786715 0.146343
0001d0 93 90 90 3e 50 0c 78 bd 3b 9f ff 3e 66 bf bf 3e
       0.282353 -0.060558617 0.4992617 0.37450713
0001e0 ad 5c 92 bd 2f 00 51 3e 6a 1f 70 3e ae 02 4d be
       -0.07146583 0.20410226 0.23449484 -0.20020553
0001f0 98 a9 a9 3a 22 7c a6 3e bc 44 12 be 79 07 14 3f
       0.001294422 0.3251658 -0.14284033 0.578239
000200 c5 3e 85 3d bc d7 a3 3e 1e 7e ab 3e 90 5a fb bc
       0.06506113 0.3200053 0.33494657 -0.030682832
000210 c8 2e 3a 3e 62 2b ba bd 01 91 ec bc 27 05 22 3e
       0.18181908 -0.09090306 -0.028877737 0.15822278
000220 da 1d 7d 3e 5a 74 33 be ec a9 93 3e 26 2b 2a be
       0.24718419 -0.17524853 0.28840578 -0.16618022
000230 16 fd 85 3e ca f3 74 3e 98 a5 b7 3e d8 76 e5 3e
       0.26169652 0.23921123 0.35868526 0.44817233
000240 68 30 cf 3e 19 73 92 3e d9 37 b0 3e 52 6d e5 3e
       0.4046662 0.28603438 0.34417608 0.44809967
000250 a6 22 7b 3e e5 5a ba 3d cf ca 89 3e d4 1c 7a 3e
       0.24524936 0.09099368 0.26912543 0.2442506
000260 f1 8f cb 3e 07 86 a7 3e 7b af c4 bd 15 9e 59 3e
       0.39758256 0.32719442 -0.09603783 0.2125171
000270 cd be 47 be c9 ca b9 3e ef fe b3 3d 67 3a d0 bd
       -0.19506378 0.36287525 0.08788859 -0.10167389
000280 0f d6 44 3e c5 e7 b7 3e 5e 61 64 be 2b 3b 1a 3f
       0.19222282 0.35919014 -0.22302768 0.60246533
000290 e7 b3 e9 3e 37 3c be bd 7e e7 96 3d 73 25 80 3e
       0.45645067 -0.09288829 0.073683724 0.2502857
0002a0 26 be 00 be f5 d8 0b 3d a6 95 69 3e 15 e2 38 be
       -0.12572536 0.034142453 0.22810993 -0.18054993
0002b0 8f c0 bc 3e 88 e2 d6 3d a3 71 03 3e d2 3f a5 3e
       0.3686566 0.10492426 0.12836318 0.32275254
0002c0 e3 51 91 3d 39 bd 15 3e 73 40 7e bd e2 bc 6f 3d
       0.07095697 0.14622964 -0.062073182 0.058529742
0002d0 96 76 ea bb 52 7b 49 be ed c7 f2 3d d9 3f 21 be
       -0.00715525 -0.19675949 0.11854539 -0.15747012
0002e0 c5 a8 f8 3d 4f ce d1 3d c4 72 12 be a6 a5 28 be
       0.12141565 0.10244428 -0.14301592 -0.1646944
0002f0 b5 92 47 bd e7 38 3a be 68 02 32 bd b0 00 06 be
       -0.048723895 -0.18185769 -0.043459326 -0.130862
000300 51 42 f9 bd b7 07 0a be 1d 49 d0 bd 0b bb 6c bc
       -0.12170852 -0.13479505 -0.10170195 -0.014448891
000310 83 4f 42 be e0 67 d6 bd ed 11 a0 bc b1 7d a6 3e
       -0.18975644 -0.10469031 -0.019539798 0.3251777
000320 a1 4d e7 bd 3b 58 a7 3e 06 81 33 bc 75 39 a7 3d
       -0.112941034 0.32684502 -0.010956055 0.08165256
000330 bf 9b 61 3e 88 68 01 be 1c 53 12 bd f5 52 a0 3e
       0.22032069 -0.12637532 -0.03572379 0.3131329
000340 1d 7a 05 be cd af f3 bd 74 9b 15 3e 87 ff 18 bd
       -0.13034864 -0.11898766 0.14610082 -0.037353065
000350 05 dc fa bd ed 73 6d 3e 3a 0b 8b 3e 00 0c 8c bd
       -0.12248997 0.23188753 0.27157003 -0.06838226
000360 ff 83 dc 3d 9f 42 f1 bd 3e db e3 3c c6 fd 8a bd
       0.10767364 -0.11780285 0.027814504 -0.06786685
000370 65 aa 6d bc 0a 7a 17 3e ef a3 0f 3c 48 b6 08 3e
       -0.014505957 0.14792648 0.008767112 0.13350785
000380 66 a9 e5 3d 33 4a 7d 3e b9 d2 8b 3e d8 61 20 be
       0.11213951 0.24735336 0.27309206 -0.15662324
000390 42 b6 f0 3d 0e ed 16 be 96 48 35 3e 6f 7b cd 3e
       0.11753513 -0.14738867 0.1770347 0.40133235
0003a0 3f 46 6c 3e d2 a4 ca 3e 8b 0f aa 3e 48 ed 77 3e
       0.23073672 0.39578873 0.33214983 0.2421161
0003b0 14 9a b7 3e 03 f3 dc 3e f1 45 2b 3e ed f9 91 3d
       0.3585974 0.43154153 0.167259 0.07127748
0003c0 da 56 99 3d a5 58 8a 3e d5 24 58 3e db 70 8c 3e
       0.07487269 0.27020755 0.211078 0.27429852
0003d0 90 3b 2a 3b 5b 83 63 3e c2 99 19 be 2c d2 8b 3e
       0.0025975443 0.22218077 -0.1500006 0.27308786
0003e0 13 cd d5 3d 62 95 49 be 53 bd a9 3e 8f 0c fe 3e
       0.104395054 -0.19685891 0.33152255 0.49618956
0003f0 16 96 f2 bb 2d 1c 05 3f a2 d7 cc 3e 20 f9 dd bd
       -0.0074031455 0.5199612 0.40008265 -0.108385324

bias f4 [22]
000000 94 81 5b bd c9 9c bf 3e a2 9d 33 bd b9 d2 8f 3d
       -0.053590372 0.37424305 -0.043851502 0.07022614
000010 89 51 b8 3e 99 25 87 bc 40 36 c4 3c b3 9d 94 be
       0.35999706 -0.01649742 0.02395165 -0.29026565
000020 c5 55 b8 bd 12 7e 17 bd 88 9a 83 3e a8 f6 5b bd
       -0.09000734 -0.036985464 0.25703835 -0.053702027
000030 ac 06 d3 bd e2 13 ba 3e e3 f2 85 3e 43 5d 8b bd
       -0.10304007 0.36343294 0.2616187 -0.06804898
000040 ab 16 02 3c 03 f8 69 bd 1f c3 28 3d ac 98 8f 3d
       0.007939975 -0.057121288 0.041201707 0.07011542
000050 3f 50 9d 3d da f9 14 3c
       0.07681321 0.009092772

weight f4 [5, 22]
000000 1d 47 03 be 15 55 97 3e 1d 4a ff be 08 ec 64 be
       -0.12820096 0.295571 -0.4986123 -0.22355664
000010 ff f6 9f 3e b6 fb fc be ad cd 8c be 71 df 09 bf
       0.3124313 -0.4941079 -0.27500668 -0.5385657
000020 3b 54 49 bd 39 f4 00 bf 27 41 81 3e e0 79 b7 be
       -0.049152594 -0.50372654 0.2524502 -0.3583517
000030 66 b1 b8 be 57 42 b0 3e 77 4a ec 3e b8 32 ce be
       -0.36072844 0.34425613 0.46150562 -0.4027307
000040 fc da 94 be 21 92 8a be af bb be bd ca 85 c6 be
       -0.29073322 -0.27064613 -0.093131416 -0.38773948
000050 29 97 c0 be ec ce c5 bd 11 18 fc 3e 6a 65 e1 bc
       -0.37615326 -0.09658608 0.4923711 -0.027514178
000060 5e bf 55 3f 7e 9f 64 3f 57 b8 ff bd d7 99 6b 3f
       0.8349513 0.89305866 -0.12486332 0.92031616
000070 76 f4 29 3f b6 be 90 3d 9e 4f 0f 3f 1a a6 4e 3f
       0.6638864 0.07067625 0.5598086 0.807222
000080 13 c3 b0 be b3 ad 4e 3f 01 8a f3 3e 59 16 80 be
       -0.3452383 0.80733794 0.47566226 -0.2501705
000090 43 6b a4 bd a0 51 6f 3f 1d 21 67 3f bb 6a 33 3f
       -0.08028271 0.93483925 0.902849 0.7008473
0000a0 96 85 53 3f ea 7e 92 3f 82 94 68 3f ba 00 14 3f
       0.8262571 1.1444981 0.90851605 0.5781361
0000b0 d2 6e 63 3f 81 1f 83 be a4 78 80 3f aa e9 83 3f
       0.88840973 -0.25609973 1.0036817 1.0305684
0000c0 94 a4 ba be e5 17 73 3f 25 50 6d 3f d3 14 95 3d
       -0.36453688 0.94958335 0.92700416 0.072793625
0000d0 8e 0b 08 3f 1f 08 45 3f a7 a9 68 be 79 61 56 3f
       0.5314263 0.76965517 -0.22720967 0.8374248
0000e0 4b e1 4e 3f 69 be 87 be 8a a9 3e be 94 ec 25 3f
       0.8081252 -0.2651246 -0.18619362 0.64814115
0000f0 11 ab 70 3f fa f7 33 3f 1d 60 2d 3f e5 b6 70 3f
       0.94011027 0.7030026 0.6772478 0.94029075
000100 06 3a 6d 3f b0 d9 67 3f 25 99 3e 3f 68 df cd bc
       0.9266666 0.9056654 0.7445243 -0.025130942
000110 80 82 48 3f 4d 68 3a 3f af 7a 5e be 12 c6 36 3f
       0.7832413 0.728154 -0.21726488 0.7139598
000120 ff f8 f3 3e 18 29 b6 bd 1f 7c 0f 3f b0 f5 e0 3e
       0.47650906 -0.08894557 0.5604877 0.43937445
000130 bd 77 91 be 0a 1f 18 3f 6f 25 f7 3e af e3 30 be
       -0.28411666 0.5942236 0.48270747 -0.17274354
000140 4d 63 72 be fa 9d 4e 3f b2 7a 5a 3f 83 9b 08 3f
       -0.23670693 0.80709803 0.8534347 0.5336229
000150 1b 7f 3e 3f 29 65 61 3f 82 6f 0b 3f c7 ce 37 3f
       0.744127 0.88044983 0.5446702 0.7179989
000160 27 c4 23 bf 69 ab ed 3e f8 79 f9 be dd 25 1b bf
       -0.6397118 0.46419838 -0.48725867 -0.6060465
000170 93 56 87 3e b9 c5 14 bf 65 e5 a7 be ee 69 0c bf
       0.26433238 -0.581142 -0.32792202 -0.54849136
000180 2e 18 a0 be aa 95 84 be 93 d0 7d 3e 72 05 de be
       -0.31268448 -0.25895435 0.24786596 -0.4336353
000190 19 7a 61 be a0 1a 7a 3e 91 d2 e2 3e a7 69 ee be
       -0.22019233 0.24424219 0.44301274 -0.4656498
0001a0 b7 20 13 bf 3f c8 03 bf 22 11 d6 be 13 39 e5 be
       -0.57471794 -0.51477426 -0.41809946 -0.44770107
0001b0 d4 75 19 bf 51 6d 2e bd
       -0.59945416 -0.04258472

bias f4 [5]
000000 dc f8 84 3e bf a0 95 bd 57 b7 9b 3c 01 3f 42 be
       0.25971115 -0.073060505 0.019008322 -0.18969347
000010 66 e6 b1 3e
       0.34746093

weight f4 [2, 5]
000000 b4 94 31 3f 11 cb cd bf 85 18 1e c0 59 b0 db bf
       0.6936753 -1.6077596 -2.4702466 -1.7163192
000010 61 41 53 3f f8 bb 82 bf 8d e6 a1 3e 88 06 a4 3e
       0.82521635 -1.0213614 0.3162121 0.32036233
000020 1f 6a 1e 3f 75 39 d2 bf
       0.6188068 -1.6423784

bias f4 [2]
000000 da 1c 65 3e 38 8d 61 3e
       0.22374287 0.22026527
