Network2/params/mlp_wParams6.pth (torch_old, 31634 bytes, 8 tensors)

weight f4 [51, 39]
-2.4053257 -2.2680407 -0.7138774 -1.3142147 -3.41268 0.43312937 -0.73631364 -2.3025963
-2.3556595 -3.113394 -2.372363 1.085046 -2.4224887 -0.60964125 -2.319167 -1.8003619
-2.0117333 1.4142531 -2.3703005 -2.3965993 -0.69581336 -0.86591387 -3.1065164 -0.7795897
-0.4832939 -2.4793446 -2.3992324 -3.4953725 -0.23054437 0.028132569 -2.272397 -0.77918655
-2.3456233 -0.4502548 0.06222634 -1.1008193 -2.023981 -0.13858314 -1.379209 1.9997559
1.6867241 1.0324973 -0.7234081 2.2159321 0.10946232 1.113808 1.979705 1.7167033
0.076097794 -0.9596072 0.96719724 1.7645868 1.2070209 2.0316489 1.1755227 -2.814739
-0.62479156 2.0010486 1.5790542 1.0705663 -0.12687491 4.491023 -1.3916675 1.1746753
1.7630883 1.6647242 0.39545515 -1.2278603 0.20517658 1.8325902 0.98250777 1.7454298
1.9375618 -5.0047255 -1.2346224 1.147217 -2.7347023 -0.9177157 0.14021707 -0.7441647
-0.5284875 1.9894216 2.677777 -0.54707134 -0.6619466 0.2706092 -0.5257976 3.5201476
1.7783363 -1.3792589 -0.6823666 -0.6623518 0.18281688 -0.13625565 4.5755863 -2.1220624
0.20549028 -0.7413877 -0.8414468 0.611142 3.755534 -0.7841393 -0.8027038 0.22311513
-0.7170031 3.9245617 -0.09002718 0.0010349952 -0.54556274 -0.81410915 0.017922487 0.22002093
0.65031326 -1.3576505 1.9033116 -1.4887763 0.15057305 -3.23201 -1.5410931 -0.877397
-4.5161443 -4.2685738 -1.9692054 -0.869057 -3.222618 -1.5691667 -4.4350324 -5.8095317
-1.351349 -1.425827 -0.97240025 -3.3382273 -4.4707456 -4.4603024 -2.0196543 -3.3665352
-1.4929945 -0.7190922 -3.2568214 -4.3747625 -3.1961544 -0.92636627 -3.315339 -1.3977644
-4.5817385 -3.5990095 -3.0090818 -1.4458382 -0.8878886 -3.3516774 -2.3767483 -3.4147806
-4.637906 -3.4908113 -3.4794466 -2.9192286 -2.150237 0.682635 -0.40322822 1.0745537
0.085653126 -3.9068556 -0.53640234 -2.1892729 0.47584003 -0.3918599 -0.65874827 1.4247713
0.6400853 -0.5167216 -2.0372937 1.6117902 -4.4685473 1.7375 -1.971094 0.452796
-0.62588733 2.0684352 1.4033686 -5.1677327 -0.364686 -2.1603148 0.47648743 -1.310161
-0.31604487 1.3332353 0.50413674 -0.43115082 -2.1449249 3.2090933 -1.3142465 -4.49417
-0.3774219 0.5055647 0.12063574 -0.031653754 0.39683932 1.3679187 -3.0718012 -2.121849
-0.07708024 1.2600806 0.022714011 0.5266561 -6.1310477 -2.3297415 2.3641274 0.46525043
1.3918664 -0.14312561 -2.0451355 -3.6927078 3.2390468 0.109514184 0.6627199 1.3311472
-2.6693897 -4.859758 1.1680218 1.5307002 -0.057384074 0.66790396 -4.971359 -2.6107225
1.5771807 0.43464726 1.4407365 -0.0048784926 -0.8567258 1.1702584 0.6375211 -1.5784886
1.6447145 0.053617816 -0.98285574 -2.0427155 0.7837227 -0.9421729 -2.9622784 1.7174847
0.7449641 -0.9897398 -1.8451403 0.7927762 0.3239065 -1.9777893 -1.8949937 0.73644483
-0.971745 -0.8976389 2.063217 -2.4673676 -1.1652565 -1.8747686 0.9044685 -1.2483683
00000000: dbf0 19c0 9427 11c0 abc0 36bf 3038 a8bf
00000010: 5969 5ac0 22c3 dd3e 0d7f 3cbf bd5d 13c0
00000020: 20c3 16c0 d941 47c0 ccd4 17c0 cae2 8a3f
00000030: 0e0a 1bc0 7311 1cbf 3b6d 14c0 4272 e6bf
00000040: 3dc0 00c0 3f06 b53f 01b3 17c0 e261 19c0
00000050: d320 32bf 88ac 5dbf 2ad1 46c0 3193 47bf
00000060: 4c72 f7be 95ad 1ec0 068d 19c0 2fb4 5fc0
00000070: d313 6cbe 4676 e63c f46e 11c0 c578 47bf
00000080: b11e 16c0 cc87 e6be 0ce1 7e3d a6e7 8cbf
00000090: e888 01c0 bde8 0dbe ec89 b0bf 00f8 ff3f
000000a0: 93e6 d73f df28 843f 4631 39bf d5d1 0d40
000000b0: c82d e03d 4391 8e3f f966 fd3f efbc db3f
000000c0: 29d9 9b3d d1a8 75bf 3d9a 773f fbdd e13f
000000d0: a97f 9a3f 8906 0240 8777 963f af24 34c0
000000e0: 57f2 1fbf 2e11 0040 731e ca3f 5108 893f
000000f0: 7feb 01be 76b6 8f40 2922 b2bf c35b 963f
00000100: e1ac e13f af15 d53f 1979 ca3e 872a 9dbf
00000110: cf19 523e 5192 ea3f a185 7b3f 3e6a df3f
00000120: 0602 f83f b626 a0c0 1b08 9ebf 02d8 923f
00000130: 5d05 2fc0 6bef 6abf 1095 0f3e 9481 3ebf
00000140: f54a 07bf 5ea5 fe3f b360 2b40 de0c 0cbf
00000150: 5575 29bf 4a8d 8a3e ac9a 06bf 194a 6140
00000160: 86a0 e33f 8e8b b0bf 94af 2ebf e38f 29bf
00000170: 5934 3b3e 9a86 0bbe 346b 9240 dfcf 07c0
00000180: 0b6c 523e 96cb 3dbf 0f69 57bf cd73 1c3f
00000190: ab5a 7040 5abd 48bf ff7d 4dbf 4b78 643e
000001a0: 848d 37bf 052c 7b40 2c60 b8bd ada8 873a
000001b0: 00aa 0bbf 7569 50bf 2ed2 923c 2b4d 613e
000001c0: ee7a 263f 7ec7 adbf b79f f33f 3990 bebf
000001d0: d22f 1a3e 40d9 4ec0 8a42 c5bf 179d 60bf
000001e0: 4184 90c0 2898 88c0 ec0e fcbf 857a 5ebf
000001f0: 603f 4ec0 74da c8bf c9eb 8dc0 afe7 b9c0
00000200: 01f9 acbf 8081 b6bf 39ef 78bf 84a5 55c0
00000210: 5910 8fc0 ccba 8ec0 0442 01c0 5075 57c0
00000220: 721a bfbf 6d16 38bf c36f 50c0 0efe 8bc0
00000230: cb8d 4cc0 5726 6dbf 842e 54c0 f2e9 b2bf
00000240: 9a9d 92c0 2c56 66c0 cc94 40c0 3a11 b9bf
00000250: ab4c 63bf e281 56c0 a51c 18c0 c48b 5ac0
00000260: ba69 94c0 7469 5fc0 41af 5ec0 a4d4 3ac0
00000270: 7c9d 09c0 2bc1 2e3f ee73 cebe fa8a 893f
00000280: e86a af3d ec09 7ac0 aa51 09bf 0c1d 0cc0
00000290: 4ea1 f33e dca1 c8be baa3 28bf e85e b63f
000002a0: a1dc 233f de47 04bf 0563 02c0 244f ce3f
000002b0: 57fe 8ec0 6666 de3f cf4c fcbf e1d4 e73e
000002c0: 273a 20bf 3e61 0440 95a1 b33f 115e a5c0
000002d0: 20b8 babe 9942 0ac0 29f6 f33e 5bb3 a7bf
000002e0: a2d0 a1be 74a7 aa3f 1b0f 013f cdbf dcbe
000002f0: 7346 09c0 c961 4d40 3b39 a8bf 3ed0 8fc0
00000300: 713d c1be b06c 013f df0f f73d 5ea7 01bd
00000310: 862e cb3e f617 af3f 6498 44c0 60cc 07c0
00000320: 3fdc 9dbd 524a a13f bc12 ba3c efd2 063f
00000330: 8b31 c4c0 7c1a 15c0 dd4d 1740 4e35 ee3e
00000340: ae28 b23f 858f 12be 80e3 02c0 5355 6cc0
00000350: 8b4c 4f40 f948 e03d 03a8 293f 0863 aa3f
00000360: 48d7 2ac0 2383 9bc0 bd81 953f fced c33f
00000370: 900b 6bbd c1fb 2a3f 5f15 9fc0 1416 27c0
00000380: 0fe1 c93f 168a de3e 0e6a b83f c3db 9fbb
00000390: 6252 5bbf 07cb 953f 9534 233f ea0b cabf
000003a0: 0186 d23f 5b9e 5b3d 6f9c 7bbf dabb 02c0
000003b0: 0da2 483f 3e32 71bf f895 3dc0 8ad6 db3f
000003c0: f8b5 3e3f 965f 7dbf 8f2d ecbf 62f3 4a3f
000003d0: 13d7 a53e 3328 fdbf 278f f2bf a687 3c3f
000003e0: 48c4 78bf aacb 65bf bf0b 0440 5ae9 1dc0
000003f0: 2027 95bf 6bf8 efbf 3f8b 673f 88ca 9fbf

bias f4 [51]
-0.957124 0.1716392 1.0215409 -4.0042796 0.23334534 -1.0755599 0.08010728 -0.5400321
0.5218035 0.3102577 -0.13091937 -0.6223666 -0.32592648 -0.11116417 0.23564288 -2.6349256
-2.5884538 -1.3520182 -0.9123815 -0.54419136 -1.2270663 0.5545134 -0.78175986 -0.6608514
-1.1083727 -0.33335933 -0.7464729 -1.009441 0.8665665 -1.0217378 -0.39443386 -2.465156
0.2680051 -0.42569384 0.62536114 -1.7422003 -0.527695 -0.3293315 -0.20039761 0.011406029
-0.074664004 -0.18302108 -0.1793875 -0.090806864 -0.41817436 0.4337886 -0.9107611 -4.620738
-0.730584 1.7246753 -1.8848673
00000000: 1406 75bf 30c2 2f3e dac1 823f 0f23 80c0
00000010: 15f2 6e3e f2ab 89bf 490f a43d 8b3f 0abf
00000020: ea94 053f 19da 9e3e ba0f 06be 6b53 1fbf
00000030: d6df a6be 0aaa e3bd 5e4c 713e 9fa2 28c0
00000040: 3aa9 25c0 ef0e adbf d591 69bf 2050 0bbf
00000050: 8210 9dbf 97f4 0d3f 6a21 48bf 8f2d 29bf
00000060: 28df 8dbf 13ae aabe d918 3fbf 5d35 81bf
00000070: 4dd7 5d3f 4ec8 82bf 3cf3 c9be 1ec5 1dc0
00000080: f737 893e 8bf4 d9be ab17 203f 6b00 dfbf
00000090: 0517 07bf 239e a8be 0835 4dbe 5ae0 3a3c
000000a0: 71e9 98bd e169 3bbe 5bb1 37be f3f8 b9bd
000000b0: f31a d6be 8a19 de3e a427 69bf 16dd 93c0
000000c0: 8e07 3bbf 29c2 dc3f 5543 f1bf

weight f4 [39, 51]
0.6943603 -2.1168237 -1.2936049 0.5486058 -1.7368691 8.725115 -3.756446 -2.0863543
-2.8592863 -4.0207105 1.9894602 1.2617925 3.030392 -0.34616134 0.6468312 -0.5237655
1.33475 9.866532 -5.060411 4.7676277 -4.658922 0.0055259126 6.107432 5.766812
7.64247 5.6147027 1.1634442 1.3582486 -0.35791436 0.86545336 -1.9572452 8.187106
-2.34531 -1.9949217 -1.6381778 2.7291732 1.4621863 3.8146188 3.4253876 6.552942
-1.8060408 13.003331 -0.51087254 10.380459 8.634613 -2.3724778 13.101768 2.1242132
3.589874 -0.08493567 0.7079337 -0.15354802 -1.7959446 0.894615 -0.60304976 -0.5722802
4.6743274 -0.15405916 -0.91408247 -0.436606 -2.4155302 4.9727197 4.354509 2.4856327
-0.41534644 -0.20019045 0.10902172 0.8376371 2.2742355 -4.1547194 3.2313464 -2.3144631
-3.4293616 2.4092069 4.042828 5.456115 2.9343328 2.9360847 2.4722521 0.8738473
4.437334 -0.36981001 4.4243913 -2.557188 -0.961075 -0.41385552 2.5810966 0.7169668
3.2653782 1.5666918 0.82403463 0.70653653 6.613321 0.08698544 6.3758082 1.4983886
-1.1841855 3.8909616 1.7382219 2.9023747 0.94667786 0.84002286 -0.14505617 2.6541803
-0.8493173 3.0879166 3.289498 -4.9114165 4.263692 -0.28313223 1.4114904 2.2379951
-3.1402006 -3.8385086 -2.9764829 2.1286595 -1.1480024 1.4677154 0.19798756 -3.7601616
5.199454 -2.491841 4.7359505 5.427448 -4.820538 -4.338544 -0.32092866 -2.1019378
-3.4750285 -2.8850725 0.928171 -2.5625064 0.503391 -3.3440375 0.9464896 2.2394838
-1.3884337 -3.3301272 -1.4276465 -2.8321383 -2.7984984 -3.3164096 0.71981466 -7.46334
0.86200726 -4.6305904 -8.030223 2.0447757 -7.0134535 1.9104834 -4.2222714 -1.0941495
3.721254 2.9137058 -0.9915494 -2.013115 2.8170528 0.96262133 1.9959997 0.88162583
-1.2331032 -2.177431 -1.5190345 2.7025034 2.528089 -0.92687577 -1.3127487 2.4459867
2.023049 3.204933 4.63367 -3.149853 -1.1115752 -4.7553844 -0.40371305 1.7421601
0.5004617 2.293637 2.6126323 -0.28535172 1.2221545 -1.2585232 1.1625228 -2.8877385
5.3095994 -1.9446512 -3.635964 -1.3541156 4.73594 6.029152 0.14247252 4.6121063
1.627611 -3.6457484 4.5911384 -1.7551638 1.2958068 4.9735203 -3.488951 5.1068025
2.262718 2.8844137 -2.255529 4.7238536 1.9861739 -1.7339783 0.26073813 1.5699908
1.2541195 2.7236862 0.68072885 -1.9407815 -1.1883748 -1.267873 5.3536153 2.6622236
3.74876 -1.7400433 3.6719584 1.10701 0.40253243 5.4263034 -2.618342 -1.516327
-3.4242282 -1.9476074 6.3372774 1.1933244 2.8939679 2.6400976 1.3152865 -0.3529086
0.49679366 0.73915917 -2.2615545 1.9161981 -0.64847 0.15672278 -1.0630805 4.1554003
0.86829233 1.0414711 5.4362946 -0.27069345 -2.5026453 6.6719875 0.78862095 0.6494406
1.7144274 -2.1651974 4.9171166 2.7074463 2.524715 -0.5125097 1.9612854 2.04014
00000000: 99c1 313f 0a7a 07c0 d894 a5bf 6e71 0c3f
00000010: ba51 debf 129a 0b41 9c69 70c0 d486 05c0
00000020: 8cfe 36c0 a9a9 80c0 a2a6 fe3f 6b82 a13f
00000030: f1f1 4140 0f3c b1be bb96 253f 7f15 06bf
00000040: 17d9 aa3f 51dd 1d41 e3ee a1c0 6890 9840
00000050: e415 95c0 b712 b53b 1570 c340 b989 b840
00000060: 1d8f f440 a5ab b340 bdeb 943f 17db ad3f
00000070: 8d40 b7be 5a8e 5d3f 0387 fabf 63fe 0241
00000080: 8f19 16c0 9859 ffbf cfaf d1bf c6aa 2e40
00000090: ec28 bb3f b722 7440 8d39 5b40 b3b1 d140
000000a0: 582c e7bf a50d 5041 8bc8 02bf 5c16 2641
000000b0: 6027 0a41 add6 17c0 d7a0 5141 1cf3 0740
000000c0: 7fc0 6540 c1f2 adbd 253b 353f b13b 1dbe
000000d0: 83e1 e5bf 7d05 653f 7861 1abf f580 12bf
000000e0: 1794 9540 afc1 1dbe 4f01 6abf d28a dfbe
000000f0: 0c98 1ac0 8520 9f40 2358 8b40 9b14 1f40
00000100: 4aa8 d4be bafe 4cbe c846 df3d 636f 563f
00000110: 138d 1140 76f3 84c0 61ce 4e40 2a20 14c0
00000120: a97a 5bc0 7230 1a40 d95e 8140 7e98 ae40
00000130: 1ccc 3b40 d0e8 3b40 6139 1e40 75b4 5f3f
00000140: a4fe 8d40 bd57 bdbe 9d94 8d40 f8a8 23c0
00000150: 0309 76bf dfe4 d3be b030 2540 238b 373f
00000160: f5fb 5040 5b89 c83f eff3 523f 94df 343f
00000170: 53a0 d340 6c25 b23d 9f06 cc40 33cb bf3f
00000180: 6493 97bf 8405 7940 0e7e de3f 82c0 3940
00000190: 7b59 723f bd0b 573f 9b89 14be 17de 2940
000001a0: dc6c 59bf 6da0 4540 2387 5240 532a 9dc0
000001b0: 2a70 8840 b5f6 90be b8ab b43f 503b 0f40
000001c0: 0cf9 48c0 20aa 75c0 b27e 3ec0 f53b 0840
000001d0: bef1 92bf 19de bb3f 40bd 4a3e 7da6 70c0
000001e0: ed61 a640 537a 1fc0 e88c 9740 a7ad ad40
000001f0: d941 9ac0 5ad5 8ac0 c350 a4be 2686 06c0
00000200: de66 5ec0 07a5 38c0 9d9c 6d3f 1b00 24c0
00000210: 3cde 003f b604 56c0 244d 723f b453 0f40
00000220: 32b8 b1bf ce20 55c0 1fbd b6bf c141 35c0
00000230: 991a 33c0 0e40 54c0 c645 383f aed3 eec0
00000240: 82ac 5c3f cc2d 94c0 cb7b 00c1 9bdd 0240
00000250: 366e e0c0 b88a f43f d91c 87c0 170d 8cbf
00000260: 0729 6e40 287a 3a40 2ed6 7dbf e0d6 00c0
00000270: 984a 3440 5a6e 763f eb7c ff3f 3bb2 613f
00000280: 53d6 9dbf 085b 0bc0 b96f c2bf d1f5 2c40
00000290: 36cc 2140 bb47 6dbf 2608 a8bf 0c8b 1c40
000002a0: a379 0140 9f1d 4d40 0647 9440 3197 49c0
000002b0: 1948 8ebf 1c2c 98c0 7ab3 cebe 1aff de3f
000002c0: 421e 003f f3ca 1240 5e35 2740 9f19 92be
000002d0: 8f6f 9c3f 4a17 a1bf 8ccd 943f b5d0 38c0
000002e0: 3de8 a940 55ea f8bf a2b3 68c0 a953 adbf
000002f0: d28c 9740 d0ee c040 51e4 113e 6096 9340
00000300: 8f55 d03f f153 69c0 9bea 9240 35a9 e0bf
00000310: ffdc a53f 1427 9f40 f94a 5fc0 ed6a a340
00000320: 5fd0 1040 3c9a 3840 965a 10c0 cf29 9740
00000330: f23a fe3f 00f3 ddbf 787f 853e 75f5 c83f
00000340: fd86 a03f e050 2e40 3f44 2e3f 876b f8bf
00000350: aa1c 98bf aa49 a2bf d150 ab40 df61 2a40
00000360: afeb 6f40 bdb9 debf 5e01 6b40 81b2 8d3f
00000370: bb18 ce3e 47a4 ad40 ea92 27c0 0117 c2bf
00000380: 8e26 5bc0 334b f9bf faca ca40 dbbe 983f
00000390: c536 3940 5cf7 2840 4f5b a83f 70b0 b4be
000003a0: bd5b fe3e 8939 3d3f 4fbd 10c0 fb45 f53f
000003b0: 2102 26bf f07b 203e 0613 88bf 0af9 8440
000003c0: 6848 5e3f ed4e 853f 20f6 ad40 5598 8abe
000003d0: 572b 20c0 ec80 d540 10e3 493f bd41 263f
000003e0: 5b72 db3f 9892 0ac0 0559 9d40 cd46 2d40
000003f0: ee94 2140 d633 03bf 660b fb3f a791 0240

bias f4 [39]
0.7737665 1.4917333 -1.7130464 -2.482107 -0.34902593 -3.5701323 -0.55252135 -2.737549
2.3963177 0.26183206 0.112730175 1.629839 -0.90803504 -2.6528218 1.3287388 1.5631363
1.5452747 0.5533363 -7.6684103 2.2445438 -0.07726469 2.6108477 0.3794111 -2.774307
0.21941914 2.9911482 0.040329825 -1.8613242 0.09414532 -1.0801427 -2.3933704 0.39612627
0.8265781 -4.3646474 -0.6923765 0.36124077 -0.4504381 -1.6718308 -5.3932424
00000000: 9015 463f 1ef1 be3f 1b45 dbbf d7da 1ec0
00000010: 87b3 b2be 0c7d 64c0 0a72 0dbf 0134 2fc0
00000020: 455d 1940 da0e 863e 14df e63d 909e d03f
00000030: fc74 68bf d5c7 29c0 1d14 aa3f da14 c83f
00000040: 90cb c53f 73a7 0d3f 9e63 f5c0 9ba6 0f40
00000050: f33c 9ebd 2118 2740 2c42 c23e 3f8e 31c0
00000060: 69af 603e f96e 3f40 e330 253d df3f eebf
00000070: 43cf c03d 1e42 8abf fb2c 19c0 10d1 ca3e
00000080: 9f9a 533f 31ab 8bc0 963f 31bf 8df4 b83e
00000090: d39f e6be 8dfe d5bf 7195 acc0

weight f4 [8, 39]
0.3088574 -0.13325943 -2.174413 -0.3708864 -0.31312978 -0.32505742 1.2502067 1.3012725
0.032821674 -2.299103 -1.4873728 -4.313729 -3.5681481 -5.413838 -0.41819966 -0.120255284
0.37776616 0.5099177 0.8560233 0.023532104 0.9886184 -0.44178912 -0.15617415 -7.195132
0.40059075 -1.7765656 1.8631909 -1.678636 2.4401908 -3.5584903 1.0337372 0.88709664
-1.1483845 3.5953617 0.5251083 1.273233 1.027994 -6.6243877 0.09453213 1.6844796
1.7092569 -2.4808197 2.0382743 0.9768588 -0.30034223 1.0439861 2.346956 -0.61902595
1.0950701 0.454746 -1.0235664 -5.5290375 -4.7713113 1.0723753 -0.25760946 0.93041265
0.9451083 0.44685504 -1.0077538 1.037729 0.0806967 0.92104065 -5.7139773 1.8957578
-0.5517054 1.4618976 -2.0025098 0.72993636 0.5844114 0.9572156 1.0782801 -1.2103262
0.26875436 0.9363912 0.82526344 1.3611258 -2.3876112 1.3877933 -0.8168275 0.042754903
-2.0587676 0.26376694 -1.2383444 0.39802116 0.43842176 1.504478 1.5802649 -2.2745795
0.13080874 -0.6511518 -2.1164489 -0.77506596 0.7403806 0.24872833 -0.042132564 -0.14210045
-1.9518186 0.1099367 1.7189825 2.2514062 -0.14502344 -4.9594975 2.3667064 0.25637087
2.0945387 -3.0095181 0.59701693 -1.3280702 -0.42946643 3.1902926 0.14018887 -0.2202348
-0.66964906 -0.05706764 1.6196927 -2.4156852 0.5883031 0.58748657 -0.29783118 -4.0665855
-0.24716195 -0.051363587 0.44427463 -0.035407905 1.2826989 1.4507847 -2.4106705 -0.46093613
-2.293939 -7.6167846 -3.8662195 -0.67381865 0.36666957 -0.84213644 0.95730215 0.92302835
-0.22708118 0.94291824 -1.3252614 -0.19521508 -5.3578405 2.166176 -1.067945 1.6125209
-1.5917182 1.7106819 -1.2997923 1.2459244 2.6934967 1.1701595 2.549623 1.6315695
0.7463268 2.6662805 -4.1518393 0.81805474 1.0303739 -0.10771022 -3.6840222 0.8634721
1.9715896 -0.21781515 1.959021 -0.06998582 2.366553 -1.2473006 0.5262055 -0.056871604
-5.465479 -4.227465 0.53209186 -0.036875263 -1.1737107 0.0030409317 -0.3899013 1.5545124
0.9228531 0.1395108 2.2541971 -5.571015 1.7372121 -1.8644634 0.7252054 -5.0196123
1.8432972 -4.5986547 1.3484747 1.9474952 0.75938475 0.73739284 1.1138092 0.57840246
1.6090078 -5.918602 0.3892255 -0.98888785 -0.060694657 -0.44184777 -0.7908432 0.03725878
3.8773284 -2.8602116 -3.4372942 -3.3219244 -0.1884245 0.48828936 -0.75273204 1.0306381
1.5820942 -4.697967 -0.24076977 -2.998611 -2.6704683 1.283623 -1.8843337 -5.9755654
-3.3561122 -2.388133 -0.23174466 -3.9017923 -0.20880911 -3.0277615 0.61097044 -3.8066359
0.1706085 -1.0750731 -4.047331 -4.3693233 -0.26295906 -4.113514 -3.6669924 -1.8978608
0.73200035 2.297196 -2.2587829 0.41518876 -0.23359016 -0.49024168 -2.35135 1.178454
-2.8482473 -6.407445 -4.4700203 0.6223968 0.25376096 -0.3924395 -0.3789553 0.7384124
-2.9557483 -0.7843047 -2.7182379 -5.6128125 0.64396185 -4.0594163 -6.5078897 -0.177347
00000000: 8f22 9e3e 2975 08be 9529 0bc0 d2e4 bdbe
00000010: 8c52 a0be ed6d a6be c606 a03f 1990 a63f
00000020: 0570 063d 8124 13c0 3b62 bebf 110a 8ac0
00000030: 8a5c 64c0 293e adc0 441e d6be 6748 f6bd
00000040: 916a c13e f789 023f 5824 5b3f 66c6 c03c
00000050: 1816 7d3f 2f32 e2be 1eec 1fbe 853e e6c0
00000060: 3b1a cd3e 8066 e3bf 0a7d ee3f 8bdd d6bf
00000070: 162c 1c40 4ebe 63c0 8051 843f c418 633f
00000080: 43fe 92bf 681a 6640 7f6d 063f 4df9 a23f
00000090: 4f95 833f fcfa d3c0 109a c13d 079d d73f
000000a0: eec8 da3f c0c5 1ec0 1673 0240 6b13 7a3f
000000b0: 75c6 99be 56a1 853f 8734 1640 7c78 1ebf
000000c0: 422b 8c3f 78d4 e83e 3904 83bf e0ed b0c0
000000d0: 95ae 98c0 9843 893f 63e5 83be 862f 6e3f
000000e0: 9ef2 713f 2fca e43e 14fe 80bf 4ed4 843f
000000f0: 5044 a53d 52c9 6b3f e7d8 b6c0 31a8 f23f
00000100: 913c 0dbf 761f bb3f 1f29 00c0 1cdd 3a3f
00000110: fc9b 153f 150c 753f 1505 8a3f f8eb 9abf
00000120: 2c9a 893e 55b7 6f3f 7744 533f 5f39 ae3f
00000130: 9fce 18c0 36a3 b13f 9b1b 51bf c41f 2f3d
00000140: d9c2 03c0 760c 873e 1282 9ebf 6ec9 cb3e
00000150: d178 e03e bc92 c03f 1f46 ca3f b692 11c0
00000160: baf2 053e e2b1 26bf e673 07c0 b96a 46bf
00000170: 9589 3d3f a4b2 7e3e 3293 2cbd c882 11be
00000180: 31d5 f9bf 7e26 e13d 9e07 dc3f 0a17 1040
00000190: 0681 14be 34b4 9ec0 1e78 1740 0b43 833e
000001a0: ec0c 0640 f29b 40c0 1ad6 183f 34fe a9bf
000001b0: 06e3 dbbe c12d 4c40 ac8d 0f3e 3b85 61be
000001c0: 1f6e 2bbf c2bf 69bd 1752 cf3f 969a 1ac0
000001d0: 089b 163f 8565 163f 547d 98be 7821 82c0
000001e0: 0618 7dbe a062 52bd f777 e33e e107 11bd
000001f0: 7a2f a43f 50b3 b93f 6d48 1ac0 d2ff ebbe
00000200: e6cf 12c0 b3bc f3c0 2470 77c0 617f 2cbf
00000210: 1dbc bb3e 4196 57bf c111 753f 964b 6c3f
00000220: f887 68be 1763 713f 2aa2 a9bf 76e6 47be
00000230: 6e73 abc0 a1a2 0a40 6cb2 88bf 1667 ce3f
00000240: 6cbd cbbf a0f7 da3f 985f a6bf 737a 9f3f
00000250: 4062 2c40 c9c7 953f 062d 2340 45d7 d03f
00000260: 460f 3f3f 57a4 2a40 dedb 84c0 096c 513f
00000270: 4be3 833f 2d97 dcbd 05c7 6bc0 820c 5d3f
00000280: 0c5d fc3f ef0a 5fbe 33c1 fa3f ba54 8fbd
00000290: 9b75 1740 8ca7 9fbf 67b5 063f 33f2 68bd
000002a0: 34e5 aec0 6547 87c0 2c37 083f 840a 17bd
000002b0: 273c 96bf 5e4a 473b 25a1 c7be 43fa c63f
000002c0: 1a40 6c3f ebdb 0e3e c444 1040 c145 b2c0
000002d0: f75c de3f bda6 eebf 10a7 393f aaa0 a0c0
000002e0: 2af1 eb3f 2e28 93c0 d29a ac3f 8647 f93f
000002f0: 0a67 423f c7c5 3c3f 4d91 8e3f 2f12 143f
00000300: f8f3 cd3f 3065 bdc0 9148 c73e c127 7dbf
00000310: f69a 78bd df39 e2be b374 4abf aa9c 183d
00000320: 2626 7840 b50d 37c0 a1fc 5bc0 699a 54c0
00000330: 5af2 40be 1001 fa3e 0cb3 40bf f3eb 833f
00000340: 1082 ca3f bf55 96c0 5a8c 76be 3ee9 3fc0
00000350: f4e8 2ac0 c24d a43f d931 f1bf d537 bfc0
00000360: 8bca 56c0 2cd7 18c0 794e 6dbe f7b6 79c0
00000370: 0ed2 55be d8c6 41c0 8f68 1c3f ec9f 73c0
00000380: ffb3 2e3e ff9b 89bf bc83 81c0 7fd1 8bc0
00000390: 92a2 86be e8a1 83c0 01b0 6ac0 1aed f2bf
000003a0: 6064 3b3f 4205 1340 e68f 10c0 9f93 d43e
000003b0: 4232 6fbe f500 fbbe 857c 16c0 95d7 963f
000003c0: af49 36c0 ca09 cdc0 680a 8fc0 6655 1f3f
000003d0: f5ec 813e d5ed c8be 6e06 c2be 9808 3d3f
000003e0: fb2a 3dc0 31c8 48bf 9cf7 2dc0 299c b3c0
000003f0: afda 243f bde6 81c0 a240 d0c0 749a 35be

bias f4 [8]
-2.1256838 -2.6400402 -0.7444973 -4.564068 -2.4815636 -4.6983724 -2.428404 -5.5795856
00000000: 340b 08c0 6bf6 28c0 6097 3ebf d80c 92c0
00000010: f0d1 1ec0 1159 96c0 f96a 1bc0 f78b b2c0

weight f4 [2, 8]
-0.10632111 -0.10974128 -0.042887006 -0.2461337 -0.17052518 1.6964183 1.333651 1.4064758
0.3205595 0.8061011 1.697079 0.52161646 0.68094003 -0.13547373 -0.0156859 -0.1705141
00000000: e2be d9bd 09c0 e0bd 49aa 2fbd 790a 7cbe
00000010: 279e 2ebe 3c24 d93f 13b5 aa3f 6607 b43f
00000020: 6020 a43e a45c 4e3f e239 d93f a888 053f
00000030: 1652 2e3f a0b9 0abe b77f 80bc 409b 2ebe

bias f4 [2]
-6.479308 -5.3323126
00000000: 7e56 cfc0 4ea2 aac0
