Network2/params/mlp_wParams0831173608.pth (torch_old, 81932 bytes, 12 tensors)

weight f4 [99]
0	0x3f7d018e	0.988305
1	0x3ee3bae7	0.44478533
2	0x3e311147	0.17291747
3	0x3f75b88b	0.95984715
4	0x3efa809b	0.48926243
5	0x3e381784	0.1797772
6	0x3e1ece93	0.1550849
7	0x3df908ad	0.12159858
8	0x3f823c1b	1.0174593
9	0x3e149630	0.14510417
10	0x3e5042fd	0.20338054
11	0x3efae7a3	0.4900485
12	0x3f5a044e	0.8516282
13	0x3f560475	0.8360055
14	0x3e6c83cf	0.23097156
15	0x3f287de2	0.6581708
16	0x3f65e548	0.8980298
17	0x3f2cf19c	0.67556167
18	0x3c2e5344	0.010639969
19	0x3e607bb2	0.21922186
20	0x3e10660f	0.14101432
21	0x3ef706ae	0.48247284
22	0x3f768938	0.9630313
23	0x3f00921e	0.5022296
24	0x3f0d5aea	0.5521685
25	0x3ebd940c	0.37027013
26	0x3ed9eca7	0.42563364
27	0x3d560948	0.052254945
28	0x3f4c229a	0.797403
29	0x3f32e002	0.6987306
30	0x3ea6eeee	0.32604164
31	0x3f330dde	0.69943035
32	0x3f20645e	0.6265315
33	0x3e9683c0	0.29397392
34	0x3e6fa2f9	0.23402013
35	0x3eec5136	0.4615571
36	0x3f153c70	0.58295345
37	0x3f2d0971	0.6759253
38	0x3f29f853	0.6639454
39	0x3f727623	0.9471151
40	0x3f70ce16	0.9406446
41	0x3ec53801	0.3851929
42	0x3f006eec	0.50169253
43	0x3f1c25a2	0.60994923
44	0x3f8f1289	1.1177531
45	0x3f750af8	0.9571986
46	0x3f35f087	0.7107014
47	0x3f58127b	0.844032
48	0x3e8e29a5	0.27766147
49	0x3e2206ab	0.15822856
50	0x3efa1f09	0.48851803
51	0x3f57a897	0.8424162
52	0x3f4a47f3	0.79016036
53	0x3efc4e1a	0.49278337
54	0x3e8becc4	0.27329075
55	0x3eb2d3ce	0.3492722
56	0x3f7ea4c3	0.99470156
57	0x3f062ced	0.524123
58	0x3f6d0575	0.9258645
59	0x3f5ef53f	0.87092966
60	0x3f0e1e46	0.55514944
61	0x3da4d7a8	0.08048946
62	0x3e743446	0.23848066
63	0x3e5f1604	0.21785742
64	0x3d9f7c0d	0.07787333
65	0x3f2be79d	0.6715029
66	0x3f0a3103	0.53981036
67	0x3e460847	0.19339095
68	0x3e2e9213	0.1704791
69	0x3f1e2808	0.6177983
70	0x3f42a212	0.7602855
71	0x3f78027a	0.9687878
72	0x3f141631	0.5784636
73	0x3f54d13e	0.8313178
74	0x3ee7843b	0.4521807
75	0x3f3ffd9d	0.7499636
76	0x3dc84c81	0.09780217
77	0x3f79355f	0.9734706
78	0x3e7a0c15	0.24418671
79	0x3f5f19d1	0.8714877
80	0x3f491e30	0.7856169
81	0x3dc3dc5a	0.09563513
82	0x3f3647ba	0.71203196
83	0x3e2e62b0	0.17029834
84	0x3f2c255e	0.6724452
85	0x3e81d676	0.25358933
86	0x3f0710d3	0.52760047
87	0x3e952a8f	0.29134032
88	0x3dff1231	0.124546416
89	0x3f1b39e8	0.6063523
90	0x3f46029d	0.7734774
91	0x3f66f2cf	0.90214247
92	0x3e41a0ca	0.18908992
93	0x3f5aa4d1	0.8540774
94	0x3f01ce6c	0.507056
95	0x3f82b3e7	1.0211152
96	0x3e5a8238	0.21338737
97	0x3e42dbe2	0.19029191
98	0x3f2799a9	0.6546884

bias f4 [99]
0	0xbc9f1d5c	-0.01942318
1	0x3da16513	0.078806065
2	0xbc1a9adc	-0.009436335
3	0x3ce2b125	0.02767236
4	0xbdc0e6e1	-0.09419037
5	0x3dcc36c0	0.0997138
6	0xbc6ce30e	-0.014458431
7	0x3d12bf0f	0.03582674
8	0x3d8798c0	0.066209316
9	0xbd780d2f	-0.060559448
10	0xbda99211	-0.08279813
11	0x3c9ab800	0.018886566
12	0x3d12ccf7	0.03584
13	0xbd65fffc	-0.05615233
14	0xbd56f092	-0.05247552
15	0x3bcbc387	0.006218377
16	0x3d4a6d72	0.04942078
17	0x3d3ab8d0	0.045586407
18	0xbdf5b151	-0.11996711
19	0x3dd8adb4	0.10580006
20	0xbc984892	-0.018589292
21	0xbd1561e5	-0.036470313
22	0xbc9ffc66	-0.019529533
23	0x3c9c9286	0.019112837
24	0x3d4b6f8b	0.049666923
25	0x3d5362f3	0.051608037
26	0x3d0ec1c9	0.034852777
27	0x3e238990	0.15970445
28	0x3d37bfaf	0.044860538
29	0x3daef355	0.08542506
30	0xbd8305ff	-0.06397628
31	0xbcc6ba36	-0.024258714
32	0x3ddebd21	0.10875917
33	0x3c77f0fc	0.015133139
34	0xbd3a5f0c	-0.0455008
35	0xbd39aa38	-0.04532835
36	0xbcf505f2	-0.029910062
37	0xbcabb419	-0.0209599
38	0xbd6029e5	-0.054727454
39	0xbc777a5f	-0.015104859
40	0xbcf00758	-0.029300377
41	0x3dc2575b	0.09489318
42	0x3d6d608b	0.0579534
43	0x3b8a9fd0	0.004230477
44	0x3d3befb1	0.045882884
45	0xbd25615a	-0.040376045
46	0x3d9b9426	0.075966164
47	0x3d1e4ad8	0.038645595
48	0xbd0ab5f5	-0.033864934
49	0x3bbf6e92	0.0058420384
50	0x3d605dee	0.05477708
51	0x3db90517	0.09034174
52	0x3cb57524	0.022150584
53	0x3d179e45	0.037016172
54	0x3dce96d4	0.10087362
55	0xbd08994a	-0.033349313
56	0x3d139407	0.03602984
57	0x3d024a8f	0.031809386
58	0xbcb8e6e4	-0.022571035
59	0x3d3ef94c	0.046624467
60	0xbc5286c9	-0.012849518
61	0x3e14858b	0.14504068
62	0x3ce69220	0.02814585
63	0xbd06eb81	-0.032939438
64	0x3e280263	0.1640716
65	0x3d64e1a0	0.055879235
66	0x3a9cd53d	0.0011965405
67	0x3d1306b8	0.03589508
68	0x3ca4df75	0.020126084
69	0xbb05886d	-0.0020375506
70	0xbca3598e	-0.019940164
71	0x3d13397f	0.035943504
72	0xbbc8d077	-0.0061283666
73	0xbd3379f2	-0.043817468
74	0xbc6428e9	-0.013925769
75	0x3ce0f9c8	0.027462855
76	0x3e113518	0.1418041
77	0x3db01982	0.08598615
78	0xbd6e3ef8	-0.05816552
79	0x3bc774b1	0.0060869087
80	0x3d5261e9	0.051362906
81	0x3bbd6c43	0.005780728
82	0xbd405359	-0.046954487
83	0x3dd1ba9c	0.10240671
84	0xbc8259c9	-0.015911954
85	0xbd0fb552	-0.03508503
86	0xbc615b5a	-0.01375469
87	0x3d2a465d	0.04157101
88	0xbd4e42eb	-0.050356787
89	0x3d1d440c	0.038394973
90	0xbc9b737b	-0.018975964
91	0x3d9d3c81	0.07677556
92	0x3d9cb40d	0.076515295
93	0xbd05fcea	-0.0327119
94	0x3d61a73d	0.05509113
95	0x3c1c8905	0.009554152
96	0xbd568394	-0.052371576
97	0xbd61623f	-0.055025335
98	0xbc939fe7	-0.018020583

running_mean f4 [99]
0	0x3e95352f	0.29142138
1	0x3e889c43	0.26681718
2	0x3ebae54d	0.36503068
3	0x3e50dad9	0.20395984
4	0x3e5eaf36	0.21746525
5	0x3efe92b2	0.49721295
6	0x3f7e1726	0.9925407
7	0x3f71028d	0.9414452
8	0x3fa1ac36	1.263068
9	0x3ebc3e5e	0.36766332
10	0x3e95352f	0.29142138
11	0x3e889c43	0.26681718
12	0x3e5622b6	0.20911679
13	0x3e655968	0.22397387
14	0x3ef99e50	0.48753595
15	0x3f6c718c	0.9236076
16	0x3f76efee	0.96459854
17	0x3fa97f37	1.3241948
18	0x3e8d0cd3	0.27548847
19	0x3ebc3e5e	0.36766332
20	0x3e95352f	0.29142138
21	0x3e572834	0.2101143
22	0x3e6f22b4	0.23353082
23	0x3ef9000a	0.48632842
24	0x3f765937	0.9622988
25	0x3f77d3c5	0.9680751
26	0x3fa75c9e	1.307514
27	0x3e96a975	0.2942616
28	0x3e8d0cd3	0.27548847
29	0x3ebc3e5e	0.36766332
30	0x3e59a7e3	0.2125545
31	0x3e63bb1d	0.22239347
32	0x3efe9819	0.49725416
33	0x3f822e0a	1.01703
34	0x3f72d572	0.9485694
35	0x3fa6808d	1.300798
36	0x3ebf7571	0.37394288
37	0x3e96a975	0.2942616
38	0x3e8d0cd3	0.27548847
39	0x3e63d684	0.222498
40	0x3e6745eb	0.22585265
41	0x3efaebf4	0.49008143
42	0x3f73171f	0.94957155
43	0x3f7912aa	0.97294104
44	0x3fab0fc4	1.3364186
45	0x3e939930	0.2882781
46	0x3ebf7571	0.37394288
47	0x3e96a975	0.2942616
48	0x3e60366c	0.2189576
49	0x3e6bf018	0.23040807
50	0x3f00a5aa	0.50252783
51	0x3f829133	1.0200561
52	0x3f75a3e8	0.95953226
53	0x3fadabe4	1.3568082
54	0x3e999fc5	0.30004707
55	0x3e939930	0.2882781
56	0x3ebf7571	0.37394288
57	0x3e5dada9	0.21648277
58	0x3e6bbc80	0.23021126
59	0x3f02bef5	0.5107263
60	0x3f85fa6a	1.0467045
61	0x3f75bda2	0.9599248
62	0x3fa82b81	1.3138276
63	0x3ec4ebcb	0.38461146
64	0x3e999fc5	0.30004707
65	0x3e939930	0.2882781
66	0x3e6e64b1	0.23280598
67	0x3e72dd42	0.23717216
68	0x3efea119	0.49732283
69	0x3f7515bf	0.95736307
70	0x3f84c7d0	1.0373478
71	0x3fb10977	1.3831013
72	0x3e9bc532	0.30423886
73	0x3ec4ebcb	0.38461146
74	0x3e999fc5	0.30004707
75	0x3e67011e	0.2255902
76	0x3e805345	0.2506353
77	0x3f01f44e	0.50763404
78	0x3f813f54	1.0097451
79	0x3f882ada	1.0638077
80	0x3fb27f40	1.3945084
81	0x3e9c169f	0.3048601
82	0x3e9bc532	0.30423886
83	0x3ec4ebcb	0.38461146
84	0x3e5ffdea	0.21874204
85	0x3e73fa52	0.23825958
86	0x3f082571	0.5318213
87	0x3f82f253	1.0230201
88	0x3f7c1176	0.98464143
89	0x3fac6174	1.346724
90	0x3ec8242e	0.39090103
91	0x3e9c169f	0.3048601
92	0x3e9bc532	0.30423886
93	0x3e6e9b41	0.23301412
94	0x3e771b3b	0.24131481
95	0x3f051b8e	0.5199517
96	0x3ff6e086	1.9287269
97	0x400c2e72	2.1903348
98	0x4046b99c	3.1050787

running_var f4 [99]
0	0x3e52c668	0.20583498
1	0x3e4cc034	0.19995195
2	0x3e735fae	0.23766968
3	0x3ce7a7ac	0.028278194
4	0x3d188ea9	0.037245426
5	0x3d833160	0.06405902
6	0x3f1def8a	0.6169363
7	0x3f18ab7a	0.5963665
8	0x3ef18ab9	0.4717615
9	0x3e73d328	0.23811018
10	0x3e52c668	0.20583498
11	0x3e4cc034	0.19995195
12	0x3cfecc50	0.031103283
13	0x3d08519e	0.03328096
14	0x3d76a3cd	0.060214806
15	0x3f0d1d6d	0.55123025
16	0x3f1434a8	0.5789285
17	0x3f04faf4	0.51945424
18	0x3e506b04	0.20353323
19	0x3e73d328	0.23811018
20	0x3e52c668	0.20583498
21	0x3d03d1d0	0.032182515
22	0x3d129d7f	0.03579473
23	0x3d82e9a0	0.06392217
24	0x3f1d5893	0.6146328
25	0x3f08531a	0.532518
26	0x3efc23cf	0.4924607
27	0x3e52a838	0.20571983
28	0x3e506b04	0.20353323
29	0x3e73d328	0.23811018
30	0x3cf433fe	0.029809948
31	0x3d1b17d3	0.037864517
32	0x3d6d86ed	0.057990003
33	0x3f17498f	0.59096617
34	0x3f133ef5	0.5751794
35	0x3ef0a8cf	0.4700379
36	0x3e745324	0.2385984
37	0x3e52a838	0.20571983
38	0x3e506b04	0.20353323
39	0x3d03a8b9	0.03214333
40	0x3d09e923	0.033669602
41	0x3d70561b	0.058675867
42	0x3f0d0e0c	0.5509956
43	0x3f1163ab	0.56792706
44	0x3f011838	0.5042758
45	0x3e56aea7	0.20965062
46	0x3e745324	0.2385984
47	0x3e52a838	0.20571983
48	0x3d00bbca	0.03142909
49	0x3d112dfd	0.03544425
50	0x3d680faf	0.056655582
51	0x3f1a8f1c	0.6037462
52	0x3f074509	0.52839714
53	0x3ef0bb88	0.47018075
54	0x3e5467bc	0.20742697
55	0x3e56aea7	0.20965062
56	0x3e745324	0.2385984
57	0x3cee946a	0.029123504
58	0x3d217d72	0.039426275
59	0x3d5acacc	0.05341606
60	0x3f172901	0.5904694
61	0x3f10f5e4	0.566252
62	0x3ed61052	0.41809326
63	0x3e75aac6	0.23990926
64	0x3e5467bc	0.20742697
65	0x3e56aea7	0.20965062
66	0x3cff5de4	0.0311727
67	0x3d077df5	0.033079106
68	0x3d56f352	0.052478142
69	0x3f00f0c0	0.50367355
70	0x3f11a957	0.5689902
71	0x3eebae8f	0.46031615
72	0x3e5df405	0.21675117
73	0x3e75aac6	0.23990926
74	0x3e5467bc	0.20742697
75	0x3d00607b	0.03134201
76	0x3d1033c0	0.035205603
77	0x3d5cb974	0.0538878
78	0x3f101ede	0.562971
79	0x3f037efa	0.51365626
80	0x3ee2675a	0.44219476
81	0x3e56aab8	0.20963562
82	0x3e5df405	0.21675117
83	0x3e75aac6	0.23990926
84	0x3cfbbe35	0.030730346
85	0x3d1f031e	0.038821332
86	0x3d375f90	0.04476887
87	0x3f150568	0.58211374
88	0x3f09752b	0.5369441
89	0x3ebfd9de	0.37470907
90	0x3e772a34	0.24137193
91	0x3e56aab8	0.20963562
92	0x3e5df405	0.21675117
93	0x3cf1a2ee	0.029496636
94	0x3d0b567f	0.034018036
95	0x3d325897	0.043541517
96	0x3f4f28b4	0.80921483
97	0x3f81739a	1.0113404
98	0x3fcd1f41	1.6025163

weight f4 [99, 99]
0	0xbdcb4456	-0.099251434
1	0x3c29a641	0.010354579
2	0x3cd0d2cd	0.025491143
3	0xbd1ba3e7	-0.037998106
4	0x3d407622	0.04698766
5	0x3db2308d	0.087006666
6	0x3defed54	0.117151886
7	0x3cf0f172	0.029412005
8	0xbd5f78f3	-0.054558706
9	0xbd5a953a	-0.05336497
10	0x3db52481	0.08844853
11	0x3d208ff8	0.0391998
12	0x3d25bdc8	0.040464193
13	0xbc90ad31	-0.01766071
14	0x3d2eb39f	0.04265177
15	0x3dcecd91	0.100978024
16	0x3e2da4dd	0.16957422
17	0x3e4b2a67	0.19840394
18	0xbdaf1cce	-0.08550416
19	0x3b4c054d	0.003113109
20	0x3ca8f1ab	0.020623049
21	0xbdf8c7d9	-0.12147493
22	0x3db83fce	0.08996545
23	0xbd57d1c6	-0.05269029
24	0x3c14ba46	0.009077614
25	0x3da713ac	0.08158049
26	0xbcabd89c	-0.02097731
27	0x3e1a909f	0.15094231
28	0x3cccf618	0.02501969
29	0xbccdfd09	-0.02514507
30	0xbdbd3349	-0.092382975
31	0x3dcf2f6d	0.101164676
32	0x3cce8b8f	0.025213031
33	0x3d8d687d	0.06904695
34	0x3df5128e	0.1196643
35	0x3d814ef9	0.06313891
36	0xbc5c1432	-0.013432549
37	0xbc23b8d0	-0.009992793
38	0x3cc275be	0.023737784
39	0xbb69889d	-0.0035634406
40	0xbd536f7c	-0.05161999
41	0x3c414599	0.0117963785
42	0x3e5bf63c	0.2148065
43	0x3e264503	0.16237263
44	0x3d026043	0.031830084
45	0xbd353264	-0.04423751
46	0x3d9075f5	0.070537485
47	0xbd3d5c0c	-0.04623036
48	0x3d930b52	0.071798936
49	0x3d18d3ef	0.03731149
50	0x3c261fba	0.0101394
51	0xbdcf6586	-0.10126786
52	0x3d835a77	0.06413739
53	0x3be91fd4	0.00711439
54	0xbda9e78b	-0.082961164
55	0x3d5f0586	0.054448627
56	0x3da42b62	0.08016087
57	0x3dabdb86	0.0839148
58	0xbc26077b	-0.010133619
59	0xbd85a7d0	-0.06526148
60	0x3c6d7f40	0.014495671
61	0x3da590b0	0.080842376
62	0xbc9846d5	-0.018588463
63	0x3cad0f8d	0.02112558
64	0x3e10da70	0.14145827
65	0xbd145132	-0.036210246
66	0xbcdc8faf	-0.026923982
67	0xbdbeecf9	-0.09322543
68	0xbcd1efbe	-0.025627013
69	0x3e1e24b8	0.15443695
70	0x3e5cef20	0.21575594
71	0x3e27e6b1	0.16396596
72	0xbd926b7e	-0.07149409
73	0x3da14da8	0.0787614
74	0x3db14aac	0.08656821
75	0x3d98c385	0.074591674
76	0x3de95b8a	0.11394413
77	0xba0194fa	-0.0004943159
78	0xbd1a1db3	-0.03762598
79	0x3d9080ef	0.07055842
80	0x3cbff021	0.023429932
81	0xba96906f	-0.0011487136
82	0x3d49ec64	0.049297705
83	0xbc52c72a	-0.012864867
84	0xbcd6b50c	-0.026209377
85	0x3d35f8d9	0.044426773
86	0xbd74b612	-0.05974395
87	0x3d2d9389	0.04237703
88	0xbd4c28a2	-0.049843438
89	0xbd108aea	-0.03528873
90	0xbd5c5f63	-0.053801905
91	0x3d3b4c53	0.045727085
92	0x3dc56218	0.096378505
93	0x3c2b4644	0.010453764
94	0x3bc7f3c4	0.006102057
95	0xbd9f0d60	-0.07766223
96	0x3d8486f1	0.064710505
97	0xbd9d4514	-0.07679191
98	0xbdf18b99	-0.11794204
99	0x3b4a91ba	0.0030909614
100	0xbd396f2e	-0.045272045
101	0xbbc68d91	-0.0060593565
102	0x3d576c64	0.052593604
103	0x3d2ba3e4	0.041904345
104	0x3bca8f36	0.006181623
105	0xbdd3bca7	-0.10338717
106	0x3dc6d205	0.09708027
107	0x3d840757	0.064467125
108	0xbdc45f93	-0.09588542
109	0xbda5ab5a	-0.08089323
110	0x3d467850	0.048454583
111	0xbd0d531c	-0.034503087
112	0xbd585dcf	-0.052823838
113	0x3d1cd8e6	0.038292788
114	0xbe0da665	-0.13833006
115	0xbb596969	-0.0033174402
116	0xbe09c3d1	-0.13453604
117	0xbdf7d3bf	-0.12100934
118	0xbcd21fc1	-0.025649907
119	0x3cf0d49b	0.029398253
120	0xbd13732a	-0.0359985
121	0x3d830997	0.063983135
122	0x3e0326f0	0.12807822
123	0xbc6ed076	-0.014576068
124	0xbd5d51f4	-0.054033235
125	0x3c82ae17	0.015952153
126	0x3cec454c	0.028841637
127	0x3d8ae43d	0.06781814
128	0x3c9bbfce	0.019012358
129	0x3d9d9811	0.0769502
130	0xbc704f68	-0.014667369
131	0x3d58bc6d	0.05291407
132	0xbbc50c78	-0.0060134493
133	0xbda4f634	-0.08054772
134	0x399f1dae	0.00030348956
135	0x3d899868	0.06718522
136	0xbd829bdb	-0.06377383
137	0x3da73482	0.08164312
138	0x3dc333c2	0.095313564
139	0x3cdf8d86	0.027289163
140	0xbcc4aef5	-0.024009207
141	0xbe654c66	-0.22392425
142	0xbdd4e26b	-0.10394748
143	0xbd0f5976	-0.034997426
144	0x3d4b95b4	0.049703315
145	0x3de023cc	0.10944328
146	0x3de02395	0.10944287
147	0xbd10a833	-0.035316657
148	0xbd94b8ec	-0.072618335
149	0xbd639772	-0.05556435
150	0x3d1209ed	0.035653997
151	0x3ca3abe2	0.019979421
152	0xbb0e5638	-0.002171887
153	0x3d67af1d	0.056563485
154	0xbcc29363	-0.02375192
155	0x3b393d3d	0.002826526
156	0x3d8042a4	0.06262711
157	0x3d76babc	0.060236678
158	0x3d93e69f	0.07221722
159	0x3d4d122b	0.050066154
160	0x3c7cd679	0.015431994
161	0xbb88276b	-0.0041550896
162	0x3da952ab	0.08267721
163	0xbcccbcd2	-0.02499238
164	0xbd668d47	-0.056287076
165	0xbd45e69f	-0.04831564
166	0xbdb06443	-0.086128734
167	0x3de7765b	0.113018714
168	0xbe45cc0d	-0.1931612
169	0xbcad9094	-0.021187104
170	0xbe0fa99c	-0.14029545
171	0x3dbbaedc	0.09164211
172	0x3d815225	0.06314496
173	0x3d2a0500	0.041508675
174	0x3c99490d	0.018711591
175	0x3ddb524e	0.10709058
176	0x3d23fe41	0.040037397
177	0xbd01eb5c	-0.031718597
178	0x3d3bcc1e	0.04584896
179	0x3d605fca	0.05477885
180	0xbd36a6cb	-0.04459266
181	0xbd71ded7	-0.059050407
182	0xbc823c79	-0.015897976
183	0x3d96cf2a	0.07363732
184	0x3c11f46b	0.008908371
185	0xbd64c90a	-0.05585579
186	0x3d7d1657	0.061788883
187	0x3d26d830	0.040733516
188	0xbcdb3653	-0.026759302
189	0xbd85f418	-0.06540698
190	0xbbb2bc8f	-0.005454607
191	0xbd89ab3e	-0.06722115
192	0xbca3bb44	-0.019986756
193	0x3d95c449	0.07312829
194	0xbd0642eb	-0.03277866
195	0x3d396a5e	0.045267455
196	0xbacc6b35	-0.0015595915
197	0xbc8045cc	-0.015658282
198	0x3c99a2fe	0.018754479
199	0xbdb5594f	-0.08854925
200	0x3db496b3	0.08817806
201	0x3cfc99e9	0.030835109
202	0xbd20b291	-0.039232794
203	0x3db7b359	0.08969755
204	0x3dc28d24	0.09499577
205	0xbd1123ac	-0.03543441
206	0x3c0be937	0.0085394895
207	0xbc883956	-0.016628902
208	0x3dc944a3	0.098275445
209	0xbd8e2a55	-0.06941668
210	0xbcfd1ad8	-0.03089659
211	0x3d763e4d	0.06011801
212	0x3d10e302	0.03537274
213	0x3e3ca4c8	0.18422234
214	0x3ddd133d	0.10794685
215	0x3db60d07	0.088892035
216	0xbdcb418b	-0.09924611
217	0x3d922197	0.07135313
218	0xbd30db46	-0.043177865
219	0xbd98edc5	-0.07467226
220	0xbb1ccd91	-0.0023926238
221	0x3daf3808	0.08555609
222	0x3dafff60	0.08593631
223	0xbd973775	-0.073836245
224	0xbd828bc4	-0.063743144
225	0x3d959536	0.0730385
226	0x3d0d3b7c	0.034480557
227	0x3dae5f2e	0.08514248
228	0xbc9059bd	-0.017620916
229	0xbd1afdbf	-0.037839647
230	0xbcbc596f	-0.022991864
231	0xbcfe3ad2	-0.031033907
232	0xbb476dc7	-0.0030430423
233	0xbc0ee1a7	-0.008720792
234	0x3d8a8a80	0.06764698
235	0xbd4512fe	-0.048113815
236	0xbdece4c2	-0.115670696
237	0xbc00bad6	-0.007857045
238	0x3ddf555d	0.10904954
239	0xbb1c33da	-0.0023834617
240	0x3e7abe0d	0.24486561
241	0x3e216048	0.15759385
242	0x3e18c206	0.14917764
243	0xbca48601	-0.02008343
244	0x3d90a3fd	0.07062528
245	0xbca829fd	-0.020527834
246	0xbdf03723	-0.117292665
247	0x3cbe2a3e	0.023213502
248	0xbd154fdd	-0.036453117
249	0xbc67eb96	-0.014155289
250	0xbcdc1882	-0.026867155
251	0x3d25718f	0.0403915
252	0xbbfaa112	-0.0076485956
253	0xbd1b01ec	-0.03784363
254	0x3c64f61f	0.0139746955
255	0xbc70239c	-0.014656927

bias f4 [99]
0	0x3e1a36b8	0.15059936
1	0x3d70a656	0.05875238
2	0xbc48b7f4	-0.012250889
3	0x3cc5ff95	0.024169723
4	0x3dd3f6d9	0.10349817
5	0x3dd47459	0.10373754
6	0xbbbfacb5	-0.0058494457
7	0x3d8c6445	0.068550624
8	0x3d2217e7	0.039573576
9	0x3da2c1c5	0.07947115
10	0x3dbcc24e	0.09216748
11	0x3d65edbd	0.056134928
12	0x3def63ba	0.11688943
13	0xbbf4cb28	-0.007470507
14	0x3da8d371	0.08243454
15	0x3c18d503	0.00932813
16	0xbd4875f1	-0.048940603
17	0xbbe6ace6	-0.007039654
18	0x3c8a804d	0.016906882
19	0x3e060ee3	0.13091616
20	0xbd04f18e	-0.032456927
21	0xbd12429e	-0.035708062
22	0x3db21329	0.08695061
23	0x3dcbdb83	0.09953978
24	0xbd86721b	-0.06564733
25	0xbdc8cdf1	-0.09804905
26	0xbd3e5378	-0.04646632
27	0x3d976100	0.07391548
28	0xbca2189e	-0.019787129
29	0x3d984b55	0.074362434
30	0xbd23ef85	-0.040023346
31	0x3ce5fc2a	0.028074343
32	0x3d44f852	0.04808838
33	0x3e007d27	0.12547742
34	0x3dffb057	0.12484806
35	0xbcd252cd	-0.025674248
36	0xbd09505e	-0.03352391
37	0x3d2c8823	0.042122018
38	0xbd7a637b	-0.06113003
39	0x3d102c30	0.03519839
40	0xbc6ead8f	-0.014567747
41	0x3d9e74fc	0.07737157
42	0x3dbee080	0.09320164
43	0xbd1b1c84	-0.03786899
44	0x3d84d902	0.064867035
45	0x3c899f4f	0.016799597
46	0xbcc20c2f	-0.02368745
47	0x3db159c1	0.08659697
48	0x3dacff5d	0.08447144
49	0xbda430d6	-0.08017127
50	0xbd17c6b9	-0.03705475
51	0xbcb5a720	-0.022174418
52	0x3e0fcbf2	0.14042643
53	0x3db80d98	0.08986968
54	0x3a52ce75	0.0008041629
55	0x3df531a7	0.11972361
56	0xbd054e2e	-0.03254526
57	0xbbed725b	-0.0072462982
58	0xbc6a4e29	-0.014300861
59	0x3dca8c36	0.09890024
60	0x3ce6530a	0.028115768
61	0xbcf8c990	-0.03036955
62	0x3d3f490c	0.046700522
63	0xbd061e3d	-0.03274368
64	0xbc0ffc0e	-0.008788122
65	0xbc83e6ec	-0.016101323
66	0xbd852943	-0.06502011
67	0x3d9ba599	0.075999446
68	0x3decc2e1	0.11560608
69	0x3d92a888	0.07161051
70	0x3db23a48	0.087025225
71	0x3cbfc7b2	0.023410652
72	0x3deebfc5	0.11657671
73	0x3df7bc3f	0.12096452
74	0xbce611bc	-0.028084628
75	0x3d421fc7	0.047393586
76	0x3d76a3fd	0.060214985
77	0x3dd6e12a	0.104921654
78	0x3dd51d85	0.10406021
79	0x3dcbf211	0.0995828
80	0x3df1ae2e	0.118008
81	0x3e1596fd	0.14608379
82	0x3de3d9ba	0.111255124
83	0x3ce7e27a	0.028306235
84	0x3da248d8	0.0792405
85	0xbca5c321	-0.020234646
86	0x3dbf1596	0.09330289
87	0xbc82bbdf	-0.015958725
88	0xbc874f5c	-0.016517334
89	0x3d486840	0.048927546
90	0xbd963e68	-0.07336122
91	0x3e19d66f	0.15023206
92	0x3d6fd30d	0.058550883
93	0x3da6a48a	0.08136852
94	0x3d393937	0.04522058
95	0xbd8f92fd	-0.07010458
96	0x3d3ceb48	0.04612282
97	0x3da9c25d	0.08289025
98	0x3c4513b8	0.012028627

weight f4 [49, 99]
0	0x3e341236	0.17585072
1	0x3b94c736	0.0045403494
2	0x3e2c4d21	0.16826297
3	0x3dd30e84	0.10305503
4	0x3e08b234	0.13349229
5	0x3e118fd9	0.1421503
6	0x3df80191	0.12109674
7	0x3deb65c8	0.114940226
8	0xbdc0fdaa	-0.094233826
9	0x3dbb9fc0	0.09161329
10	0x3e54a6ca	0.2076675
11	0x3e3a9061	0.18219139
12	0x3dfdfd06	0.12401776
13	0x3e18d64d	0.149255
14	0x3e458807	0.19290172
15	0x3c4a524d	0.012348724
16	0xbd829a09	-0.06377036
17	0xbba4f0d9	-0.005033594
18	0x3e26300f	0.1622927
19	0x3c43bec7	0.01194734
20	0xbc1d8807	-0.009614951
21	0x3e65677e	0.2240276
22	0x3d958860	0.07301402
23	0x3e3f806a	0.1870133
24	0xbd0185ec	-0.03162186
25	0x3dcd9ce6	0.100396916
26	0x3de55a96	0.111989185
27	0xbdd7b3ec	-0.10532364
28	0x3d30f553	0.04320271
29	0x3e478b25	0.19486673
30	0x3de2bfd2	0.11071743
31	0x3d437d49	0.047726903
32	0x3e5d26ab	0.21596782
33	0x3dc44237	0.09582942
34	0x3dfd827e	0.12378405
35	0x3d35af5c	0.04435669
36	0x3db4c3f1	0.08826435
37	0xbded3fb6	-0.115844175
38	0x3e1334d7	0.14375626
39	0x3e2798f5	0.16366942
40	0x3de13390	0.10996163
41	0x3d55456a	0.05206815
42	0x3d8fe9f4	0.07027045
43	0x3c4d8b17	0.012545369
44	0x3e0ed3e7	0.13948022
45	0x3e83e9f0	0.25764418
46	0x3e4faea5	0.20281465
47	0x3d122e58	0.035688728
48	0x3dfddf9d	0.123961665
49	0x3ca265e7	0.019823981
50	0x3d550ef0	0.0520162
51	0x3cc1bbe8	0.023649171
52	0x3e00a30c	0.12562197
53	0x3d3a6f0e	0.045516066
54	0x3d85e31c	0.06537458
55	0x3e002b4e	0.1251652
56	0xbd8cd870	-0.0687722
57	0x3dbdf8c9	0.09275968
58	0x3e33d908	0.1756326
59	0xbdcbaeeb	-0.09945472
60	0xbda33286	-0.07968621
61	0x3d667666	0.056265257
62	0xbdc25112	-0.09488119
63	0x3d59a927	0.053139832
64	0x3cbd5c04	0.023115166
65	0x3dd63ca3	0.10460784
66	0xbd2283b2	-0.039676376
67	0x3e186316	0.14881548
68	0xbd015188	-0.031571895
69	0xbca1f640	-0.019770741
70	0x3df25a4b	0.11833628
71	0xbdd828e4	-0.10554674
72	0xbd769f84	-0.06021072
73	0x3e17f7f4	0.1484068
74	0xbd9576c4	-0.07298043
75	0x3dfc4c1e	0.12319206
76	0xbcdd99d1	-0.027050884
77	0x3e696540	0.2279253
78	0xbde08da2	-0.10964514
79	0x3d7bd399	0.061481092
80	0xbd739f5b	-0.059478145
81	0x3d3a223e	0.045442812
82	0x3d3c62b8	0.045992583
83	0x3db4099f	0.087908976
84	0x3d0232be	0.031786673
85	0xbd9ea66f	-0.077465884
86	0x3d8a6423	0.06757381
87	0x3b1a861f	0.0023578478
88	0x3e688166	0.22705612
89	0x3deaea2e	0.114704475
90	0x3e1a58ee	0.15072986
91	0x3e1f894a	0.15579715
92	0x3db96303	0.09052088
93	0x3c8715d0	0.016489893
94	0x3e2f41a7	0.17114888
95	0x3e757d5e	0.23973605
96	0x3e47f51b	0.19527094
97	0x3b44daab	0.0030037563
98	0x3e4c9108	0.199772
99	0x3e0aa823	0.13540702
100	0xbd78d2b7	-0.06074783
101	0x3dcd9e71	0.10039986
102	0x3d917ad6	0.07103507
103	0x3e180029	0.14843811
104	0x3d2d2e7b	0.042280655
105	0x3e5a6b44	0.21329981
106	0x3e8810bb	0.26575264
107	0xbdfe399b	-0.12413331
108	0x3d09a80b	0.033607524
109	0x3e5cdafe	0.21567914
110	0x3e24a424	0.1607824
111	0x3d91d2d1	0.07120288
112	0x3e004acd	0.12528534
113	0x3e887d0d	0.26657906
114	0x3d7bb16a	0.061448492
115	0xbd1ab6f1	-0.037772123
116	0xbd809328	-0.06278068
117	0x3e7d5fbd	0.24743553
118	0x3d9e4000	0.07727051
119	0x3d82339f	0.06357502
120	0x3e5f0f16	0.21783099
121	0x3dc2fd9d	0.09521029
122	0x3d170d86	0.03687813
123	0x3d436823	0.047706734
124	0xbc385956	-0.011251768
125	0x3e2e6057	0.17028938
126	0xbdec5a84	-0.11540702
127	0x3e2f9085	0.17144974
128	0x3e46cefd	0.19414897
129	0x3e280e4e	0.16411707
130	0x3e30de2a	0.17272249
131	0x3e05c010	0.13061547
132	0x3cd8620f	0.026413945
133	0x3dbeeee0	0.093229055
134	0xbca9229a	-0.020646382
135	0x3dc79f87	0.09747224
136	0xbddc2284	-0.10748771
137	0x3be8faba	0.007109967
138	0x3e8df215	0.27723756
139	0x3cd7a027	0.026321484
140	0xbdae9f8c	-0.08526525
141	0x3df5444e	0.11975919
142	0x3dc77bc5	0.09740404
143	0x3de7e274	0.113224894
144	0x3e4613d1	0.19343497
145	0x3e497070	0.19671798
146	0x3e558962	0.20853189
147	0x3e27e547	0.16396056
148	0x3d8c0271	0.06836403
149	0x3e36f685	0.17867477
150	0x3dd2a5e5	0.10285548
151	0x3e1f103d	0.15533538
152	0x3df81ae9	0.12114508
153	0x3e2b077d	0.16702075
154	0x3daf5dd3	0.085628174
155	0x3d9537b1	0.07286013
156	0x3e3f4e55	0.18682225
157	0x3ddd4c89	0.108056135
158	0x3c2b7d5c	0.0104669
159	0xbc864b78	-0.016393408
160	0x3d717bcc	0.058955953
161	0xbdb0c2ec	-0.086309284
162	0x3dff4141	0.12463618
163	0x3dca2297	0.09869879
164	0x3bfb4bf7	0.007668968
165	0x39bbd196	0.00035823573
166	0x3dd2e9f1	0.10298527
167	0xbcffc7f3	-0.031223273
168	0xbd94f8e2	-0.07274033
169	0x3e23b11d	0.15985532
170	0xbd90c78e	-0.07069312
171	0xbdee9663	-0.11649778
172	0x3e5a7e23	0.2133718
173	0xbd929a7f	-0.07158374
174	0xbcbced02	-0.023062233
175	0xbd0efbd3	-0.034908127
176	0x3e65290b	0.22378938
177	0xbdbadb8f	-0.09123909
178	0x3df96649	0.121777125
179	0x3d39490f	0.04523569
180	0x3bb61736	0.005556966
181	0x3d8b6f1f	0.06808304
182	0x3e396d19	0.18108024
183	0x3c7673f0	0.01504229
184	0x3c6c7081	0.01443112
185	0x3dcd8d67	0.10036736
186	0x3c3f0dc7	0.011661
187	0x3e1ced3f	0.15324877
188	0x3cbe67ee	0.023242917
189	0x3c63b4b7	0.013898066
190	0x3deae056	0.1146857
191	0x3d742934	0.059609607
192	0xbdd96994	-0.106158406
193	0x3df17409	0.1178971
194	0x3e82840a	0.25491363
195	0x3d977753	0.07395806
196	0xbd91a767	-0.071120076
197	0x3e85b080	0.2611122
198	0xbd99ad9e	-0.07503818
199	0x3d889049	0.06668145
200	0xbda10ad4	-0.078633934
201	0xbdbc7198	-0.09201354
202	0xbdb71319	-0.089391895
203	0x3daefb49	0.085440226
204	0xbd3ca515	-0.046055872
205	0xbd21a8df	-0.03946769
206	0xbcfe849a	-0.031069089
207	0xbdb7c30f	-0.08972751
208	0xbd8668b3	-0.065629385
209	0x3dce78b2	0.100816146
210	0x3d3684c1	0.044560198
211	0xbdbb6ce7	-0.09151631
212	0xbc2b5fa7	-0.010459817
213	0x3b851b05	0.004062059
214	0x3daca8cc	0.08430633
215	0x3da173e2	0.07883431
216	0x3d52e627	0.05148902
217	0x3cf972f5	0.030450324
218	0x3d627681	0.055288795
219	0xbdbb86b5	-0.09156553
220	0x3de3a90b	0.11116227
221	0x3cf6a4b0	0.030107826
222	0xbbbfefc1	-0.0058574383
223	0x3d92b197	0.07162779
224	0x3d9e5f3e	0.0773301
225	0xbd4ab53d	-0.04948925
226	0x3d523669	0.05132142
227	0xbd9b09a7	-0.075702004
228	0x3cefb351	0.02926031
229	0x3d904ee0	0.07046294
230	0x3d960a8f	0.07326233
231	0xbc9fc77d	-0.019504303
232	0xbd2bc5d7	-0.04193672
233	0xbd2325b6	-0.039830886
234	0x3d92b1fe	0.071628556
235	0x3dc36d54	0.09542337
236	0x3c8b15d9	0.016978191
237	0xbd569c44	-0.05239512
238	0x3d0d4c93	0.034496855
239	0x3d8f6c33	0.07003059
240	0xbcf79dc0	-0.030226588
241	0xbcf64baa	-0.030065376
242	0xbd1e8cdb	-0.03870855
243	0xbda033c1	-0.07822371
244	0x3d169cdc	0.036770687
245	0xbcf6a13f	-0.030106185
246	0x3d421769	0.047385607
247	0xbd488ca7	-0.04896226
248	0x3cb0a214	0.02156166
249	0x3cf92fbd	0.030418271
250	0x3bc879aa	0.006118019
251	0x3c4a6cfc	0.012355085
252	0x3d80ca27	0.062885575
253	0x3d7bd1b6	0.061479293
254	0xbbf6a23c	-0.007526664
255	0xbc14b32d	-0.009075922

bias f4 [49]
0	0xbd324bd4	-0.043529347
1	0xbd4c5cb2	-0.04989309
2	0x3c84b55a	0.016199756
3	0x3dcda6ea	0.10041602
4	0x3d27b71f	0.040946122
5	0x3c64c47b	0.01396286
6	0x3ddbc9ca	0.107318476
7	0x3e1545ab	0.14577357
8	0x3dd6c3ca	0.104865626
9	0x3bbc6b18	0.0057500713
10	0xbd3897c9	-0.04506663
11	0xbd8dcb0f	-0.06923496
12	0x3e18d27d	0.14924045
13	0xbd12a417	-0.03580102
14	0xbbe15369	-0.0068763983
15	0x3d5faa27	0.05460563
16	0x3db3f865	0.08787612
17	0xbd6d88fa	-0.05799196
18	0xbd8535b8	-0.06504387
19	0x3ce45d97	0.027876658
20	0xbd3b0b60	-0.045665145
21	0xbbdb430d	-0.0066913427
22	0x3ced12c0	0.028939605
23	0x3e36ecaa	0.17863718
24	0x3d9f397c	0.07774636
25	0x3c3500a5	0.011047517
26	0x3ddb0ecf	0.10696184
27	0x3c641203	0.01392031
28	0x3d7668aa	0.06015841
29	0xbd0ee8d6	-0.03489002
30	0x3cd6ab7c	0.026204817
31	0x3e5c4eb6	0.21514401
32	0x3d9f0b37	0.07765811
33	0x3d1ee287	0.038790252
34	0x3d486442	0.04892374
35	0x3ddb3baa	0.107047394
36	0x3d82f9da	0.06395312
37	0xbd988bb1	-0.07448519
38	0x3bb2f6e9	0.005461563
39	0x3d4b020c	0.0495625
40	0x3d0509f2	0.032480188
41	0x3dab494c	0.0836359
42	0xbc831140	-0.015999436
43	0xbd4fa1db	-0.050691467
44	0x3c04e3b1	0.0081109265
45	0x3dca5106	0.09878735
46	0x3da5961f	0.08085274
47	0xbd096ec3	-0.033552896
48	0x3db414ea	0.087930515

weight f4 [12, 49]
0	0xbdf2f63a	-0.1186337
1	0xbe4a5c3d	-0.19761749
2	0x3da90461	0.08252788
3	0x3e842b68	0.25814366
4	0x3df05202	0.11734392
5	0xbd99d189	-0.07510669
6	0x3e57beba	0.2106885
7	0x3e48763f	0.19576357
8	0xbd7954f4	-0.060872033
9	0x3d820eff	0.063505165
10	0x3cd44f33	0.025916671
11	0xbe41f20c	-0.1893999
12	0x3e842156	0.25806683
13	0xbc93c91e	-0.018040236
14	0xbbc0a310	-0.0058788136
15	0x3d2af27d	0.04173516
16	0xbb61f252	-0.003447671
17	0xbdb074a9	-0.08616001
18	0x3d977e4d	0.07397137
19	0x3e08a09a	0.13342515
20	0xbe0a62dd	-0.13514276
21	0x3d4814d6	0.048847996
22	0xbdd735a5	-0.10508279
23	0x3d2fb9e8	0.042901903
24	0xbe2c27c6	-0.16812047
25	0x3e31f69c	0.1737923
26	0x3d9e9510	0.07743275
27	0xbb8d7571	-0.0043169786
28	0x3e8ba4fb	0.27274308
29	0x3d56811d	0.052369226
30	0xbc269e50	-0.010169581
31	0x3db96901	0.09053231
32	0x3e120fd7	0.14263855
33	0x3cea13ae	0.028573837
34	0x3dbaa136	0.0911278
35	0x3e11651a	0.14198723
36	0xbb82218b	-0.003971284
37	0x3d7d5c67	0.0618557
38	0xbc45229a	-0.012032175
39	0x3dfee995	0.12446896
40	0xbdef48a6	-0.116837785
41	0xbe0f46a3	-0.1399179
42	0xbe1c49af	-0.15262483
43	0x3be708d2	0.007050612
44	0xbd7bb967	-0.06145611
45	0xbe07f73c	-0.13277906
46	0xbdbf5451	-0.09342254
47	0xbcbadcca	-0.022810359
48	0xbd6539f3	-0.055963468
49	0xbca53b15	-0.020169774
50	0xbd292a5d	-0.041300166
51	0x3d9a0b77	0.07521718
52	0x3d88d871	0.06681908
53	0x3e83926c	0.2569765
54	0xbc7b9501	-0.0153553495
55	0x3e479aa1	0.1949258
56	0x3e36e3bc	0.17860311
57	0x3c69c922	0.014269145
58	0xbe4a4e3a	-0.19756404
59	0xbceb792a	-0.028744299
60	0xbe03229b	-0.1280617
61	0x3d7b4c5b	0.061352115
62	0x3c74371c	0.014905717
63	0x3ce22ade	0.027608331
64	0x3df6aa8e	0.120442495
65	0xbd89e9c5	-0.06734041
66	0x3d9a9dd3	0.07549634
67	0xbd8ab23c	-0.06772277
68	0x3db1a118	0.08673304
69	0xbe00864e	-0.12551233
70	0x3e8df4c3	0.277258
71	0xbda482b4	-0.08032742
72	0x3e10d4a4	0.14143616
73	0xbc814348	-0.015779153
74	0xbbae167f	-0.0053127403
75	0xbe002f4a	-0.1251804
76	0xbdf76287	-0.120793395
77	0x3e221ff4	0.15832502
78	0x3c2340e4	0.009964202
79	0xbdb03407	-0.086036734
80	0x3e93351c	0.28751457
81	0x3e61cb79	0.22050275
82	0xbe412d9a	-0.18865052
83	0xbd8d286b	-0.06892475
84	0x3c43e294	0.011955876
85	0xbe0df4ff	-0.1386299
86	0x3d9838a7	0.074326806
87	0xbc41edcd	-0.011836481
88	0x3e51eed3	0.2050126
89	0xbd7c589f	-0.061607953
90	0xbd3c7bd5	-0.046016533
91	0xbe5f4f0c	-0.21807498
92	0xbcb1da0e	-0.021710422
93	0xbe37ea94	-0.17960578
94	0xbd47140a	-0.048603095
95	0x3df31db4	0.118709
96	0x3cedcfff	0.029029844
97	0xbdafff79	-0.085936494
98	0x3eb0e654	0.34550726
99	0x3e93e04d	0.28882065
100	0xbd30747f	-0.04307985
101	0xbd9f639a	-0.07782669
102	0xbd41b408	-0.04729083
103	0x3e8f0cf9	0.27939585
104	0xbdcb8564	-0.099375516
105	0xbd5cf83c	-0.053947672
106	0x3ecdc305	0.4018785
107	0x3e830f0b	0.25597414
108	0x3eae3195	0.34022203
109	0x3ea7a0d1	0.3273988
110	0xbe0e7438	-0.13911521
111	0x3ed0b5b0	0.40763617
112	0x3e8a10f2	0.26966053
113	0xbd3f059e	-0.046636216
114	0x3ec6103b	0.38684258
115	0x3e346c63	0.17619471
116	0x3e480447	0.19532882
117	0xbcd53bb6	-0.026029449
118	0x3ea52349	0.32253483
119	0xbe2ae107	-0.16687404
120	0x3e97a961	0.29621413
121	0x3be45e77	0.006969269
122	0x3ee85995	0.45380846
123	0x3d38c1a0	0.04510653
124	0x3c86c392	0.016450677
125	0x3eb8e54d	0.36112443
126	0xbd44d2c1	-0.048052553
127	0x3e9ef4e3	0.3104621
128	0x3ecb655c	0.3972577
129	0xbcb04d4f	-0.021521239
130	0xbe245679	-0.16048612
131	0x3eb2b409	0.3490298
132	0x3e8b4409	0.27200344
133	0x3d9cd9d3	0.07658734
134	0x3c0d4955	0.008623441
135	0x3d9239d7	0.07139938
136	0x3ec8506a	0.3912385
137	0xbb872317	-0.004124056
138	0x3e1cfd51	0.15331008
139	0x3eb89f4e	0.3605904
140	0x3ed5266a	0.4163087
141	0x3ecc2bc3	0.39877138
142	0x3e9b07fe	0.30279535
143	0x3e784588	0.24245274
144	0x3d35305b	0.04423557
145	0x3e99a803	0.30010995
146	0x3e1aacef	0.15105031
147	0xbde2a8a7	-0.11067324
148	0xbe11f74d	-0.14254494
149	0x3e0fe452	0.14051941
150	0xbcb68159	-0.022278475
151	0x3d92dad9	0.07170648
152	0xbd8f9880	-0.07011509
153	0x3db26cb3	0.08712139
154	0x3e7456c1	0.23861219
155	0xbe404f5b	-0.18780272
156	0xbe04a58b	-0.12953775
157	0x3d1cbbf9	0.038265202
158	0xbdd936f7	-0.10606187
159	0x3db04363	0.08606603
160	0xbdd3b491	-0.10337175
161	0xbde00372	-0.10938157
162	0x3e790858	0.24319589
163	0xbe10eae1	-0.14152099
164	0xbd6786c0	-0.056524992
165	0x3b2a4a71	0.0025984312
166	0x3ccf96ed	0.025340522
167	0x3dad8f56	0.08474605
168	0x3dec8230	0.11548269
169	0xbe433278	-0.19062221
170	0x3e3b2f5f	0.1827979
171	0xbdf40029	-0.11914093
172	0x3e362c66	0.17790374
173	0x3db4557e	0.08805369
174	0x3d8f83ec	0.07007584
175	0x3e255784	0.16146666
176	0xbdab78f7	-0.083726816
177	0xbe3ea1d1	-0.18616416
178	0x3e489785	0.1958905
179	0x3daafb9a	0.083487704
180	0x3d7f51ce	0.062333874
181	0xbe35ab3b	-0.177411
182	0x3e61b473	0.22041492
183	0x3d822acb	0.06355818
184	0xbd448f42	-0.047988184
185	0xbe32c2d2	-0.1745713
186	0x3e225f5f	0.15856694
187	0xbe243698	-0.16036451
188	0xbe03d3f7	-0.12873827
189	0xbb6d308b	-0.0036192264
190	0x3d9ecc92	0.077538624
191	0xbe1974d1	-0.14985968
192	0x3ddc4116	0.10754602
193	0x3b91798c	0.0044395383
194	0x3da9c726	0.08289938
195	0x3dc1ef64	0.09469488
196	0x3ec6b50d	0.38810006
197	0x3ea1445c	0.31497467
198	0x3c619501	0.013768435
199	0xbe30a94f	-0.17252086
200	0xbd36d725	-0.04463877
201	0x3e75cc53	0.24003725
202	0x3d7756b5	0.060385425
203	0xbdbc9e5a	-0.09209891
204	0x3ee7ade6	0.4524986
205	0x3e6b3b5e	0.22971866
206	0x3ef4b0fb	0.47791275
207	0x3ee5d2f4	0.44887507
208	0xbe094ccd	-0.13408203
209	0x3efe6200	0.49684143
210	0x3ef20d9e	0.47276014
211	0x3d3a2594	0.045445994
212	0x3ec6b4fb	0.38809952
213	0x3ecdcd75	0.40195814
214	0x3e9d5732	0.30730587
215	0x3e1acbd6	0.1511682
216	0x3ec5ba30	0.38618612
217	0xbd759f64	-0.05996646
218	0x3e83b898	0.2572677
219	0xbce99d65	-0.028517434
220	0x3eabf5e0	0.33586025
221	0x3e0410f6	0.12897095
222	0x3e8fbd7f	0.28074262
223	0x3e8f282a	0.2796033
224	0xbe304b3b	-0.17216198
225	0x3eeea316	0.466088
226	0x3ef1c68d	0.47221795
227	0xbe2aaeca	-0.16668239
228	0xbdf490de	-0.11941694
229	0x3ed4e1e3	0.41578588
230	0x3e26b256	0.16278967
231	0xbda606c6	-0.08106761
232	0xbd8ffcd5	-0.07030646
233	0xbe01b452	-0.12666443
234	0x3ec9876e	0.39361137
235	0xbe57d09d	-0.21075673
236	0x3ed97303	0.4247056
237	0x3ed439f9	0.4145048
238	0x3f10d44a	0.5657393
239	0x3f037192	0.5134517
240	0x3f0b418c	0.5439689
241	0x3e21811d	0.15771909
242	0x3e0ed95e	0.13950107
243	0x3e5cf9a4	0.21579605
244	0x3bd1342d	0.0063843937
245	0x3f09ece8	0.53877115
246	0x3ef24292	0.47316414
247	0xbd8e8dd0	-0.06960642
248	0xbd38297b	-0.044961434
249	0x3ce9072f	0.028445808
250	0x3e451920	0.19247866
251	0xbd403065	-0.046921153
252	0xbe1f0417	-0.15528904
253	0x3f0d5657	0.5520987
254	0x3ef0a8e1	0.47003844
255	0x3ea0e15c	0.31421936

bias f4 [12]
0	0x3d6629d5	0.056192238
1	0x3e35e6c7	0.17763816
2	0x3d043714	0.03227909
3	0x3e36e078	0.17859066
4	0x3ce57fd1	0.02801505
5	0xbd5f44bd	-0.054508913
6	0xbcdf2d2a	-0.027243216
7	0x3d808e60	0.06277156
8	0x3e93f129	0.28894928
9	0x3cf6d0a3	0.030128783
10	0xbd44ca18	-0.048044294
11	0x3e7b1359	0.245191

weight f4 [2, 12]
0	0x3e9894ac	0.29800928
1	0x3ebce2d8	0.36891818
2	0xbf7031f7	-0.9382624
3	0x3efa2dbe	0.48863024
4	0xbf8b73dc	-1.0894732
5	0xbf6f3b88	-0.9345021
6	0xbdb7a6c8	-0.08967358
7	0xbf6d22c4	-0.92631173
8	0x3e2e35c9	0.17012705
9	0xbf8b2378	-1.0870199
10	0xbf88f8f0	-1.070097
11	0x3e9e057d	0.30863562
12	0xbe69497e	-0.22781941
13	0xbdc65fb9	-0.096862264
14	0x3ea9245d	0.33035555
15	0xbe533d65	-0.20628889
16	0x3e759b3d	0.23985
17	0x3e131e80	0.14367104
18	0xbe89cc61	-0.2691374
19	0x3e8001a4	0.25001252
20	0xbdf43e08	-0.11925894
21	0x3eba2676	0.36357468
22	0x3ea7a267	0.3274109
23	0xbea68817	-0.32525703

bias f4 [2]
0	0xbe834b21	-0.25643256
1	0xbd4f47a3	-0.050605427
