Network2/params/mlp_wParams0816163142.pth (torch_old, 238047 bytes, 8 tensors)

weight f4 [189, 189]
-0.20132399 0.6926772 -0.19482362 0.51365846 0.7520068 0.45403606 0.39513394 0.64113045
0.50129277 -0.052804004 -0.17459366 0.7229759 0.66187817 0.13373186 0.34896487 0.58744276
0.14575636 0.34522557 0.67533326 -0.06254775 -0.2294987 0.9202598 0.50473833 0.44897342
0.82117635 0.6083333 0.61990684 -0.1702269 0.7731202 -0.02912601 0.69862574 0.62751865
0.59830934 0.49591526 0.3512085 0.59260267 -0.07213999 -0.17077404 0.7772472 -0.104148425
0.7708722 0.38733277 0.07563065 0.7224187 0.32768163 0.6270484 -0.07647536 -0.20642564
0.78879786 0.5977736 0.29277307 0.59343517 0.39473027 0.49520978 -0.21771307 0.69765705
-0.16533421 0.48707315 0.6723789 0.033790242 0.42262867 0.4557217 0.104155816 -0.16175123
-0.18169379 0.68458945 0.21558966 0.21522692 0.17201598 0.21398054 0.37205073 0.21587114
0.74044645 -0.14924882 -0.17288156 0.8231407 0.5871531 0.28495517 0.8223641 0.45629907
0.46070352 -0.09256618 0.73231757 -0.08287166 0.4659975 0.7304118 0.15341344 0.40523267
0.60166717 0.21302915 -0.106089264 -0.088721134 0.66807574 -0.05808702 0.7530223 0.4318211
0.032646146 0.7099219 0.2356617 0.68609196 -0.1826369 -0.17315753 0.82234436 0.44899735
0.30666232 0.7346642 0.4941423 0.4005886 -0.12005142 0.59283614 -0.09589977 0.66552776
0.60260254 0.012409686 0.60332584 0.45638594 0.19620822 -0.18654597 -0.16101637 0.5737178
-0.4543678 0.6684015 0.22900887 -0.2858226 0.70442003 0.2738593 0.6358686 -0.12657727
-0.15092182 0.65845037 0.5113243 0.23943609 0.63103795 0.42833668 0.5359207 -0.12314116
0.58838224 -0.074788176 0.59880376 0.61277735 0.37169415 0.46540958 0.5380319 0.37683648
-0.053070076 -0.14177863 0.58446413 -0.044477116 0.77729005 0.36820146 -0.049111895 0.934347
0.38087448 0.58589214 -0.0380658 -0.2187395 1.0723249 0.64227724 0.24118443 0.9591779
0.5324487 0.5489512 -0.20856689 0.6319895 -0.014962331 0.57226986 0.6231569 0.5247762
0.45089838 0.35239103 0.6200922 0.057984617 -0.24267465 0.6193038 0.5923336 0.10507386
0.55098534 0.50140274 0.3492631 0.47540605 0.981725 -0.021595065 -0.20966287 0.9849856
0.74187165 0.45131248 0.6467893 0.6140592 0.5746262 0.19266847 0.97615796 0.30733097
0.90076005 1.0197848 1.197645 0.9401615 1.0924911 1.3461598 0.3339319 0.064174585
0.9379219 1.0530711 0.8435568 1.2582836 1.2009249 1.0410554 1.4795933 0.93206125
0.348034 0.20048061 1.2311445 1.1113031 1.2877961 1.3000414 1.2471658 1.3387338
0.09116138 0.88589245 0.27614713 0.82648313 1.1155566 1.3848134 0.8806382 1.362309
1.337376 0.3056492 0.072167456 0.9649149 1.2103509 0.7756303 1.3306687 1.2558181
1.0399073 1.4438262 0.9639758 0.38842586 0.07463712 1.2667711 1.2736189 1.4709381
1.4303384 1.36645 1.3669118 0.14846608 1.041898 0.29495552 1.0379072 1.1892123
1.209871 1.0974451 1.1959431 1.0874554 0.40533274 0.10623802 0.94418424 0.5962223
00000000: e027 4ebe 4b53 313f d87f 47be 1f7f 033f
00000010: 8583 403f 6a77 e83e ff4e ca3e 2021 243f
00000020: b954 003f 0349 58bd aec8 32be f314 393f
00000030: d970 293f 01f1 083e 86ab b23e a662 163f
00000040: 2841 153e 68c1 b03e a4e2 2c3f 0919 80bd
00000050: b501 6bbe 2596 6b3f 8836 013f d8df e53e
00000060: 9d38 523f bbbb 1b3f 37b2 1e3f f64f 2ebe
00000070: 35eb 453f ac99 eebc 23d9 323f 10a5 203f
00000080: cd2a 193f 9be8 fd3e 9ad1 b33e cfb4 173f
00000090: 22be 93bd 64df 2ebe acf9 463f c54b d5bd
000000a0: e157 453f 7b50 c63e 3ee4 9a3d 6ff0 383f
000000b0: e3c5 a73e 3e86 203f 1d9f 9cbd 3e61 53be
000000c0: a8ee 493f b107 193f 5ae6 953e 5eeb 173f
000000d0: 161a ca3e 238c fd3e 2df0 5ebe a799 323f
000000e0: 5f4d 29be a761 f93e 0621 2c3f a367 0a3d
000000f0: c962 d83e 5b54 e93e a54f d53d 1da2 25be
00000100: f00d 3abe 4141 2f3f 89c3 5c3e 7264 5c3e
00000110: f524 303e b71d 5b3e 6f7d be3e 530d 5d3e
00000120: e68d 3d3f afd4 18be dd07 31be 59b9 523f
00000130: aa4f 163f a5e5 913e 7486 523f 08a0 e93e
00000140: 55e1 eb3e 5693 bdbd 2a79 3b3f 9eb8 a9bd
00000150: 3997 ee3e 45fc 3a3f 6a18 1d3e a87a cf3e
00000160: dc06 1a3f 5024 5a3e 5445 d9bd 6db3 b5bd
00000170: 0307 2b3f a8ec 6dbd 12c6 403f a817 dd3e
00000180: f7b7 053d 71bd 353f 4d51 713e b9a3 2f3f
00000190: 2b05 3bbe 3550 31be 2985 523f fbe2 e53e
000001a0: d802 9d3e f412 3c3f 3800 fd3e f319 cd3e
000001b0: 85dd f5bd 1cc4 173f 1967 c4bd 0760 2a3f
000001c0: 2944 1a3f ff51 4b3c 9073 1a3f 6bab e93e
000001d0: cfea 483e e805 3fbe 7ae1 24be 2bdf 123f
000001e0: e5a2 e8be 5c1c 2b3f 4d81 6a3e 5757 92be
000001f0: df54 343f 4937 8c3e 49c8 223f 799d 01be
00000200: 408b 1abe 3490 283f 26e6 023f bc2e 753e
00000210: b48b 213f f24e db3e 1932 093f 6f31 fcbd
00000220: 38a0 163f 8b2a 99bd 344b 193f fade 1c3f
00000230: b24e be3e 2a4a ee3e 75bc 093f b6f0 c03e
00000240: 0260 59bd 6b2e 11be 719f 153f a32d 36bd
00000250: 7bfc 463f e784 bc3e 8e29 49bd 5d31 6f3f
00000260: fb01 c33e 07fd 153f e2ea 1bbd 3ffd 5fbe
00000270: f141 893f 486c 243f 0df9 763e af8c 753f
00000280: 8f4e 083f 1188 0c3f 8f92 55be 10ca 213f
00000290: 9124 75bc 4780 123f 3687 1f3f bc57 063f
000002a0: 27dc e63e 996c b43e 5dbe 1e3f 4781 6d3d
000002b0: b47f 78be b28a 1e3f 2da3 173f f730 d73d
000002c0: 600d 0d3f ee5b 003f 9dd2 b23e 6c68 f33e
000002d0: 5452 7b3f 22e8 b0bc ddb1 56be 0428 7c3f
000002e0: 4deb 3d3f 6e12 e73e fc93 253f fc32 1d3f
000002f0: b41a 133f e24a 453e 7de5 793f 7c5a 9d3e
00000300: 3698 663f 4f88 823f 6e4c 993f 6dae 703f
00000310: c0d6 8b3f f74e ac3f 1ff9 aa3e f76d 833d
00000320: a61b 703f 09cb 863f 57f3 573f 700f a13f
00000330: e8b7 993f 4e41 853f 5063 bd3f 919b 6e3f
00000340: 8331 b23e ca4a 4d3e 2596 9d3f 2e3f 8e3f
00000350: 81d6 a43f c267 a63f 21a3 9f3f a15b ab3f
00000360: d1b2 ba3d d9c9 623f 2863 8d3e 6694 533f
00000370: 8fca 8e3f 9141 b13f 8171 613f 2460 ae3f
00000380: 232f ab3f 0d7e 9c3e 88cc 933d aa04 773f
00000390: c7ec 9a3f b58f 463f 5a53 aa3f a6be a03f
000003a0: af1b 853f 4ccf b83f 1ec7 763f c1df c63e
000003b0: 59db 983d 8e25 a23f f205 a33f b347 bc3f
000003c0: 5415 b73f d5e7 ae3f f7f6 ae3f 7e07 183e
000003d0: ea5c 853f 6904 973e 25da 843f 1c38 983f
000003e0: 0edd 9a3f 1579 8c3f aa14 993f bd31 8b3f
000003f0: c687 cf3e 5293 d93d 0fb6 713f 06a2 183f

bias f4 [189]
0.615537 1.6946609 -0.24961829 -0.021034637 0.39378494 -0.1392202 0.63576484 0.041229706
0.14438227 0.5997914 -0.34458163 -0.60494363 -0.11988406 -0.050735828 -0.431078 1.4867692
0.14596888 -0.43618017 -0.24595731 0.6177508 0.15317827 -0.16500059 -0.24030678 -0.26071244
-0.365621 -0.8539451 1.5092958 0.97754186 -0.76019233 0.9278213 -0.097405784 -0.15595472
-0.47053367 1.5487906 0.029568905 0.1704752 0.26224804 -0.5359856 1.6503427 -0.16288301
0.31093967 0.4813199 -0.2010929 0.85031873 0.0055178665 0.09638015 0.14983667 0.47018528
-0.09782499 0.104924984 0.48426247 -0.22010559 0.52950424 -0.7328514 -0.05480579 0.18292095
-0.24289072 0.24186963 0.29154983 1.0691009 0.31595328 0.27955186 -0.2904089 -0.78523684
-0.4816858 0.3328366 1.1622329 0.40634102 -0.6173155 -0.06660383 -0.8205779 0.64395654
0.89678544 -0.6901408 0.16200759 0.30981433 0.21859497 0.8830899 -0.3148298 -0.15007925
0.13361345 -0.430962 0.049229033 0.17989144 -0.26540178 0.009946973 0.084148705 -0.6855734
0.9278926 0.331225 0.37816802 0.310176 0.019960213 -0.20781001 1.4696352 1.1891258
0.94362813 -0.19285509 -0.3279991 -0.09389805 -0.23649617 0.62621564 1.0075948 -0.45208704
-0.035742216 0.1566796 0.27817482 -0.53585136 -0.02214092 0.13832155 0.87471163 0.15070356
0.17086639 -0.62243414 -0.09370248 0.8359199 -0.07501595 0.7071145 0.36513206 0.2391325
0.3089051 -0.65879345 0.3996171 -0.5610793 0.13046981 -0.19235085 0.1600084 0.089386426
-0.27240357 0.5557596 -0.07569954 0.7571966 1.1233251 0.15933219 0.06450821 0.34624362
0.114357114 1.1706064 -0.40562993 0.10308416 -0.19629706 -0.01964312 0.5997147 0.12597588
-0.3442446 0.37905428 -0.35945165 0.04048793 -0.46757272 1.4846039 1.1923658 0.55787754
0.1933948 0.66532975 0.32387975 0.53219795 -0.3682207 0.8307396 0.06017791 0.19516604
0.6957881 0.896241 -0.26140153 -0.773224 1.5435444 0.63648736 -0.4645173 -0.31920534
-0.30457565 -0.43103865 -0.5868679 -0.2895054 -0.1646448 1.0526987 0.9414323 0.6631735
0.41246286 0.29913 -0.38836074 0.39157197 0.39564466 0.77833664 1.007051 0.3018941
-0.24760987 0.068634905 -0.3363257 0.30263358 0.15156883
00000000: d593 1d3f a6ea d83f f09b 7fbe d550 acbc
00000010: 2e9e c93e bd8f 0ebe 7cc1 223f 7be0 283d
00000020: f2d8 133e ee8b 193f 016d b0be 96dd 1abf
00000030: c685 f5bd 5fd0 4fbd 41b6 dcbe 744e be3f
00000040: de78 153e 0253 dfbe 3cdc 7bbe eb24 1e3f
00000050: c4da 1c3e eaf5 28be fb12 76be 1a7c 85be
00000060: ad32 bbbe 259c 5abf 9b30 c13f 2f40 7a3f
00000070: f79b 42bf b285 6d3f af7c c7bd 98b2 1fbe
00000080: cae9 f0be c53e c63f 7d3a f23c 0d91 2e3e
00000090: 6045 863e 5a36 09bf 6e3e d33f ceca 26be
000000a0: 7c33 9f3e 906f f63e 4ceb 4dbe 7dae 593f
000000b0: 38cf b43b f562 c53d c96e 193e 20bc f03e
000000c0: 7858 c8bd e9e2 d63d 40f1 f73e 5c63 61be
000000d0: 978d 073f 269c 3bbf 097c 60bd a14f 3b3e
000000e0: 58b8 78be acac 773e 0546 953e 4cd8 883f
000000f0: a1c4 a13e 6c21 8f3e 7ab0 94be 4805 49bf
00000100: 859f f6be 8f69 aa3e 0cc4 943f ee0b d03e
00000110: 6308 1ebf 9767 88bd 6511 52bf 56da 243f
00000120: bb93 653f 11ad 30bf 51e5 253e fc9f 9e3e
00000130: 5cd7 5f3e 2e12 623f 5f31 a1be 60ae 19be
00000140: f7d1 083e 0da7 dcbe 62a4 493d 7635 383e
00000150: bee2 87be a1f8 223c 2856 ac3d bd81 2fbf
00000160: 5f8a 6d3f 5396 a93e 3d9f c13e 64cf 9e3e
00000170: 9a83 a33c 26cc 54be 021d bc3f 4635 983f
00000180: 9d91 713f ce7b 45be 7fef a7be 9f4d c0bd
00000190: 0d2c 72be ab4f 203f def8 803f f477 e7be
000001a0: 6e66 12bd 9e70 203e ee6c 8e3e 8e2d 09bf
000001b0: e060 b5bc 2aa4 0d3e 1aed 5f3f 0952 1a3e
000001c0: 99f7 2e3e d857 1fbf 16e7 bfbd d9fe 553f
000001d0: f6a1 99bd 7505 353f 97f2 ba3e 26df 743e
000001e0: cf28 9e3e b0a6 28bf 9d9a cc3e e5a2 0fbf
000001f0: e199 053e 9ff7 44be 3ed9 233e 3b10 b73d
00000200: 7b78 8bbe 4346 0e3f 5c08 9bbd a3d7 413f
00000210: 1ec9 8f3f fa27 233e e11c 843d d846 b13e
00000220: 1034 ea3d 6ed6 953f baae cfbe ca1d d33d
00000230: 1902 49be 9cea a0bc e786 193f d2ff 003e
00000240: d440 b0be 6713 c23e 0c0a b8be acd6 253d
00000250: b165 efbe 8007 be3f 719f 983f 10d1 0e3f
00000260: 4909 463e 0d53 2a3f 91d3 a53e 203e 083f
00000270: 6c87 bcbe 5aab 543f 1d7d 763d 9bd9 473e
00000280: 2b1f 323f 0d70 653f 6cd6 85be 02f2 45bf
00000290: dd92 c53f d6f0 223f 36d5 edbe e26e a3be
000002a0: 57f1 9bbe 19b1 dcbe fa3c 16bf 0d3a 94be
000002b0: a598 28be d5be 863f b501 713f bdc5 293f
000002c0: 552e d33e 9127 993e 38d7 c6be 1f7c c83e
000002d0: f091 ca3e 1241 473f 0ce7 803f dd91 9a3e
000002e0: 718d 7dbe 7590 8c3d e232 acbe caf2 9a3e
000002f0: dc34 1b3e

weight f4 [94, 189]
-0.6742875 -0.36484346 0.048350908 -0.11315356 -0.22117984 -0.22226049 0.16504872 -0.08933222
0.40913513 -0.31640112 0.050326243 0.40719253 0.44821626 -0.35509798 -0.0015059365 0.07315161
0.31409138 -0.22737788 -0.3862144 -0.6937226 0.31220332 0.089446984 0.37697777 0.12990807
0.47802094 0.2928765 -0.015495909 -0.8058605 0.58965105 -0.8334167 0.10248429 -0.41205242
0.3660384 -0.40779248 0.13184613 -0.1966225 0.2563483 0.19072126 -0.13517478 -0.096748516
0.18621558 0.18223435 0.2758603 0.42298767 -0.23216215 0.29381114 0.1383682 -0.40869713
0.1263866 0.10609907 -0.24413373 -0.27862155 -0.055968586 0.43673763 0.38104904 -0.43626788
0.0721392 0.06057124 -0.25011644 -0.36131236 0.41157243 0.20580132 -0.2777577 0.48638666
0.08587402 -0.17826138 -0.3926462 -0.29783416 -0.11793286 0.38898867 0.24745725 -0.21442768
-0.21229401 0.30455434 -0.55569035 0.31892392 0.01703504 -0.21629827 0.043548785 -0.73835605
-0.54862314 0.481403 0.1135339 -0.0539031 0.106904134 -0.79429615 0.51856714 0.59001267
-0.50719225 -0.38085344 -0.30814123 0.15548316 0.027813042 -0.052705217 -0.11792308 0.05926045
-0.026810423 0.13444932 0.020522475 0.108636916 -0.17151517 -0.30354062 0.21514723 0.27805683
-0.54087436 0.6404837 -0.30882227 0.1017988 -0.03593534 0.42558664 0.2276012 0.38646665
-0.52384704 0.5101684 0.10618419 -0.56372064 -0.04269696 -0.45655712 0.053564996 0.27811036
0.4805634 0.548833 -0.1862019 0.023476707 0.14205773 0.4395075 0.16774851 0.41467425
0.41917694 -0.46163175 0.40215176 -0.19372956 -0.49113756 -0.26154867 -0.406719 -0.24016786
-0.12321318 -0.3283179 -0.12020094 0.10374141 -0.10348027 0.1908063 -0.1343872 0.57224244
-0.10466257 -0.09747642 0.122918464 -0.2921466 -0.46815598 -0.4074787 -0.25296858 0.037646938
0.31961083 -0.5938399 -0.21308064 -0.8021219 0.25870174 0.22322644 -0.39304623 -0.32890028
-0.4273773 0.34252933 0.35240462 0.34648743 -0.7329767 0.32790375 0.445704 0.3963458
0.41448638 -0.27294195 0.062746696 0.13021708 -0.28282508 -0.14944893 -0.6298769 -0.4135071
-0.75367427 -0.49632546 0.20184186 -0.030774033 0.07865067 -0.69471055 0.15325369 -0.15929292
0.055516373 0.36727932 0.1587668 -0.37146145 -0.15432255 0.27237743 -0.097381026 -0.06598849
0.14437412 0.37479526 -0.092636816 -0.44789678 0.2489508 -0.21414319 0.40857252 -0.19220126
-0.23114854 -0.48055488 0.3845687 0.46088427 0.40969297 -0.07916223 0.2969878 0.21978724
0.71574533 0.06360839 -0.01985536 -0.41403928 0.16170377 -0.41654623 -0.06351474 0.5284933
0.4240185 -0.35306248 0.30843094 0.29274288 0.43288994 -0.3509615 0.42473888 -0.29147992
0.1319703 -0.010019023 0.20071281 0.3585948 -0.0790037 -0.30193257 -0.03454593 -0.16317362
-0.08305878 0.1644974 -0.23594625 -0.15802394 0.39720523 -0.18217827 0.26604676 0.56608504
0.008454838 -0.10967729 -0.2713663 -0.23725742 0.87453157 -0.26786122 -0.11408948 0.58210903
-0.0029186415 -0.09958089 -0.27818024 0.6170963 -0.24535927 -0.12383639 0.05950128 -0.038909055
00000000: 1b9e 2cbf c3cc babe 9a0b 463d 0ebd e7bd
00000010: f87c 62be 4198 63be 8802 293e d0f3 b6bd
00000020: 297a d13e 54ff a1be e422 4e3d 8a7b d03e
00000030: 9a7c e53e 67cf b5be d862 c5ba 83d0 953d
00000040: 96d0 a03e bfd5 68be e5bd c5be ce97 31bf
00000050: 1dd9 9f3e fb2f b73d 3b03 c13e 9f06 053e
00000060: 29bf f43e e9f3 953e 8ee2 7dbc e04c 4ebf
00000070: 5ff3 163f cc5a 55bf 49e3 d13d 89f8 d2be
00000080: 6369 bb3e 2dca d0be ac02 073e 6957 49be
00000090: 1640 833e 6f4c 433e 426b 0abe 1624 c6bd
000000a0: 4caf 3e3e a49b 3a3e 903d 8d3e d791 d83e
000000b0: eabb 6dbe 6a6e 963e 65b0 0d3e c040 d1be
000000c0: 7d6b 013e 784a d93d 31fe 79be 7ca7 8ebe
000000d0: 513f 65bd 139c df3e dc18 c33e 815e dfbe
000000e0: b8bd 933d 8c19 783d 430f 80be effd b8be
000000f0: 9fb9 d23e 95bd 523e 4236 8ebe ac07 f93e
00000100: b8de af3d 278a 36be ec08 c9be b87d 98be
00000110: c986 f1bd 8629 c73e 6f65 7d3e ee92 5bbe
00000120: 9a63 59be 8cee 9b3e b941 0ebf ff49 a33e
00000130: 118d 8b3c 4b7d 5dbe 3660 323d e704 3dbf
00000140: 9172 0cbf 747a f63e 7684 e83d 7fc9 5cbd
00000150: 8ef0 da3d fe56 4bbf d1c0 043f 120b 173f
00000160: 5ad7 01bf 39ff c2be b0c4 9dbe fa36 1f3e
00000170: 2dd8 e33c 6de1 57bd a881 f1bd 16bb 723d
00000180: 88a1 dbbc 15ad 093e c01e a83c 087d de3d
00000190: aca1 2fbe ad69 9bbe 8e4f 5c3e 775d 8e3e
000001a0: be76 0abf bdf6 233f f41d 9ebe e47b d03d
000001b0: ef30 13bd 7ee6 d93e 4a10 693e f5de c53e
000001c0: d71a 06bf 659a 023f 1977 d93d ff4f 10bf
000001d0: 02e3 2ebd dbc1 e9be f866 5b3d 7b64 8e3e
000001e0: 680c f63e 5280 0c3f b6ab 3ebe 3952 c03c
000001f0: 9577 113e 2107 e13e 44c6 2b3e 2f50 d43e
00000200: 5c9e d63e ff5a ecbe d6e6 cd3e 0b61 46be
00000210: 6276 fbbe b5e9 85be 793d d0be 90ee 75be
00000220: 3157 fcbd 4919 a8be e92b f6bd 6076 d43d
00000230: 77ed d3bd ba62 433e cc9c 09be 7b7e 123f
00000240: 5459 d6bd b8a1 c7bd adbc fb3d 3d94 95be
00000250: 24b2 efbe 0ca1 d0be 1985 81be ad33 1a3d
00000260: 08a4 a33e e405 18bf d031 5abe dc57 4dbf
00000270: 8e74 843e 7995 643e 5b3d c9be 9e65 a8be
00000280: 33d1 dabe 0160 af3e 616e b43e cd66 b13e
00000290: 5ca4 3bbf 00e3 a73e 5133 e43e d6ed ca3e
000002a0: 8f37 d43e 0cbf 8bbe 5781 803d a057 053e
000002b0: 73ce 90be 2409 19be 9d3f 21bf 34b7 d3be
000002c0: ccf0 40bf 5f1e febe a2af 4e3e d319 fcbc
000002d0: 9a13 a13d 8dd8 31bf 89ee 1c3e af1d 23be
000002e0: 2365 633d 090c bc3e c493 223e 3230 bebe
000002f0: bb06 1ebe 0e75 8b3e b46f c7bd f924 87bd
00000300: cfd6 133e 2ae5 bf3e 5fb8 bdbd ba52 e5be
00000310: f5ec 7e3e 5a48 5bbe 6b30 d13e 68d0 44be
00000320: 34b2 6cbe 4a0b f6be 30e6 c43e 06f9 eb3e
00000330: 47c3 d13e cf1f a2bd c90e 983e e80f 613e
00000340: 163b 373f 1e45 823d b5a7 a2bc f5fc d3be
00000350: ac95 253e 8c45 d5be 0414 82bd 564b 073f
00000360: f418 d93e 9bc4 b4be a9ea 9d3e 65e2 953e
00000370: c0a3 dd3e 3ab1 b3be 6077 d93e db3c 95be
00000380: 3923 073e d426 24bc a987 4d3e bd99 b73e
00000390: b1cc a1bd e896 9abe 0880 0dbd fc16 27be
000003a0: b91a aabd 0272 283e e59b 71be 07d1 21be
000003b0: 7c5e cb3e f18c 3abe 4837 883e f3ea 103f
000003c0: 2986 0a3c 7d9e e0bd 86f0 8abe 9cf3 72be
000003d0: 4de1 5f3f 1b25 89be bfa7 e9bd 1905 153f
000003e0: ae46 3fbb 11f1 cbbd a46d 8ebe 06fa 1d3f
000003f0: 763f 7bbe ef9d fdbd 9db7 733d 1a5f 1fbd

bias f4 [94]
-0.38676623 0.24997081 -0.32503155 0.507466 1.1655225 0.47185397 -0.06612172 0.06849582
-0.0022719158 0.27981934 0.13196382 0.34141704 0.83920664 0.26196936 0.26261032 -0.49935454
-0.3151819 0.32951194 0.31647202 0.08829135 0.08039478 0.7321571 0.10515624 0.30167142
0.0538816 -0.27537316 0.0879542 0.051206708 -0.19220898 0.45764017 -0.5393079 0.27109513
0.5022374 0.44401422 1.0747619 -0.11505603 -0.31732014 0.5784729 0.610079 -0.517582
-0.4561485 -0.70503885 -0.13909 0.23602748 0.28623512 -0.0388949 0.027285248 0.3673478
0.055776745 0.2864202 -0.5202237 -0.0172972 0.5760272 0.52207226 0.46024242 0.12128675
0.33729547 0.5392866 0.1609128 -0.13953534 -0.103090115 1.1936028 -0.00783457 0.16233622
0.59573716 0.27812636 0.6419945 0.34432614 0.40434372 0.30313757 -0.49296337 -0.41975424
0.09277539 0.22513786 -0.6529566 0.5104341 -0.18834974 0.50408167 0.124104194 0.0015442289
-0.20800641 -0.3466877 0.57746947 0.566605 0.24577406 -0.16112901 0.19133121 0.7734264
-0.35175988 -0.3818596 0.65368825 -0.06821778 0.55947006 0.65179545
00000000: 3906 c6be 59f8 7f3e 896a a6be 4be9 013f
00000010: d72f 953f d896 f13e d36a 87bd 8947 8c3d
00000020: 6ce4 14bb 7b44 8f3e 8621 073e 37ce ae3e
00000030: 3fd6 563f d920 863e dc74 863e 66ab ffbe
00000040: 865f a1be cab5 a83e 9f08 a23e 18d2 b43d
00000050: 05a6 a43d a66e 3b3f 285c d73d ad74 9a3e
00000060: f4b2 5c3d b6fd 8cbe 5521 b43d 20be 513d
00000070: 6ed2 44be d04f ea3e 1510 0abf fbcc 8a3e
00000080: a192 003f d555 e33e cc91 893f 7fa2 ebbd
00000090: c977 a2be cd16 143f 232e 1c3f 4180 04bf
000000a0: 4c8c e9be 6d7d 34bf 9c6d 0ebe 30b1 713e
000000b0: 698d 923e 4250 1fbd 5085 df3c 0315 bc3e
000000c0: 2876 643d aba5 923e 612d 05bf dcb2 8dbc
000000d0: 8576 133f 87a6 053f e5a4 eb3e 3065 f83d
000000e0: feb1 ac3e b00e 0a3f 53c6 243e 5ae2 0ebe
000000f0: e920 d3bd fac7 983f 915c 00bc 773b 263e
00000100: 3b82 183f 9466 8e3e c059 243f 844b b03e
00000110: 2406 cf3e d934 9b3e b265 fcbe 07ea d6be
00000120: 0601 be3d 8a8a 663e 2a28 27bf cfab 023f
00000130: c1de 40be 7f0b 013f 572a fe3d b967 ca3a
00000140: a2ff 54be 0d81 b1be 0ad5 133f 060d 113f
00000150: 32ac 7b3e 01ff 24be 54ec 433e 46ff 453f
00000160: df19 b4be 1a83 c3be 1d58 273f c3b5 8bbd
00000170: 6e39 0f3f 11dc 263f

weight f4 [23, 94]
-0.09909587 -0.89879286 0.094630666 -0.513151 -0.88886225 -0.9711487 -0.985097 -0.2231594
-0.9451908 -0.94328934 -0.39347816 0.62623805 0.2652114 -0.54854375 0.013104314 -0.06810767
-1.2639196 0.118525274 -0.0583825 -1.6254141 -0.34333712 -0.5481599 -0.29762256 0.20971225
-0.7030953 -0.5909832 0.3517143 -0.88909316 0.25180244 -1.1721408 -1.1277634 0.18330382
-0.9595522 -0.14220886 -1.3079766 -0.8993958 0.85170686 0.028682413 -0.79306453 0.346149
-0.87848526 -0.00076834176 -0.5577414 -0.6786767 0.03744564 -0.06858342 -0.33813414 0.031164618
-0.941127 -0.5385821 -0.80110323 -0.29751754 -0.6448486 -0.0019902354 -0.49253866 0.26360634
0.29373732 -0.62581336 -0.29607904 0.24297385 -1.4867924 -1.1586666 0.5088227 0.63980615
-1.9210085 -1.6905036 -0.48534456 -0.3869908 -0.86828834 0.024967056 0.30952486 0.6233473
-1.2260702 -0.2542518 -0.13008577 -0.43697292 0.52061397 -0.69750035 -0.7408613 -0.8764184
0.41660544 -0.092498966 -0.5407997 -0.37717187 0.17776202 0.7098424 0.15692532 -1.5341935
0.48289412 -0.8361576 -0.41707358 -1.2867303 -0.70102143 -0.39698157 0.3820542 -0.20302357
-0.16752374 -0.6456966 0.04480266 -0.35620567 -0.4683278 -0.44971493 -0.8996687 -0.48100248
-0.5737989 -0.32350475 -0.07580549 -0.18008877 0.5652983 -0.20433138 -0.6122598 -0.105898686
-0.36650637 -0.88362455 0.68630284 -0.45097235 -0.24474753 0.3081637 -0.49909344 -0.47943324
0.16886546 -0.12861127 -0.11575091 -0.1278527 -0.6152887 0.51706195 -0.35161418 -0.5446481
-0.47103634 -0.7236545 -0.12511931 -0.35698608 -0.521039 0.53052104 -0.48623037 -0.3545722
0.19123772 -0.06997324 0.647754 -0.17538537 -0.0013310633 0.29325938 -0.21678653 -0.15464783
0.111291915 -0.08277353 0.19726507 0.98173195 -0.7429372 0.18038979 0.22778982 -0.014962719
-0.020187935 0.45082456 -0.56399876 -0.4485487 0.34019753 0.6025325 -0.923276 -1.6541332
0.110207215 -0.09873907 -0.60650295 -0.2606397 -0.26976252 0.54762095 -0.44902447 -0.78104115
0.59490174 -0.008725595 -0.26207697 -0.016265994 0.14150168 -0.24502966 0.52633774 0.29776615
0.23131871 0.33185515 0.66556394 0.4926096 -0.3250693 -0.6199892 0.8694777 -0.4542061
0.296864 -0.53244174 0.032567564 -0.40026915 -0.83534646 0.3374448 -0.18396978 1.32394
0.9334121 0.41939574 0.6432854 0.33038306 0.37432814 -0.13316692 0.009906216 0.18767498
0.29789358 0.15445247 -0.7862981 0.4351308 -0.2728257 0.9269672 0.031083446 1.3121537
0.47368482 -0.06510891 0.3635076 -0.033888526 0.6445102 -0.44401655 -0.3632128 0.5699489
-0.39451498 1.3162895 -0.4655643 -0.4154253 -0.1050565 -0.123431884 0.82402396 -0.3252876
0.1847777 0.95628446 -0.02680739 -0.03765878 -0.7587816 -0.51356053 0.24705024 0.44622278
-0.3941867 0.08042451 0.17938249 -0.35275808 -0.06581695 0.5819405 0.1256405 0.3862441
-0.16890183 -0.14246014 0.2842924 0.3678636 0.0010301304 0.37156597 0.2634555 -0.018125009
0.37445247 0.7504253 -0.12595466 0.3401677 0.5041566 0.5339812 -0.08753662 0.2638525
00000000: c7f2 cabd 4a17 66bf b9cd c13d dd5d 03bf
00000010: 7a8c 63bf 349d 78bf 512f 7cbf e683 64be
00000020: 06f8 71bf 697b 71bf f875 c9be 2351 203f
00000030: cac9 873e 5d6d 0cbf 7ab3 563c 097c 8bbd
00000040: 1ec8 a1bf 61bd f23d 7d22 6fbd 920d d0bf
00000050: e2c9 afbe 3554 0cbf fc61 98be cfbe 563e
00000060: 0efe 33bf ad4a 17bf e613 b43e 9c9b 63bf
00000070: 40ec 803e b608 96bf 8d5a 90bf ffb3 3b3e
00000080: 37a5 75bf 339f 11be c76b a7bf ce3e 66bf
00000090: 7609 5a3f 61f7 ea3c 4706 4bbf 713a b13e
000000a0: 69e4 60bf 8b6a 49ba 24c8 0ebf c2bd 2dbf
000000b0: 9960 193d 7775 8cbd eb1f adbe f14c ff3c
000000c0: b3ed 70bf 84e0 09bf 1a15 4dbf 3854 98be
000000d0: cc14 25bf 9c6e 02bb 072e fcbe 69f7 863e
000000e0: bd64 963e 4e35 20bf ac97 97be 23ce 783e
000000f0: 374f bebf 304f 94bf 3442 023f 56ca 233f
00000100: 9be3 f5bf 6c62 d8bf 157f f8be a823 c6be
00000110: 2548 5ebf b687 cc3c 0b7a 9e3e b093 1f3f
00000120: deef 9cbf 4b2d 82be 3435 05be eaba dfbe
00000130: f546 053f 628f 32bf 16a9 3dbf f55c 60bf
00000140: 4f4d d53e 1970 bdbd d971 0abf ac1c c1be
00000150: 3f07 363e 3bb8 353f 08b1 203e 7460 c4bf
00000160: e63d f73e 6d0e 56bf ab8a d5be 94b3 a4bf
00000170: 2476 33bf 2b41 cbbe 9c9c c33e 69e5 4fbe
00000180: 588b 2bbe 5f4c 25bf fe82 373d 9760 b6be
00000190: a9c8 efbe 0941 e6be b050 66bf f545 f6be
000001a0: 7ce4 12bf 6aa2 a5be e93f 9bbd 3169 38be
000001b0: 64b7 103f 3f3c 51be 0fbd 1cbf 69e1 d8bd
000001c0: b9a6 bbbe 3835 62bf 8bb1 2f3f d9e5 e6be
000001d0: 199f 7abe a2c7 9d3e 2d89 ffbe 4678 f5be
000001e0: 11eb 2c3e acb2 03be d00e edbd d1eb 02be
000001f0: 8f83 1dbf 2c5e 043f c606 b4be 0f6e 0bbf
00000200: ad2b f1be 6c41 39bf 471f 00be e1c6 b6be
00000210: d062 05bf 3ad0 073f 30f3 f8be 7d8a b5be
00000220: d2d3 433e 214e 8fbd 35d3 253f 3998 33be
00000230: 1377 aeba 1826 963e 4afd 5dbe 005c 1ebe
00000240: 04ed e33d 2b85 a9bd dbff 493e c952 7b3f
00000250: 2231 3ebf 1ab8 383e bc41 693e 3126 75bc
00000260: 2b61 a5bc 7ad2 e63e 3962 10bf 2da8 e5be
00000270: 5f2e ae3e 923f 1a3f d15b 6cbf a3ba d3bf
00000280: 52b4 e13d b637 cabd c743 1bbf 9172 85be
00000290: 501e 8abe e330 0c3f 89e6 e5be 50f2 47bf
000002a0: 7b4b 183f ccf5 0ebc f42e 86be 4340 85bc
000002b0: d1e5 103e 0ee9 7abe 12be 063f ce74 983e
000002c0: d0de 6c3e ebe8 a93e 6662 2a3f 5337 fc3e
000002d0: 7c6f a6be 9db7 1ebf 1796 5e3f b48d e8be
000002e0: 8ffe 973e 1a4e 08bf 9165 053d 14f0 ccbe
000002f0: 44d9 55bf 91c5 ac3e 9362 3cbe de76 a93f
00000300: 18f4 6e3f 0abb d63e 5aae 243f f827 a93e
00000310: f0a7 bf3e e95c 08be ae4d 223c df2d 403e
00000320: 8285 983e ca28 1e3e d54a 49bf 77c9 de3e
00000330: cfaf 8bbe b94d 6d3f b6a2 fe3c a7f4 a73f
00000340: d186 f23e d257 85bd ab1d ba3e b2ce 0abd
00000350: 9ffe 243f 2356 e3be 07f7 b9be 2ce8 113f
00000360: defd c9be 2d7c a83f 725e eebe a0b2 d4be
00000370: dd27 d7bd dbc9 fcbd 3cf3 523f 198c a6be
00000380: 5e36 3d3e 0fcf 743f 2c9b dbbc 1840 1abd
00000390: 833f 42bf b478 03bf bdfa 7c3e 5077 e43e
000003a0: d7d2 c9be 9bb5 a43d 0bb0 373e b59c b4be
000003b0: 09cb 86bd 0dfa 143f e7a7 003e c9c1 c53e
000003c0: 9af4 2cbe 12e1 11be c68e 913e 9e58 bc3e
000003d0: 7105 873a e53d be3e a4e3 863e e67a 94bc
000003e0: 3cb8 bf3e df1b 403f 42fa 00be 762a ae3e
000003f0: 6810 013f feb2 083f 6646 b3bd ad17 873e

bias f4 [23]
-0.44818833 -0.50322795 0.45837203 -0.30903488 0.0066675083 -0.46558857 0.43210807 -0.1788338
0.12575237 -0.26019177 -0.10236503 -0.36192864 -0.18798682 0.12248598 -0.5276925 0.16280149
0.43501338 0.2077017 0.25748494 0.0414058 -0.11458922 0.53319705 -0.0660945
00000000: f178 e5be 8cd3 00bf bdaf ea3e d239 9ebe
00000010: 1d7b da3b a061 eebe 453d dd3e 3520 37be
00000020: 3bc5 003e db37 85be c2a4 d1bd b64e b9be
00000030: 9e7f 40be eed9 fa3d db16 07bf 6fb5 263e
00000040: 13ba de3e c1af 543e 11d5 833e 2199 293d
00000050: c1ad eabd 9a7f 083f 8e5c 87bd

weight f4 [2, 23]
1.1138341 1.3810095 -0.7527586 0.3465351 0.11615557 0.6052208 -1.0087347 0.7410306
-0.3436086 0.08635129 -0.20030116 -0.47378832 -0.7457624 -0.09200066 -0.13474734 0.7517218
-0.5415537 -0.17267329 0.38372296 -1.4404054 0.14560515 -0.90270036 0.2610512 -1.207027
-0.24433157 0.89520895 -0.5192012 -0.5845816 -1.49857 0.56323224 -0.7311302 0.59000915
-0.4541593 0.086403206 0.23948134 0.15054688 0.8282196 0.05311224 -0.9136121 0.646177
0.60432035 -0.022723831 0.1051937 -0.07716586 0.5530846 -0.4524906
00000000: 1e92 8e3f ebc4 b03f cab4 40bf 0c6d b13e
00000010: f9e2 ed3d c0ef 1a3f 381e 81bf 2eb4 3d3f
00000020: 77ed afbe f2d8 b03d bf1b 4dbe 6294 f2be
00000030: 49ea 3ebf d86a bcbd 35fb 09be d770 403f
00000040: 43a3 0abf 44d1 30be 5677 c43e 345f b8bf
00000050: 8419 153e 5f17 67bf 81a8 853e dc7f 9abf
00000060: 0e32 7abe 6a2c 653f 5fea 04bf 24a7 15bf
00000070: 24d1 bfbf fd2f 103f 592b 3bbf d70a 173f
00000080: 9187 e8be 2af4 b03d 993a 753e f628 1a3e
00000090: 3306 543f 388c 593d 7ce2 69bf db6b 253f
000000a0: bdb4 1a3f 5427 babc cb6f d73d 2209 9ebd
000000b0: f496 0d3f d9ac e7be

bias f4 [2]
-0.77361286 0.3989465
00000000: 7e0b 46bf b742 cc3e
