Network2/params/rnn_nwParams08180934.pth (torch_old, 220889 bytes, 10 tensors)

weight_ih_l0 f4 [256, 3]
0	0x3dc37668	0.095440686
1	0x3e3e41f1	0.18579842
2	0x3caa8c66	0.0208189
3	0xbc711394	-0.01471414
4	0x3d38dbbc	0.04513143
5	0xbd039ed9	-0.03213391
6	0x3d875c59	0.06609411
7	0x3df8bd76	0.12145512
8	0x3deb8052	0.114990845
9	0x3e1565e6	0.14589652
10	0x3dc6552b	0.09684213
11	0x3df40719	0.11915416
12	0xbbe6293d	-0.007023959
13	0x3dffd172	0.124911204
14	0x3dc9b7e5	0.09849528
15	0xbca1af01	-0.019736769
16	0x3d39a441	0.04532266
17	0x3b857fc1	0.0040740673
18	0x3d8a3dbb	0.067500554
19	0x3d65c8ae	0.056099586
20	0x3e016d6d	0.12639399
21	0x3cfbb14e	0.030724194
22	0x3d70b194	0.0587631
23	0x3ddef3e3	0.108863614
24	0x3e0b6ad4	0.1361497
25	0x3dd9a04d	0.10626278
26	0x3e54cdbd	0.20781608
27	0xbd725992	-0.059167452
28	0x3da49857	0.08036869
29	0x3d855d03	0.06511881
30	0x3d39a73e	0.04532551
31	0x3e1d796a	0.15378347
32	0x3d70096b	0.05860273
33	0x3e83dac8	0.25752854
34	0x3da306dd	0.079602934
35	0x3e3e0430	0.18556285
36	0x3db61e69	0.08892519
37	0x3d0accd6	0.033886753
38	0x3e435284	0.19074446
39	0x3c823eea	0.01589914
40	0x3da04fe7	0.0782774
41	0x3e0adb97	0.1356033
42	0xbd113adc	-0.035456523
43	0x3c8fb963	0.017544454
44	0x3e2943f7	0.16529833
45	0x3cf5b91b	0.029995492
46	0xbcd64c8a	-0.026159544
47	0x3d5c2653	0.053747486
48	0x3daff0f6	0.085908815
49	0x3d206911	0.0391627
50	0x3e21b176	0.15790352
51	0x3cc448e6	0.023960542
52	0xbd15e466	-0.03659477
53	0x3d575b4f	0.052577313
54	0x3d9bc6b5	0.0760626
55	0x3d44e8a6	0.048073433
56	0x3e36c810	0.17849755
57	0x3e133bab	0.1437823
58	0x3d2f5258	0.04280314
59	0xbd0a3ec4	-0.033751264
60	0xbc949203	-0.01813603
61	0x3dc2acf2	0.09505643
62	0xbd04b5ce	-0.032399945
63	0xbc8767ad	-0.016528929
64	0x3d8f9899	0.070115276
65	0x3da21ea1	0.07915998
66	0x3e27bd4c	0.16380805
67	0x3e2fad1b	0.17155878
68	0x3d7f3eb7	0.06231567
69	0x3e2e6deb	0.17034118
70	0x3e2dcf53	0.16973619
71	0x3d04070f	0.032233294
72	0x3ddc513a	0.1075768
73	0x3d969e89	0.07354457
74	0x3dd6bbfe	0.104850754
75	0x3dfc1a3e	0.12309693
76	0x3e1884db	0.1489443
77	0x3b5c0cc6	0.003357695
78	0x3cae87eb	0.021305045
79	0x3e21cf8d	0.1580183
80	0x3e0dff09	0.1386682
81	0x3cf2a865	0.029621312
82	0x3e0d2fc0	0.13787746
83	0x3ce0ae38	0.027426824
84	0xbc4afba0	-0.012389094
85	0xbc7bae6c	-0.01536141
86	0x3e4d8452	0.20070007
87	0x3da9401b	0.0826418
88	0x3e098ab6	0.1343182
89	0x3d09b383	0.03361846
90	0x3df54d23	0.11977603
91	0xbccc2c11	-0.024923356
92	0x3cfd35d4	0.030909456
93	0x3bd72f79	0.0065669385
94	0x3e17d31a	0.14826623
95	0x3e1f721c	0.15570873
96	0x3e208dce	0.15679094
97	0x3e189844	0.14901835
98	0x3e49a57a	0.1969203
99	0x3d7f4ddf	0.062330123
100	0x3d9bfb92	0.076163426
101	0xbbda088c	-0.006653851
102	0x3e64141e	0.22273299
103	0x3e1f0c0f	0.15531944
104	0x3ce12333	0.027482605
105	0x3c93fea3	0.018065756
106	0x3e48356a	0.19551626
107	0x3d7b5b5c	0.061366424
108	0x3e1f5148	0.1555835
109	0x3d5b5e57	0.053556766
110	0x3d9bf7e0	0.07615638
111	0xbc7af473	-0.01531707
112	0xbc5a06dd	-0.0133073
113	0x3e0c8b84	0.13725096
114	0xbbfb3525	-0.0076662474
115	0x3b48053c	0.0030520698
116	0x3df35cc5	0.11882929
117	0xbd27d327	-0.040972855
118	0x3debc82e	0.115127906
119	0xbca2e697	-0.019885344
120	0x3e23c5d4	0.15993434
121	0xbce23199	-0.02761154
122	0x3d77d197	0.060502615
123	0xbd3bc926	-0.045846127
124	0x3d75c216	0.059999548
125	0x3e3227e8	0.17398036
126	0x3cc95fbc	0.024581783
127	0x3e15dddd	0.14635415
128	0x3dea0ee8	0.114286244
129	0xbae30baa	-0.0017322202
130	0xbbbf2a23	-0.0058338805
131	0x3d77dbd0	0.060512364
132	0x3cd95010	0.026527435
133	0x3d8b6534	0.06806412
134	0x3cb6bffc	0.022308342
135	0x3d1ea7f2	0.038734384
136	0xbd04be81	-0.03240824
137	0x3d62cc95	0.055370886
138	0x3dbb30ab	0.09140142
139	0xbc9c939f	-0.01911336
140	0x3d8f88d2	0.07008518
141	0xbd898214	-0.067142636
142	0x3dca2b2a	0.09871514
143	0x3abe09d0	0.0014498774
144	0x3d35d9bd	0.044397105
145	0x3ca2c421	0.019868912
146	0x3df93af9	0.12169451
147	0x3df8f758	0.12156552
148	0x3e4b7f56	0.19872794
149	0x3c2e84f7	0.0106518185
150	0x3dbeb3d6	0.09311645
151	0x3dfdddc6	0.123958156
152	0x3d7facaa	0.062420525
153	0x3e11e1a2	0.14246228
154	0x3e44c2de	0.19214961
155	0xbc95c011	-0.018280061
156	0x3de6469c	0.112439364
157	0xbc573b2d	-0.013136667
158	0xbc899df6	-0.016798954
159	0x3e278247	0.1635829
160	0x3b5b5a7e	0.0033470686
161	0x3e1bd9d5	0.15219815
162	0x3e2c10ac	0.16803235
163	0x3d359ed8	0.04434094
164	0x3e5ab958	0.21359766
165	0x3e07912b	0.13238971
166	0x3e41914c	0.18903083
167	0x3c0fa2cd	0.008766842
168	0xbc8d76f9	-0.017268645
169	0x3e133414	0.14375335
170	0x3d65741b	0.05601893
171	0xbc6e0910	-0.014528528
172	0xbd1a8248	-0.037721902
173	0x3d759777	0.0599589
174	0x3e489a03	0.19590001
175	0x3d046e98	0.032332033
176	0x3d14dc70	0.036343038
177	0x3da150f3	0.07876768
178	0x3e4b1e3d	0.19835754
179	0x3dafe773	0.08589067
180	0xbc72d3a3	-0.014820966
181	0x3e517f03	0.20458607
182	0xbcd5348c	-0.026026033
183	0x3e025f9b	0.12731783
184	0x3dc19732	0.09452666
185	0x3e03fa2c	0.12888402
186	0x3e00ed54	0.12590533
187	0x3d28c270	0.041201055
188	0xbcdd192b	-0.02698954
189	0x3d1a4212	0.037660666
190	0x3d5aeb90	0.053447306
191	0x3c3cf3cb	0.011532734
192	0x3e419254	0.18903476
193	0x3cadcb2f	0.02121505
194	0x3a9e6dee	0.0012087205
195	0x3ca78fea	0.020454366
196	0x3db56c91	0.08858598
197	0xbd5f0b55	-0.054454166
198	0x3e2d03f0	0.16896033
199	0x3de131ba	0.10995813
200	0xbcc616f2	-0.024180863
201	0x3b3bb198	0.002863979
202	0xbce06a50	-0.027394444
203	0xbd421cac	-0.047390625
204	0x3dd2c9a5	0.10292367
205	0xbcb7858e	-0.022402551
206	0x3d993f01	0.0748272
207	0x3dbf0ce6	0.09328632
208	0x3df23f7b	0.11828514
209	0x3d2f2012	0.042755194
210	0x3e145bf5	0.14488204
211	0x3de7f040	0.11325121
212	0xbbc84778	-0.0061120354
213	0x3c7ea667	0.015542603
214	0x3966516a	0.00021964838
215	0x3e3597f7	0.17733751
216	0x3d872fed	0.06600938
217	0x3cdae8a4	0.02672226
218	0x3e42a8c7	0.19009696
219	0x3e3482f1	0.17628075
220	0xbd609e98	-0.054838747
221	0xbcef7925	-0.02923257
222	0x3c226329	0.009911337
223	0x3c73b653	0.014875012
224	0x3d3c2b16	0.045939527
225	0x3e238680	0.15969276
226	0xbdc1dd31	-0.09466017
227	0x3e07cdf9	0.13262166
228	0xbcbb07b8	-0.022830829
229	0x3db15b40	0.08659983
230	0x3d77371a	0.060355283
231	0xbd10575a	-0.035239555
232	0x3e01db3d	0.12681289
233	0x3bb4faf5	0.0055230805
234	0x3cddf6e6	0.02709527
235	0x3e2154b9	0.15754975
236	0x3e10fa0e	0.14157888
237	0xba9cdfbe	-0.0011968536
238	0x3c869d76	0.016432505
239	0xbd6a6683	-0.05722667
240	0x3e198fb4	0.14996225
241	0xbbf1146f	-0.007357172
242	0x3d0eb9ba	0.03484509
243	0xbd1b1073	-0.037857484
244	0x3e157541	0.1459551
245	0x3e20552e	0.15657493
246	0x3dea2a32	0.11433829
247	0xbc8abe3f	-0.01693642
248	0xbcfb500c	-0.030677818
249	0xbce9e2b6	-0.028550487
250	0x3ddab01a	0.1067812
251	0x3d368da2	0.044568665
252	0x3dae5f00	0.085142136
253	0x3ca47ac3	0.020078069
254	0x3db11e8d	0.08648405
255	0x3cb495fd	0.022044176

weight_hh_l0 f4 [256, 64]
0	0xbe216672	-0.15761736
1	0xbe185dba	-0.14879504
2	0xbe3ef8aa	-0.18649545
3	0x3da04fc1	0.07827712
4	0xbc9a75c5	-0.018854985
5	0xbdbdea27	-0.09273177
6	0x3c06980e	0.008214964
7	0xbe2ffcbe	-0.17186257
8	0x3e28a7e8	0.16470301
9	0x3db3c1cc	0.08777198
10	0x3d6bb5b3	0.05754633
11	0xbc1c4b87	-0.0095394915
12	0x3caf8e64	0.021430202
13	0x3e2f1404	0.17097479
14	0x3e389e9f	0.18029259
15	0x3d7df9d7	0.062005844
16	0x3c9c5aea	0.01908632
17	0xbca94001	-0.020660402
18	0x3e3361cd	0.17517777
19	0x3d978881	0.07399083
20	0x395e2f4b	0.00021189188
21	0xbe08b64a	-0.13350788
22	0xbd9b76dd	-0.07591031
23	0x3d075795	0.03304251
24	0xbdc12dce	-0.09432565
25	0xbda6f9f9	-0.08153147
26	0xbe2c1525	-0.16804941
27	0xbdeed1fe	-0.116611466
28	0x3d8fdba9	0.07024319
29	0xbc91048b	-0.017702362
30	0xbddb2a15	-0.10701386
31	0xbdc6513c	-0.09683463
32	0xbd3e7275	-0.046495873
33	0x3cdd378a	0.027004022
34	0x3d4dc781	0.05023909
35	0xbd9a8bfb	-0.075462304
36	0xbd5671cd	-0.052354623
37	0x3d144947	0.036202695
38	0x3d462a6b	0.048380297
39	0xbc2af323	-0.010433945
40	0xbe08bfe0	-0.13354445
41	0xbe30d5e0	-0.17269087
42	0xbdb919e6	-0.09038143
43	0xbe4f7893	-0.20260839
44	0x3c25e973	0.010126459
45	0x3e4aa07c	0.19787782
46	0xbe455178	-0.19269359
47	0x3e2e801b	0.17041056
48	0xbe470b6b	-0.1943795
49	0xbe01571e	-0.12630889
50	0xbd0eaf6f	-0.034835275
51	0xbcf54f98	-0.02994518
52	0xbe4e3a3e	-0.20139405
53	0x3be08c85	0.0068526887
54	0x3da2904b	0.07937678
55	0xbd97896e	-0.073992595
56	0xbce4bcdb	-0.027922085
57	0xbe22ad9d	-0.1588654
58	0xbd1d031b	-0.03833304
59	0x3d091d5a	0.033475257
60	0xbe3c35d7	-0.18379913
61	0x3d1a284e	0.037636094
62	0xbba97a46	-0.005172047
63	0x3dd2ef1a	0.10299511
64	0xbdf017c1	-0.11723281
65	0xbde3ccca	-0.11123045
66	0x3cc985d7	0.024599953
67	0xbc3e4f79	-0.011615627
68	0xbde82ce1	-0.11336685
69	0x3cd36548	0.02580513
70	0x3cdd2dd3	0.02699939
71	0xbe2daf4e	-0.16961405
72	0xbce1f3da	-0.027582098
73	0x3ccbec16	0.024892848
74	0x3e026044	0.12732035
75	0xbaea4403	-0.0017873052
76	0xbc25e38f	-0.010125055
77	0x3e417415	0.18891938
78	0x3dc96a0f	0.09834682
79	0xbd26c9c3	-0.04071976
80	0x3cbb63de	0.022874769
81	0xbe043b1f	-0.12913178
82	0x3da037e4	0.0782316
83	0xbcbd2fb6	-0.02309404
84	0xbcff41d0	-0.031159312
85	0xbe3ca5a3	-0.1842256
86	0xbda09977	-0.07841771
87	0x3cac05cd	0.02099886
88	0xbdf42a53	-0.11922135
89	0x3c4abb99	0.012373828
90	0xbe1a7258	-0.15082681
91	0xbdebbabf	-0.11510228
92	0x3e050ae3	0.12992434
93	0x3d2b8d49	0.041882787
94	0xbe5a07b6	-0.21292004
95	0xbdd19099	-0.10232658
96	0xbd83eee7	-0.064420514
97	0x3e106b5a	0.14103451
98	0x3e1a37e3	0.15060382
99	0x3d92edbf	0.07174253
100	0xbd904afc	-0.07045552
101	0x3d875020	0.066070795
102	0x3b4fe0c5	0.0031719666
103	0xbe347fa7	-0.1762682
104	0xbdcf3032	-0.101166144
105	0xbd34ada8	-0.044110924
106	0xbe1895bd	-0.1490087
107	0xbd91f658	-0.071270645
108	0xbe4e982f	-0.20175241
109	0x3e4525c7	0.19252692
110	0xbe1be285	-0.15223129
111	0x3e137f7e	0.14404103
112	0xbd981ec0	-0.0742774
113	0x3c9e3fcb	0.019317528
114	0xbdd56653	-0.104199074
115	0xbe3e02a0	-0.18555689
116	0xbd1e28a8	-0.03861299
117	0xbca620f4	-0.020279385
118	0x3dc17d23	0.09447696
119	0xbdad5f20	-0.08465409
120	0xbdef7a63	-0.11693265
121	0xbdf24941	-0.11830378
122	0xbd127cd3	-0.035763573
123	0xbc154d62	-0.009112688
124	0xbdd038d9	-0.10167093
125	0xbd2a88c5	-0.04163434
126	0xbdc01be8	-0.09380323
127	0x3e324d35	0.17412265
128	0xbe59b18a	-0.21259132
129	0xbe5f960d	-0.21834584
130	0xbe121039	-0.14264001
131	0xbbcff0fe	-0.006345867
132	0x3c18f4ee	0.00933574
133	0xbe3881d3	-0.18018274
134	0x3c296c19	0.010340714
135	0xbe1db17c	-0.15399736
136	0x3d65267f	0.055944916
137	0x3e1b5b5e	0.15171573
138	0x3dca8d06	0.09890179
139	0xbd0c60d1	-0.03427202
140	0x3e0b505f	0.13604878
141	0x3cb2e0e6	0.021835756
142	0xbb6f46dd	-0.0036510744
143	0xbe2fabb9	-0.1715535
144	0xbe377570	-0.17915893
145	0xbdad1bef	-0.084525935
146	0x3e200140	0.15625477
147	0x3d899751	0.067183144
148	0x3d56ebc7	0.05247095
149	0xbe591bac	-0.21201962
150	0xbe0b1a01	-0.13584138
151	0x3e08543b	0.13313381
152	0xbdbaf6df	-0.09129118
153	0xbbaf9ced	-0.005359283
154	0x3b56e2af	0.0032788923
155	0xbe4d7735	-0.20065005
156	0x3c5867d9	0.013208353
157	0x3d959689	0.07304103
158	0xbd95f97c	-0.07322976
159	0xbe3dbc08	-0.1852876
160	0xbe35fa76	-0.17771325
161	0x3bd5162c	0.0065028872
162	0x3d8a0047	0.06738334
163	0x3dc4dde3	0.09612634
164	0x3d316dd0	0.043317616
165	0x3e2714fb	0.16316597
166	0x3db63295	0.088963665
167	0xbe6af741	-0.22945882
168	0x3b15fc36	0.0022885925
169	0xbe5b7c81	-0.21434213
170	0xbdd98412	-0.106208935
171	0xbc42df2e	-0.0118940305
172	0xbd48e539	-0.04904673
173	0xbd04e8ce	-0.032448582
174	0xbd2d6601	-0.042333607
175	0x3dbe5fca	0.09295614
176	0xbd7da135	-0.061921317
177	0x3d39b3e6	0.04533758
178	0xbd5dc21c	-0.054140195
179	0xbbf322db	-0.0074199266
180	0xbe4d6511	-0.20058085
181	0xbdb719f3	-0.08940496
182	0x3daf86e7	0.085706525
183	0xbe08c827	-0.13357602
184	0xbe51b8ff	-0.20480727
185	0xbdca361d	-0.098736025
186	0x3e1149a7	0.14188252
187	0x3da37a7a	0.07982345
188	0x3d07ecca	0.033184804
189	0xbe2129a4	-0.15738541
190	0xbe364400	-0.17799377
191	0x3d2e986a	0.042625822
192	0xbe646cf6	-0.2230719
193	0xbe27ed27	-0.1639906
194	0xbc1d363b	-0.009595449
195	0x3e07267f	0.13198279
196	0xbb7d798a	-0.003867718
197	0xbc4db8b3	-0.012556243
198	0x3e5f91b9	0.21832933
199	0xbe271d2f	-0.16319726
200	0x3daf0ea8	0.08547717
201	0x3d4ca0fd	0.049958218
202	0x3cda4934	0.026646234
203	0xbda357c5	-0.07975725
204	0x3d782c9a	0.06058941
205	0x3dd90a28	0.1059764
206	0x3d924105	0.07141308
207	0x3d435649	0.04768971
208	0xbb88fb32	-0.0041803354
209	0xbe5ab628	-0.2135855
210	0x3dfe4783	0.124159835
211	0x3e56452e	0.20924827
212	0xbd916682	-0.0709963
213	0xbe546e34	-0.20745164
214	0xbcc3bee7	-0.02389474
215	0x3dcbbdfd	0.09948347
216	0xbcb97079	-0.022636639
217	0xbe008a38	-0.12552726
218	0xbd6b88ad	-0.05750339
219	0xbde4f1f2	-0.1117896
220	0x3ccece66	0.025244903
221	0x3df464ae	0.119332656
222	0xbd5fddad	-0.054654766
223	0xbd0de261	-0.03463972
224	0xbc8cfdd9	-0.017210888
225	0x3dbeda68	0.093190014
226	0x3e553807	0.20822154
227	0x3ccb9a32	0.0248538
228	0xbdc71208	-0.09720236
229	0x3d16fc66	0.0368618
230	0x3dd77244	0.10519841
231	0x3beb2a09	0.007176642
232	0xbe46580e	-0.19369528
233	0xbe0cbeba	-0.13744631
234	0xbe35cb3a	-0.17753306
235	0xbd856b71	-0.065146334
236	0xbd9ab750	-0.07554495
237	0x3e1bd4fa	0.15217963
238	0xbe566eb2	-0.20940664
239	0xbc9ed35b	-0.019387892
240	0xbda56898	-0.0807659
241	0xbe196700	-0.14980698
242	0xbdcb2415	-0.099189915
243	0x3d44aabc	0.048014387
244	0xbdccb8b0	-0.09996164
245	0xbdbdeb86	-0.09273438
246	0x3dd4fa8b	0.1039935
247	0xbde422f5	-0.1113948
248	0xbe26d916	-0.16293749
249	0xbdd218ee	-0.10258661
250	0x3de182ec	0.110112995
251	0x3cef5707	0.029216303
252	0xbda4953c	-0.08036277
253	0x3b3a6f09	0.002844753
254	0xbd614b79	-0.055003617
255	0x3e33809f	0.17529534

bias_ih_l0 f4 [256]
0	0x3d821b47	0.06352859
1	0x3e2b3712	0.16720226
2	0x3d2c051b	0.041997056
3	0x3d56501c	0.052322492
4	0x3bad0e18	0.005281221
5	0x3d918a20	0.071064234
6	0x3d1b7ddc	0.037961826
7	0x3bd7fca7	0.006591398
8	0x3dfe1428	0.12406188
9	0x3dc76e8f	0.09737884
10	0xbcbdcfc9	-0.023170369
11	0x3e686e59	0.22698344
12	0xbc36dc0d	-0.011160863
13	0x3e0cd326	0.13752422
14	0x3dee984e	0.116501436
15	0xbd1fc1da	-0.03900323
16	0x3d92287c	0.07136628
17	0x3d82636c	0.063666195
18	0x3e1161ae	0.14197418
19	0x3d9a3ba5	0.075309075
20	0x3e475193	0.19464712
21	0x3dd34e6f	0.103176944
22	0x3e5ea0c7	0.21741019
23	0x3de47b33	0.11156311
24	0x3e835fd9	0.25659063
25	0x3e4356a1	0.19076015
26	0x3dc663bf	0.09686994
27	0x3dbd7917	0.09251612
28	0x3c516375	0.01278006
29	0x3dfd18d6	0.12358253
30	0x3d339efc	0.04385279
31	0x3e261b80	0.16221428
32	0x3ddfb1e1	0.109225996
33	0x3e19fca7	0.15037785
34	0x3debd90f	0.1151601
35	0x3e2cc2ef	0.16871236
36	0x3e36b58f	0.17842697
37	0x3e03f9f2	0.12888315
38	0x3ca3d46b	0.01999875
39	0x3e542e1c	0.20720714
40	0x3dd3d067	0.10342484
41	0x3e54386d	0.2072465
42	0x3d283bd2	0.041072674
43	0x3d1bf2f0	0.03807348
44	0x3e13fa1d	0.1445088
45	0x3e186b83	0.14884762
46	0x3e17ee6e	0.14837047
47	0x3c76f486	0.015072947
48	0x3d2bd398	0.04194984
49	0x3dd212db	0.10257503
50	0x3e09636b	0.13416831
51	0x3d5d3240	0.054003
52	0x3e5aada6	0.21355304
53	0x3ddaaadd	0.10677121
54	0x3e11fc14	0.14256316
55	0x3d67ebb5	0.056621272
56	0x3e6352f8	0.22199619
57	0x3e339985	0.17539032
58	0x3e42e6e6	0.19033393
59	0x3e453f0e	0.19262335
60	0x3ddd4c2d	0.10805545
61	0x3e494702	0.19655994
62	0x3d63e321	0.05563653
63	0x3e42f4a9	0.19038643
64	0x3d4198c6	0.047264837
65	0x3e144097	0.14477764
66	0xbcff6bcf	-0.031179337
67	0x3d85905b	0.06521674
68	0x3e0964a8	0.13417304
69	0x3cc21a1a	0.023694087
70	0x3df5041b	0.11963674
71	0x3e051e1e	0.1299977
72	0x3d29cf3f	0.04145741
73	0x3da3c0d7	0.07995766
74	0xbd08c4c4	-0.033390775
75	0x3e41edc2	0.18938354
76	0x3d3512bf	0.04420733
77	0x3d862904	0.06550792
78	0x3bb181bf	0.0054170783
79	0xbd91172e	-0.07084499
80	0xbcaba037	-0.02095042
81	0xbcc20958	-0.023686096
82	0xbc7ec8cf	-0.015550806
83	0x3da5795a	0.080797866
84	0xbc30e05e	-0.010795681
85	0xbd288a88	-0.04114774
86	0xbcefc0a7	-0.029266668
87	0x3d6b0bb8	0.057384223
88	0x3dd98b3b	0.10622259
89	0x3cef93f4	0.029245354
90	0x3c4d045c	0.012513246
91	0x3d3b14ef	0.04567426
92	0x3d88c896	0.06678884
93	0x3d039ebf	0.032133814
94	0x3e10131e	0.14069793
95	0xba805ad0	-0.0009792689
96	0x3df6772d	0.1203445
97	0xbca37dcc	-0.019957446
98	0x3e17fa9d	0.14841695
99	0x3e3ab0d2	0.18231514
100	0xbccb1253	-0.024789011
101	0x3e16651e	0.1468701
102	0xbcbccdc0	-0.023047328
103	0x3dd05fc1	0.101745136
104	0x3dc3bd44	0.09557584
105	0x3e4ec073	0.20190601
106	0x3dc0e259	0.094181724
107	0x3e2b6142	0.1673632
108	0x3d2a6a9d	0.04160558
109	0x3dc9a647	0.09846168
110	0xbcd1b56f	-0.02559921
111	0xbd641bc9	-0.05569056
112	0x3e2c04ec	0.16798753
113	0x3e280fed	0.16412325
114	0x3e024285	0.12720688
115	0x3ded382e	0.11582981
116	0x3dc285fc	0.09498212
117	0xbc9372c8	-0.017999068
118	0x3e0a4939	0.13504495
119	0x3d46262c	0.048376247
120	0x3e2e44ac	0.17018384
121	0x3dc646b6	0.09681456
122	0xbd32209a	-0.043488123
123	0xbd27e467	-0.040989306
124	0x3d7448f8	0.0596399
125	0xbd43d0b7	-0.047806468
126	0x3b37f2fc	0.0028068414
127	0x3da44c1b	0.080223285
128	0xbd2cf5d9	-0.042226646
129	0xbdfcf8b5	-0.123521246
130	0xbe024fb1	-0.12725712
131	0x3e3e573a	0.18587962
132	0xbe2715a4	-0.16316849
133	0xbe1ed4c3	-0.1551085
134	0x3ded76b7	0.11594909
135	0xbe1e5d29	-0.15465225
136	0x3de32fe2	0.11093117
137	0x3dcfa643	0.10139134
138	0x3e29de3b	0.1658868
139	0x3de0663a	0.10956998
140	0x3e0289fc	0.1274795
141	0x3df4a41f	0.11945366
142	0x3e5a0f5b	0.2129492
143	0xbe0048d7	-0.12527786
144	0xbe5d232b	-0.21595447
145	0xbd76529f	-0.060137387
146	0x3dd7f7d9	0.1054532
147	0x3e4e9242	0.2017298
148	0xbdd83e28	-0.1055873
149	0xbe407fd8	-0.18798769
150	0xbe05c9aa	-0.1306521
151	0x3e2e388d	0.1701376
152	0xbe1eb79c	-0.15499729
153	0xbe341b70	-0.17588592
154	0xbd5ecbd9	-0.054393623
155	0xbe52b605	-0.20577247
156	0x3df1e3b9	0.11811013
157	0x3e083e43	0.13305001
158	0x3b239b2d	0.0024964318
159	0x3c30d626	0.0107932445
160	0xbe420c9e	-0.18950126
161	0x3d5cc1c4	0.053895727
162	0x3da4c0ed	0.0804461
163	0x3e06b3a3	0.13154463
164	0xbe249dd3	-0.1607583
165	0x3e01b7f9	0.12667836
166	0x3e56f696	0.20992503
167	0xbd9b84bb	-0.07593676
168	0xbddd32cd	-0.10800705
169	0xbce843da	-0.028352667
170	0xbe2b58f2	-0.16733149
171	0xbd45d99b	-0.048303228
172	0xbe552245	-0.20813854
173	0x3e2b7ac0	0.16746044
174	0xbe368fcc	-0.17828292
175	0x3e4bea76	0.19913658
176	0xbdd9f709	-0.10642821
177	0xbe58c78a	-0.21169868
178	0xbde8ac94	-0.11361042
179	0xbdd8eb1e	-0.1059172
180	0xbd91c042	-0.071167484
181	0xbd73d961	-0.05953348
182	0x3e1d206d	0.153444
183	0xbdfc40ca	-0.12317045
184	0xbd927d2e	-0.071527824
185	0xbda7a11b	-0.08185025
186	0x3dec30b9	0.115327306
187	0x3e2eee5e	0.17083117
188	0xbc3a878f	-0.011384859
189	0xbe1d6de0	-0.15373945
190	0xbdc9bbf4	-0.09850302
191	0x3e402f75	0.18768103
192	0x3e056b81	0.1302929
193	0x3e43bd65	0.19115217
194	0x3e1a490a	0.15066925
195	0x3db0f8b0	0.086411834
196	0x3e29d155	0.1658376
197	0x3d99a771	0.0750264
198	0xbc523b42	-0.012831511
199	0x3c8bfb86	0.01708771
200	0x3da089e2	0.07838799
201	0x3d78ec64	0.060772315
202	0x3dfd198c	0.12358388
203	0x3e48d761	0.1961341
204	0x3e5318a1	0.20614864
205	0x3e0e5cf1	0.13902642
206	0x3e0225ef	0.12709783
207	0xbc659bf5	-0.014014234
208	0x3e46e9f9	0.19425191
209	0x3dc91e34	0.09820214
210	0x3dc4a8e2	0.09602524
211	0x3dddca2f	0.10829579
212	0x3da16cc4	0.078820735
213	0x3d4bb18c	0.04972987
214	0x3e41cb91	0.1892531
215	0x3db36070	0.08758628
216	0x3defe7af	0.11714112
217	0x3d588038	0.052856654
218	0x3e2c086a	0.16800085
219	0x3d0eed46	0.03489425
220	0x3d3266fd	0.04355525
221	0x3e71f441	0.23628332
222	0x3ddf124c	0.10892162
223	0x3ded9ccf	0.116021745
224	0x3dc8fb02	0.09813501
225	0x3e30579f	0.17220925
226	0x3dd53c03	0.10411837
227	0x3c6adf5a	0.014335478
228	0x3e44038f	0.19141982
229	0x3cfb8b44	0.030706055
230	0xbc0206da	-0.007936204
231	0x3d497705	0.04918577
232	0x3dc0601d	0.09393332
233	0x3e23434d	0.15943642
234	0x3e15ae7a	0.14617339
235	0x3c944b26	0.01810224
236	0x3e348922	0.17630437
237	0x3ca68b46	0.020330083
238	0x3e2be185	0.16785248
239	0x3e1cea64	0.15323788
240	0x3dd57877	0.104233675
241	0x3dd3bc2e	0.10338627
242	0x3e34c9d1	0.17655112
243	0x3e1c5425	0.15266474
244	0x3dc26d55	0.0949351
245	0x3e504cba	0.20341769
246	0x3e62b6a0	0.22139978
247	0x3da00e14	0.07815185
248	0x3e02643c	0.12733549
249	0x3ddd568c	0.10807523
250	0x3dc2dcd6	0.09514777
251	0x3cfabfe2	0.030609075
252	0x3e4e0541	0.20119192
253	0x3e4a83e7	0.19776879
254	0x3e03b6f2	0.12862757
255	0x3db1bbec	0.086784214

bias_hh_l0 f4 [256]
0	0x3e05d07d	0.13067813
1	0x3e4b2d4d	0.198415
2	0x3da37ae6	0.079824254
3	0x3d86a39b	0.06574174
4	0xbce953d1	-0.02848235
5	0x3dd0cc6b	0.1019524
6	0x3d59e73e	0.053199045
7	0x3d027a62	0.031854995
8	0x3de47505	0.11155132
9	0x3e5b9070	0.21441817
10	0x3e4272fb	0.18989174
11	0x3e62e35b	0.22157042
12	0x3e5a0330	0.21290278
13	0x3e0b2fee	0.13592502
14	0x3d213b74	0.03936334
15	0x3d656cea	0.05601207
16	0x3d8d68aa	0.06904729
17	0x3e3a6bee	0.18205234
18	0x3dd82dd0	0.10555613
19	0x3da08bdb	0.07839175
20	0x3e3af84c	0.1825878
21	0x3dcc5e4b	0.099789225
22	0x3e5e27c9	0.21694864
23	0x3d4772c0	0.04869342
24	0x3dacdae4	0.084401876
25	0xbbff9bcf	-0.0078005563
26	0x3aae579f	0.001330126
27	0x3de7d764	0.113203794
28	0x3e55b256	0.20868811
29	0x3dd80c55	0.10549227
30	0x3e1c5f08	0.15270627
31	0x3dd98a6f	0.10622107
32	0xba92c404	-0.0011197333
33	0x3cd7217f	0.02626109
34	0x3e860caf	0.26181552
35	0x3de01abf	0.109426014
36	0x3e1e3161	0.15448524
37	0x3db11817	0.08647173
38	0x3d95587d	0.072922684
39	0x3dd99793	0.106246136
40	0x3d5729f6	0.05253025
41	0x3e610a24	0.21976525
42	0x3e0d0f96	0.13775477
43	0x3e6a3f38	0.22875679
44	0x3dcd0947	0.10011535
45	0x3e438cad	0.19096632
46	0x3e2dfbe8	0.16990626
47	0x3dade3d3	0.0849072
48	0x3c1680d1	0.009185986
49	0x3e4b55f8	0.19857013
50	0x3e383476	0.17988762
51	0x3e0a47ac	0.13503903
52	0x3caf281c	0.02138143
53	0x3dd82710	0.105543256
54	0xbc4a272b	-0.01233844
55	0x3e358456	0.17726263
56	0x3d57cc7a	0.05268524
57	0x3e34d064	0.1765762
58	0x3d2bd5a5	0.041951794
59	0xbacb83a7	-0.0015526906
60	0x3e451de7	0.19249688
61	0x3e2a055a	0.16603604
62	0x3c0cd531	0.008595751
63	0x3e49f721	0.19723178
64	0x3e10e31a	0.14149132
65	0xbc112e29	-0.008861103
66	0xbca61d57	-0.020277662
67	0x3df8913e	0.12137078
68	0x3e2be1d9	0.16785373
69	0xbb7a68ab	-0.003820936
70	0x3e07d0e8	0.13263285
71	0x3c902964	0.017597862
72	0xbd16285e	-0.03665959
73	0x3de58cd7	0.11208504
74	0x3e208b14	0.15678054
75	0xbc3ba32b	-0.0114524765
76	0x3d39280a	0.0452042
77	0x3e348dd7	0.17632233
78	0x3cd7a9d4	0.026326098
79	0x3d4232e7	0.047411826
80	0x3d45ba5a	0.04827342
81	0xbd588f35	-0.052870948
82	0x3e05eeba	0.13079348
83	0x3e04e996	0.12979731
84	0xbd493358	-0.04912123
85	0x3dfdf368	0.12399942
86	0xbd18f947	-0.037347104
87	0x3e2f5458	0.17122018
88	0x3e03bf94	0.1286605
89	0x3d4b4ad2	0.0496319
90	0x3e06b5e9	0.1315533
91	0x3dd5da67	0.104420476
92	0x3dc07b65	0.09398536
93	0x3d80a352	0.06281151
94	0x3d93b244	0.07211736
95	0x3d2caac4	0.042155042
96	0x3dc7577d	0.09733484
97	0x3d798555	0.06091817
98	0x3d1d9de4	0.038480654
99	0x3d8e0704	0.06934932
100	0x3bc70f66	0.0060748337
101	0x3db10dd9	0.08645219
102	0x3d3f7b8a	0.046748675
103	0x3e4be646	0.19912061
104	0x3ba13817	0.0049200165
105	0x3e2ce224	0.16883141
106	0x3e069ae6	0.13145027
107	0x3e328c9a	0.17436448
108	0x3db43f68	0.08801156
109	0x3de621c8	0.11236912
110	0x3e07a09e	0.13244864
111	0x3e06b52c	0.13155049
112	0xbcc8b156	-0.024498623
113	0x3e3fd03d	0.1873178
114	0x3e33916c	0.17535943
115	0x3d7205ce	0.059087567
116	0x3e370fd6	0.17877135
117	0x3e2ea359	0.170545
118	0x3d65ae37	0.056074347
119	0xbd195fd7	-0.037444916
120	0xbbac837c	-0.0052646976
121	0xbce69262	-0.028145973
122	0x3e1e4b5f	0.1545844
123	0x3db9b127	0.09066992
124	0xbd108588	-0.035283595
125	0x3df9ee35	0.122036375
126	0x3dac0d3f	0.08400964
127	0xbc6576e2	-0.014005395
128	0xbe4c09fc	-0.19925684
129	0xbe2cd884	-0.16879469
130	0xbe3ae5f6	-0.18251786
131	0x3def4b48	0.11684281
132	0xbd8e3f8a	-0.06945713
133	0xbd4b9501	-0.049702648
134	0x3e524be0	0.20536757
135	0xbe433282	-0.19062236
136	0x3dcee27a	0.10101791
137	0x3e0ce580	0.13759422
138	0xbbfd8163	-0.0077363714
139	0x3ddc403a	0.10754438
140	0x3cd5a2d3	0.026078617
141	0x3e1abae9	0.15110363
142	0x3e369a1f	0.1783223
143	0xbd585ca8	-0.05282274
144	0xbdbf84cc	-0.09351501
145	0xbe0fae91	-0.14031436
146	0x3e2b3179	0.16718091
147	0x3e380616	0.17971072
148	0xbd1cbd5b	-0.03826652
149	0xbd9da996	-0.076983616
150	0xbd7ae79f	-0.061256047
151	0x3dc3bbf7	0.09557336
152	0x3ce1c0d9	0.027557777
153	0xbdcc7495	-0.09983174
154	0xbd0e9352	-0.034808464
155	0xbd5ef549	-0.05443314
156	0x3e406f24	0.18792397
157	0x3e346027	0.17614804
158	0xbdf87f0d	-0.12133608
159	0xbe563ce0	-0.2092166
160	0xbe4b709a	-0.19867173
161	0x3d31aca4	0.043377534
162	0x3e383ff3	0.17993145
163	0x3d052ab0	0.032511413
164	0xbe1cefd6	-0.15325865
165	0x3e2e9a50	0.17051053
166	0x3e08407c	0.13305849
167	0xbe3b84a2	-0.18312314
168	0xbdcdf459	-0.10056371
169	0xbe28e248	-0.1649257
170	0xbc03e9d4	-0.008051354
171	0xbe1d60ef	-0.15369008
172	0xbe36f808	-0.17868054
173	0x3e0d2076	0.13781914
174	0xbdb74ebf	-0.089505665
175	0x3de02374	0.10944262
176	0xbd84cffd	-0.06484983
177	0xbdc27b09	-0.09496123
178	0xbcf865b8	-0.03032194
179	0xbdb4337a	-0.08798881
180	0xbe465c86	-0.19371232
181	0xbe4cc799	-0.19998015
182	0x3dac5875	0.08415309
183	0xbe384ba1	-0.179976
184	0xbe4fe21a	-0.20301095
185	0xbe33dd48	-0.17564881
186	0x3e0225b7	0.127097
187	0x3d93694d	0.07197819
188	0xbe5d15cd	-0.21590348
189	0xbe462b70	-0.19352508
190	0xbe09622d	-0.13416357
191	0x3e4c29f7	0.19937883
192	0x3e2fe682	0.17177776
193	0x3d38415f	0.044984218
194	0x3b24a4fe	0.0025122757
195	0x3e62a834	0.22134477
196	0x3c86c424	0.016450949
197	0x3d261c1e	0.04055416
198	0x3d8eeb49	0.06978471
199	0x3e64b1cf	0.22333454
200	0x3ccf2f79	0.025291191
201	0x3e466d52	0.1937764
202	0x3c2ddc64	0.010611627
203	0x3e8efa78	0.27925467
204	0x3e69784b	0.22799794
205	0x3df181ae	0.117923126
206	0x3dbe8922	0.093035
207	0x3bd6d5b2	0.006556236
208	0x3ca2621f	0.019822178
209	0x3e213fed	0.15747042
210	0x3d9a617a	0.075381234
211	0x3d4cac44	0.049968973
212	0x3de3711f	0.111055605
213	0x3c60d90e	0.013723625
214	0xbc5ae832	-0.013361024
215	0x3e626abe	0.22111031
216	0x3dbcdf78	0.09222311
217	0x3da2833b	0.079351865
218	0xbaef4620	-0.0018255152
219	0x3d859b58	0.0652377
220	0x3e4976ca	0.1967422
221	0x3d93ea9d	0.07222483
222	0x3da70d79	0.081568666
223	0x3dbf72b9	0.093480535
224	0x3d3dd7a9	0.046348248
225	0xb9e285bc	-0.0004320572
226	0x3e19e591	0.15028979
227	0x3e7598d3	0.23984079
228	0x3e28ca49	0.16483416
229	0x3c0a511a	0.008442188
230	0x3e151f95	0.14562829
231	0x3d1861f0	0.037202775
232	0x3e1e1c6c	0.1544053
233	0x3e280929	0.16409744
234	0x3c5fa7e7	0.013650871
235	0x3e733762	0.23751596
236	0x3deda25c	0.11603233
237	0x3aa35199	0.0012460231
238	0x3cabd4b7	0.020975454
239	0x3e2571e0	0.16156721
240	0x3db9b3fe	0.09067534
241	0x3de03076	0.10946743
242	0x3c1a4ffa	0.009418482
243	0x3e07e849	0.13272204
244	0x3d787d30	0.060666263
245	0x3d80e8cc	0.062944025
246	0x3e40bd20	0.18822145
247	0x3c8c46b1	0.017123552
248	0x3e13d51b	0.14436762
249	0x3c90cdb2	0.017676208
250	0x3e063bd9	0.13108768
251	0xbc048825	-0.0080891
252	0x3d158898	0.03650722
253	0x3d9f9ef2	0.07793988
254	0x3d6b91b1	0.05751199
255	0x3ddee5a4	0.10883644

weight_ih_l1 f4 [256, 64]
0	0x3b1f6478	0.0024321359
1	0xbd253459	-0.040333126
2	0xbc9f85b3	-0.019472932
3	0x3e163306	0.14667901
4	0xbd7b68c7	-0.06137922
5	0x3925da88	0.00015817035
6	0x3e5953c5	0.21223362
7	0xbd7f316d	-0.062302995
8	0x3e08e2d5	0.1336778
9	0x3d0b5052	0.034012146
10	0x3d250ae3	0.040293586
11	0x3dd4d5c2	0.103923336
12	0x3e48fb53	0.19627123
13	0x3e43d83f	0.1912546
14	0x3d9545e6	0.07288723
15	0x3d80de2b	0.06292375
16	0x3c6eeafe	0.014582394
17	0xbd248cd3	-0.040173363
18	0x3dd4e864	0.103958875
19	0x3e13e65f	0.14443348
20	0xbd481d54	-0.048856094
21	0xbe488572	-0.19582155
22	0xbdb75a3b	-0.08952757
23	0x3e2ae670	0.16689467
24	0xbe5da949	-0.21646608
25	0xbe32c63e	-0.17458436
26	0xbe3f7d9a	-0.18700257
27	0x3c42585c	0.011861887
28	0x3e54b130	0.20770717
29	0x3e5a2c5c	0.21305984
30	0xbd8d2ff4	-0.06893912
31	0xbdd6feff	-0.104978554
32	0xbda37e8e	-0.07983123
33	0x3d471cac	0.048611328
34	0x3d7d10c8	0.061783582
35	0x3e09cf6f	0.13458036
36	0xbd78a50a	-0.06070427
37	0x3c955ff6	0.018234234
38	0xbd047169	-0.03233472
39	0xbe2640b4	-0.1623562
40	0xbe2f2f03	-0.17107777
41	0xbe3f8e5b	-0.18706648
42	0x3c818588	0.015810743
43	0xbe54e739	-0.2079133
44	0xbd834e4f	-0.064114206
45	0x3db71e9d	0.08941386
46	0xbd925c7e	-0.07146548
47	0xbc5a29f6	-0.013315668
48	0xbe1276e2	-0.14303163
49	0xbbf1640c	-0.007366663
50	0xbe071f73	-0.1319559
51	0xbe2259e2	-0.158546
52	0xbd9e3c9d	-0.07726405
53	0xbcda18e8	-0.026623204
54	0x3dddcea2	0.10830428
55	0xbe4615db	-0.19344275
56	0xbbdb25c0	-0.0066878498
57	0x3cc92fd8	0.024558946
58	0x3e00b0f8	0.12567508
59	0x3cdb6e8d	0.026786113
60	0xbd850e7a	-0.06496902
61	0x3d1b1b71	0.037867967
62	0xbc06225a	-0.008186901
63	0x3dec3929	0.1153434
64	0xbe688139	-0.22705545
65	0xbe26adfc	-0.16277307
66	0xbe40f278	-0.18842494
67	0x3cd41959	0.025890993
68	0xbdd9cb83	-0.1063452
69	0xbe1920cc	-0.14953917
70	0xbcf2a0db	-0.029617717
71	0xbdec412e	-0.115358695
72	0x3c3909bf	0.011293828
73	0x3e08a40e	0.13343832
74	0xbcb80205	-0.0224619
75	0x3cf76943	0.03020156
76	0x3e189247	0.1489955
77	0x3e593697	0.2121223
78	0x3d4eca7b	0.05048607
79	0x3d1491bb	0.036271792
80	0xbe17fb3e	-0.14841935
81	0xbe4870f7	-0.19574343
82	0x3ba40c79	0.0050063697
83	0x3dfe9c2a	0.1243213
84	0xbe0939e2	-0.13400987
85	0xbe5f179b	-0.21786349
86	0xbde26d43	-0.11055996
87	0x3e25a349	0.1617557
88	0x3c070c73	0.008242714
89	0xbd9b8df5	-0.075954355
90	0xbd880580	-0.06641674
91	0xbdd8d5b7	-0.10587638
92	0x3dbf70d9	0.09347696
93	0x3e259e1e	0.16173598
94	0xbd8056c3	-0.062665485
95	0xbe544c8d	-0.20732327
96	0xbd2286ca	-0.039679326
97	0x3d03024a	0.031984605
98	0x3e10d354	0.14143115
99	0x3e16a176	0.1471003
100	0xbdbe48b7	-0.09291213
101	0x3c9b1c8b	0.018934509
102	0x3e137564	0.1440025
103	0xbc21b3e9	-0.009869554
104	0xbdffaa23	-0.12483623
105	0xbe120739	-0.14260568
106	0x3ca15f64	0.019698806
107	0xbd816f07	-0.06320005
108	0xbdff4d7d	-0.124659516
109	0x3e163a1c	0.14670604
110	0xbe31f61c	-0.1737904
111	0x3dc36f81	0.09542752
112	0xbe368bc9	-0.17826761
113	0xbdd11480	-0.10208988
114	0xbd9627ab	-0.07331785
115	0xbd4ef9fa	-0.050531365
116	0xbe6462e7	-0.22303353
117	0xbcda81a8	-0.026673153
118	0x3dc1eb41	0.09468699
119	0xbe2e3d35	-0.17015536
120	0xbdb82919	-0.08992214
121	0xbe22f067	-0.15912019
122	0x3d86b267	0.06576996
123	0x3deb2bdd	0.11482976
124	0xbdd863b3	-0.10565891
125	0xbe2bb63f	-0.1676874
126	0xbceaeda8	-0.028677776
127	0x3e579a6e	0.21055004
128	0xbd4b6641	-0.049658064
129	0xbe2e266c	-0.17006844
130	0xbdbc853f	-0.09205102
131	0x3e4295f2	0.19002512
132	0xbe3caa0d	-0.18424244
133	0xbcf43878	-0.029812083
134	0x3dc1ec61	0.09468914
135	0xbe5267c1	-0.20547391
136	0x3de6ba6a	0.112660244
137	0x3de46eb8	0.111539304
138	0x3de2b44b	0.110695444
139	0x3e3c2e5b	0.18377058
140	0x3e4b6d70	0.19865966
141	0x3e5cc5cf	0.21559833
142	0xbc5919e8	-0.013250805
143	0xbd4a8b9f	-0.04944956
144	0xbdadf9bf	-0.08494901
145	0xbe0590d8	-0.13043535
146	0x3d434486	0.04767277
147	0x3e1eff70	0.15527129
148	0xbd0783c8	-0.03308466
149	0xbda76a3b	-0.08174559
150	0xbc6a73df	-0.014309852
151	0x3e109cb7	0.14122282
152	0xbe1d31fd	-0.153511
153	0xbd8dee17	-0.06930178
154	0xbd2b9301	-0.04188824
155	0xbe391a31	-0.18076397
156	0x3ccad896	0.02476148
157	0x3d37c0d5	0.044861633
158	0xbdac4e17	-0.08413332
159	0xbe390a17	-0.18070255
160	0xbdd8f36f	-0.10593306
161	0xbc26c4e4	-0.010178778
162	0x3dbc481c	0.09193441
163	0xbd103e78	-0.035215825
164	0xbe5742bb	-0.2102155
165	0x3e2ed38a	0.17072883
166	0x3dfe4c2b	0.12416872
167	0xbd494dca	-0.04914645
168	0xbdb03b13	-0.086050175
169	0xbe2da334	-0.16956788
170	0xbdb42b31	-0.087973006
171	0xbd7fc51b	-0.062443834
172	0xbda3b0f1	-0.07992733
173	0x3db7f6b4	0.08982602
174	0xbe0eb0be	-0.1393461
175	0x3dbb641a	0.09149952
176	0x3c9356f6	0.017985802
177	0x3d17234a	0.03689889
178	0xbe45f9fb	-0.19333641
179	0xbe01d4ce	-0.12678835
180	0x3ca77628	0.020442083
181	0xbdc3b15f	-0.09555315
182	0x3c9d3cff	0.019194124
183	0xbe63164d	-0.22176476
184	0xbd9cb4b2	-0.076516524
185	0xbc750be1	-0.014956445
186	0x3e46069b	0.19338457
187	0x3e200d72	0.15630129
188	0xbdf983e5	-0.1218336
189	0xbd9b28c5	-0.075761355
190	0xbdb6050b	-0.088876806
191	0x3e452bcb	0.19254987
192	0xbd9b43b1	-0.075812705
193	0xbe20cb92	-0.15702656
194	0x3c7e7abc	0.015532192
195	0x3dbdd448	0.09269005
196	0xbe25d67e	-0.16195104
197	0x3cb17c69	0.021665769
198	0xbd191fc2	-0.037383802
199	0xbbc6f31f	-0.0060714628
200	0xbbea8167	-0.0071565392
201	0xbc380249	-0.011231014
202	0x3dd4520f	0.10367214
203	0x3d99df79	0.07513327
204	0x3d9bddcb	0.07610663
205	0x3e3176c8	0.17330468
206	0x3c30bb54	0.01078685
207	0x3d3a8950	0.045541108
208	0xbc211f46	-0.009834116
209	0xbe35f472	-0.1776903
210	0x3da0b6ab	0.07847341
211	0x3d8661d4	0.06561628
212	0xb7841b90	-1.5748461e-05
213	0xbd7263e0	-0.05917728
214	0xbd79276a	-0.060828604
215	0x3e3243c0	0.17408657
216	0xbdc94929	-0.09828407
217	0xbe11f71a	-0.14254418
218	0xbd921d9b	-0.07134553
219	0xbd9044c4	-0.07044366
220	0x3de451df	0.11148428
221	0x3e1cb584	0.15303618
222	0xbe62a1cf	-0.22132038
223	0x3c8c650e	0.01713803
224	0x3d25cf9e	0.040481202
225	0x3b83b523	0.004019396
226	0x3d55ede3	0.05222882
227	0x3e51a3a5	0.20472582
228	0xbe0a7c4f	-0.13523982
229	0x3d4c9054	0.04994233
230	0x3b849f74	0.0040473286
231	0xbde78565	-0.1130474
232	0xbe0d0e40	-0.13774967
233	0xbe1b3929	-0.15158524
234	0xbe658338	-0.22413337
235	0xbe4f1af3	-0.20225124
236	0xbe381e18	-0.1798023
237	0x3d07aa7b	0.033121567
238	0xbe53f099	-0.2069725
239	0x3dfb4892	0.12269701
240	0xbd7dfb8c	-0.062007472
241	0xbe5b0f2b	-0.21392505
242	0x3cc30b83	0.0238092
243	0x3a1a1dfc	0.0005879102
244	0xbd9785bf	-0.07398557
245	0xbd118d79	-0.03553531
246	0x3e4fcfa5	0.20294054
247	0xbc9ef029	-0.019401627
248	0xbb86f27b	-0.0041182614
249	0xbe3e96e1	-0.18612243
250	0x3e41295c	0.18863434
251	0x3d9825a6	0.07429056
252	0xbd284358	-0.04107985
253	0x3ca1ebd0	0.019765764
254	0xbdd01a77	-0.10161298
255	0xbb035d6a	-0.0020044693

weight_hh_l1 f4 [256, 64]
0	0x3d345190	0.044023097
1	0x3e5419bb	0.2071294
2	0xbce11103	-0.027473932
3	0x3b3dd433	0.0028965592
4	0x3e77968e	0.24178526
5	0x3c9f5003	0.019447332
6	0x3d08898f	0.03333431
7	0x3df80e02	0.12112047
8	0xbc8d7e22	-0.017272059
9	0x3c96d7e8	0.018413499
10	0xbc4b2f62	-0.012401434
11	0xbd1b58dc	-0.03792654
12	0x3d277150	0.040879548
13	0xbd8c030a	-0.06836517
14	0x3dd590f1	0.10428036
15	0xbdfc5a14	-0.123218685
16	0x3c812574	0.01576493
17	0xbe084e95	-0.13311227
18	0x3da0cd8c	0.07851705
19	0x3e518950	0.20462537
20	0xbd56412f	-0.052308258
21	0xbe12b573	-0.1432703
22	0xbe2e241b	-0.1700596
23	0xbb492f49	-0.003069835
24	0xbb9af91b	-0.0047294027
25	0xbe0ceb6c	-0.13761681
26	0xbcfe312d	-0.031029308
27	0xbda692f7	-0.081335
28	0x3dadfc97	0.08495443
29	0xbc686a5f	-0.014185517
30	0xbdcb57fa	-0.099288896
31	0xbc6281fc	-0.013824936
32	0x3ddc5f6b	0.10760387
33	0xbdfdeec4	-0.123990566
34	0x3d611dbd	0.05496
35	0x3d390815	0.045173723
36	0x3e3d3bec	0.1847989
37	0xbd210199	-0.039308164
38	0x3dcf70f6	0.101289675
39	0xbdc18002	-0.09448244
40	0x3d9a69e1	0.07539726
41	0xbe170292	-0.14747074
42	0xbdc83153	-0.09775033
43	0x3cb0b75e	0.021571811
44	0xbd2d96c5	-0.042380113
45	0x3e49219a	0.19641724
46	0xbd1aa0bb	-0.03775094
47	0x3e2eca2c	0.1706931
48	0xbe189ae7	-0.1490284
49	0x3df1ead6	0.118123695
50	0x3cdf8815	0.027286569
51	0x3d38fe95	0.045164663
52	0x3d87a4c9	0.06623227
53	0x3dae8e54	0.08523241
54	0xbb13e92b	-0.00225694
55	0xbdd67d07	-0.10473066
56	0xbe211048	-0.15728867
57	0x3da63e51	0.08117355
58	0xbc33e2a9	-0.010979333
59	0xbe137049	-0.14398302
60	0xbddb187e	-0.10698031
61	0x3daff464	0.08591536
62	0x3e4d012d	0.2001998
63	0x3e35596f	0.17709897
64	0xbd322113	-0.043488573
65	0x3e3208ea	0.17386213
66	0xbe574b39	-0.21024789
67	0xbdadedf9	-0.08492655
68	0xbc7c4c1b	-0.015399004
69	0x3e0eed1a	0.13957635
70	0x3dd1ce58	0.10244435
71	0x3d0e62c2	0.03476215
72	0x3d35dec1	0.044401888
73	0xbe49ad08	-0.19694912
74	0xbb16fc17	-0.002303844
75	0xbe1786ad	-0.14797468
76	0x3e01c238	0.12671745
77	0xbe3d1534	-0.1846512
78	0x3de114b5	0.10990278
79	0xbe1b7242	-0.15180305
80	0xbc81fae1	-0.015866699
81	0xbcd5b898	-0.026088998
82	0xbc1423ff	-0.009041785
83	0x3dd22b14	0.10262123
84	0xbd69cfa9	-0.057082806
85	0xbd62de59	-0.05538783
86	0xbdafdd88	-0.085871756
87	0xbdacfad9	-0.08446283
88	0xbe094465	-0.13404997
89	0xbe3c91b9	-0.18414964
90	0xbc190221	-0.0093388865
91	0xbe1668af	-0.14688371
92	0xbd9debc1	-0.07710982
93	0x3d18cc90	0.03730446
94	0xbe106911	-0.1410258
95	0x3dbe1e74	0.09283152
96	0xbcf45f8f	-0.029830722
97	0xbe4efc6a	-0.20213476
98	0xbcaff9d9	-0.021481441
99	0x3da19165	0.0788906
100	0xbd6a9c5b	-0.05727802
101	0x3e15a040	0.14611912
102	0x3d968889	0.07350261
103	0xbe4a1cd8	-0.19737566
104	0x3e4280d5	0.18994458
105	0xbe466230	-0.19373393
106	0xbde707c9	-0.11280782
107	0x3e067f80	0.13134575
108	0x3c620da0	0.013797194
109	0x3cf61f49	0.030044215
110	0xbe1601e5	-0.1464916
111	0xbcc3b567	-0.02389021
112	0xbc658c35	-0.014010479
113	0x3e2cbdda	0.16869298
114	0xbe1af8c5	-0.1513396
115	0x3e242d5b	0.16032927
116	0x3d849aa5	0.064748086
117	0x3deb625a	0.114933684
118	0xbdd9f422	-0.10642268
119	0xbde7a957	-0.11311596
120	0x3aec90e9	0.0018048558
121	0xbcf142f4	-0.029450871
122	0xbd3d1d8b	-0.046170752
123	0xbe0fe6a5	-0.14052828
124	0xbe1b6e21	-0.1517873
125	0x3c342af6	0.010996571
126	0x3c1ebf77	0.009689203
127	0x3dc5dd6d	0.09661374
128	0x3d67250f	0.056431826
129	0x3c4a122e	0.012333436
130	0x3c8a813f	0.016907332
131	0x3d205e6f	0.03915256
132	0x3de2a032	0.11065711
133	0xbd0d7042	-0.034530886
134	0x3e5075cc	0.20357436
135	0x3d9ba0e1	0.075990446
136	0x3e1842ee	0.14869282
137	0xbe150262	-0.1455169
138	0xbe06a8bf	-0.13150309
139	0xbe061025	-0.13092096
140	0x3de4d3cf	0.11173212
141	0xbdf2ef00	-0.11861992
142	0x3cfcfa30	0.030881017
143	0xbdb348b3	-0.08754101
144	0xbbc14cf4	-0.005899066
145	0xbb9a0f4b	-0.00470153
146	0x3e01fc8b	0.12693994
147	0xbd476c01	-0.048686985
148	0xbe58bc99	-0.21165694
149	0xbde76056	-0.112976715
150	0xbe16e744	-0.14736658
151	0x3da6adf7	0.0813865
152	0xbdfb217b	-0.12262245
153	0xbe3519ae	-0.17685577
154	0xbd967aed	-0.07347665
155	0xbe157a43	-0.1459742
156	0x3dfcceff	0.12344169
157	0xbe005826	-0.12533626
158	0xbd3a9690	-0.045553744
159	0xbd35aa00	-0.044351578
160	0xbd175c62	-0.036953337
161	0xbd946ad3	-0.072469376
162	0x3e2df4f9	0.16987981
163	0xbcc6fd07	-0.024290575
164	0x3cb6b815	0.022304574
165	0x3d2e75d8	0.042592853
166	0x3c03bbd5	0.008040388
167	0xbca468cb	-0.0200695
168	0x3d80d38f	0.062903516
169	0x3c115300	0.008869886
170	0xbc6aa918	-0.014322542
171	0xbc8a6185	-0.016892204
172	0xbe2f5042	-0.1712046
173	0xbd0ac158	-0.033875793
174	0x3cb81f2d	0.022475803
175	0x3ced2b8b	0.028951427
176	0xbe3f52d2	-0.18683937
177	0x3e2542a4	0.16138703
178	0xbe1d6526	-0.15370616
179	0x3d0a3d11	0.033749644
180	0x3d3481eb	0.044069212
181	0x3d9b7651	0.075909264
182	0xbe115d86	-0.14195833
183	0x3d12a9ee	0.03580659
184	0xbe1b489e	-0.1516442
185	0x3defd4f1	0.11710537
186	0xbe220801	-0.15823366
187	0x3ab71e21	0.0013970771
188	0x3db4f7bb	0.08836313
189	0x3e137535	0.1440018
190	0xbc64c9b6	-0.013964107
191	0x3cf48be9	0.02985187
192	0x3e5f4287	0.21802722
193	0x3da7b7be	0.08189343
194	0xbe44bcc5	-0.19212635
195	0xbe29d62f	-0.16585611
196	0x3e56fc3d	0.20994659
197	0x3dc027ee	0.09382616
198	0x3e441bf1	0.19151284
199	0x3cdbe81b	0.026844075
200	0x3e48c56f	0.19606565
201	0x3c240580	0.010011077
202	0xbe014963	-0.12625651
203	0xbd67c66b	-0.05658571
204	0xbe380377	-0.17970072
205	0xbcecccc8	-0.028906241
206	0x3d2c374a	0.042044915
207	0xbdc66333	-0.096868895
208	0xbbd47810	-0.006484039
209	0xbe6e705f	-0.23285054
210	0xbd143a25	-0.036188263
211	0x3e5c4369	0.2151009
212	0xbdbae87b	-0.091263734
213	0xbe7f1ed6	-0.24914107
214	0xbda36ca7	-0.07979708
215	0xbd9d839a	-0.07691117
216	0xbe59105c	-0.21197647
217	0xbdc52c2a	-0.09627564
218	0xbd243018	-0.04008493
219	0xbe7f0673	-0.24904804
220	0x3e4355f7	0.19075762
221	0xbe594e08	-0.21221173
222	0xbcce4850	-0.025180966
223	0x3e1c2dad	0.15251799
224	0x3dba7a2e	0.09105335
225	0xbde7bbae	-0.11315094
226	0x3e6377b2	0.22213629
227	0x3e4320ac	0.19055432
228	0x3e888d64	0.26670372
229	0x3dcefce7	0.10106831
230	0x3df8e2d7	0.12152641
231	0x3c05ec77	0.008174053
232	0x3e42af83	0.19012265
233	0xbe394fad	-0.180968
234	0xbe8223e8	-0.2541802
235	0xbcc75a57	-0.02433507
236	0xbdbc8892	-0.09205736
237	0x3d261d4d	0.040555287
238	0x3d394561	0.04523218
239	0xbcf11ac8	-0.029431716
240	0xbe1b155b	-0.15144865
241	0x3e3153eb	0.17317168
242	0xbbd93755	-0.0066289105
243	0x3ac1e91e	0.0014794206
244	0x3e0cae66	0.13738403
245	0x3df10c24	0.11769894
246	0xbd5d80c7	-0.05407789
247	0xbe73b33d	-0.23798843
248	0xbd005daf	-0.031339344
249	0x3d92ec55	0.07173983
250	0xbc61dac9	-0.013785073
251	0xbdedc002	-0.11608888
252	0xbc3554c8	-0.011067577
253	0x3dad7457	0.08469456
254	0x3c90e5b4	0.017687656
255	0x3dc70383	0.09717467

bias_ih_l1 f4 [256]
0	0x3d4dc068	0.05023232
1	0x3d8f8449	0.07007653
2	0x3e201365	0.15632398
3	0x3d46d8fb	0.048546772
4	0x3e04a1e9	0.12952389
5	0x3d8a1270	0.06741798
6	0xbc9b74e1	-0.01897663
7	0x3c66c765	0.014085625
8	0xbd637c57	-0.0555385
9	0x3b8720b1	0.00412377
10	0xbc7794c8	-0.015111156
11	0x3e0bf37b	0.13667099
12	0x3d1faf9b	0.03898583
13	0x3e264ee0	0.16241026
14	0x3d461a31	0.04836482
15	0x3a234f70	0.00062297937
16	0x3e4237fe	0.18966672
17	0x3e4068c7	0.1878997
18	0xbd28f18e	-0.04124599
19	0x3e3f9f87	0.18713199
20	0x3cd4c128	0.02597101
21	0x3d026da2	0.031842835
22	0x3d1de223	0.03854574
23	0xbd4f2ee6	-0.050581835
24	0x3d996977	0.07490819
25	0x3e18b407	0.14912425
26	0xb9e9b204	-0.00044573855
27	0x3e249480	0.16072273
28	0xbd62364d	-0.055227567
29	0x3dec27a1	0.11530996
30	0x3e0f350d	0.13985081
31	0xbd8981a8	-0.06714183
32	0x3c3139c9	0.010817
33	0x3d117b58	0.03551802
34	0x3db84f13	0.08999457
35	0xbd409239	-0.04701445
36	0x3db256cf	0.08707964
37	0x3d4c8a68	0.049936682
38	0xbbbe891c	-0.0058146846
39	0x3e093f70	0.13403106
40	0x3da2bf20	0.079466105
41	0x3d813b38	0.06310123
42	0x3d748821	0.059700135
43	0xbd295322	-0.041339047
44	0x3d96b3f2	0.073585406
45	0x3d784edf	0.060622092
46	0x3e25ef4c	0.16204566
47	0x3df1c090	0.118043065
48	0x3e4ce809	0.2001039
49	0x3d8497bc	0.064742535
50	0x3dec9eb3	0.11553707
51	0x3d14a638	0.03629133
52	0x3e114658	0.1418699
53	0xbd02b528	-0.031911045
54	0x3e227adb	0.15867178
55	0x3de7c7f3	0.11317434
56	0x3e489f0b	0.1959192
57	0x3d13864c	0.036016747
58	0x39a2c1f0	0.00031043543
59	0x3e46fd6e	0.19432613
60	0x3d3259c4	0.04354264
61	0x3db8bd6f	0.090205066
62	0x3de24cd3	0.11049809
63	0x3dca07e4	0.09864786
64	0x3d905ac5	0.07048563
65	0x3dad1e22	0.08453013
66	0x3e26a151	0.16272475
67	0xbb9343d4	-0.0044941697
68	0x3db752ec	0.08951363
69	0xbd1e17a0	-0.03859675
70	0x3ce5d04d	0.028053427
71	0x3e0c51a4	0.13703018
72	0xbd23b180	-0.0399642
73	0x3d0727a8	0.032996804
74	0x3d8fd79f	0.07023548
75	0x3b7c6559	0.0038512556
76	0xbdd6b6b3	-0.10484066
77	0x3d2e6a49	0.04258183
78	0x3e19b33a	0.15009776
79	0x3e129b7f	0.1431713
80	0x3e260dd7	0.16216217
81	0x3d9cc173	0.07654085
82	0x3dd31bba	0.10308023
83	0x3d28a3b5	0.04117175
84	0xbc031bcd	-0.008002234
85	0xbdb9957c	-0.09061715
86	0x3cf05f64	0.02934236
87	0xbb0e4959	-0.00217112
88	0xbc52070f	-0.012819066
89	0xbd065371	-0.03279442
90	0x3e2878c8	0.16452324
91	0xbda3b804	-0.079940826
92	0xbc1472c9	-0.00906057
93	0x3d88926a	0.06668551
94	0x3d16a248	0.036775857
95	0xbc170874	-0.009218324
96	0x3db52e83	0.08846762
97	0x3d827fdd	0.06372044
98	0xbc50a066	-0.0127335545
99	0x3de786ca	0.11305006
100	0xbdd34201	-0.103153236
101	0xba5be024	-0.00083875866
102	0x39caa364	0.00038650178
103	0x3e0719f7	0.13193499
104	0x3d1ed0f5	0.038773496
105	0xbd84cdf5	-0.06484596
106	0x3d9fe13e	0.078066334
107	0x3e17befe	0.14818951
108	0xbd0354e8	-0.032063395
109	0x3d4e063a	0.050298907
110	0x3c20d6bc	0.009816822
111	0x3dfcd4ca	0.12345274
112	0x3c6a1d40	0.0142892
113	0x3e3482c3	0.17628007
114	0x3dab2af7	0.08357804
115	0x3d488cee	0.048962526
116	0x3e226293	0.15857916
117	0xbca1ac55	-0.019735495
118	0x3d53d45c	0.051716194
119	0xbd3397ee	-0.043846063
120	0x3dc3f7e5	0.095687665
121	0x3d059a5b	0.032617908
122	0xbdbe3529	-0.09287483
123	0xbc819966	-0.015820216
124	0xba9153a8	-0.0011087554
125	0xbcc56d87	-0.024100078
126	0x3d571414	0.052509382
127	0x3d5604ec	0.052250788
128	0xbd3d3a05	-0.04619791
129	0x3ddc0d18	0.10744685
130	0xbd9abe66	-0.07555847
131	0xbd1194ed	-0.035542417
132	0xbd3ced8b	-0.046124976
133	0x3dbd366f	0.09238898
134	0x3dcbf058	0.09957951
135	0x3e2055c8	0.15657723
136	0x3e1a1ddc	0.15050453
137	0x3d8b5b99	0.0680458
138	0xbd3cab1e	-0.046061628
139	0x3d1eda2d	0.038782287
140	0xbc150a84	-0.009096745
141	0xbe2bdc81	-0.16783334
142	0x3de1e6f6	0.110303804
143	0x3d2f8ba5	0.042857785
144	0x3b5a5310	0.003331367
145	0xbd2976cd	-0.041373063
146	0x3e0a6021	0.13513233
147	0x3d80e958	0.06294507
148	0xbe175655	-0.14779027
149	0xbdcf2706	-0.10114865
150	0xbb844e94	-0.0040376876
151	0x3bb1e6cc	0.0054291245
152	0xbdb05857	-0.086105995
153	0xbe1254a6	-0.14290103
154	0xbd8b54ea	-0.068033054
155	0xbd2b95a5	-0.04189076
156	0xbd96caf7	-0.07362931
157	0xbe0c37ab	-0.1369311
158	0xbdb38704	-0.087659866
159	0xbcdab08c	-0.026695512
160	0x3df9b259	0.1219222
161	0xbcba5a76	-0.022748213
162	0x3dc227bc	0.09480235
163	0x3d65912c	0.05604665
164	0xbc99fdde	-0.018797811
165	0x3d7ff35a	0.062487938
166	0x3df448e6	0.11927967
167	0xbe1307fb	-0.14358513
168	0x3e26e07c	0.16296571
169	0x3d7661c4	0.06015183
170	0xbdc6937c	-0.09696099
171	0x3e31e8c9	0.17373957
172	0xbe0f2334	-0.13978273
173	0x3df595fd	0.119914986
174	0xbe2b1d24	-0.16710335
175	0x3daead9a	0.085292056
176	0xbd328f44	-0.04359366
177	0x3e3d0421	0.18458606
178	0xbc831692	-0.016001973
179	0x3e16296e	0.14664242
180	0x3d98dc99	0.07463951
181	0xbc9d53e4	-0.019205041
182	0xbe13d884	-0.14438063
183	0xbdd25880	-0.10270786
184	0xbddd03c4	-0.10791734
185	0x3dc616a9	0.09672291
186	0xbe153986	-0.14572725
187	0xbe00e84f	-0.12588619
188	0xbda57f56	-0.08080928
189	0x3ddfc26c	0.10925755
190	0x3e0d7832	0.13815382
191	0x3e118917	0.14212452
192	0x3e0f992b	0.14023273
193	0xb993d7b5	-0.0002819874
194	0xbcae25cd	-0.02125826
195	0xbc2c3a1e	-0.010511903
196	0x3d9f9f22	0.07794024
197	0x3e094296	0.13404307
198	0x3ddbc3d8	0.107307136
199	0x3e18e62e	0.14931557
200	0x3cb0c74e	0.02157941
201	0x3dbad7df	0.091232054
202	0x3e472758	0.19448602
203	0x3e2512d2	0.1612046
204	0x3e225b34	0.15855104
205	0x3dbe49c6	0.09291415
206	0x3d861c3d	0.06548355
207	0x3b9a787f	0.0047140713
208	0xbb8c202d	-0.0042762966
209	0x3dcbe619	0.09955997
210	0x3c8acfeb	0.016944846
211	0xbd57f17b	-0.052720528
212	0xbcb5ff3b	-0.02221643
213	0x3dd1cabf	0.10243749
214	0x3e32fa83	0.17478375
215	0xbc9b612e	-0.018967237
216	0xbc361b8f	-0.011114969
217	0x3dbf855c	0.09351608
218	0x3e32efd3	0.17474298
219	0x3dcc4a83	0.099751495
220	0xbd86c618	-0.06580752
221	0x3dca98a4	0.09892395
222	0x3e17cff3	0.1482542
223	0xbd84ec0f	-0.06490337
224	0x3e3be540	0.1834917
225	0xbcc9a641	-0.024615409
226	0x3e1eb5dc	0.15499061
227	0x3e2a7aa9	0.16648354
228	0x3e08860c	0.13332385
229	0x3d21a266	0.039461516
230	0xbccf9315	-0.025338689
231	0x3db4981e	0.088180766
232	0x3e387200	0.18012238
233	0x3db1bd78	0.086787164
234	0x3db8ca05	0.09022907
235	0x3d339385	0.043841857
236	0x3e43201d	0.19055219
237	0x3c6c2023	0.014411959
238	0x3e40512a	0.18780962
239	0x3e3a4fa5	0.18194444
240	0x3d6e5db3	0.058194827
241	0x3d83404e	0.064087495
242	0xbb7333cd	-0.0037109733
243	0x3e096c83	0.134203
244	0x3d981854	0.07426515
245	0xbd48ea42	-0.04905153
246	0x3e23da31	0.16001202
247	0x3e5f17e5	0.21786459
248	0x3c42ddf1	0.011893735
249	0x3e1897a5	0.14901598
250	0xbd19e07b	-0.037567597
251	0x3e2eb7f5	0.17062362
252	0x3de34ad0	0.11098254
253	0x3e30b306	0.17255792
254	0x3e265176	0.16242012
255	0xbad65b09	-0.0016354035
