Network2/params/rnn_wParams08180956.pth (torch_old, 220881 bytes, 10 tensors)

weight_ih_l0 f4 [256, 3]
00000000: efed edbb ddfb 653c d592 dd3c e239 9a3d
00000010: d621 273e 2ca5 493e 5d2a df3d c7c1 063d
00000020: d092 3e3d 8359 9b3c 78df 49bd 5d73 69bd
00000030: 385e 2a3e c846 8bbd ccd0 0a3e 071b e13d
00000040: bbff 4ebd ee3e 8bbc b000 0abd 83fc f6bc
00000050: 23cd 1ebc a559 143d 4641 60bd d617 b23d
00000060: 06e1 153c f0db 473d 47bc 28bb 4fb2 fa3c
00000070: b083 2bbd df90 183d 328b 0d3e 2eca 4d3d
00000080: 8161 863d 3743 90bd 60d3 a1bd bd93 5d3d
00000090: 31ac 47ba af59 2ebd 5ab5 d13d 35ea 363e
000000a0: 5fee 83bd f82e e6bc e6fd 9d3d d126 56bd
000000b0: fb00 1ebc 9e1a dbbb 7d3a ae3c c1c4 a93d
000000c0: 125f 09be 9a21 ba3d 9ffe 6dbd 228a 85bc
000000d0: e8fd 91bc ecb0 f43d 9024 e0bd 903a be3d
000000e0: 0386 0cbd 1a35 e13b 6d51 8dbd 5085 063e
000000f0: 1085 523d 3b65 483d d8c2 133d c053 e8bc
00000100: 8f96 e53c 5d21 043d 8b47 1d3e b1e6 42bc
00000110: 3049 ee3c d0ad b13d 1bc1 95bc 641a f8bc
00000120: c81b 1b3d 0a66 a0bd 06e6 e53d be7e 0dbd
00000130: a9ac 2dbd c389 db3d 8611 d2bc ed5c 103e
00000140: de58 0ebc 367f 503d fbe7 0d3e 338b d9bc
00000150: 47ee 063e 8a7e 89bd 0a4f e93d 20cb 413b
00000160: 2f4c 5bbd f271 163b 9dd0 713d 025a 563d
00000170: 6cd9 ac3d b04c bcbc e2de 1bbc 3a7d 1c3c
00000180: 03dd 91bd 3544 b5bc 1530 c93d e569 2cbd
00000190: bdf6 b4bd 4cc4 79bd d36a 333e 7023 263e
000001a0: a95c a83d 49be e43d 9f40 91bd c836 433e
000001b0: e857 c4bb 2ad4 293d 544e c6bd 4d1e c83d
000001c0: 6799 f4bd 120c 363d 64a3 153d 3228 0d3e
000001d0: be8f 64bd 3ed9 293e 2f96 b4bc e68c c03b
000001e0: 7d11 323e 8c38 cabc 6bc7 9b3d 3b4a 0e3d
000001f0: 3fcd 4e3d c94b 223d 2f92 dbbc cd63 fd3d
00000200: f868 5d3e a5d7 b8bd 08bb e9bd 4601 843d
00000210: 62c9 823d 099f c7bd 204e 0abe 8003 fdbc
00000220: 45d3 91bd e090 aa3d 05cf 953d 2c9e 393e
00000230: d03e 353c 3c2c b6bd 39ce b53d 27d7 e13d
00000240: c1ef a33d 1ff8 c6bd c0bc 273d c1a9 13bd
00000250: 7382 553e 0b65 053e 2c07 e73d bded 0f3e
00000260: 9c61 483e a90a 17be 396b fcbd 6c0f c43d
00000270: 2b0f ac3a e549 fa3d 029e d7bd 99e2 d5bc
00000280: 77c0 f8ba 6f4b 643d e98e 1e3d 4776 97bc
00000290: de70 543e 5026 27bd 841b 93bd 9df1 9e3c
000002a0: 42d5 113d 38e6 1d3e b6f5 a63d fb04 afbd
000002b0: 26f8 5ebd f377 83bd b9be 173d cfc9 053e
000002c0: 577e 8ebd be4e c3bd 552e 4dbd b154 e2bd
000002d0: 912e 1ebc 5eca 063e dd96 373e f9ca f6bd
000002e0: 9a79 a93d 4c2e a63d 587e 5dbd 1564 d6bc
000002f0: b291 e63d 741b f1bc f236 3c3e 9a4d d1bc
00000300: 6161 2f3d 06f0 5cbc 1235 fd3d 8416 453d
00000310: 3548 4fbb 6f11 bcbc e97f 863d 516a f13d
00000320: 9396 8e3d 37da 8ebd b15d 8c3d 8ade dcbd
00000330: 289f 84bc a1c4 c03d 13a7 303e 5bed 9d3d
00000340: 0a0f d93d 9cc4 aabd 7d9a 503e 2334 c63d
00000350: e0c1 7dbb d0fe 143e 2140 c03d 3642 e6bc
00000360: a333 243e 52ac 88bd 0e86 1f3e eb88 9ebd
00000370: 554c 843d f3cc 043d 920f b53d f55e af3d
00000380: ba09 e03a c962 6c3d 1250 06bd f8ac 95bc
00000390: d45f 3bbd 8588 a2bc 67f5 963d c07a f23d
000003a0: d54d ee3d f689 1fbd 1d1c 04bd e583 373d
000003b0: b177 c13c d3a3 03be 5a0c 8dbc ba0d 15bd
000003c0: f1c6 e7bd 9239 83bd 560e fb3d b70d f63d
000003d0: 833f 403d 1ba3 e73d ead7 903d bdc6 a5bd
000003e0: 62de febc 950d 3f3e 2fd1 f23d e373 103e
000003f0: ef24 853d 57c0 ec3d 42e5 063d 2e35 11be
-0.00726103 0.0140371 0.027047554 0.075305715 0.16321501 0.19691914 0.10896752 0.032899644
0.04652673 0.018963581 -0.049285382 -0.056994785 0.16637504 -0.0680061 0.13556212 0.10991483
-0.050536852 -0.01699778 -0.033692062 -0.030149704 -0.009692463 0.036218304 -0.05474975 0.086959526
0.009147888 0.048793733 -0.0025746988 0.030602602 -0.041873634 0.037247535 0.1382263 0.05024164
0.06561566 -0.0704407 -0.07901645 0.054095972 -0.0007616906 -0.042565998 0.10239668 0.1786278
-0.0644195 -0.028098568 0.07714443 -0.052283112 -0.009643788 -0.0066865226 0.021268124 0.08289481
-0.13415173 0.0908844 -0.058104154 -0.016301218 -0.017821267 0.11947808 -0.10944474 0.09288514
-0.03430749 0.0068727853 -0.06900296 0.13136792 0.05139643 0.048924666 0.03607449 -0.028360248
0.028025893 0.03225838 0.15359323 -0.011895821 0.029087633 0.0867573 -0.018280556 -0.030286022
0.03786829 -0.078319624 0.11225514 -0.0345447 -0.04240099 0.10719635 -0.025643121 0.14097948
-0.00868818 0.050902568 0.13858025 -0.026555633 0.13176833 -0.067135885 0.11392029 0.0029570535
-0.05353945 0.00229561 0.05903684 0.052331932 0.084399074 -0.022985786 -0.009513589 0.009551341
-0.07122233 -0.02212725 0.09823624 -0.042093176 -0.08836124 -0.06097822 0.17521219 0.16224456
0.082207985 0.111691065 -0.070924036 0.19063866 -0.0059919246 0.0414621 -0.09682909 0.097714044
-0.11943322 0.044445105 0.036532775 0.13784865 -0.055801146 0.16586778 -0.02204427 0.0058761714
0.17389484 -0.024685167 0.07606395 0.03473876 0.050488707 0.039623056 -0.026803104 0.12372551
0.21622074 -0.09025506 -0.114126265 0.064455554 0.06386067 -0.097471304 -0.13506365 -0.030885458
-0.071203746 0.08328414 0.073148765 0.18126744 0.011062339 -0.08895156 0.088772245 0.11027365
0.08004714 -0.09715294 0.04095149 -0.03605056 0.20850544 0.13026826 0.11280665 0.14055534
0.19568485 -0.1475016 -0.123251386 0.09573254 0.0013127079 0.122211255 -0.105281845 -0.026109027
-0.0018978257 0.055736 0.03871051 -0.018489016 0.2074618 -0.040808022 -0.071829826 0.01940232
0.03560377 0.15419853 0.081523344 -0.08545872 -0.05443587 -0.06419363 0.03704712 0.13065265
-0.06957691 -0.09536503 -0.050093014 -0.1105131 -0.009654657 0.13163134 0.17928644 -0.12050433
0.08275147 0.08114299 -0.05407557 -0.02617077 0.11258258 -0.029432036 0.18380335 -0.025549699
0.042817477 -0.01348496 0.12363638 0.048117176 -0.0031628732 -0.022957532 0.06567366 0.11787856
0.069623135 -0.06975215 0.06853808 -0.107846335 -0.016189173 0.09412504 0.17251234 0.077112876
0.105985716 -0.083382815 0.20371433 0.09677913 -0.0038720295 0.14550328 0.093872316 -0.028107744
0.16035323 -0.066734925 0.15578482 -0.07740959 0.06459872 0.032422017 0.088408604 0.085630335
0.0017092742 0.057711396 -0.032791205 -0.018270954 -0.045745686 -0.019840488 0.073710255 0.11839819
0.11635939 -0.03894993 -0.032253373 0.04480352 0.023616644 -0.12855463 -0.017217804 -0.036390044
-0.11317242 -0.06407465 0.12258594 0.12014335 0.04693557 0.11310407 0.07072432 -0.08094547
-0.0311119 0.18657525 0.11856305 0.14106707 0.06501185 0.115601234 0.03293348 -0.14180443

weight_hh_l0 f4 [256, 64]
00000000: c3e2 073d 5eac c23d 1870 63be 4db6 babd
00000010: 9ad9 0c3e 6247 8cbd 61da c53d 1c9b 773d
00000020: 99e0 d9bd 6a37 85be 59fb 31be d96c 4b3d
00000030: 99bf 59be 5339 b2bd d585 6ebe dbee d9bd
00000040: 1665 2fbd c9c7 08bd f092 febd 7eb3 82be
00000050: af69 be3d 850a c23d 1612 92be 82b7 58be
00000060: f9e1 4e3e efa8 783e 4f88 8cbe 009d 96bd
00000070: 045a 133e 8ab4 24be 24ff f1bd ea35 6b3e
00000080: db3f f1bd d70a 0fbe 53e7 5cbe 0f6b 253e
00000090: 3447 133d e878 853d 7019 96bc fc3e 6b3e
000000a0: 049b 883e c1f9 213e 305b 7e3d bf4e 00be
000000b0: e649 77be 093c 593e bb38 2e3e b121 213e
000000c0: 13c2 3cbe 024d afbe 66ff a1bd 7082 4b3e
000000d0: df90 c13c 873f 76be 6405 9d3e a0f6 49bd
000000e0: 47c3 2dbe 040f 1a3d 29c9 563e f30c e73d
000000f0: 6b49 a33e 783b 2d3e 9f05 f6bd 14b2 033e
00000100: 8bd0 2a3e 7494 2e3e 1a16 6abe baec 92bd
00000110: bef9 1a3e 2784 96bd 9fd2 9e3d 2b63 343e
00000120: 1408 edbd d3f6 8ebe 66ac 8dbe e853 963c
00000130: 9c73 43be c0f7 e8bd 2ab7 2ebd b105 3dbe
00000140: c4c4 0f3d 3eb5 15be 7438 0fbe d957 8abe
00000150: b55c 843e 5cd8 e73d 6019 1cbe ac35 13be
00000160: df75 dd3d 452e 983d b9a4 acbe 6867 c0bd
00000170: 32dd b03e 5dd7 03be a0ff a0bd 1bfc dc3d
00000180: d427 36be a161 c9bd 51cf ecbd 2ab6 b43d
00000190: 877e ab3d 972c 083e 7e1b 363d e740 983d
000001a0: dc06 633d d30b b33d 531e 8b3d 9d41 80be
000001b0: 247d 97ba 9083 e53d 1e4a 413e 9948 413d
000001c0: 6467 79bd 6300 37be e42e bfbc e9a8 443e
000001d0: 81fe 4b3e d132 53be ce8a 7a3e 6d2d 89be
000001e0: 6e82 36be eecc 4b3c cd27 543e 8a14 4bbd
000001f0: 79cd 663e 4b5d 183e 7e4d efbc 9c78 4e3e
00000200: f700 1b3e 8886 5b3e 5f67 f3bb 7b36 2abe
00000210: 177f 173e 819b f93b b26e 5f3e 72f5 033e
00000220: 2b25 4ebe f944 5bbd d589 94be 0723 9dbd
00000230: e3de 9bbd a350 38be 08e1 6dbe 9454 2abe
00000240: a5c9 b93d a324 68be bb86 77bd 2509 1cbe
00000250: 037f 4c3e b88a 3e3d 9edd 86be 05dd 3bbe
00000260: 22b2 f63d 8a4b 943e 936c 3abe a6a4 183d
00000270: df4c 0b3e 05dc e1bd fc5d 83bd 6c6f 803e
00000280: eb7c 39be ea64 4cbe ae8e 60be 73e6 873e
00000290: 9306 733c d467 f83d 150d 403c 29b4 153e
000002a0: 667b 113e 1f63 473d 94fd 3f3e ea12 26be
000002b0: 89c8 1abd 6bd5 c93d 089d 243d f14e 8bbd
000002c0: 3c45 3ebe 5a82 83be 865d 29bd 4ddc 7d3c
000002d0: 9003 8f3d 62e9 2abd 341a a23e d896 64be
000002e0: 3c1a 41be 2582 833c 7efc 2b3e a12b 963d
000002f0: 020f 8d3e c04c af3d 78ee 27be f763 063e
00000300: d69f fcbc aebb 803d 91c1 94bd bf1b 1cbd
00000310: 9def 4e3c e17b 063d 7983 27bc bda7 7bbd
00000320: 6617 39bc a2bf b73c 66f9 aebd e893 e63d
00000330: a56f eabc adf6 f23d 782b 6abd 056c 69bc
00000340: 91b5 673d 80ec dfbd 4a67 dcbd 3f35 a33c
00000350: d840 91bd a8e0 adbd 124f 3ebd 9a00 d3bc
00000360: 1d28 91bc 1fae b4bd 4ebc afbd 2438 67bd
00000370: a72c a23d 20e4 94bd dfed 653d e69e 983d
00000380: 75d4 b6bd d5e8 e83d 33b6 38bd 82a7 133e
00000390: 1a43 ad3d 4a42 5e3d bad3 edbc d3c1 293e
000003a0: 8eeb 643e a179 2b3d 8a6c a93d 560d 1abe
000003b0: 22a7 21be fb7b c83d ceca 923c bd5d 22bd
000003c0: 95bf d2bd b9ae 61be 6bfb 26bc bb74 c3bd
000003d0: 610d 38bd 35e5 1c3d 240d 623e da9e 87bc
000003e0: a6af ddbd 6b5c 883c 0064 0c3e d729 8cbd
000003f0: d41d 0a3e 5584 d83d 2dfd 35be fd54 063e
0.03317524 0.09505533 -0.22210729 -0.09116802 0.13754883 -0.06849553 0.09660793 0.06045066
-0.10638542 -0.2601884 -0.17381038 0.049664352 -0.21264495 -0.0870234 -0.2329324 -0.10641261
-0.042821012 -0.033393655 -0.1243037 -0.25527567 0.09297501 0.09474663 -0.28529423 -0.21163753
0.20203389 0.24283193 -0.27447745 -0.07354164 0.14389807 -0.16084495 -0.11816242 0.22969785
-0.117797576 -0.13968979 -0.21572618 0.16154121 0.035956576 0.06517202 -0.018322676 0.22973245
0.26680768 0.1581793 0.062098682 -0.12530039 -0.24149284 0.21214308 0.17013828 0.15735509
-0.18433408 -0.3423844 -0.079100415 0.19873977 0.02362865 -0.24047671 0.30668175 -0.049307466
-0.16969024 0.037611976 0.20975174 0.11281767 0.3189195 0.16917217 -0.12012791 0.128609
0.16681115 0.17048818 -0.22859994 -0.07174058 0.15134332 -0.07349425 0.077550165 0.17615955
-0.115738064 -0.27922687 -0.27670592 0.018350556 -0.1908707 -0.113753796 -0.042655148 -0.18459202
0.03509976 -0.1461992 -0.13986379 -0.27020147 0.2585198 0.11320564 -0.15244055 -0.14375943
0.10813498 0.074307 -0.33719423 -0.09394723 0.3454376 -0.12875123 -0.078612566 0.10790273
-0.1778863 -0.09833074 -0.1156298 0.088238075 0.083737426 0.1329826 0.044459812 0.07434254
0.055426463 0.0874249 0.06792893 -0.2505006 -0.001155768 0.11206734 0.1887593 0.047188375
-0.060889617 -0.17871241 -0.023337789 0.19205059 0.19921304 -0.20624854 0.24467012 -0.2679247
-0.17823192 0.012438996 0.20718308 -0.049580134 0.22539319 0.14879338 -0.029211756 0.20163196
0.15137087 0.21438038 -0.0074280943 -0.16622345 0.14794575 0.0076174145 0.2181957 0.12886599
-0.20131366 -0.053532574 -0.29011407 -0.076726966 -0.07610872 -0.1799951 -0.23230374 -0.16633826
0.09071664 -0.22670226 -0.060431223 -0.15237863 0.19970326 0.04651901 -0.26340955 -0.18346031
0.12045695 0.28963882 -0.1820548 0.037266396 0.13603543 -0.110282935 -0.064144105 0.25085008
-0.18114059 -0.1996037 -0.21929428 0.26543006 0.01483311 0.12129179 0.011721869 0.14619507
0.14207229 0.048678514 0.18749076 -0.16218153 -0.0377889 0.09855159 0.04018882 -0.06802166
-0.18581098 -0.25685388 -0.041348957 0.015494418 0.06983101 -0.041726477 0.31660616 -0.22323167
-0.18857664 0.016053269 0.16795537 0.0733254 0.27550513 0.08559561 -0.16399562 0.13124071
-0.030837934 0.06285797 -0.07263482 -0.0381124 0.01263037 0.032832984 -0.010224217 -0.061439265
-0.0112970825 0.022430245 -0.08543663 0.1125868 -0.02861769 0.11863456 -0.05717036 -0.014246945
0.05656964 -0.10933781 -0.10761888 0.01992285 -0.07092446 -0.084901154 -0.046462126 -0.025757123
-0.017719323 -0.088222735 -0.08580838 -0.056450024 0.07918673 -0.07270074 0.056135055 0.074521825
-0.08927242 0.11372534 -0.045095634 0.14419368 0.08460064 0.054262437 -0.029031623 0.16577844
0.22355482 0.04186404 0.08272655 -0.1504415 -0.15786412 0.097892724 0.01791897 -0.039640177
-0.102904476 -0.22039308 -0.010191779 -0.09543749 -0.044934634 0.038304526 0.22075325 -0.016555239
-0.10824518 0.01664563 0.13710022 -0.06843918 0.13487941 0.10572115 -0.1777236 0.13118358

bias_ih_l0 f4 [256]
00000000: 672b 9d3b 54a6 88bb 42d6 fbbc 4211 4fbd
00000010: 73ee 403e 1534 b6bd 6823 fe3d f616 8fbd
00000020: 643e 063e 4d0e ac3b f8c8 3cbc 8a50 1e3d
00000030: 267c e43d 3baf c43d 45a0 773d 6c1d f73c
00000040: b9d1 f93c d54c ac3d cc28 863d ecb6 273d
00000050: 6761 403e c29d d23c ee05 623d f0ce 203e
00000060: a974 823d e819 8a3d fb17 803d 327a b03d
00000070: 7c65 8aba f68b 3ebc 2e2b 8ebd fe31 94bb
00000080: 01ad 373e 00eb 8fbb d54c 823d 3e18 513d
00000090: 13aa 75bc e530 8b3d 99b9 a4bd 8cda 813e
000000a0: 1b07 683e 10b5 d7bc 9294 f03d 3e86 133e
000000b0: 85c5 babd b5c9 563b 62fa 983d 93e4 8ebd
000000c0: 0e3e 123e 0623 e33d 87ab 663e b5f9 44bd
000000d0: 5dce 0d3e 25f6 6b3d 7069 353e b8c1 20bd
000000e0: 67f1 983d a21b f93d 9038 0d3e 9490 d2bd
000000f0: f07e 513e 6a2e 8cbd a770 f1bc d1b2 243e
00000100: 42f9 4b3e 502c cc3d 4c37 3d3e 302c 013e
00000110: 416d a63d d3ba ad3d 1214 a73c 5fc3 be3d
00000120: b73c 543d ba63 e43d 514b bc3d 6f39 42bb
00000130: 8944 0b3e 3ef6 413d 67fb 3d3e 67bb 06bd
00000140: 06d9 90bd f566 37bd 015d 8dbc c16f 553e
00000150: 3912 703e e35f 99bd f516 333e 32f9 f83d
00000160: 17d2 5e3d 8fb9 523d 01d4 b9bc 4bec 18be
00000170: 98ad 363d 7913 07bd 9f54 f73d 2dac fdbb
00000180: 8f80 f13c 6383 ad3d b824 f13d bbbc 963d
00000190: 9f0a ba3d fe27 953d 004a 34bd c7b9 453d
000001a0: a08c 983d 0d69 dc3d c445 553e 3290 d53d
000001b0: 6498 083e 5a16 4abd ba1a 543e 9a53 de3b
000001c0: 84e9 ba3d 82e4 4f3d be14 e83d f330 1a3d
000001d0: 97f9 fe3d 4ccb 0f3d 17cc 583e fa23 6d3c
000001e0: 3028 fb3d f629 cdbc 90ef a93d cd1e bcbd
000001f0: 43e8 7a3d 40fe 1abd c4bc f53d db7b 493c
00000200: 696d 2a3e 1a15 663d f5d1 4ebe 9584 0dbe
00000210: 27c2 b53d 47cb d2ba b928 f03d 09f7 5e3d
00000220: 394f 12be b0b0 d6bd c67e 00be 9a20 6d3d
00000230: cc36 11bc e40e 18be 4cae 13be 9cfe 61be
00000240: 5fc2 0a3e e754 2cbe da49 b0bd 7be3 b6bd
00000250: 5ebf 833d 5922 0a3d 447c debd 231d 8cbd
00000260: c14c a83c 148c 373e 92ea f9bd a764 c93b
00000270: fe21 303d cd5c d7bd e6d4 57bd efca 3f3d
00000280: 035b 4dbd c663 d1bd acff 64be 0502 083e
00000290: 966d 3fbb 03b7 b23c 91fb 943c 3879 6f3d
000002a0: 0d7b 623e 430d f53d 026e 203e 0113 1abe
000002b0: 4a22 1c3d 11c9 6cbc 60ac fc3d 522e db3d
000002c0: b386 e2bd 11bd ddbd d2e7 5cbe f2a5 f13d
000002d0: af6f d03d fac4 b4bd 9fd0 643d bcaa 1dbe
000002e0: 633a f2bd 30a5 06be 0ba9 8dbc 58d8 00bd
000002f0: 972b 4b3d f7e5 303d 6048 35be 5b60 353d
00000300: 4f14 253a 38e4 423e adc7 133d b085 8f3d
00000310: f4f4 013e 223d 0d3c 0016 4d3e d3f3 88bd
00000320: e022 213e a577 f33b 25ab 133e 41ee f6bc
00000330: ae0e 463c 4eaa 593e e734 e23d ec8b 803d
00000340: 0ad6 a93d f420 2d3e 411f b23d 88b5 803d
00000350: 3e1f e43d f3bd e1bd 4cd3 1b3d 8023 20bd
00000360: 6e26 2a3c 575e 6f3d 4877 a4bb 5da3 4bbc
00000370: 885f 073e 54aa c83d c090 0c3e fd14 c63c
00000380: 66de 0ebd b283 493e 0b9e 203e 4e3c 3f3e
00000390: 97e2 e9bd 1493 bebc 82b6 073d feae 283e
000003a0: d7bb 103e 84de a8bd 09a8 03bd 7cc2 9a3d
000003b0: 3897 90bd a21b 25bd 6424 cb3c a414 65bd
000003c0: 33c0 353d 7571 7d3e 9dd2 f83d db6a 1bbd
000003d0: 8236 e63d 70ff 223e 3c60 ab3d 9cbb 8fbd
000003e0: 4b4f 073d b038 39bd 11d8 4a3e d092 d03d
000003f0: a859 d73d dce4 5abc 47be 313e 0ec4 473d
0.0047964337 -0.0041702185 -0.030741815 -0.050553568 0.18840961 -0.088966526 0.12409097 -0.06986801
0.13109738 0.005250728 -0.011522524 0.038651027 0.11156492 0.09603735 0.06045558 0.030165397
0.030495511 0.08413092 0.0655075 0.040945932 0.18787156 0.02570999 0.055181436 0.1570394
0.063699074 0.067432225 0.06254574 0.08617057 -0.0010558809 -0.011630049 -0.069418296 -0.004522561
0.1793709 -0.004392028 0.06362311 0.05104851 -0.014994162 0.06796435 -0.080432124 0.2536205
0.2265896 -0.026331455 0.117470875 0.14406678 -0.09119705 0.0032774035 0.07469632 -0.06977191
0.14281484 0.110906646 0.2252637 -0.0480897 0.13848253 0.05760779 0.17716002 -0.039247245
0.07467919 0.12163474 0.13791108 -0.10281482 0.20458579 -0.0684479 -0.029472662 0.16083838
0.19919303 0.099693894 0.18478125 0.12614512 0.08126307 0.084828995 0.020395312 0.09314608
0.051815715 0.11151834 0.09194053 -0.0029636284 0.13600363 0.047353975 0.18552934 -0.032893565
-0.07072644 -0.04477592 -0.017256262 0.20843412 0.23444451 -0.07488992 0.17489226 0.12156905
0.054399576 0.051446494 -0.0226841 -0.14933889 0.044599146 -0.032977555 0.12076687 -0.007741472
0.029480247 0.08472326 0.11774582 0.07360216 0.09084057 0.072830185 -0.044015884 0.048272874
0.07448697 0.10762224 0.20827395 0.10427894 0.13339382 -0.049337722 0.2071332 0.0067848684
0.09126571 0.05075503 0.11332081 0.037644338 0.12449949 0.03510599 0.21171604 0.0144739095
0.122635245 -0.025044423 0.08297646 -0.09185562 0.06125666 -0.037840128 0.11998895 0.012297596
0.16643299 0.056172468 -0.2019728 -0.13820107 0.08874922 -0.001608231 0.11726517 0.05443481
-0.14288034 -0.10482919 -0.1254836 0.05789242 -0.008863162 -0.1484943 -0.14421958 -0.22069782
0.13550709 -0.16829263 -0.08607836 -0.08930107 0.06432985 0.033724163 -0.108635455 -0.06841495
0.020544412 0.1792453 -0.12202944 0.006146032 0.043001167 -0.10515747 -0.05269327 0.046824392
-0.050135624 -0.102241084 -0.22363156 0.1328202 -0.0029209605 0.021815782 0.018186362 0.058465213
0.22117253 0.1196542 0.15666965 -0.15046312 0.038118638 -0.014452235 0.123375654 0.10702194
-0.11060848 -0.10827077 -0.21572807 0.1179923 0.10177552 -0.08826633 0.05586302 -0.15397161
-0.11827543 -0.13148952 -0.01729252 -0.03145632 0.049602117 0.04318806 -0.1770339 0.044281345
0.00062972767 0.19032371 0.036079098 0.07007921 0.12691098 0.008620532 0.20027924 -0.06687131
0.1573596 0.007430034 0.14420755 -0.030142905 0.012088461 0.21256372 0.110452466 0.06276688
0.08292778 0.16907102 0.086973675 0.06284624 0.111387715 -0.11022558 0.038043305 -0.039096355
0.010385139 0.05843958 -0.0050191022 -0.012429086 0.13220036 0.097981125 0.13727093 0.02417993
-0.034880064 0.19679144 0.15685289 0.18675348 -0.11420172 -0.023263492 0.033133037 0.16473004
0.14134155 -0.082455665 -0.032142673 0.07556626 -0.07060093 -0.040309556 0.024797626 -0.055927888
0.04437275 0.24750312 0.12149546 -0.037943702 0.11240865 0.15917754 0.083679646 -0.070182055
0.033034604 -0.045220077 0.19808985 0.10184252 0.105151474 -0.013360228 0.17357741 0.048770957

bias_hh_l0 f4 [256]
00000000: 7bff ae3c bd26 8dbc ba3c 5b3e fb06 a0bc
00000010: 85cf 463e da26 303d d96e bc3c 5fee d53c
00000020: 3efa 533c 779d d23d 547b 093e a8c9 8c3c
00000030: bb36 473e 6929 5d3d 5959 203e 50c7 80bd
00000040: b7de 763c 0c8e 133c 25ce 2e3d f09f 003e
00000050: ce11 5f3e f3bf 21bd d60a 763e 7ac2 9f3d
00000060: 1bf1 33bd 5497 1f3e d9d9 913d 0a6e b43d
00000070: f17b 413c ab72 083e 3ed7 9b3d 9c53 243d
00000080: b7df 1c3e ceda 273d cea9 523e a7e7 423e
00000090: fc77 c4bd dd7f 6bbd 68eb 943d 7edd 203d
000000a0: c8fa f53d e8ac d23c 3df3 013e cefe af3d
000000b0: 1608 bc3d 7bc0 8abd 13be 033e 8152 e3bc
000000c0: cd56 16bd 5395 373e 4f03 a93d d13a f43d
000000d0: 98a0 f43b 5957 6f3e 96c0 483e af1a b03d
000000e0: 11b5 6d3e 0279 ac3d f698 063e b362 a33d
000000f0: ae81 c53d 2695 13be 098d 203c 4277 333e
00000100: 4cba 4c3d e380 453d b517 123d 866e 9c3d
00000110: be1d 083e 5ccb 3dbd 66a5 7f3e 2784 2fbd
00000120: 84ba b43d f925 143e 62b9 423e a33d 06bd
00000130: 43ff f53d a409 ff3c 3ec5 093d 159e 783d
00000140: 8e7b 2cbd c5c1 89bd c4ed bdbd 1c7a 203e
00000150: d21d 9d3d 9669 683d 77a5 d23c 4036 273e
00000160: 6038 b7bc 877a ed3d 9b53 173e 60cf a73d
00000170: edf2 b73d 6e34 01bc 1334 b03d eb8d 793d
00000180: 91d8 55bc 4652 063e 3a8c 093e ef1b 003e
00000190: c5fd b7bd b04e a13d 87e3 013d 190c ab3d
000001a0: aede 6d3c ab6e a83d 1e2a 233e 4427 953c
000001b0: 1e9f b93d db3c 5dbc c10f 12bd c37d 753d
000001c0: cb11 523d 2912 393e 66fe dd3d 487a b3bd
000001d0: c899 9ebb c1d2 0e3e 4a00 933e 076b 4fbd
000001e0: 597d 7b3e 5bc2 8e3d cc95 24bd f75a ddbd
000001f0: a5dd a83d d464 aa3c 114c 0b3e bc17 383c
00000200: 8a54 133e b7b8 2f3e 7b2c adbd 05cf 52bb
00000210: 8ae5 273e 0baf 86bc 3a1c 953d df2d e03d
00000220: 6544 bcbd 4a79 59bd 76d1 e63b b4fa 613d
00000230: dc9f 34be 4082 6d3c 3e08 1cbe 225e a23b
00000240: f752 8d3d 99cc 31be 0ce6 84bd a7d3 50bd
00000250: cf58 5b3d facb c03d 65f2 0cbe a866 04be
00000260: 179a e23c bee1 4cbb 95a4 1f3c ee6c 8fbd
00000270: bf8c d73d 33a9 cebd 7f48 19be 7509 a93d
00000280: 0f2c bbbd 48cc a6bd 0079 65bd f978 343e
00000290: b336 cd3c d16c cf3c 5c96 3cbd 644d 1c3e
000002a0: a091 343d b0ed 86bc a050 1a3e 7e52 53be
000002b0: 6d51 35be 1fcd ec3d bd7e 083e 9be6 2dbd
000002c0: 6c32 9bbc 6dd6 39be c655 bbbd 4b71 023c
000002d0: e863 183d d3f7 01be a0f4 4d3e 434d 703c
000002e0: c265 5bbd 93fe 953d 846e 273e c518 403c
000002f0: d2ec 113e 6e6b d83c 980a 36be b48c f33c
00000300: 0504 4f3e c18c 2e3d a322 0b3e b903 d33b
00000310: b4e9 793e 8ed9 ef3c f573 2d3e ab36 96bd
00000320: 526b 153e 5606 383e e642 883d 9eb3 40bd
00000330: af72 4c3e f687 903c 1bad 0a3e ee26 bdbd
00000340: cb90 4bbd 1e14 463d 3a76 de3d bcdc 473e
00000350: 5c96 1a3d fa17 c6bd be20 593e 2484 4d3b
00000360: b3a9 94bd 7111 9a3d e969 333c 5d7f bebc
00000370: 87f6 df3d 304a f93c 5357 b73d 581f 0e3e
00000380: 0ff8 253c be68 d53c ecfd db3c 6af7 6a3e
00000390: b5b1 bdbd e7ac c5bd 525b f73c 9be9 eb3d
000003a0: afb6 cc3d 671b 603d e9e6 5a3e 8dc8 143e
000003b0: f2ae 3cbd e82e 743d 0431 263e 4c85 cd3d
000003c0: afbb 173d c19b 783e b62e 083d 6487 443d
000003d0: 3456 9b3d f69d 783e 033f 493e 8bf7 273d
000003e0: 3b57 843e 422c 8a3d 251d 333e c8df 0abe
000003f0: 69ab 603e 0218 22be e146 f03c e88f da3c
0.021362057 -0.017230386 0.21409884 -0.019534579 0.194151 0.0430058 0.023002075 0.02611464
0.01293808 0.1028394 0.13425952 0.017186001 0.19454472 0.05399457 0.15659083 -0.06288016
0.015067748 0.009006035 0.042677063 0.12561011 0.21784136 -0.039489698 0.24027571 0.07800765
-0.043931108 0.15585071 0.07121629 0.08810051 0.011809335 0.13324992 0.076094136 0.0401188
0.15319715 0.040980153 0.20572588 0.19033681 -0.09593198 -0.057494987 0.07271463 0.03927373
0.12010723 0.025717214 0.12690444 0.08593522 0.0918123 -0.06774994 0.12865476 -0.027749302
-0.036703873 0.17928056 0.08252584 0.11925281 0.0074654333 0.23373164 0.19604716 0.085988395
0.23213603 0.08421518 0.13144287 0.0797781 0.09643875 -0.14412364 0.00979925 0.17525962
0.049982354 0.04821862 0.03566714 0.07638268 0.13292596 -0.046336517 0.24965438 -0.04285064
0.088246375 0.1446761 0.1901603 -0.032773625 0.12011578 0.031132527 0.03363537 0.060697634
-0.04211002 -0.06726412 -0.09273866 0.15671581 0.076717034 0.05674132 0.025713665 0.16329288
-0.022365749 0.11595636 0.14777987 0.081938505 0.08981881 -0.007886035 0.08603682 0.06092636
-0.013052122 0.13117322 0.13432398 0.12510656 -0.089839496 0.078763366 0.031711128 0.08351917
0.014518423 0.08224233 0.15934035 0.0182072 0.09063552 -0.013503279 -0.035659555 0.05993439
0.0512865 0.18073334 0.10839538 -0.08763558 -0.0048401095 0.13947584 0.28711158 -0.05063918
0.24559535 0.06970664 -0.04018192 -0.10808366 0.082454 0.020800032 0.13603236 0.0112361275
0.14387718 0.17160307 -0.084557496 -0.003216685 0.16396156 -0.016440889 0.072807744 0.10946249
-0.09192733 -0.053094186 0.0070440127 0.05517073 -0.17639107 0.014496386 -0.15237519 0.004955069
0.0690059 -0.17363204 -0.064891905 -0.050983097 0.05355149 0.094139054 -0.13764341 -0.12929785
0.027661366 -0.0031262483 0.009743829 -0.070031986 0.10524892 -0.10090866 -0.14969061 0.08253757
-0.09139263 -0.08144432 -0.056023598 0.17624272 0.025050497 0.025320442 -0.04604183 0.15263897
0.04408419 -0.01647076 0.15069818 -0.20636937 -0.17706843 0.11562561 0.13329597 -0.04245625
-0.018944941 -0.18148203 -0.09147219 0.007961581 0.037204653 -0.12692194 0.20112848 0.014666858
-0.05356384 0.07323947 0.16350752 0.0117246555 0.14250496 0.026418414 -0.17777479 0.029730178
0.20216377 0.042614702 0.13587432 0.0064396528 0.24405557 0.029278543 0.16938765 -0.07334646
0.1459172 0.17971167 0.06653385 -0.047046296 0.19965623 0.017642956 0.13542597 -0.09235941
-0.049698632 0.04835903 0.10862394 0.19517797 0.03774105 -0.09672542 0.21203896 0.003135928
-0.0725893 0.07522858 0.010950544 -0.02325409 0.10935693 0.030430883 0.08952203 0.13879144
0.010129943 0.026050922 0.026854478 0.22945943 -0.092624106 -0.09652119 0.030194912 0.11519166
0.09995782 0.054713633 0.21377148 0.14529629 -0.04606528 0.059615046 0.16229635 0.1003519
0.037044223 0.24278165 0.033247672 0.04798068 0.07584801 0.24279007 0.19652943 0.04100756
0.25847802 0.06746723 0.17491587 -0.13561928 0.21940388 -0.15829471 0.029330673 0.026679948

weight_ih_l1 f4 [256, 64]
00000000: 92b9 823d f214 6b3d 5a2c 32be ee8f 143d
00000010: d343 5c3e 0e4f 91bd d091 843d 0b48 39bd
00000020: 81bf 74bd e05c 1e3b 55ba c8bc 308a 9e3d
00000030: 0581 e4bd fd52 96bd 7ec0 35be 2b08 c93c
00000040: 8f81 62bd 858c 52be fd1b 41bc 5fe1 25be
00000050: fe9a 0b3e 1046 10bd eb3f 57be 2c45 243d
00000060: 0cb5 323d dc4e 063e 577c 1ebe 8d5a 7e3c
00000070: 853e 2c3c ed73 21bc 0f24 fa3c 7605 ce3d
00000080: deff 4b3d e08f 94bc e538 d1bd 3588 5f3e
00000090: 5a69 713d ebe8 b33d 0bee 67bc 1094 ea3d
000000a0: 4ee9 213e 2f9e 163e 35b6 833d 7e26 fcbd
000000b0: 3abb babd 82d7 343d dadd 6d3e e577 143d
000000c0: 62cb 13be 0b67 abbe 759c 8fbc c49c 2c3d
000000d0: bdc3 db3d 5744 4fbe 3c5d ab3d 2a65 8bbd
000000e0: dc2e 40be 6564 33bd e7aa 473e 1be2 a6bb
000000f0: f4d4 c3bb 456e da3d 5e61 453d 179a 6d3e
00000100: 89cf 043e 7892 823e 6ab7 85be cb51 f53d
00000110: 8816 4ebc b327 b73b 6021 ec3c 3120 edbd
00000120: f476 d5bd c202 eabd eba4 a3bd 693c a6bd
00000130: 3682 86be 0564 dabd f693 b4bd 7bd4 edbd
00000140: 7573 7dbd a253 02be f836 89bd ef65 e3bc
00000150: c45e 1ebd 6afa ee3c 861f febd fc74 a13c
00000160: 2d55 bf3d 5798 8f3d d514 eabc da2e 4ebe
00000170: 357a ec3c 7ccb 98bd 1bed a2bd a6ab 1ebc
00000180: 2d6c 373d 21bd 6abd 461a 7ebe 4345 233e
00000190: e0f2 9ebd b8e2 043e db7b 643d a100 73bc
000001a0: 31a4 613e a26d 663d 6bbe 213d e9c5 32be
000001b0: 129e 67bd bb4a 4e3d 1215 983d 555c 943c
000001c0: 56f6 9fbd 67af 57be 0f4d 81bb 3edc 98bd
000001d0: 46cf 37bd 074f 5fbd 3421 6a3e 15dc febd
000001e0: cec3 54be ece0 c33d 7b95 19b8 09fa 8e3d
000001f0: 299f 0c3e 370f c4bb 8e70 853d 0558 663e
00000200: f78b 933e e377 193e 2aff 33be 3dd0 de3d
00000210: cea5 673d 1555 0bbd 0679 373d c8e4 1fbd
00000220: 6a0f 253d 720b 8fbd 6520 813d ffce 023e
00000230: 762a 01be 8312 6a3d e68a 6abd e7d3 98bd
00000240: 334e 063e 0c4c 4cbe 3252 943c ed01 dfbd
00000250: 3507 f43d 3c22 84bd 5f69 80bd ba46 b7bc
00000260: 1d7c f53d 70c4 6d3d 1028 683c 2423 b3bc
00000270: b5f0 243d 1c4b d8bd cf12 d0bd 094d cb3d
00000280: 0248 aabd febe 0dbe 6f03 aabd 1f28 6a3e
00000290: 1424 993d dba7 39bd a17a 6c36 8035 da3d
000002a0: 0a52 6c3e 667f 2f3b 2abe 0dbd 4403 d4bd
000002b0: 9ba9 c53c b86a 3f3e e197 7a3e cf2f 973a
000002c0: 0f25 bdbd f688 13be 2270 33be ee8e c23c
000002d0: 79a2 26bd 2907 a6bc d414 b23d 4e32 babd
000002e0: a33b 43be 9171 473c 5f34 ab3d 49fb 15be
000002f0: 9b3e 013e 70f2 9abd 6355 57be 41ae b83d
00000300: 24ce 243e db4f 4b3e 943f 19be 9650 a4ba
00000310: 80f7 b03d 4f35 12be c6ad 703d 5784 d4bd
00000320: c55e 4eba 3c0a bbbd 3ded 27ba fa4a 06be
00000330: 7723 37bd 07ac b43d 0ca6 0cbe 3552 b93d
00000340: 70ca 473d 2150 afbc c57d 843d dec7 e7bc
00000350: 8d66 c43d a17e 053e 3707 13be bb23 3ebc
00000360: e718 323d 941b 163e 47ad e3bd 26b9 19bd
00000370: 367d 4f3a 3e4f 87bd 8c35 32bd f4f8 a53d
00000380: c5e1 a13d 8b20 14be 6bc6 76be b9e0 0a3d
00000390: 0c91 42bd a3c1 0abd fb9f 8d3c 4718 553e
000003a0: dcac 5d3e adfc 903d 8dd7 89bc fd42 86bd
000003b0: 8911 64bd 5cdd cdbb 6a6b 8a3e e7ea 63bd
000003c0: c30a b63d 0399 71be 243e 723d 7e3d e4bd
000003d0: 76e4 cbbd fbd9 5f3c f164 4a3e cae5 07be
000003e0: c6de 38be 36e7 4ebd d73d fabb 4627 a7bd
000003f0: 45b7 0a3e f10d a63c cb8b 9ebc 20c7 a33d
0.06383051 0.057393022 -0.17399731 0.036270075 0.21510248 -0.070951566 0.06473124 -0.04523472
-0.059752945 0.0024164245 -0.024502913 0.07741201 -0.11157421 -0.073400475 -0.17749211 0.024540028
-0.055299338 -0.20561416 -0.011786458 -0.16199253 0.13633344 -0.035223067 -0.21020477 0.04010503
0.04362969 0.1311602 -0.1547712 0.015524519 0.010512953 -0.009854299 0.030534772 0.10059635
0.04980456 -0.018135011 -0.1021593 0.21829303 0.05893836 0.0878466 -0.014155875 0.11454022
0.15811655 0.1470878 0.064312376 -0.12312029 -0.09117742 0.044150837 0.23229161 0.036247153
-0.14433053 -0.33477053 -0.01753066 0.04214169 0.107306935 -0.20240913 0.083673924 -0.06806405
-0.18767875 -0.043796916 0.19498788 -0.005092872 -0.0059763137 0.106655635 0.04818856 0.23203312
0.12969793 0.25502372 -0.26116496 0.119784914 -0.012578614 0.0055894493 0.028824508 -0.11578406
-0.10423079 -0.11426307 -0.0799044 -0.08116991 -0.26271218 -0.106636085 -0.08817284 -0.11612793
-0.061877687 -0.12727216 -0.066999376 -0.027758567 -0.038664594 0.029172141 -0.12408356 0.019709103
0.09342418 0.070114784 -0.028574387 -0.2013506 0.028866867 -0.074606866 -0.079553805 -0.009684479
0.0447809 -0.057309274 -0.2481471 0.1594439 -0.077611685 0.12977111 0.05578218 -0.014831693
0.2203529 0.056256898 0.039488237 -0.17458309 -0.056547232 0.050364237 0.07425894 0.018110434
-0.07810657 -0.21063004 -0.0039459537 -0.07463883 -0.044875406 -0.054518726 0.22864228 -0.12444321
-0.20777819 0.09564385 -3.6617257e-05 0.06981284 0.1373259 -0.005983259 0.06515609 0.22494514
0.28817722 0.1498714 -0.17577806 0.10879562 0.056554608 -0.034016687 0.04479315 -0.039036542
0.040297903 -0.06984605 0.06305007 0.12774275 -0.12613854 0.05714656 -0.05726137 -0.07462292
0.13115768 -0.19950885 0.0181056 -0.10889039 0.11915437 -0.06451842 -0.06270098 -0.022372592
0.11986563 0.058048666 0.014169708 -0.021867342 0.04026862 -0.10561201 -0.101598375 0.09926803
-0.08314516 -0.13842389 -0.08301436 0.22866867 0.074775845 -0.045326095 3.523812e-06 0.106547356
0.2307817 0.0026778816 -0.034605183 -0.10352185 0.024128726 0.18693054 0.24472 0.0011534634
-0.09235584 -0.14407715 -0.17523244 0.023749795 -0.04068229 -0.020267086 0.08695379 -0.09091626
-0.19065718 0.012173072 0.08359598 -0.14646639 0.12621538 -0.075657725 -0.21028666 0.09017611
0.16094261 0.19854681 -0.1496566 -0.0012536224 0.08640957 -0.14278148 0.058759473 -0.10376804
-0.0007872398 -0.091328114 -0.00064058957 -0.13114539 -0.044711556 0.08821874 -0.13735217 0.09048883
0.048777044 -0.021400513 0.06469301 -0.028293546 0.095898725 0.13036586 -0.14358221 -0.0116051985
0.04348078 0.14658958 -0.111170344 -0.037530087 0.0007915081 -0.06606911 -0.043508098 0.08104125
0.0790439 -0.14465539 -0.24099128 0.03390572 -0.04750161 -0.033876073 0.017288199 0.20810042
0.21647972 0.07079444 -0.016826415 -0.06555746 -0.055680785 -0.0062824916 0.27035075 -0.055643942
0.088887714 -0.23593526 0.059141293 -0.11144541 -0.09955685 0.01366281 0.19765069 -0.13271251
-0.18053731 -0.05051347 -0.0076367664 -0.08161788 0.13546474 0.02027032 -0.019353768 0.079969645

weight_hh_l1 f4 [256, 64]
00000000: 766d b6bd 0e9a 3f3e b630 0bbb ffa8 09bd
00000010: ca70 9c3d 424c 3fbe 1826 0b3e 0a74 1e3e
00000020: 8452 55bd e56b 09be aabc ccbd 3cf5 333d
00000030: 26c2 dc3d 9aaf 04be 1024 4dbc 4a89 d0bd
00000040: 896f 863c 806d bdbd e90b 94bd dad5 a13c
00000050: 1052 4a3d f860 ae3a 07db 9a3b c013 55bd
00000060: fb90 5cbb 7732 313d 3a6b b7bd 838a 963c
00000070: c205 edba 0c08 473d 92d5 5cbd 9ab4 d8bd
00000080: 8ca8 da3d 41b1 15bd 425d 97bd f81f d83d
00000090: 6e4a 0cbd 5de0 133e 8a51 a83d 4bcb 373e
000000a0: 7914 49be 6eb4 6b3d 0081 673e e4c7 c13c
000000b0: 999f f63c baed 253e f8e1 b43c 7af1 88bd
000000c0: 3c32 0ebe c159 463d 1968 063c e46c c2bd
000000d0: 82da 093e 0b43 1f3e b106 383d 9c8e b23c
000000e0: 5d71 913d a8db 2ebe 60e8 35be 48a0 5cbd
000000f0: 9428 43bd f4ab 6ebe 2b9a 1a3e 3042 8cbb
00000100: fdaa 2ebd 1d88 1e3e 3869 32bd d2d7 db3c
00000110: 7d40 2d3e 53a3 d2bd d407 6e3e 3949 0e3c
00000120: 2110 043d f049 0fbe 19f1 b4bd 3540 2cbd
00000130: 5c0a b83d c1a5 3bbe 3cc7 643c 2f36 b1bd
00000140: 2680 0d3e 22d9 67bc e6cf e53d 206e 19be
00000150: c553 13bd c2b9 1dbc e507 93bd ed6f d63d
00000160: b1c4 09be a01c 413d 76ab 003d 2b2c 243e
00000170: 9463 1f3e f773 01be 19c5 fcbd b858 57be
00000180: 98df 253e e96a 113e 34a0 73bd 528c 343e
00000190: 88d3 96bc 030a da3d 49f5 0c3e 4582 58bc
000001a0: b474 a2bd cd43 473c 70a2 6f3c 31da dcbd
000001b0: a92a 063d 0551 313c bb79 7a3c 783a 933d
000001c0: c9b5 01be 80fd cbbd 093b 13be ebc0 47be
000001d0: 5381 f03d 7df1 ee3c 8b1a ddbd 3fba d8bb
000001e0: fbec e43b aacf 28be 8a18 80bd fd60 c3bd
000001f0: 2252 b4bd 09c2 4bbe e260 1f3e 4e6d e3bc
00000200: ca1e 75be 8bab 013e 3aae 1ebe cd77 4e3d
00000210: a24e f03d 6f1d 35be 745b 853d ee41 bf3d
00000220: f091 36be ce3e cfbd d0ca 193e bbf8 943c
00000230: f8c5 363d 1663 45bd d109 bb3d 9cd0 b1bd
00000240: 90c2 bd3d 6135 9dbd e4dd 8f3d 019e b5bc
00000250: f89c 2fbe 1700 1bbe fa0e 4fbd 7c74 9bbd
00000260: 9e79 26be 0c0f fc3d 5847 08bd 688e d73d
00000270: 3e96 ae3d 1a96 00be 6899 ddbd b381 c93c
00000280: 3c72 1d3e 4242 023e b2e3 73bd 9f29 ae3d
00000290: 9471 2bbe d8d9 763c 4d01 6fbc 94c6 523c
000002a0: f21e 28be c87c 8abd a4dd f03d 5416 8ebd
000002b0: 9d62 22be 01d1 d23d 9528 15be 59af 14be
000002c0: 4883 c7bd b2bf a33d 486a 12bd 6500 5fbd
000002d0: 8337 b7bd a5b3 3e3e 8185 a5bc 2d84 1fbb
000002e0: 4268 7fbd 80dd a7bd 9fba 3bbe 4d49 893c
000002f0: 99da 54be eb73 a3bd 6c25 233e f900 013e
00000300: 789f 42be d264 be3d 31b4 96bd 9131 bf3d
00000310: ede2 73bd 6b1e fb3c 50a8 743e aa71 a6bd
00000320: b0ae 97bd 3d1c 56bd 8cc9 adbd 68e0 073d
00000330: a2a5 193e a1b4 9d3c e1dd 183d 8ff0 72be
00000340: 0547 843a e0da a8bc ae54 26bd cfed eabd
00000350: 768f b8bd d0a4 b13c 7efb 88bd e3b5 023c
00000360: f7ac 1abe 6e82 1dbc 1e71 8cbd 5d58 e23d
00000370: 5f9e 663c 97e1 e7bd e25a 81bd 6acc 85bd
00000380: c2cd e63d b472 1a3e d73a 19bd 909e c1bc
00000390: 45a9 f0bd 1e36 e53c 0dda 303e 4d0e 523e
000003a0: 201f 19bc 540b 79bc 7686 db3d 33d1 e8bd
000003b0: 1de9 36bc 47da 433d c7ff 84bd ea5d 7abd
000003c0: 6e7a 01be 6a2a 4fbc 3b9e 75bd fe8a 25bd
000003d0: 08d7 a7bd d2a6 203e 28d8 dd3d d367 603d
000003e0: e83d a73d 5189 ecbd 73ca 17bd 6e16 983d
000003f0: 5aee ef3c 1e9f 52be 77be 763c 6525 75bd
-0.08907597 0.18711111 -0.002123875 -0.033608433 0.076387 -0.18681434 0.1358875 0.15473953
-0.052080646 -0.13420065 -0.09996922 0.043935046 0.107792184 -0.12957612 -0.012520805 -0.10182436
0.016410606 -0.09249401 -0.07228834 0.019755293 0.049394667 0.0013304045 0.004725817 -0.05202079
-0.003365575 0.043261018 -0.08955999 0.018376594 -0.0018083381 0.04859166 -0.053914614 -0.10581322
0.10676679 -0.036545996 -0.073908344 0.105529726 -0.03425067 0.14441057 0.08218677 0.17948644
-0.19636716 0.057545118 0.22607803 0.023654886 0.030105399 0.16203967 0.022080407 -0.06686683
-0.1388635 0.04842544 0.00820353 -0.094934255 0.1346226 0.15552919 0.044928256 0.021796517
0.071017005 -0.1707598 -0.17764425 -0.053863794 -0.04764612 -0.23307782 0.15097873 -0.004280351
-0.042643536 0.1548161 -0.043557376 0.02683631 0.16919132 -0.10285058 0.23245174 0.00868445
0.032241944 -0.13993049 -0.08835048 -0.04205342 0.08986351 -0.18324949 0.013963517 -0.08652913
0.13818416 -0.01415089 0.11221294 -0.14983416 -0.03596856 -0.009626808 -0.0717924 0.10470567
-0.13453938 0.04714644 0.031413518 0.16032474 0.1556533 -0.12641893 -0.12342281 -0.21029937
0.16198575 0.14200939 -0.059478953 0.17631653 -0.018411413 0.10646441 0.13765444 -0.013214652
-0.079324156 0.012162161 0.01462613 -0.10783804 0.032755528 0.010822539 0.015287812 0.071888864
-0.12667002 -0.09960461 -0.14377989 -0.19507186 0.11743417 0.029167885 -0.10796078 -0.006613999
0.006986258 -0.16485468 -0.062546805 -0.095399834 -0.08804728 -0.19898237 0.15564302 -0.027762081
-0.23937526 0.12663095 -0.1549615 0.05040722 0.11733748 -0.1768701 0.06511584 0.09338747
-0.17829108 -0.10119401 0.15018773 0.01818501 0.04462239 -0.0481902 0.09132732 -0.08682367
0.092656255 -0.07676197 0.07024744 -0.022170069 -0.17149723 -0.15136753 -0.050551392 -0.07590577
-0.16257331 0.123075575 -0.033271164 0.10525209 0.0852475 -0.12557259 -0.108202755 0.024597978
0.15375608 0.12720588 -0.05954332 0.08504032 -0.16742545 0.015066586 -0.0145877125 0.0128647275
-0.16418055 -0.067620814 0.117610246 -0.069378525 -0.1585793 0.102937706 -0.14566262 -0.14520015
-0.09741837 0.07995547 -0.03574589 -0.054443736 -0.08946135 0.18623216 -0.020205261 -0.0024340258
-0.062355287 -0.08196545 -0.18332909 0.016758585 -0.20786513 -0.07981094 0.15932244 0.12598027
-0.19006145 0.09296574 -0.073585875 0.09335626 -0.059542585 0.030654153 0.23892331 -0.081271484
-0.07406366 -0.052273024 -0.08485708 0.033172995 0.1500459 0.01925117 0.037320975 -0.23724578
0.0010091966 -0.02061218 -0.0406081 -0.1147114 -0.09011738 0.021685034 -0.06688593 0.0079779355
-0.15105043 -0.009613616 -0.06857513 0.1105201 0.014075845 -0.11322325 -0.06316163 -0.065331295
0.11269714 0.15082818 -0.03740963 -0.023635179 -0.117510356 0.027979907 0.1727068 0.20513268
-0.0093458 -0.015200455 0.10719006 -0.113680266 -0.011163977 0.047815587 -0.06494098 -0.06112472
-0.1264436 -0.01264439 -0.059965353 -0.040415756 -0.08195311 0.15688637 0.10832244 0.054786514
0.081661046 -0.115496285 -0.037058305 0.07426153 0.02928846 -0.20568511 0.015060059 -0.059850115

bias_ih_l1 f4 [256]
00000000: bba6 1a3d bbb7 ed3c 7696 d5bc 131c 58bb
00000010: 0716 e83d d7ad d43b 476c 293e 0280 723d
00000020: 1fb6 213e 316a b13d b59f 18be 9623 15bd
00000030: bd0b c73d 3030 d53d 4e71 e63d ed4c 8d3d
00000040: 762a e5bd 3e00 553b b2cf 6cbd 9f50 bd3d
00000050: 4c0a 57bd 3f60 b4bc d19d 9f3d 70c5 afbc
00000060: 2ec2 89bd 25b8 863d 844b 4a3d f3d1 a7bd
00000070: 7bc7 a0bd 8886 083e 650a 853d da2c 47bd
00000080: 73d3 b7bd a7e7 0c3e 29a7 c63d ca43 13bb
00000090: 548b a63c 954d ce3c 9a11 903d dbe6 ab3b
000000a0: b05b 2bbd 7535 933d 3ef0 91bd d888 ddbb
000000b0: 6c1a 233e 3eba a63d f2cc a23c 6520 813d
000000c0: cf80 f13d 1d81 233d e6db e23d f14f f03d
000000d0: 2f16 24be 4859 143d 51a0 93bd 308d eabc
000000e0: 5135 8ebd 557c 1dbd 306e 4a3c 3e68 9ebd
000000f0: 9e62 a5bb 2642 ff3d c492 86bd c0ee 9dbd
00000100: 0d78 943d 6e29 843c 57a9 b13d 7f64 ddbd
00000110: aa37 063e b55b 7b3d 778d 9a3d 8f17 b3bd
00000120: 4a15 3d3e 5351 a83d 4e6f 813d 98c3 b2bd
00000130: 8dbb 013e 1fc4 a5bc 37dd da3d 612a 153e
00000140: d25f a4bd 323a a73d 1e4e 073e 253d 263d
00000150: 0700 033e 1122 01be 2994 1b3d 169d 6c3c
00000160: c367 733c 3e03 133d 190c 83bd 1839 fbbb
00000170: cf1c acbd 5ba0 923d 4f64 493b a27b e23d
00000180: 5e94 c33d f137 e93c b856 463d d5c2 c3bb
00000190: f4c6 be3d dcc0 6e3d 193a b8bd 610e 1f3c
000001a0: 44aa 23bd 85f1 64bd 28ae 07be 6d8e f83c
000001b0: b3ce 173e 4483 bb3c fe05 b43d aad6 30bd
000001c0: 34b3 bd3d bbc9 ebbd 4618 033d 6701 c0bc
000001d0: bac0 0bbe 68ce 12bd 95f2 8c3d 2eda b5bd
000001e0: 1d60 063e 3f85 cabc 7d99 00bd 34e6 463d
000001f0: c756 09bd 0eab 313e 6629 643d 0ad4 603d
00000200: f580 cebd 7a07 f63d 19f9 c33c 0a5d ae3d
00000210: e4ea 2c3e 34dc 58bd b427 cfbc 3cef 10ba
00000220: 56cc b6bd b51f fbbd 4f32 2dbd 0386 1f3c
00000230: b474 1f3e 7ee6 e7bd 2443 08bb d891 95bd
00000240: 486d 193c 0b2d 15be 1666 a23d e7a2 38bd
00000250: ea41 0cbe 6276 58b9 3007 dd3c 7c31 11bc
00000260: 2991 13be 0460 b43d 551a 46bd 7944 f93d
00000270: 5c36 ea3d eafe 49bd d7d3 e23c e617 0cbe
00000280: 3574 b83d 7bd3 e13d 0ba4 22bc ae9f 043d
00000290: 5b08 93bd 17ac f63d 4f82 9c3c 9e47 0f3e
000002a0: c6a6 6fbd 7948 433d 6d22 9abc 6f97 7f3c
000002b0: d5ac 6dbd 973d 213e 0c54 ccbd e9b6 e1bd
000002c0: 0d09 01be ac84 1ebc ce51 4ebc b9a1 40bd
000002d0: edd0 a83d 3c08 273b e277 163c d4df d4bc
000002e0: e5da d23d 057c 83bc 35e5 483d 86a7 013e
000002f0: 363e b1bd 78f2 4a3c 64e7 2a3e 9eda 07bd
00000300: 3509 a73d 5dac bfbd f254 173e 0cd4 45bd
00000310: ee88 1e3e dc78 16bd 5aff 2d3e 1364 47bd
00000320: a619 bd3d 0497 173e bde5 acbc 8a17 98bd
00000330: f67f 363d b8a3 8f3c 66b0 77bd e253 d5bc
00000340: d4be 26bd 89e5 903d 2364 8bbd 2bf3 2cbc
00000350: c918 483c 07d0 483d e672 ed3d 3e7f 57bd
00000360: 996e 673d abff 85bd 9874 363d 772b c8bd
00000370: 3046 ed3d f2e6 d73d 34b1 ddbc ef38 193e
00000380: 8518 98bd a0dd 2ebc 2b84 c03d c800 e7bc
00000390: e71d 7d3c 0260 fc3a 787f 323e ae1b 1b3d
000003a0: f159 06be 28e0 0e3e 7fd1 aebd adca 093b
000003b0: 6702 1bbd ca99 aabd 3084 563d 25b4 23bd
000003c0: 85f8 e93d eb3e 1dbe f956 c23d 2d46 b43c
000003d0: fa06 a73d 4701 85bb 81ce 9fbb b8c2 98bd
000003e0: d440 c43d f698 8dbd 258a c73d e297 0c3d
000003f0: b981 d63d ac19 973d be7a fbbc 9610 15bd
0.037756663 0.029018274 -0.026072722 -0.0032975718 0.113323264 0.00649045 0.16545211 0.05920411
0.1579213 0.086628325 -0.14904673 -0.03641089 0.09719036 0.10409582 0.1125208 0.06899438
-0.111897394 0.0032501365 -0.05781526 0.09243893 -0.052500054 -0.02201855 0.07793773 -0.02145645
-0.0672649 0.065780915 0.049388424 -0.081943415 -0.07850548 0.1333257 0.06496123 -0.04862676
-0.089758776 0.13760243 0.09699852 -0.0022470825 0.020330109 0.025183478 0.07034607 0.005246026
-0.041835487 0.071879305 -0.07125901 -0.006760698 0.15928048 0.08140992 0.019873116 0.06305007
0.117921464 0.039918054 0.110770985 0.117339976 -0.16024087 0.036217958 -0.07208312 -0.028631777
-0.06943763 -0.03844865 0.012355372 -0.07734726 -0.0050471565 0.12463789 -0.06570962 -0.077115536
0.0724946 0.016133036 0.08674877 -0.10810184 0.13107172 0.061366756 0.075465135 -0.08744728
0.18465152 0.08218636 0.06320058 -0.08728713 0.12669201 -0.02023512 0.10686725 0.14566948
-0.08026089 0.08165397 0.13213393 0.040585656 0.12792979 -0.12610652 0.037983093 0.014441749
0.014856282 0.035891764 -0.06398792 -0.007666718 -0.08403932 0.07159492 0.0030729955 0.11058737
0.09549783 0.028469058 0.048422545 -0.0059741535 0.09315291 0.058289394 -0.08995456 0.009708018
-0.0399573 -0.055894393 -0.13250029 0.030341351 0.14824943 0.02288974 0.087902054 -0.04317347
0.09262696 -0.115130864 0.03200557 -0.023438169 -0.13647738 -0.035841376 0.06882206 -0.08879505
0.13122602 -0.02472174 -0.031396378 0.048559383 -0.033530023 0.17350408 0.055703543 0.054889716
-0.1008319 0.12013145 0.02392249 0.085138395 0.16886479 -0.052944377 -0.025287487 -0.0005528813
-0.08925693 -0.12261907 -0.042284306 0.009736541 0.15571862 -0.1132326 -0.0020791972 -0.07303208
0.009364434 -0.14567964 0.079296276 -0.04507723 -0.13697019 -0.00020643466 0.026980966 -0.008861896
-0.14410843 0.08807376 -0.048364956 0.12171263 0.114361495 -0.04931537 0.027688904 -0.13680992
0.0900654 0.11026665 -0.009926806 0.032378845 -0.07179328 0.12044542 0.019105105 0.13992164
-0.058508657 0.047676537 -0.018815244 0.015600069 -0.058026154 0.15746151 -0.09976968 -0.110212155
-0.12601109 -0.009675186 -0.012592746 -0.04702923 0.082429744 0.0025487086 0.009183856 -0.025985636
0.10295657 -0.016050348 0.049046714 0.12661561 -0.08654444 0.012386911 0.16689831 -0.033167474
0.08156053 -0.093590476 0.14778498 -0.048297927 0.15481922 -0.036736354 0.1699194 -0.048679423
0.09233408 0.14803702 -0.021105641 -0.07426365 0.044555627 0.017534122 -0.06047096 -0.026040975
-0.04070933 0.0707503 -0.06806209 -0.010556023 0.0122129405 0.049026515 0.11594181 -0.052611582
0.05650196 -0.065429054 0.044544786 -0.09773915 0.11585653 0.10542096 -0.027062036 0.14963125
-0.07426552 -0.010672957 0.09400209 -0.028198615 0.015449024 0.0019254687 0.17431438 0.037868194
-0.13120247 0.13952696 -0.08536052 0.0021025345 -0.037844088 -0.08330114 0.052372158 -0.03996672
0.114243545 -0.15356033 0.09489245 0.022006119 0.081556275 -0.00405899 -0.004876912 -0.07459015
0.095826775 -0.069139406 0.09743146 0.034324534 0.104739614 0.073779434 -0.030698176 -0.03639277

bias_hh_l1 f4 [256]
00000000: 7e91 02bd e6fc 58bd 21f0 1e3c 9acb b3bd
00000010: f1e5 89bd 8c76 c93c 2dd1 113d 48e2 0c3e
00000020: 97a8 173e d947 c13d ace2 36bc a3e3 48bd
00000030: b8a9 df3c 90b3 a53b 4ec4 9abd a197 ab3d
00000040: 5be9 673d 7099 183e aef9 fd3d db09 d1bc
00000050: e39a 293e 32b0 0cbe ee8a 333c c127 aabd
00000060: 7d01 7abc 8034 ffbc 0aae 40bd f4eb 3b3d
00000070: 6a0c 013e aebc af3d a030 af3c 1c63 4fbd
00000080: 6170 223d e807 ac3d 96ed 6dbd 729d 2b3d
00000090: 9f5e 803d 1eb8 883c 22d3 1c3e 7799 f23c
000000a0: b26a e63d a44e 2a3d 4ee8 063e e798 6a3d
000000b0: fdaf 503c a0cf 9ebd f357 0f3e efe8 823d
000000c0: f07f 0e3c 3108 ba3c 0130 c13d f601 373c
000000d0: 7762 3e3d c0bc 083e 1fed 57bc d40b 60bd
000000e0: 6310 95bd 90b7 b13d 5c08 6b3c b7e9 0fbd
000000f0: 50d1 83bd 8c17 ea3c e584 273e 2a52 673d
00000100: dd0b f3bc c7f9 0d3e 9dc2 d53d 311f 67bd
00000110: 1423 2abd cdc5 123d 9a7e 49bd 32a1 483d
00000120: d50b c7bc 270f df3c 8c41 bfbc ff2e 973d
00000130: bb7b 87bc 5916 e7bc 6766 f43d aaaf b2bc
00000140: dbd8 9c3d 263a fe3d 2387 7a3d 5b63 1c3e
00000150: 25cd 243d 97f8 4d3b 778d 0c3c 9b2a acbd
00000160: 54d7 0a3e 3158 c63d 3aa9 d43d a174 a6bd
00000170: bd14 c03d 064d d53d 817d 85bd 4d16 153e
00000180: 9a0f a3bd 2826 593d 325f 8b3d 0650 33bd
00000190: fd74 da3c ae1c 17be a9cb febc 855c e539
000001a0: e602 12bd e045 a63d 418e b5bd 35c5 b83d
000001b0: 364d 7ebd 828d b4bd 5b5f 91bb da06 db3c
000001c0: 78fe c53d d1c4 8cbc 2a68 adbc c138 e83b
000001d0: ec72 1abd 4c63 97bd 17ad c6bd 2022 6cbd
000001e0: 99f2 d83d c6c6 153e b363 ff3c 09dd e3bc
000001f0: 8f38 403d 54d8 bcbc 21b1 383e fa73 a4bd
00000200: ac37 4fbd 5611 54bd 53f1 dabd 4bbd 463d
00000210: 3c53 2a3e cd7c 16be 5093 223e c9e4 cd3d
00000220: aa11 83bc a5d7 e5bd 0696 0fbd 47f3 acbd
00000230: af69 a53d 22a8 8fbd 502f 033b 925c ccbd
00000240: 33a9 943d 7c72 01be 1b1a 0bbd 5336 6e3d
00000250: 6acf a3bd 9818 d2bc af1a 1ebe 1e94 dcbd
00000260: bb79 2abe c628 b53d c375 c3bd a559 93bc
00000270: b870 94bd 2701 fbbc de78 d6bd 263f 7e3c
00000280: 0055 093d ecd3 1a3d 87ba 31bd 8c63 453d
00000290: 282b 00be 9a3b 10bd 04f0 103e 3ac2 3abd
000002a0: 6fe4 9fbb b9b8 ed3d bbba 0c3e 4ba1 e8bd
000002b0: c512 0bbe c8e1 a7bc 79cd 0dbd 8bfe 2cbe
000002c0: 2ea8 19be 4c8d 9cbb eb32 03be 00cf bdbd
000002d0: b6e4 4d3d 2d0e 1e3e e43d 083d 059e 073e
000002e0: aec5 6c3d d370 febd 0989 0dbe 195d 6cbd
000002f0: 5bd7 1f3d 4127 00be 2bbd 6c3d 80a8 b33c
00000300: df06 383d 8131 26bd e039 cf3d 04b8 1dbd
00000310: abde a63c 6a2f bd3d 4553 a43d 7640 cebd
00000320: 0cde 73bd 8344 7e3b 4ba9 863c d2be cdbd
00000330: 7154 d83d 60b8 673d 2984 d83d bd9e 353d
00000340: 2099 3bbd 46ab b23d e9cd b2bd d417 22bd
00000350: 1615 283e a97f 02be 0072 8abd 4663 54bd
00000360: 4b11 8b3c bb50 af3d 5712 0c3c 06b6 19bd
00000370: f97e debd f033 c0bd e88d d9bb 60b2 d93d
00000380: c5a7 9fbc 3f9f 9abd 6136 f0bd 2ae8 05be
00000390: 8ad3 c23d 55e0 95bd 9002 373c 0df1 e8bc
000003a0: 46be 2dbb 8308 083e 8675 c73c 226e 2a3e
000003b0: e337 523d 634a 083e a412 10bd a42a 413d
000003c0: 3c00 5f3d f77c a1bd 84db ff3b e610 45bb
000003d0: 7f50 c83c 8a9c e23d dac0 7dbd 564e 9b3d
000003e0: 00b1 d33a 4c1a e0bc b4de 233e e3ec 283c
000003f0: 15da 543d 3a95 bebc 14ca 943d 2dc5 97bd
-0.031877033 -0.052975558 0.009700806 -0.08779068 -0.06733311 0.02459266 0.035599876 0.13758194
0.14810406 0.09437532 -0.011162441 -0.049045216 0.027302608 0.005056806 -0.075569734 0.0837853
0.05661903 0.14902282 0.12401138 -0.025517395 0.16562991 -0.13739088 0.010958416 -0.08308364
-0.015259144 -0.031152964 -0.047040977 0.04587932 0.12602392 0.0858091 0.02138549 -0.050631627
0.039657954 0.083999455 -0.058087908 0.0418982 0.062680475 0.016689356 0.15314916 0.029614193
0.11250819 0.041578904 0.13174555 0.057274725 0.012737271 -0.07754445 0.13998394 0.06392085
0.008697495 0.022708984 0.09432984 0.011169901 0.046480622 0.13353252 -0.013179093 -0.05469878
-0.07278516 0.0867759 0.014345255 -0.035134997 -0.064364076 0.028575681 0.16359289 0.056474842
-0.029668743 0.13864814 0.1043751 -0.05642623 -0.04153736 0.03583317 -0.049193002 0.048981853
-0.024297634 0.027228905 -0.023346685 0.07382011 -0.016538491 -0.028208898 0.11933594 -0.021812279
0.076585494 0.12413435 0.061164033 0.15272276 0.040234704 0.0031428689 0.00857865 -0.08406564
0.13558704 0.0968479 0.1038384 -0.08127714 0.093789555 0.10415082 -0.065180786 0.14559288
-0.0796196 0.053014904 0.068052664 -0.04377749 0.026667112 -0.14757034 -0.031102972 0.00043747216
-0.035647295 0.08118796 -0.088650234 0.09021989 -0.062085353 -0.08816053 -0.004436416 0.026736666
0.09667677 -0.017183693 -0.021167833 0.0070868437 -0.037707254 -0.07391986 -0.09700983 -0.05764973
0.10593147 0.14626607 0.03117547 -0.027815359 0.04692894 -0.023052372 0.1803632 -0.08029933
-0.050590202 -0.051774345 -0.1069056 0.048520368 0.16633314 -0.14696045 0.15876508 0.10053403
-0.015999634 -0.112227716 -0.035055183 -0.08444839 0.08076798 -0.07014491 0.0020017214 -0.09978594
0.07258835 -0.12641329 -0.033960443 0.058157276 -0.079985455 -0.025646493 -0.15439866 -0.107704386
-0.16647999 0.088456675 -0.09543946 -0.017987082 -0.07248062 -0.030640198 -0.10472272 0.015517985
0.033528328 0.03779976 -0.043390777 0.04819064 -0.12516463 -0.03521309 0.14154059 -0.045595385
-0.0048795263 0.11607499 0.13743107 -0.11358889 -0.13581379 -0.020493403 -0.034619782 -0.16893975
-0.15005562 -0.004777586 -0.12812392 -0.09267998 0.050266944 0.15435095 0.03326215 0.13243873
0.05780571 -0.12423863 -0.13821806 -0.057705972 0.03902374 -0.12514974 0.057797592 0.021930933
0.044928428 -0.040574554 0.10118461 -0.03850557 0.020369848 0.09237559 0.08023695 -0.10070889
-0.059537932 0.003879816 0.016438147 -0.10046162 0.10562981 0.056572318 0.105720825 0.044340838
-0.04580033 0.08724074 -0.087306805 -0.039573506 0.16414294 -0.12744011 -0.06760025 -0.051852487
0.01697602 0.0856032 0.008549294 -0.037527107 -0.10864062 -0.09384906 -0.006639231 0.106297255
-0.019489178 -0.07549905 -0.11729122 -0.13076845 0.09513004 -0.073181786 0.011170045 -0.028435254
-0.0026511117 0.13284497 0.024348032 0.16643575 0.05132283 0.13309626 -0.035174027 0.047159806
0.054443583 -0.07885163 0.0078081507 -0.0030069887 0.024452446 0.11065014 -0.061951496 0.07583301
0.0016150773 -0.02735629 0.16002923 0.010310384 0.05196579 -0.023264516 0.07265106 -0.07410655
